src/python/services/models/1000_episodes/dqn_1000.pt (torch, 438930 bytes, 6 tensors)

fc1.weight f4 [128, 684]
0	0xbde49bb0	-0.111625075
1	0x3d47dc58	0.04879412
2	0x3eecde22	0.46263224
3	0xbddaf051	-0.10690368
4	0x3dd17801	0.10227967
5	0x3e3907d4	0.18069392
6	0x3e0dec49	0.13859667
7	0x3e6d30c6	0.23163137
8	0xbe9f9eef	-0.31175944
9	0xbdf8a5c0	-0.12140989
10	0xbe93f610	-0.28898668
11	0x3f4d850a	0.80281126
12	0x3e6a495c	0.22879547
13	0xbe39d093	-0.18145971
14	0xbc254a97	-0.010088584
15	0x3e38ac94	0.18034583
16	0x3dbdb0f2	0.09262265
17	0x3e99791c	0.29975212
18	0x3d86d818	0.06584185
19	0x3f397bab	0.7245433
20	0x3e9a0ca8	0.3008778
21	0x3f2d3984	0.67665887
22	0x3dfdd7e4	0.123946935
23	0x3ceeff07	0.02917434
24	0x3e8ec512	0.27884728
25	0xbf26391f	-0.6493091
26	0x3d88634d	0.06659565
27	0xbf0324d1	-0.5122805
28	0xbe4508e9	-0.1924168
29	0xbebffa2c	-0.37495553
30	0xbd3a9151	-0.04554874
31	0x3c69a461	0.014260382
32	0x3ee9cab2	0.45662457
33	0x3ebd0447	0.36917326
34	0x3f281422	0.6565572
35	0x3f086db7	0.5329241
36	0x3f3b096d	0.7306126
37	0x3f18d5e6	0.59701383
38	0x3f461d4b	0.7738845
39	0x3e89f8a3	0.26947507
40	0x3e9c4f17	0.3052909
41	0x3e90adf3	0.28257713
42	0xbea1f2ca	-0.31630546
43	0xbd935c9a	-0.07195397
44	0xbe559004	-0.20855719
45	0x3cc8f632	0.024531458
46	0xbf156494	-0.58356595
47	0xbdc1a577	-0.09455388
48	0xbd2d30f2	-0.042283006
49	0x3e092c0a	0.13395706
50	0x3d59313a	0.05302546
51	0x3f37a753	0.7173969
52	0x3f8d13d0	1.1021671
53	0x3f5452ea	0.82939017
54	0x3f50f579	0.8162456
55	0x3f0a8f23	0.5412466
56	0x3ca1b565	0.019739816
57	0x3d9dd4d3	0.077066086
58	0x3eaa704e	0.33288807
59	0xb9f0b6d7	-0.00045912593
60	0xbddd3365	-0.10800818
61	0xbe5bc112	-0.21460369
62	0x3f10b0b3	0.5651962
63	0xbe8d504d	-0.27600327
64	0xbde88ae5	-0.11354617
65	0xbc4e5518	-0.01259353
66	0x3dafc681	0.085827835
67	0x3e94ed7b	0.29087433
68	0x3f130745	0.5743297
69	0x3f1f6336	0.6226076
70	0x3f21b488	0.63166094
71	0x3f07a453	0.52985114
72	0x3f218b12	0.6310283
73	0xbcac02fa	-0.020997513
74	0x3d6d6af0	0.05796331
75	0x3e931644	0.28727925
76	0xbc9b53b3	-0.01896081
77	0xbef7ee56	-0.48424023
78	0xbe53ac36	-0.20671162
79	0x3fd7b532	1.6852171
80	0xbe3e38a0	-0.18576288
81	0x3e478125	0.19482858
82	0x3e464708	0.19363034
83	0xbdc6b7d1	-0.09703029
84	0x3e664c77	0.22490107
85	0x3cefd5f9	0.029276835
86	0x3ea50462	0.32229906
87	0x3ede6603	0.43437204
88	0x3d990af6	0.07472794
89	0x3e142dea	0.1447064
90	0x3e7a083d	0.24417205
91	0x3df9ca8a	0.121968344
92	0x3e7426d6	0.2384294
93	0xbdf47270	-0.1193589
94	0x3e643189	0.22284521
95	0xbec475cb	-0.3837112
96	0xbeeee47a	-0.4665869
97	0xbf228eaa	-0.6349894
98	0xbe44eb0a	-0.19230285
99	0xbdffd47d	-0.12491701
100	0xbe0a52fe	-0.13508222
101	0xbe472676	-0.19448265
102	0xbf379194	-0.7170651
103	0x3eb009fe	0.34382623
104	0x3e84e231	0.2595382
105	0xbf32dade	-0.69865215
106	0xbf002d43	-0.50069064
107	0xbe9b1a2c	-0.30293405
108	0xbe39ca59	-0.18143596
109	0x3e64da1c	0.22348827
110	0xbea5e854	-0.32403815
111	0x3e4efd51	0.2021382
112	0xbeb34b27	-0.35018274
113	0x3f184cb0	0.59492016
114	0x3e8423f9	0.25808695
115	0x3d499b02	0.049220093
116	0x3d381390	0.04494053
117	0xbf145097	-0.5793547
118	0xbefb132c	-0.49038064
119	0xbeb537b0	-0.3539405
120	0x3dc11604	0.09428027
121	0x3e998d3d	0.2999057
122	0xbec8145a	-0.39078027
123	0xbe2296d0	-0.15877843
124	0xbc3225f6	-0.010873308
125	0xbcdbcdf0	-0.026831597
126	0x3ebd20f4	0.36939204
127	0x3eb40d97	0.35166618
128	0xbdcf8db5	-0.1013445
129	0xbdfbcf5e	-0.122954115
130	0xbf5ddd61	-0.8666592
131	0xbfa13642	-1.2594683
132	0xbdfa20ad	-0.12213264
133	0xbdcb8da1	-0.09939123
134	0x3df48b82	0.119406715
135	0x3e272ab9	0.16324891
136	0x3df938f9	0.1216907
137	0x3f2d777b	0.6776044
138	0x3f0e3053	0.55542487
139	0x3da9580f	0.08268749
140	0x3e0593ef	0.13044713
141	0xbda2c14f	-0.07947027
142	0x3d53bc0a	0.051693
143	0x3efbcc45	0.49179283
144	0xbe8c23ee	-0.27371162
145	0x3df8cea5	0.12148789
146	0xbe9d47d4	-0.30718863
147	0x3f6045c2	0.8760644
148	0x3e84d2b1	0.25941995
149	0xbe05baca	-0.13059536
150	0xbdf5ae36	-0.11996119
151	0xbfb302e1	-1.3985254
152	0xbf281a2c	-0.65664935
153	0x3ed343f8	0.41262794
154	0x3f30fd93	0.69136924
155	0x3ebcb857	0.3685939
156	0x3ec3aa65	0.38215938
157	0x3e8cfda9	0.27537277
158	0x3ef34ab6	0.47517937
159	0x3f324a39	0.69644505
160	0x3eea0524	0.45707047
161	0x3eac944b	0.3370689
162	0xbead37e9	-0.3383172
163	0xbd793e1f	-0.06085026
164	0xbf5f5f0e	-0.87254417
165	0xbf9552fd	-1.1665951
166	0xbe3c6491	-0.18397738
167	0xbda1d0c2	-0.079011455
168	0x3d2913e5	0.04127874
169	0xbd7bf44f	-0.061512288
170	0x3f15b422	0.58477986
171	0x3f27dc90	0.65570927
172	0x3f17bc16	0.5927137
173	0x3f18fc00	0.5975952
174	0x3edef61b	0.4354714
175	0x3f01f5d3	0.50765723
176	0x3f07c261	0.53030974
177	0x3eb17d5b	0.3466595
178	0xbe6e4c55	-0.23271306
179	0xbe61c0ea	-0.22046247
180	0xbeac5dca	-0.33665305
181	0x3f69121c	0.9104326
182	0xbd97e757	-0.074171714
183	0xbeaca1d9	-0.3371723
184	0xbd334f19	-0.043776605
185	0xbfa80143	-1.3125385
186	0xbf1d8019	-0.61523587
187	0xbdc3de70	-0.09563911
188	0x3e5e4899	0.21707381
189	0x3eac0f3d	0.33605376
190	0xbdd3cb6b	-0.10341533
191	0xbe47e756	-0.19521841
192	0x3eeeff9f	0.46679398
193	0x3f0d452f	0.5518369
194	0x3e98811a	0.29785997
195	0xbedcbac7	-0.4311125
196	0xbe7c6fde	-0.24652049
197	0xbeb5956a	-0.35465556
198	0x3f2aad70	0.66670895
199	0x3e8b5f19	0.2722099
200	0x3eadc0bf	0.33936116
201	0x3f050804	0.51965356
202	0x3ef311a8	0.47474408
203	0x3f0119c5	0.50429946
204	0xbe49ef8f	-0.1972029
205	0x3d7e3bc3	0.062068712
206	0xbc1ca292	-0.009560244
207	0xbe543b17	-0.20725666
208	0xbec1615b	-0.3776959
209	0xbc42146e	-0.011845691
210	0x3dda31d1	0.10654033
211	0xbe50c9b0	-0.20389438
212	0x3e457fa1	0.19286968
213	0x3dd706f9	0.10499377
214	0x3e0f2f7f	0.13982962
215	0x3ebdcb65	0.3706924
216	0x3edd6b8c	0.43246114
217	0xbda31f68	-0.07964975
218	0xbd2f1fd9	-0.04275498
219	0x3cec1c99	0.02882223
220	0xbd1f0453	-0.038822483
221	0x3dc60280	0.096684456
222	0x3e9ea688	0.30986428
223	0x3df30d0f	0.11867725
224	0x3d8fa9ee	0.070148334
225	0x3d660d1f	0.056164857
226	0x3e9e181e	0.30877775
227	0x3ea271c5	0.31727424
228	0x3eb01920	0.3439417
229	0xbefc20e2	-0.49243838
230	0xbed7b98d	-0.42133752
231	0xbea20924	-0.316476
232	0x3cf8e2cf	0.030381588
233	0xbe9ee7e1	-0.31036285
234	0x3ce24053	0.027618563
235	0xbca081a2	-0.019593064
236	0xbf1d124d	-0.6135605
237	0xbf1df1b7	-0.6169695
238	0x3f2a77b0	0.6658888
239	0x3f0ea2ef	0.55717367
240	0x3f0950da	0.53638995
241	0x3f2cadc7	0.67452663
242	0x3f830266	1.0235107
243	0x3e3de105	0.1854287
244	0x3d2ad686	0.04170849
245	0x3f16c650	0.5889635
246	0xbd8453e0	-0.064613104
247	0xbeb59984	-0.35468686
248	0xbf117a74	-0.56827474
249	0x3f8383bb	1.0274576
250	0xbe08ac77	-0.1334704
251	0xbda6b7c7	-0.081405215
252	0xbc8bd47a	-0.01706909
253	0x3de05f68	0.10955697
254	0x3e1c0eb1	0.1523998
255	0x3d4c4398	0.04986915

fc1.bias f4 [128]
0	0x3ea8e148	0.32984376
1	0x3eb15792	0.34637123
2	0xbddb932f	-0.107214324
3	0xbd446431	-0.047947112
4	0x3e923cc5	0.28561988
5	0x3bd3f107	0.0064679417
6	0x3c310b3b	0.0108059
7	0x3ec29faa	0.3801244
8	0xbd654b30	-0.055979908
9	0x3f8627b9	1.0480872
10	0xbc202f8c	-0.009776961
11	0x39f56841	0.00046807717
12	0xbd69af74	-0.05705209
13	0x3e5a30b6	0.21307644
14	0xbd428a0d	-0.047494937
15	0xbca473a5	-0.020074675
16	0x3eb6c028	0.3569348
17	0x3ca68c99	0.020330714
18	0x3f208484	0.627022
19	0x3b3b57fa	0.0028586374
20	0x3c5464ff	0.0129635325
21	0xbd8ae800	-0.06782532
22	0xbd1f91d2	-0.038957424
23	0xbb888cc2	-0.0041671703
24	0x3e474516	0.19459948
25	0x3e8547d6	0.2603137
26	0x3edb1870	0.42792082
27	0xbd3b415b	-0.045716625
28	0xbdef5752	-0.11686577
29	0x3e572fab	0.21014278
30	0x3e998ea7	0.29991648
31	0x3bb8735d	0.0056289867
32	0xbd2435ae	-0.040090255
33	0x3ab8ec91	0.0014108588
34	0x3c269cbe	0.010169206
35	0xbceb3c2c	-0.028715216
36	0x3e66d1de	0.22540995
37	0x3f5e62a8	0.8686929
38	0x3e680453	0.226579
39	0xbd065cd4	-0.03280337
40	0xbc44d8d5	-0.012014587
41	0xbd9fbb09	-0.07799346
42	0xbcd814a3	-0.026377028
43	0xbd96bf60	-0.07360721
44	0x3e6a6e6a	0.22893682
45	0xbc878dce	-0.01654711
46	0xbd39f581	-0.045400146
47	0xbd0b67ec	-0.034034654
48	0xbd530325	-0.05151667
49	0xbca3a563	-0.019976323
50	0xbdbfe211	-0.093692906
51	0xbd23f3b7	-0.040027346
52	0x3e29b417	0.16572605
53	0xbc1614f6	-0.009160271
54	0x3ebaccbd	0.36484328
55	0xbbaebf4f	-0.0053328644
56	0x3e1b2516	0.15150866
57	0x3e1e27e7	0.15444909
58	0x3ec084ad	0.37601224
59	0x3e0c8b92	0.13725117
60	0x3e042d7c	0.12907976
61	0x3e98fdd7	0.29881164
62	0xbd80d597	-0.06290739
63	0xbd499802	-0.04921723
64	0x3e04c42d	0.1296546
65	0x3dd80499	0.10547752
66	0xbd07d842	-0.033165224
67	0xbdb40600	-0.08790207
68	0xbd08a915	-0.033364374
69	0x3e3834d8	0.17988908
70	0xbcd258ea	-0.025677163
71	0xbcca17cf	-0.024669556
72	0xbd51af75	-0.05119272
73	0x3eb6349b	0.3558701
74	0x3e2ffa03	0.17185216
75	0x3db6b3dd	0.08921025
76	0xbd3a264d	-0.045446683
77	0x3e73c69e	0.23806235
78	0xbce5a26b	-0.028031548
79	0x3ee52450	0.44754267
80	0x3f660884	0.89856744
81	0x3ef77132	0.4832855
82	0xbda08146	-0.07837157
83	0x3f60b0cd	0.87769777
84	0x3e928ed9	0.2862461
85	0x3f89803f	1.0742263
86	0x3e4ca2c9	0.19983973
87	0xbd717711	-0.05895144
88	0xbde538ff	-0.11192512
89	0x3d8d55b0	0.06901109
90	0xbde55830	-0.11198461
91	0x3e9b565d	0.30339327
92	0x3c859f3a	0.016311277
93	0x3eefe4d8	0.4685428
94	0x3f73a859	0.95178753
95	0x3e90a65d	0.28251925
96	0x3e79ea38	0.24405754
97	0xba8ce98c	-0.0010750755
98	0x3e5996e3	0.21248965
99	0x3e825a33	0.25459442
100	0xbcc442c9	-0.023957627
101	0x3ec145b9	0.37748507
102	0xbd285c6f	-0.041103777
103	0x3e73e6ce	0.23818514
104	0xbd1e7624	-0.038686886
105	0xbdb6ec00	-0.08931732
106	0x3e19e770	0.15029693
107	0x3e72cada	0.23710194
108	0x3de1ed98	0.110316455
109	0x3ebd03f8	0.3691709
110	0xbc797beb	-0.015227298
111	0xbe07eb7e	-0.13273427
112	0x3e953e92	0.291493
113	0x3f0ee830	0.5582304
114	0x3ed5a043	0.41723832
115	0x3ef038db	0.46918377
116	0xbe0ef48d	-0.13960476
117	0x3dbf7efc	0.09350392
118	0xbde3a33a	-0.11115117
119	0x3f23a386	0.6392139
120	0x3db4bb31	0.088247664
121	0x3dd6ca32	0.104877844
122	0xbd7f5b40	-0.062342882
123	0xbd10a157	-0.035310116
124	0x3eab401a	0.33447343
125	0xbc8c5db8	-0.017134532
126	0x3d6898fa	0.056786515
127	0xbdc37a19	-0.09544773

fc2.weight f4 [128, 128]
0	0xbf17957b	-0.59212464
1	0xbddda036	-0.108215734
2	0x3c61d94c	0.013784718
3	0x3c151682	0.009099605
4	0xbe75fde6	-0.24022636
5	0x3bb0dbae	0.0053972816
6	0x3d9aede4	0.07564905
7	0xbed08750	-0.40728235
8	0xbc71790a	-0.014738331
9	0xbe6f1b7d	-0.2335033
10	0xbc5f135f	-0.013615458
11	0xbca03349	-0.019555705
12	0x3c8b4bbf	0.017003892
13	0xbeebdbe0	-0.4606619
14	0xbd804640	-0.06263399
15	0x3d49b472	0.04924435
16	0x3e3638e5	0.17795141
17	0xbd913f88	-0.07092196
18	0xbeaf1ef8	-0.34203315
19	0x3eabe01b	0.33569416
20	0x3d8fda90	0.07024109
21	0xbd531167	-0.051530268
22	0x3d27b17d	0.04094075
23	0x3d4252f8	0.047442406
24	0xbe4ec1fa	-0.20191184
25	0xbecd6339	-0.40114763
26	0xbea02414	-0.31277525
27	0xbde2acbd	-0.110681035
28	0xbc1f57cf	-0.009725525
29	0xbf3a017a	-0.72658503
30	0xbed237bf	-0.41058156
31	0xbd6a468e	-0.057196192
32	0x3cc95f92	0.024581704
33	0x3d804940	0.06263971
34	0xbd82e5b8	-0.063914716
35	0xbcca9c6d	-0.024732793
36	0xbe88fd9a	-0.26755983
37	0xbd652818	-0.05594644
38	0xbe2fc8e4	-0.17166477
39	0x3d87f870	0.066391826
40	0xbda0b764	-0.07847479
41	0x3db133fc	0.08652493
42	0x3c72b087	0.014812595
43	0xbdef574d	-0.11686573
44	0x3e75811d	0.23975034
45	0x3ae3482a	0.0017340232
46	0x3d2dc5d1	0.04242498
47	0xbbd46105	-0.006481292
48	0x39b2611b	0.00034023155
49	0x3da45cd5	0.08025519
50	0x3d38ae79	0.045088265
51	0xbc45dcce	-0.01207657
52	0xbceacb28	-0.028661326
53	0x3d89fc99	0.06737632
54	0xbe8bf6e5	-0.27336803
55	0xbb3db7f5	-0.0028948758
56	0x3d679533	0.05653877
57	0x3e48c8f1	0.19607903
58	0xbda6e421	-0.08148981
59	0x3e0d8622	0.13820699
60	0xbe08f985	-0.13376434
61	0x3df7859e	0.12086032
62	0xbcc51cd3	-0.024061596
63	0xbc9b75ad	-0.01897701
64	0xbe48256f	-0.1954553
65	0xbe14907e	-0.14508244
66	0xbe1a5b56	-0.15073904
67	0x3bb7c5ab	0.0056082807
68	0x3cbae680	0.02281499
69	0xbe93263b	-0.28740105
70	0x3a9ab84a	0.001180419
71	0x3c851aa1	0.01624805
72	0x3d2584eb	0.040409964
73	0xbec476a2	-0.3837176
74	0x3db2c52b	0.08729013
75	0x3e5509eb	0.20804565
76	0xbd9bcb45	-0.0760713
77	0xbe0be306	-0.13660821
78	0x3d85f245	0.0654035
79	0x3e051c84	0.12999159
80	0xbea4b3e4	-0.32168496
81	0xbed7568a	-0.42058212
82	0xbdead84f	-0.11467039
83	0xbe59958c	-0.21248454
84	0x3e0ac186	0.13550386
85	0xbd33101e	-0.043716542
86	0xbf417034	-0.75561833
87	0x3d419f56	0.047271095
88	0xbef7d030	-0.48401022
89	0xbf37f57b	-0.7185895
90	0x3be344bb	0.0069356835
91	0xbdbf53ac	-0.09342131
92	0x3b008fef	0.001961704
93	0xbe7a6091	-0.244509
94	0x3e2aba2a	0.16672578
95	0xbf00f1b3	-0.50368804
96	0x3e24c81c	0.1609196
97	0xbe167427	-0.14692746
98	0xbe4880a4	-0.19580323
99	0x3e128246	0.14307508
100	0xbc03326e	-0.008007629
101	0xbcef12ef	-0.029183833
102	0x3d97fbb1	0.07421053
103	0x3d1f2e38	0.038862437
104	0x3d9f2945	0.077715434
105	0xbe54d396	-0.20783839
106	0xbebcdec4	-0.36888707
107	0x3d13ee9a	0.03611622
108	0xbddba350	-0.10724509
109	0xbdb87e8b	-0.09008511
110	0xbd3450f0	-0.0440225
111	0xbd199071	-0.037491266
112	0xbf40234d	-0.75053865
113	0x3c109ae8	0.008825995
114	0xbd85b97c	-0.06529519
115	0xbcdbffb6	-0.02685533
116	0xbd871006	-0.06594853
117	0x3e88a9da	0.26692086
118	0xbc206115	-0.009788771
119	0xbe40d4b9	-0.18831147
120	0x3d97202a	0.07379182
121	0xbe2c0144	-0.16797358
122	0xbe095503	-0.13411336
123	0xbb2e143f	-0.002656236
124	0xbeb61a3f	-0.355669
125	0xbca8de16	-0.020613711
126	0xbd82c778	-0.06385702
127	0x3ce10e75	0.027472714
128	0xbd464a97	-0.04841098
129	0xbc6a4058	-0.014297567
130	0xbd1740aa	-0.036926903
131	0xbd962284	-0.07330802
132	0xbc986934	-0.018604852
133	0xbd94a118	-0.07257289
134	0xbd1ec3a0	-0.03876078
135	0x3d64fccd	0.055905152
136	0x3c8ebc51	0.01742378
137	0xbd6dd59f	-0.058065053
138	0xbd528503	-0.05139638
139	0x3d69fdce	0.057126813
140	0x3d4999a8	0.049218804
141	0x3caaaee5	0.02083535
142	0x3c4757f0	0.012166962
143	0x3da79b9e	0.081839785
144	0xbd6b24eb	-0.057408255
145	0x3da46b94	0.080283314
146	0xbdb6ee64	-0.08932188
147	0xbc2c73fd	-0.010525701
148	0xbd37aaf4	-0.044840768
149	0xbdaf04ec	-0.08545861
150	0xbdb62c15	-0.08895127
151	0xbd791035	-0.06080647
152	0x3d348795	0.044074614
153	0x3c455749	0.012044736
154	0xbc769372	-0.015049802
155	0xbd73c020	-0.059509397
156	0x3d3d7899	0.04625759
157	0xbd327fc5	-0.04357888
158	0x3c55d312	0.013050811
159	0xbd15f7f4	-0.03661342
160	0x3d9a294f	0.0752741
161	0x3d11c9c5	0.035592813
162	0x3d603ee0	0.054747462
163	0xbd828ede	-0.06374906
164	0xbd274636	-0.040838443
165	0xbda1487f	-0.07875156
166	0xbd909552	-0.070597306
167	0x3bf83a41	0.007575304
168	0x3d3c07ad	0.045905758
169	0x3d29654a	0.041356362
170	0x3d87c79e	0.06629871
171	0xbb0c0174	-0.002136317
172	0x3c96e863	0.018421357
173	0xbdb8e8af	-0.09028756
174	0xbd96a193	-0.073550366
175	0x3c12587e	0.008932231
176	0x3d90ad98	0.070643604
177	0xba79ec6f	-0.00095338275
178	0xbd44acda	-0.048016407
179	0xbcd3aa25	-0.025837967
180	0xbdbb67e0	-0.09150672
181	0xbd8318ec	-0.06401238
182	0xbcf4033f	-0.029786704
183	0x3ba1468d	0.0049217404
184	0x3d4ee72e	0.05051344
185	0x3bf55a3f	0.007487565
186	0xbc0bbccf	-0.008528902
187	0xbcfdf8fb	-0.031002512
188	0xbcd7ee13	-0.02635864
189	0xbcd9cc53	-0.026586687
190	0x39d125b6	0.00039891683
191	0xbd973264	-0.07382658
192	0x3d10240b	0.035190623
193	0x3c0b5182	0.00850332
194	0xbd1e0d20	-0.038586736
195	0xbbce18af	-0.0062895636
196	0x3d249026	0.040176533
197	0xbd9dc08e	-0.077027425
198	0xbc04cabe	-0.008104978
199	0xbd4d27a0	-0.050086617
200	0xbd12cf82	-0.035842426
201	0xbc290d28	-0.010318078
202	0xbd63741d	-0.055530656
203	0x3cacdb84	0.021100767
204	0xbd0b79cf	-0.034051713
205	0x3d663349	0.056201253
206	0xbcf8613e	-0.030319806
207	0xbd092f3e	-0.03349232
208	0xbca12226	-0.019669604
209	0xbcea90c7	-0.028633488
210	0xbc5f3722	-0.0136239845
211	0x3d055225	0.032549042
212	0x3b2e3677	0.0026582757
213	0xbd754c76	-0.059887372
214	0xbdb76b5f	-0.08956026
215	0x3d2e00c3	0.042481195
216	0x3d0ed872	0.034874387
217	0xbbbc55b2	-0.0057475204
218	0x3d9dd36d	0.07706342
219	0xbd910702	-0.07081415
220	0x3d6d1460	0.05788076
221	0xbd440994	-0.047860697
222	0xbd27e4bc	-0.040989622
223	0xbdb8910b	-0.0901204
224	0xbd122743	-0.035681974
225	0x3adfb04a	0.0017066088
226	0x3c61473c	0.013749894
227	0xbc8430d1	-0.016136559
228	0xbd51d866	-0.051231764
229	0xbd82976f	-0.0637654
230	0xbdc3bd57	-0.09557598
231	0xbd1f3bfd	-0.03887557
232	0xbd8cb65e	-0.06870721
233	0x3d83403b	0.06408735
234	0xbb554420	-0.0032541826
235	0x3d3a15fc	0.045431122
236	0xbc12e95f	-0.008966773
237	0xbd3f7a15	-0.046747286
238	0xbc0ef2fc	-0.008724924
239	0xbd875512	-0.06608023
240	0xbdb9e7ac	-0.09077391
241	0xbda025da	-0.078197196
242	0x3d740938	0.059579104
243	0xbdc31256	-0.09524982
244	0xbdae9e84	-0.08526328
245	0xbd08e1cb	-0.033418458
246	0x3cc6d37d	0.024270767
247	0xbd78f108	-0.06077674
248	0xbce4c734	-0.027927019
249	0x3d8c0718	0.068372905
250	0xbc6203f3	-0.013794887
251	0x3cc5208e	0.024063375
252	0xbc9a22a8	-0.018815354
253	0xbcf33cb5	-0.029692033
254	0x3d08a9c7	0.033365037
255	0x3d1dfabc	0.038569197

fc2.bias f4 [128]
0	0x3e5bfd77	0.21483408
1	0xbd71e973	-0.059060525
2	0x3d95992e	0.07304607
3	0xbd71f35b	-0.059069972
4	0xbd1b6040	-0.037933588
5	0xbe196f27	-0.14983808
6	0xbe03dbb0	-0.12876773
7	0x3c837f6f	0.016051976
8	0xbcab5b54	-0.020917572
9	0x3dde62dc	0.108587
10	0x3dab5790	0.083663106
11	0x3eb88a2a	0.3604291
12	0x3af385b5	0.0018579277
13	0x3d2daf6c	0.042403623
14	0xbdcf5391	-0.10123361
15	0xbd329236	-0.04359647
16	0x3dbc9e8a	0.092099264
17	0x3e81b2ad	0.2533163
18	0xbd1c830e	-0.03821092
19	0xbd9eb1c1	-0.077487476
20	0x3e98eb29	0.29866913
21	0x3edd5859	0.43231466
22	0xbdb10d9f	-0.08645176
23	0xbdcc6099	-0.09979362
24	0xbde220c4	-0.11041406
25	0xbd78f848	-0.060783654
26	0x3e87186a	0.26385814
27	0xbe54be49	-0.20775713
28	0x3f37adf8	0.7174983
29	0x3e11be6c	0.14232796
30	0xbe1b9009	-0.15191664
31	0xbd96278d	-0.073317625
32	0x3db0711a	0.086153224
33	0xbd5fb50b	-0.054616015
34	0xbd76e585	-0.06027748
35	0x3edae454	0.42752326
36	0xbca0fe80	-0.019652605
37	0xbd83baa8	-0.06432086
38	0xbc878598	-0.016543195
39	0xbe0517c0	-0.12997341
40	0x3d922940	0.07136774
41	0xbde498c7	-0.111619525
42	0x3cfd2fae	0.030906525
43	0x3e9ef497	0.31045982
44	0x3c0598b6	0.008154085
45	0x3dbfeb1b	0.09371015
46	0x3f4d7948	0.80263186
47	0x3e28e5da	0.16493931
48	0xbd8312f8	-0.064001024
49	0x3ef5419b	0.47901616
50	0x3ef5232a	0.4787839
51	0x3cea2e28	0.028586462
52	0xbdfaf1c4	-0.122531444
53	0x3d23fa5d	0.040033687
54	0xbd9f710b	-0.07785233
55	0xbdf49c92	-0.11943926
56	0xbd113dac	-0.035459206
57	0xbd89fa0a	-0.06737144
58	0xbd74406d	-0.059631754
59	0xbc84a8db	-0.016193798
60	0xbd539b5b	-0.05166183
61	0x3f00f50f	0.5037393
62	0xbe10b2b1	-0.14130665
63	0x3eeae522	0.4587794
64	0x3d9cf9ab	0.07664808
65	0x3d9ba65f	0.07600092
66	0x3ebfe763	0.37481222
67	0xbe45c3fc	-0.19313043
68	0xbc473e12	-0.012160795
69	0xbe78283f	-0.24234103
70	0xbe17ef42	-0.14837363
71	0x3e664175	0.22485907
72	0x3aca8b9d	0.0015452985
73	0x3e58837e	0.2114391
74	0xbd59d15f	-0.053178187
75	0x3f27d243	0.6555521
76	0x3e30d3c4	0.17268282
77	0x3d246523	0.040135514
78	0x3e2702b7	0.1630963
79	0x3ad77aba	0.0016439774
80	0xbdfde949	-0.12398011
81	0x3ee7a222	0.45240885
82	0xbd99f30e	-0.07517062
83	0x3d38bdde	0.045102946
84	0xbd5b685b	-0.053566318
85	0x3f4d798f	0.8026361
86	0x3ed67b29	0.4189084
87	0xbd9b69e8	-0.075885594
88	0x3e701c00	0.23448181
89	0xbcccd856	-0.0250055
90	0x3db8fe57	0.090328865
91	0xbe13b514	-0.14424545
92	0x3f109e6f	0.5649175
93	0x3c0b4e87	0.008502609
94	0xbe20405a	-0.15649548
95	0xbe1a0259	-0.15039958
96	0xbdbfc171	-0.09363068
97	0x3a056172	0.0005088068
98	0x3e5940e0	0.21216154
99	0x3dc33054	0.09530702
100	0xbd4ae978	-0.04953906
101	0xbe3c3799	-0.18380584
102	0xbb1581bc	-0.0022812923
103	0x3b3ebe95	0.0029105295
104	0x3f227a6c	0.6346805
105	0x3d6888d6	0.056771122
106	0x3d4aef7a	0.04954479
107	0x3ec2c798	0.38042903
108	0x3c311512	0.010808246
109	0xbde29260	-0.11063075
110	0xbe19b066	-0.15008697
111	0xbd5b6b75	-0.053569276
112	0xbd8bd22a	-0.06827195
113	0x3e70c33c	0.23511976
114	0xbd720916	-0.059090696
115	0xbdde443f	-0.10852861
116	0xbde37d25	-0.11107854
117	0xbde96f4e	-0.11398183
118	0xbe0ea5db	-0.13930456
119	0xbbac5969	-0.005259682
120	0x3e8cea72	0.27522618
121	0xbd51ae20	-0.05119145
122	0xbe5198d9	-0.20468463
123	0x3ec8f50f	0.39249465
124	0xbddc01ad	-0.10742507
125	0xbdb70445	-0.08936361
126	0x3df0f28c	0.11765012
127	0xbc16036f	-0.009156092

fc3.weight f4 [38, 128]
0	0x3e6178ed	0.22018786
1	0x3d1fb210	0.038988173
2	0x3d8b8fe2	0.06814553
3	0x3db8e007	0.09027105
4	0x3ac62c9f	0.0015119499
5	0xbd3a8e1c	-0.045545682
6	0x3bee1d90	0.0072667077
7	0x3caff2ad	0.021478022
8	0xbc12d08d	-0.008960855
9	0xbca676c3	-0.020320302
10	0x3d65af31	0.05607528
11	0x3e7814e0	0.24226713
12	0xbcc5449e	-0.02408057
13	0xbd0f6c60	-0.035015464
14	0x3ca9ca2a	0.020726282
15	0xbd4a5ddd	-0.04940592
16	0x3e1b8b49	0.15189852
17	0x3e915cd6	0.2839114
18	0x3ae9039b	0.0017777564
19	0x3d320141	0.043458227
20	0x3e3fd0ea	0.18732038
21	0x3e71ba1c	0.23606151
22	0x3dc12e97	0.094327144
23	0x3d5c838b	0.053836387
24	0x3c09c5ad	0.008408946
25	0x3b811534	0.003939295
26	0x3df35a0d	0.1188241
27	0xbe641972	-0.22275332
28	0x3e9b8214	0.3037268
29	0x3ded7381	0.11594296
30	0x3d256301	0.04037762
31	0x3d42a399	0.0475193
32	0x3b998a6d	0.004685691
33	0xbd57f93b	-0.05272792
34	0xbcd058d4	-0.025432982
35	0xbda31fe0	-0.07965064
36	0xbb5a39d3	-0.0033298626
37	0x3cb33b4e	0.021878865
38	0xbc933081	-0.017967464
39	0x3c48e108	0.012260683
40	0xbd65b9ba	-0.056085326
41	0xbdcea6ad	-0.10090385
42	0xbd8c7908	-0.068590224
43	0x3e7afb6d	0.24509974
44	0x3c1f44ce	0.009720994
45	0x3d07b3cb	0.03313045
46	0x3e53dfc6	0.20690832
47	0x3e2b4069	0.1672379
48	0x3daa12bc	0.083043545
49	0x3e16b2a4	0.14716583
50	0xbd6e6408	-0.058200866
51	0xbd731e75	-0.059355218
52	0xbcfaa4e9	-0.030596213
53	0xbcd43e0c	-0.025908493
54	0x3c9bbd6f	0.019011227
55	0x3deeaf18	0.1165449
56	0x3d6948bb	0.056954127
57	0xbce90bcb	-0.028448006
58	0xbdb7cf87	-0.089751296
59	0x3ca526ed	0.020160163
60	0x3ca35ab4	0.019940712
61	0x3e59c944	0.21268183
62	0x3d029c41	0.031887297
63	0x3e8847b7	0.26617214
64	0x3d99db5f	0.07512545
65	0x3c311892	0.010809081
66	0x3e4874b5	0.1957577
67	0x3e10e826	0.14151058
68	0xbd26d426	-0.040729664
69	0x3d49156a	0.049092688
70	0xbca765b6	-0.020434242
71	0xbd008b13	-0.03138263
72	0xbd6c3ab5	-0.057673175
73	0x3cbfe587	0.023424877
74	0x3d15e704	0.036597267
75	0x3e7b3683	0.24532513
76	0x3cb20e91	0.021735461
77	0xbd6afcb9	-0.05736992
78	0xbd0a2bf3	-0.03373332
79	0x3d8a5b96	0.0675575
80	0xbd09781c	-0.03356181
81	0x3eb1f18d	0.347546
82	0xbc3ed18e	-0.011646641
83	0xbe92438d	-0.28567162
84	0xbd8fd231	-0.07022513
85	0x3e2e66b0	0.1703136
86	0xbdc7d843	-0.097580455
87	0xbc743a37	-0.014906458
88	0x3d8795f1	0.06620396
89	0x3d0666db	0.032812934
90	0x3d8e3355	0.069433846
91	0xbb2d3dd2	-0.0026434553
92	0x3e0d2a18	0.13785589
93	0x3cfa696d	0.030567849
94	0x3d22f1d4	0.039781407
95	0xbd30b1dc	-0.04313837
96	0xbd65da2d	-0.05611627
97	0xbca0e1df	-0.019638954
98	0x3e176c31	0.14787365
99	0xbcfeea3f	-0.031117557
100	0x3c9041da	0.017609525
101	0x3e1f6f98	0.15569913
102	0x3c22be2f	0.009933039
103	0xbd3c43c0	-0.04596305
104	0x3e06587f	0.13119696
105	0xbd829b7d	-0.06377313
106	0x3d2b879e	0.04187738
107	0x3de27b58	0.11058682
108	0x3c88eeeb	0.016715487
109	0xbd6ebb60	-0.058284163
110	0xbdb2f1d1	-0.08737529
111	0xbd4a5a8a	-0.04940275
112	0xbd54c346	-0.05194404
113	0x3e8330d2	0.25623184
114	0x3c74abe7	0.014933563
115	0xbc0aaac0	-0.008463562
116	0x3d4ab8e5	0.049492735
117	0xbbe88362	-0.00709574
118	0xbc106d04	-0.008815054
119	0xbc3e4251	-0.011612491
120	0x3e9914a5	0.29898563
121	0xbcc3168a	-0.023814458
122	0xbcfa25aa	-0.030535538
123	0xbd3f9822	-0.046775945
124	0x3d43673f	0.047705885
125	0xbde51881	-0.111863144
126	0xbe30d464	-0.1726852
127	0x3de92b58	0.1138522
128	0x3e4eb4e7	0.20186196
129	0xbccc77a3	-0.024959391
130	0x3bbfd062	0.0058536986
131	0xbe6039a1	-0.21896984
132	0x3c4df5dd	0.012570825
133	0x3d2540eb	0.040345114
134	0x3a2a0bb1	0.00064867275
135	0xbb992974	-0.004674131
136	0x3d44ebdb	0.04807649
137	0x3c6b4130	0.014358804
138	0x3ccc18a2	0.02491409
139	0xbc94a24d	-0.018143797
140	0x3d7e2908	0.06205085
141	0x3cdc559a	0.026896287
142	0xbcee30e4	-0.029076047
143	0xbb12b6d2	-0.0022386801
144	0x3decb929	0.11558754
145	0x3e364f70	0.1780374
146	0x3d2d9c1d	0.04238521
147	0x3bbfb87c	0.0058508497
148	0x3e8ea5aa	0.27860767
149	0x3e0adc85	0.13560684
150	0xbc9d0027	-0.019165112
151	0xbc684a65	-0.014177893
152	0xbcf72fe5	-0.030174205
153	0xbc6104cb	-0.013734053
154	0x3df51211	0.119663365
155	0x3d853a3d	0.06505249
156	0x3e72fbe7	0.23728906
157	0x3dbd21a4	0.09234932
158	0xbd3e3e1d	-0.046445955
159	0xbd2c231b	-0.042025667
160	0x3d3045fd	0.043035496
161	0xbc0a30fb	-0.008434529
162	0x3d03feee	0.03222554
163	0x3e21ecf4	0.15813047
164	0x3b032b30	0.0020014755
165	0xbd328463	-0.043583285
166	0xbd6913a5	-0.0569035
167	0xbcc6d2ee	-0.024270501
168	0x392cc074	0.00016474893
169	0xbd125db4	-0.035733894
170	0x3cbd1123	0.02307946
171	0x3e896590	0.268353
172	0x3c22ca6f	0.009935959
173	0x3d61e33f	0.05514836
174	0x3e7c37cd	0.24630661
175	0x3e18102b	0.14849918
176	0x3ca5c32d	0.020234669
177	0x3de254f1	0.110513575
178	0x3e0e0f7f	0.13873099
179	0x3b02b6f0	0.0019945465
180	0x3cf8b47c	0.0303595
181	0xbcc20567	-0.023684217
182	0xbd7ae42b	-0.061252754
183	0xbda17217	-0.07883089
184	0x3d810a5b	0.06300803
185	0x3ca601bd	0.0202645
186	0xbd027c04	-0.03185655
187	0x3d90d393	0.070716046
188	0xbc83b4df	-0.016077457
189	0x3e0f34a3	0.13984923
190	0xbd968f79	-0.07351584
191	0xbed782b9	-0.4209192
192	0x3d282217	0.041048136
193	0x3d5f8d6a	0.054578222
194	0x3e475022	0.19464162
195	0x3da9e156	0.082949325
196	0x3dad3dbc	0.084590405
197	0x3b6b980d	0.0035948784
198	0x3d1afef4	0.0378408
199	0xbdcf03e1	-0.10108162
200	0x3bd94c23	0.0066313907
201	0x3e3476d5	0.17623456
202	0xbd3e81b4	-0.046510413
203	0x3e1e4363	0.15455393
204	0x3dced2c6	0.100987956
205	0x3daf7fbb	0.085692845
206	0x3a43ff15	0.000747667
207	0x3c944276	0.018098097
208	0x3cb4eb25	0.022084782
209	0x3e6bd7ed	0.23031588
210	0x3d64863f	0.05579209
211	0xbda1cbc4	-0.07900193
212	0x3d14215b	0.036164623
213	0x3e519019	0.20465125
214	0x3e092478	0.13392818
215	0x3d26f82b	0.040764015
216	0x3dcc3fe7	0.09973126
217	0xbd5bbf5b	-0.053649288
218	0xbe1dc491	-0.15407015
219	0xbd15826d	-0.036501337
220	0x3e0e4400	0.13893127
221	0xbb88bed2	-0.004173138
222	0x3d26fa99	0.040766332
223	0xbd838954	-0.06422678
224	0xbcaa1139	-0.020760166
225	0xbd1f0712	-0.038825102
226	0xbe588eda	-0.21148244
227	0xbbeb8dbd	-0.0071885274
228	0xbd2fe8c0	-0.042946577
229	0x3e081b8c	0.13291758
230	0x3d14dd96	0.036344133
231	0xbc95d621	-0.018290581
232	0x3de50eec	0.11184487
233	0x3c64b5ce	0.013959361
234	0xbc21f581	-0.009885193
235	0x3e49a2ea	0.19691053
236	0xbc583951	-0.013197259
237	0xbd478aea	-0.048716463
238	0xbcfafc31	-0.030637832
239	0x3c6cd196	0.014454266
240	0x3d815c70	0.06316459
241	0x3bc464b2	0.005993449
242	0xbcbdd3c2	-0.023172263
243	0x3c0173dd	0.007901159
244	0x3c45417f	0.012039541
245	0x3d01bea2	0.031675942
246	0xbc4fd4d6	-0.012685021
247	0xbb992e1e	-0.004674687
248	0x3e12b0fd	0.14325328
249	0x39090f1d	0.00013070968
250	0xbde9be48	-0.114132464
251	0x3df10f00	0.11770439
252	0xbc657553	-0.014005023
253	0xbb79338e	-0.0038025114
254	0x3e5aaae4	0.21354252
255	0xbc50c019	-0.012741112

fc3.bias f4 [38]
0	0x3fa672cb	1.3003782
1	0x3f8eee0d	1.1166397
2	0x3f4d4993	0.8019039
3	0x3ec8576b	0.39129195
4	0x3e238fb1	0.15972783
5	0x3e463507	0.19356166
6	0x3eb0d18f	0.3453488
7	0x3f16a2f4	0.58842397
8	0x3ea2b443	0.31778154
9	0x3edec667	0.43510744
10	0x3e0c0c54	0.13676578
11	0x3edf2af1	0.4358745
12	0x3f35ed95	0.71065646
13	0x3f130b2f	0.5743894
14	0x3f0eb7a0	0.5574894
15	0x3ea8f51c	0.32999504
16	0x3ed1c4e4	0.40970528
17	0x3de8d659	0.113690086
18	0x3eaf74a3	0.34268674
19	0x3cad1ef9	0.021132933
20	0x3da4f680	0.08054829
21	0x3e4a76c2	0.19771865
22	0x3e90e151	0.28296903
23	0x3eaf23e9	0.34207085
24	0x3e807a90	0.25093508
25	0x3e85212d	0.26001874
26	0xbcc3898f	-0.023869304
27	0x3ead5eb8	0.33861327
28	0xbdff8a8b	-0.12477597
29	0x3e42afc1	0.19012357
30	0x3e65b5ff	0.22432707
31	0xbc07650f	-0.00826384
32	0x3e1b7567	0.15181504
33	0x3e6ddc5c	0.23228592
34	0x3eabef68	0.3358109
35	0xbd501975	-0.050805528
36	0x3c6818f2	0.014166104
37	0xbda1af69	-0.07894785
