models/comparison_1000ep_dqn/best_pairwise_dqn_1000ep_dqn.pt (torch, 170236 bytes, 8 tensors)

fc1.weight f4 [128, 112]
0.07616143 -0.023007419 -0.04864795 -0.010100052 0.07520018 0.06474242 0.07460425 0.12708332
0.023050906 -0.059997775 0.059426095 -0.015404185 0.0696935 0.034563873 -0.033067442 0.05848202
-0.018179862 0.021153573 -0.056734793 -0.021616086 0.04042501 0.082511805 0.07033266 0.06476003
-0.006073381 0.038485467 -0.077555284 -0.05449787 -0.048699725 -0.07139198 -0.006113878 0.051093522
0.085292935 -0.038512822 -0.024483372 0.059668418 -0.07653289 0.046341702 0.08506418 0.01600383
-0.052892804 0.040338974 0.013578893 0.06254011 0.0947298 0.08740669 0.10242715 0.0065428726
0.013312652 0.0048027644 -0.050614346 -0.07123051 0.033163875 0.26188317 -0.06955949 0.060488652
0.012853511 -0.068475686 -0.035600327 0.017964236 0.047362197 -0.019682579 0.013131777 -0.09241701
0.07695895 -0.072038695 0.024220457 -0.009593333 -0.036072325 0.041087106 -0.074295774 0.025578337
0.013677186 -0.02083677 0.02250817 0.05877945 -0.042799592 -0.04835233 0.031118125 -0.07213929
-0.06500091 -0.07761754 -0.062459756 0.09130229 0.010991839 0.027227992 -0.014063271 -0.03738228
0.005329155 -0.026683306 -0.072521456 0.07020956 -0.022254918 -0.061070334 0.06411068 0.064168036
-0.03147151 0.044987723 0.059643384 -0.045934107 0.063515425 -0.056491483 -0.097415134 -0.10050015
-0.014992798 -0.04742839 0.05714884 -0.06712813 0.026357086 -0.08730534 -0.012415376 0.035697155
-0.036597293 0.08941377 0.111112885 0.077371955 -0.017645398 0.0040694843 0.046366327 0.14333439
-0.0526025 0.12851794 -0.05481629 0.08477997 0.09388309 0.049373396 0.058599286 -0.001442512
-0.000473585 0.069902845 0.038071968 -0.011459273 0.084614545 0.04497555 0.092812724 0.023209132
0.026104957 0.10534272 0.01755989 -0.0078576375 0.06928234 -0.031546257 0.058187574 -0.03795963
-0.06283239 0.063605554 -0.028563326 0.071298525 -0.054021023 -0.023475682 0.032005955 0.06726558
0.2051871 0.021073533 -0.059306588 -0.025077496 0.07188637 0.09590579 -0.21724115 -0.021927582
0.077097006 -0.022347203 -0.022704395 -0.05677164 0.053593285 0.20001997 -0.0584448 0.090484396
0.053666964 0.07134054 0.06500585 0.060036648 0.04264837 -0.035323117 0.065344945 -0.0009508588
0.028768681 -0.0038190288 -0.022294443 -0.030530583 -0.011154095 -0.04095988 -0.057661507 -0.072893344
-0.0061318236 -0.005288756 -0.04065502 0.07106398 0.07759389 -0.02018583 0.008126839 0.088076845
-0.031911924 -0.0065474533 0.097105965 0.02082728 0.0404449 0.07145501 -0.03809804 0.041444823
0.00080883736 -0.0481428 0.021775778 -0.058286104 -0.060174894 0.07360867 0.010415445 0.06358322
-0.038990498 -0.0651387 0.026336856 0.104779 0.030355383 -0.027725643 0.069525935 0.04036114
-0.016459255 -0.041524965 -0.013152961 -0.050749507 0.08764965 0.07787695 0.10231644 -0.07536018
0.015010988 0.06549619 0.07681976 0.101877384 0.06498642 -0.07197048 -0.08412689 0.10554086
-0.06704457 0.091358565 -0.069962725 -0.056851104 0.06313134 -0.037069164 0.019515775 -0.06490246
0.022713382 0.013011023 0.058746424 -0.082556024 -0.087566815 0.03311302 -0.08673715 -0.080386534
0.07790043 0.021892598 -0.09312783 -0.06621479 0.06597334 0.024067232 0.08159419 -0.08037581
00000000: 86fa 9b3d 0e7a bcbc 1343 47bd b07a 25bc
00000010: 8d02 9a3d ad97 843d 1dca 983d 2122 023e
00000020: 41d5 bc3c 3ac0 75bd c768 733d d661 7cbc
00000030: 77bb 8e3d d992 0d3d ba71 07bd d88a 6f3d
00000040: efed 94bc 424a ad3c be62 68bd 3814 b1bc
00000050: b294 253d f3fb a83d 920a 903d e8a0 843d
00000060: 3603 c7bb f0a2 1d3d 4ed5 9ebd 2939 5fbd
00000070: 5d79 47bd f535 92bd ed56 c8bb 7147 513d
00000080: 10ae ae3d 9fbf 1dbd 5a91 c8bc df66 743d
00000090: 47bd 9cbd ccd0 3d3d 2136 ae3d 771a 833c
000000a0: 20a6 58bd 7b3a 253d 017a 5e3c 0715 803d
000000b0: b301 c23d 4702 b33d 53c5 d13d 9865 d63b
000000c0: 4f1d 5a3c 8260 9d3b fd50 4fbd 4de1 91bd
000000d0: d8d6 073d 8d15 863e 3575 8ebd f3c2 773d
000000e0: 8897 523c fb3c 8cbd a6d1 11bd bc29 933c
000000f0: ddfe 413d 5c3d a1bc aa26 573c 2145 bdbd
00000100: a79c 9d3d 0689 93bd fb69 c63c 5b2d 1dbc
00000110: 93c0 13bd f44a 283d 6228 98bd a989 d13c
00000120: 4716 603c e0b1 aabc 0e63 b83c b8c2 703d
00000130: a04e 2fbd 180d 46bd 70eb fe3c c4bd 93bd
00000140: 321f 85bd f2f5 9ebd cdd5 7fbd b2fc ba3d
00000150: 1d17 343c 3d0d df3c a269 66bc 291e 19bd
00000160: 31a0 ae3b f396 dabc 2186 94bd 08ca 8f3d
00000170: f24f b6bc e324 7abd 764c 833d 886a 833d
00000180: 45e8 00bd 0c45 383d 9f4c 743d 6725 3cbd
00000190: 6014 823d 9d63 67bd 9681 c7bd 06d3 cdbd
000001a0: 5aa4 75bc 4544 42bd e714 6a3d 797a 89bd
000001b0: d1ea d73c 24cd b2bd dc69 4bbc 2e37 123d
000001c0: 0be7 15bd 911e b73d 278f e33d 3075 9e3d
000001d0: 158d 90bc 4f59 853b 9eea 3d3d 40c6 123e
000001e0: b875 57bd 359a 033e 0c87 60bd 1fa1 ad3d
000001f0: c745 c03d c23b 4a3d ce05 703d ac12 bdba
00000200: 814b f8b9 3929 8f3d 5af1 1b3d adbf 3bbc
00000210: 644a ad3d 4838 383d 9914 be3d 1421 be3c
00000220: 10da d53c edbd d73d c2d9 8f3c 52bd 00bc
00000230: e6e3 8d3d a636 01bd 1856 6e3d 8f7b 1bbd
00000240: 45ae 80bd a143 823d a3fd e9bc f604 923d
00000250: 2645 5dbd 1350 c0bc ad18 033d 89c2 893d
00000260: 911c 523e 67a2 ac3c 77eb 72bd 526f cdbc
00000270: 2939 933d 416a c43d 7774 5ebe 79a1 b3bc
00000280: 09e5 9d3d 7b11 b7bc 91fe b9bc 6189 68bd
00000290: a284 5b3d 09d2 4c3e d163 6fbd e24f b93d
000002a0: e4d1 5b3d fd1a 923d c921 853d fde8 753d
000002b0: 0fb0 2e3d f9ae 10bd 92d3 853d 0e43 79ba
000002c0: 4cac eb3c ac48 7abb d6a2 b6bc 461b fabc
000002d0: aabf 36bc 8cc5 27bd 792e 6cbd 1b49 95bd
000002e0: 77ed c8bb 4d4d adbb e185 26bd fe89 913d
000002f0: 8ce9 9e3d c15c a5bc 6f26 053c a261 b43d
00000300: 14b6 02bd 058c d6bb 7edf c63d f99d aa3c
00000310: 8da9 253d 0157 923d b10c 1cbd 0cc2 293d
00000320: 2808 543a 6231 45bd 1e63 b23c 69bd 6ebd
00000330: f379 76bd 24c0 963d 8ba5 2a3c eb37 823d
00000340: 80b4 1fbd 7067 85bd 64c0 d73c 5f96 d63d
00000350: daab f83c e320 e3bc 9d63 8e3d b951 253d
00000360: 8fd5 86bc 1516 2abd 847f 57bc b7de 4fbd
00000370: a981 b33d f37d 9f3d 488b d13d 7056 9abd
00000380: a6f0 753c de22 863d ae53 9d3d 17a5 d03d
00000390: 9a17 853d 4265 93bd b84a acbd ce25 d83d
000003a0: aa4e 89bd 331a bb3d 9e48 8fbd b4dc 68bd
000003b0: 014b 813d d6d5 17bd 8cdf 9f3c 95eb 84bd
000003c0: 6a11 ba3c 302c 553c 17a0 703d 2213 a9bd
000003d0: 3b56 b3bd 85a1 073d 3fa3 b1bd b2a1 a4bd
000003e0: 438a 9f3d 1b58 b33c ceb9 bebd 9f9b 87bd
000003f0: 081d 873d a528 c53c db1a a73d 139c a4bd

fc1.bias f4 [128]
0.040584974 0.032254 0.033123285 -0.03739116 -0.016736515 0.050901417 -0.117176935 -0.10345391
0.044483263 0.06922674 0.036690176 0.011117513 -0.09650083 -0.0018748589 0.0015657021 -0.014411135
0.045271847 0.06988619 0.072478816 0.06047517 -0.085853286 0.029654045 0.032144524 -0.0030991181
0.03031019 0.06175101 -0.12642123 -0.043990836 0.001233153 0.030005861 -0.10076275 -0.031236075
0.04032005 -0.07207361 0.0019590075 -0.09843085 -0.0919469 -0.0028147725 -0.03833585 0.044471182
0.0828276 0.06715047 -0.07936038 -0.08885188 0.045575842 -0.21898125 -0.06040469 -0.07953187
0.021787686 0.008557174 -0.0020982802 0.0045698388 -0.054224826 0.017976161 -0.051692385 -0.026705287
0.02341258 -0.050091274 -0.00030912997 -0.11463892 -0.048857126 -0.10044828 -0.06531768 -0.029740004
0.00906867 0.09987303 0.04269184 -0.05837676 -0.07245761 0.06346683 0.018642973 0.0619941
-0.029183172 -0.040635616 -0.05740059 -0.014426166 0.028034775 -0.039904207 -0.014326569 0.009504779
-0.13848208 -0.06281647 -0.019318458 -0.056556817 0.03670648 0.07983462 0.052290116 -0.07721227
0.111496754 -0.088214666 0.07666321 0.006896469 -0.15076448 0.030665128 0.049135517 0.07508343
0.05585919 0.07416338 -0.022488317 0.10634015 0.050968785 -0.1276668 -0.028291415 0.068507254
-0.07695111 -0.12035017 -0.053211242 -0.016093014 0.08973365 -0.060469214 -0.02676225 -0.076803185
0.03356539 -0.15761851 -0.041380186 -0.028484108 -0.021533815 0.0002845924 -0.021204473 -0.07617883
-0.047142703 -0.080494024 0.07973277 0.05851308 -0.119397126 -0.064463615 -0.07716625 -0.001132289
00000000: 6e3c 263d c51c 043d 48ac 073d 7927 19bd
00000010: 041b 89bc 017e 503d 76fa efbd a5df d3bd
00000020: 1534 363d c0c6 8d3d 7048 163d 3b26 363c
00000030: 3aa2 c5bd d3bd f5ba 3f38 cd3a ae1c 6cbc
00000040: f96e 393d 7e20 8f3d c66f 943d d0b4 773d
00000050: d9d3 afbd 0aed f23c faa9 033d 931a 4bbb
00000060: 134d f83c a1ee 7c3d 9174 01be bc2f 34bd
00000070: c0a1 a13a dace f53c b35c cebd cce2 ffbc
00000080: a326 253d 549b 93bd b162 003b 1d96 c9bd
00000090: a84e bcbd 0c78 38bb 0d06 1dbd 6a27 363d
000000a0: 84a1 a93d 3086 893d b287 a2bd f9f7 b5bd
000000b0: bcad 3a3d 9f3c 60be e96a 77bd 9be1 a2bd
000000c0: 177c b23c 6433 0c3c 4d83 09bb 96be 953b
000000d0: da1a 5ebd be42 933c 65bb 53bd 0cc5 dabc
000000e0: bdcb bf3c 822c 4dbd b912 a2b9 cfc7 eabd
000000f0: 691e 48bd d4b7 cdbd 47c5 85bd 4fa1 f3bc
00000100: c294 143c 3b8a cc3d a4dd 2e3d 781c 6fbd
00000110: a864 94bd e6fa 813d 26b9 983c 87ed 7d3d
00000120: 8c11 efbc 8871 26bd e21c 6bbd ba5b 6cbc
00000130: 2fa9 e53c 9872 23bd fcb9 6abc efb9 1b3c
00000140: 3fce 0dbe eca5 80bd be41 9ebc 1fa8 67bd
00000150: 8959 163d 5580 a33d 292e 563d 7721 9ebd
00000160: 6958 e43d e4a9 b4bd 9a01 9d3d c6fb e13b
00000170: 0162 1abe 6f35 fb3c 5342 493d 57c5 993d
00000180: 9bcc 643d f8e2 973d 6b39 b8bc ddc8 d93d
00000190: a5c4 503d 16bb 02be 66c3 e7bc 884d 8c3d
000001a0: 8b98 9dbd 267a f6bd 08f4 59bd 7fd5 83bc
000001b0: 47c6 b73d 91ae 77bd 823c dbbc fd4a 9dbd
000001c0: dd7b 093d bf66 21be 457e 29bd 8157 e9bc
000001d0: af67 b0bc 5835 9539 01b5 adbc a503 9cbd
000001e0: b518 41bd 0dda a4bd ef4a a33d 69ab 6f3d
000001f0: 7b86 f4bd 8005 84bd 5709 9ebd 5069 94ba

fc2.weight f4 [128, 128]
0.018977527 -0.10414115 -0.03811903 -0.06672029 -0.071688674 -0.1236896 0.057508267 0.053396564
0.016161915 -0.013579847 -0.0013930798 -0.02266332 -0.075688206 -0.045997415 -0.068535514 0.048077025
0.037595484 -0.132534 0.00089755084 0.076601095 -0.08986497 -0.0044622775 -0.003917223 0.036235142
-0.009073131 -0.037062872 -0.0746932 -0.09132706 -0.08509903 -0.068604805 -0.0472745 -0.1154966
-0.045467068 -0.05485543 0.04890935 -0.0249775 -0.105073 -0.10715115 0.005243043 0.12486156
0.016018907 -0.11259746 -0.08760446 -0.0049482523 -0.025266955 0.014453088 0.009217565 0.028728444
-0.08162267 -0.031696074 0.047852293 0.011148872 0.007097513 0.006958202 -0.0015227024 -0.0059664776
-0.086447746 -0.10498827 0.05202553 0.060728528 0.038460232 0.08231287 -0.11239181 0.0107419165
-0.08056844 -0.0298844 -0.09434588 -0.022212613 -0.021805461 -0.14026275 -0.046922855 -0.12520199
-0.08525847 0.026672548 -0.0936384 -0.1203666 0.06246394 -0.14269002 -0.049929358 0.07577871
-0.027593486 0.034844335 -0.109405704 -0.08041607 0.032952316 -0.06434823 -0.0043392424 -0.06337275
0.02295398 -0.16644244 0.04537096 0.06389454 -0.1485884 -0.023615379 -0.03919433 -0.06944867
-0.08272766 0.010551838 0.008641166 -0.16129652 -0.07492062 -0.020998362 -0.1904505 -0.16725405
-0.089406446 -0.12949008 -0.039386384 -0.082599826 0.027167177 0.02176065 -0.02290651 0.034007028
-0.0005235798 0.015461004 -0.021906119 -0.12025097 -0.019537661 -0.094781764 0.015380216 -0.034085177
0.029734759 0.027003609 -0.05249252 0.018994365 0.0017614863 -0.11477556 0.03351978 -0.077647
0.10022563 -0.027721858 -0.100513734 -0.16147122 0.13362111 0.013505937 -0.060793392 -0.07654859
-0.060807984 -0.0053747883 0.01019456 -0.0010061503 -0.1413543 -0.19268638 -0.06476631 -0.055690233
-0.049900122 -0.025046507 0.050647415 -0.018229408 -0.12816562 -0.17854732 0.07611031 -0.05817339
0.013397718 -0.0045472877 0.029135466 -0.12490607 -0.1999926 -0.023997385 -0.042645317 -0.077475406
-0.09125008 0.03323259 0.026501555 0.04315709 -0.12742947 -0.032980837 -0.25469163 -0.12265361
-0.10526401 0.008852214 -0.1316591 -0.0071253404 -0.029417995 -0.23256382 0.0032338784 -0.045352306
-0.056663796 0.018765911 -0.068960465 0.06977692 -0.11609481 0.058877245 0.037084747 -0.10368595
0.014833647 -0.15322444 -0.055677157 -0.059464667 -0.03241772 -0.034139317 0.02878555 0.08870729
-0.12225268 0.051000096 0.050226834 0.020913461 -0.07341749 -0.06654245 -0.04346072 0.039658822
-0.14643548 0.12156956 0.06686083 0.034705203 0.075946815 0.065490596 -0.101843454 -0.14427501
-0.059448447 0.017334921 -0.02789945 0.028428897 -0.06427061 -0.0928841 -0.10408626 -0.20399512
0.00081246224 -0.23767234 0.111619554 0.016224792 -0.10990117 -0.086209714 -0.2635741 -0.14634214
0.008464435 0.1371147 -0.07039163 0.035193108 -0.14231394 -0.025980147 -0.10325002 -0.0998633
-0.0130110225 0.020355398 0.0066844574 -0.06372953 0.013987348 -0.032226566 -0.118410334 -0.088858865
-0.05630103 -0.10194258 -0.045592964 0.20970112 -0.11430335 0.13123275 -0.08980547 0.016598118
-0.010423219 -0.09635963 0.049246307 0.124415524 -0.061407518 -0.047848992 0.08415582 0.06284338
00000000: c276 9b3c f547 d5bd b322 1cbd a6a4 88bd
00000010: 83d1 92bd f950 fdbd ca8d 6b3d 5bb6 5a3d
00000020: fe65 843c 027e 5ebc 0098 b6ba 6da8 b9bc
00000030: 6b02 9bbd c967 3cbd 595c 8cbd 6aec 443d
00000040: b9fd 193d feb6 07be 9e49 6b3a 09e1 9c3d
00000050: 200b b8bd 4c38 92bb 0c5c 80bb 4d6b 143d
00000060: 78a7 14bc 3dcf 17bd c0f8 98bd ae09 bbbd
00000070: 6648 aebd ad80 8cbd e8a2 41bd 7b89 ecbd
00000080: ad3b 3abd 16b0 60bd 2c55 483d 9d9d ccbc
00000090: 8330 d7bd 1072 dbbd d5cd ab3b 6bb7 ff3d
000000a0: 153a 833c 7f99 e6bd f869 b3bd f324 a2bb
000000b0: a5fc cebc a5cc 6c3c 4505 173c ea57 eb3c
000000c0: c929 a7bd bed3 01bd c400 443d c2a9 363c
000000d0: 4192 e83b a101 e43b 6a95 c7ba 7182 c3bb
000000e0: 840b b1bd 1704 d7bd b918 553d 7abe 783d
000000f0: 7a88 1d3d a693 a83d ad2d e6bd ddfe 2f3c
00000100: 1101 a5bd 21d0 f4bc 6a38 c1bd 3af7 b5bc
00000110: 5ea1 b2bc 0aa1 0fbe 2e32 40bd f334 00be
00000120: fe9b aebd 6380 da3c 7dc5 bfbd c482 f6bd
00000130: 30da 7f3d 551d 12be ba82 4cbd de31 9b3d
00000140: bc0b e2bc efb8 0e3d 1910 e0bd 2eb1 a4bd
00000150: 02f9 063d 01c9 83bd 3430 8ebb 93c9 81bd
00000160: fc09 bc3c e36f 2abe e6d6 393d 24db 823d
00000170: 8f27 18be 0a75 c1bc 3c8a 20bd 1b3b 8ebd
00000180: 1f6d a9bd 9ee1 2c3c ad93 0d3c ea2a 25be
00000190: fb6f 99bd c204 acbc 7505 43be a544 2bbe
000001a0: ba1a b7bd 0c99 04be 9e53 21bd 192a a9bd
000001b0: b38d de3c 6443 b23c 6fa6 bbbc f44a 0b3d
000001c0: d840 09ba 2750 7d3c 7674 b3bc 2446 f6bd
000001d0: 720d a0bc f11c c2bd 4dfd 7b3c e69c 0bbd
000001e0: 4f96 f33c ac36 dd3c 6602 57bd 129a 9b3c
000001f0: ace1 e63a 730f ebbd 094c 093d 6405 9fbd
00000200: 1843 cd3d f318 e3bc 25da cdbd b658 25be
00000210: f9d3 083e 0148 5d3c 7e02 79bd 82c5 9cbd
00000220: cb11 79bd fe1e b0bb 1507 273c cde0 83ba
00000230: 2ebf 10be 944f 45be 33a4 84bd 711b 64bd
00000240: 1264 4cbd 552e cdbc aa73 4f3d d755 95bc
00000250: d93d 03be 1cd5 36be b9df 9b3d 3847 6ebd
00000260: 1a82 5b3c 6a01 95bb 80ad ee3c c1ce ffbd
00000270: dcca 4cbe 2a96 c4bc dbac 2ebd 6dab 9ebd
00000280: 52e1 babd e51e 083d ca19 d93c 7dc5 303d
00000290: df7c 02be ea16 07bd f166 82be d131 fbbd
000002a0: a894 d7bd e008 113c a5d1 06be b07b e9bb
000002b0: 02fe f0bc 3625 6ebe 7aef 533b 57c3 39bd
000002c0: 4c18 68bd f8ba 993c 253b 8dbd 34e7 8e3d
000002d0: 1ec3 edbd 4429 713d 2de6 173d 4d59 d4bd
000002e0: d308 733c dee6 1cbe bb0d 64bd 3991 73bd
000002f0: 71c8 04bd abd5 0bbd accf eb3c 2bac b53d
00000300: 9d5f fabd 7ae5 503d a7ba 4d3d b552 ab3c
00000310: e95b 96bd 6847 88bd de03 32bd 4a71 223d
00000320: 2ff3 15be 76f9 f83d 55ee 883d 0b27 0e3d
00000330: 018a 9b3d ef1f 863d 4d93 d0bd d4bc 13be
00000340: 3780 73bd f701 8e3c 638d e4bc b8e3 e83c
00000350: 4fa0 83bd 053a bebd 2d2b d5bd 19e4 50be
00000360: 6bfb 543a 6160 73be cb98 e43d dbe9 843c
00000370: dd13 e1bd b88e b0bd 2ff3 86be b7da 15be
00000380: 6aae 0a3c cc67 0c3e 7d29 90bd a626 103d
00000390: bfba 11be 51d4 d4bc bf74 d3bd 2185 ccbd
000003a0: 2f2c 55bc 5dc0 a63c 4b09 db3b a184 82bd
000003b0: 312b 653c 0100 04bd 1e81 f2bd a3fb b5bd
000003c0: e99b 66bd 45c7 d0bd b0bf 3abd e4bb 563e
000003d0: e017 eabd e161 063e eeeb b7bd c7f8 873c
000003e0: 26c6 2abc 3358 c5bd 7fb6 493d 91cd fe3d
000003f0: 7386 7bbd 4efd 43bd e359 ac3d 08b4 803d

fc2.bias f4 [128]
-0.07300409 0.082719564 -0.119945966 0.1788396 -0.028566582 -0.17255113 0.013962552 -0.023734752
0.033449583 -0.09979516 0.08966377 0.02028202 0.10923194 -0.17407659 0.0047289175 -0.11192747
-0.016882885 0.12500602 -0.00058672373 -0.18531458 0.080641344 0.1588594 -0.05705386 0.03795068
0.11446098 -0.00833682 -3.4415498e-05 -0.018096602 -0.05651594 -0.116562635 -0.038072687 -0.090968415
-0.017379928 0.019331953 -0.06560296 -0.041029952 -0.12481434 -0.0643724 -0.012526102 -0.045500424
0.018218208 0.037313618 0.004440208 0.12734768 0.039000355 0.0020626362 -0.0097315 0.004383404
0.040090643 0.10779707 0.0034080076 0.09690391 -0.12209264 0.113102086 -0.060041998 -0.067967996
-0.08089346 -0.04155974 -0.05926171 -0.00368258 -0.098789215 0.07043541 -0.023507949 -0.12377319
0.10897358 0.02809044 -0.029423492 0.08370881 -0.021759218 -0.013581122 -0.08371704 -0.1025519
0.06621846 -0.034336537 0.08067435 0.010533047 0.13155173 -0.11808192 0.100892246 0.10509424
-0.024118857 0.02135824 0.10576074 0.10395895 -0.04785461 0.071968384 0.09023557 0.020882344
-0.065195546 -0.02807412 -0.030118875 0.11499033 -0.06508801 -0.11337112 -0.021004237 0.038689006
0.07481452 -0.08989821 -0.025032653 0.023264704 0.1647452 -0.089474395 -0.11021794 0.07743777
0.06423958 0.13711219 -0.08825528 -0.021421073 0.017993975 -0.085304186 -0.01699714 0.08831938
-0.075680345 -0.007423916 0.086353295 -0.090576105 0.1240657 0.011132211 0.031373635 0.05063718
0.080933355 -0.15219653 0.012522194 -0.0043689786 0.14366207 -0.036180295 0.11234043 0.05645986
00000000: 2b83 95bd e068 a93d 3ba6 f5bd ba21 373e
00000010: 7704 eabc 3eb1 30be 30c3 643c 626f c2bc
00000020: 6e02 093d 6861 ccbd a3a1 b73d 7b26 a63c
00000030: ffb4 df3d 2241 32be 09f5 9a3b 3b3a e5bd
00000040: fa4d 8abc 9401 003e 5dce 19ba 1bc3 3dbe
00000050: 4a27 a53d 0aac 223e 4fb1 69bd 2c72 1b3d
00000060: 856a ea3d 2897 08bc 5c59 10b8 533f 94bc
00000070: 427d 67bd 64b8 eebd 1bf2 1bbd a64d babd
00000080: 5a60 8ebc 0b5e 9e3c d85a 86bd 060f 28bd
00000090: a99e ffbd add5 83bd 483a 4dbc a75e 3abd
000000a0: 5a3e 953c 2ad6 183d 2a7f 913b 6e67 023e
000000b0: d6be 1f3d 4b2d 073b df70 1fbc a8a2 8f3b
000000c0: 1636 243d b6c4 dc3d e158 5f3b 8f75 c63d
000000d0: b50b fabd 11a2 e73d 99ee 75bd ce32 8bbd
000000e0: 78ab a5bd 8c3a 2abd 68bc 72bd 7157 71bb
000000f0: 0052 cabd 7140 903d be93 c0bc cc7c fdbd
00000100: 8a2d df3d ec1d e63c 8909 f1bc 866f ab3d
00000110: 6340 b2bc 5b83 5ebc d773 abbd bb06 d2bd
00000120: 8b9d 873d 78a4 0cbd 9838 a53d cd92 2c3c
00000130: 7fb5 063e efd4 f1bd 98a0 ce3d a63b d73d
00000140: e994 c5bc 7af7 ae3c 1699 d83d 6ee8 d43d
00000150: 3203 44bd 2964 933d 6dcd b83d 7311 ab3c
00000160: 3e85 85bd b2fb e5bc dcbb f6bc 0d80 eb3d
00000170: dd4c 85bd 1e2f e8bd 1411 acbc 5d78 1e3d
00000180: 5b38 993d 8d1c b8bd 4711 cdbc 9f95 be3c
00000190: f7b2 283e 5a3e b7bd f1b9 e1bd b297 9e3d
000001a0: 0a90 833d 2367 0c3e 2fbf b4bd 3f7b afbc
000001b0: 1a68 933c f6b3 aebd 963d 8bbc cbe0 b43d
000001c0: 4cfe 9abd 5244 f3bb ffd9 b03d f77f b9bd
000001d0: 2816 fe3d e163 363c a481 003d ef68 4f3d
000001e0: 63c0 a53d 68d9 1bbe e329 4d3c a629 8fbb
000001f0: 261c 133e ca31 14bd bd12 e63d 7442 673d

fc3.weight f4 [64, 128]
0.018688533 -0.062774405 0.029329551 -0.012220091 0.0524566 -0.047668155 -0.004795625 -0.03972178
0.016448727 0.087778166 -0.082064345 -0.0029356286 -0.05411599 0.027303569 0.043274753 0.059808426
0.08757113 -0.006564977 -0.07296655 0.037793268 -0.17508504 -0.014495301 0.03818081 -0.12927784
0.036489442 -0.016882213 0.0070874956 0.010478937 -0.017492952 0.031600904 -0.08165083 -0.048336152
0.018732784 -0.087771654 0.030523831 0.030889576 -0.10568544 0.007940323 -0.08645825 0.04321655
-0.0651348 0.16512844 -0.014303299 -0.052536506 0.10733986 0.117682084 0.1510203 0.017522505
-0.050452635 0.13391457 0.060342547 0.09841704 -0.009510595 -0.031529196 0.012588404 -0.042076867
-0.053176247 0.060792036 0.12380022 -0.09927962 0.11533276 0.03892696 0.044688206 0.027967354
-0.04282434 -0.029206548 0.026042491 -0.018588735 0.053197265 -0.05259104 -0.033103075 -0.05061979
-0.0073644337 -0.08301641 -0.048429355 0.060467403 -0.005978522 0.05369514 0.012011986 -0.054094527
0.012205249 0.008939024 -0.018272521 0.02892772 0.06849793 -0.0037032573 -0.1899189 -0.09929498
-0.008387267 0.02907544 0.05941065 -0.06902075 -0.032969933 0.0661594 0.018723024 -0.15527046
-0.094528556 -0.040056273 0.021213768 0.09927383 -0.06604316 0.08249633 -0.0649196 -0.025877872
0.020221809 -0.042259134 0.06863744 -0.083180815 0.008206815 -0.04184607 0.041770194 -0.042710353
0.02318454 -0.07348919 0.055267427 0.07418581 -0.070244186 -0.04807875 0.034222607 -0.02326532
0.11767859 -0.029937774 -0.061201554 -0.041302748 0.14301799 0.040906236 -0.097842865 0.008795736
0.15699272 -0.19741185 0.059119944 0.083112925 -0.07785409 0.0062774727 0.13537627 0.0012355618
-0.01645429 -0.012918917 0.006343983 -0.02917276 -0.057605144 0.040633515 -0.043771017 -0.009828864
0.08727414 0.005765988 -0.2420466 -0.049136445 -0.22687788 0.152868 0.026064223 -0.039520137
0.036652703 -0.07785759 -0.09262971 0.0051093637 0.091706544 0.07245588 0.19053337 -0.08760636
0.06958462 -0.05328188 0.0872581 0.055463586 0.0018522427 -0.12864083 -0.0021687986 0.0351321
0.020504937 0.15961659 -0.02115325 0.038025733 0.07372184 0.1851573 0.40620995 -0.16750266
0.16589488 0.031083407 0.29438615 0.17857653 0.06363696 -0.019234493 0.048789795 0.050143056
-0.07276197 0.012832112 -0.32255262 0.047211844 -0.034373738 -0.04708487 -0.0430225 -0.29119053
-0.34848458 -0.12139777 -0.14097477 0.21443571 -0.043422293 0.076051176 -0.15307245 0.07420133
-0.25189385 -0.08592288 -0.11873277 -0.019637607 0.07318526 0.016187133 0.027952358 0.05603193
0.35010406 -0.07121283 0.017856095 0.1918586 0.06641188 -0.24308157 -0.37982646 -0.21596065
0.033526357 -0.01346067 0.26291975 0.04689997 -0.11777388 0.024537737 0.011406843 -0.220081
-0.09295166 0.050010316 -0.23717496 0.31688312 0.14720432 -0.07138026 0.06934166 0.15170892
0.0041574067 0.0780805 0.056941517 -0.032880865 -0.3481438 -0.06672633 -0.04587794 0.09569986
0.02073489 -0.22944789 0.13362157 -0.019355064 0.024337895 -0.07863905 -0.36688876 0.096601814
0.1568322 -0.05538233 0.018417703 -0.025338108 -0.11236097 0.13935605 -0.15703866 0.109929144
00000000: b218 993c de8f 80bd 8744 f03c c736 48bc
00000010: bbdc 563d af3f 43bd 9e24 9dbb 4eb3 22bd
00000020: 7bbf 863c 0ac5 b33d 5a11 a8bd ad63 40bb
00000030: baa8 5dbd bcab df3c de40 313d aef9 743d
00000040: 7e58 b33d 051f d7bb 7d6f 95bd 1dcd 1a3d
00000050: 7e49 33be b37d 6dbc 7b63 1c3d 6961 04be
00000060: f475 153d 914c 8abc 393e e83b d9af 2b3c
00000070: 614d 8fbc f36f 013d 8d38 a7bd 21fc 45bd
00000080: 7f75 993c a0c1 b3bd 1d0d fa3c 230c fd3c
00000090: 9c71 d8bd 2118 023c 0611 b1bd d603 313d
000000a0: 6565 85bd 6e17 293e 6258 6abc 8530 57bd
000000b0: 00d5 db3d 4e03 f13d 11a5 1a3e 5b8b 8f3c
000000c0: 6ca7 4ebd e720 093e bf29 773d e08e c93d
000000d0: 54d2 1bbc c224 01bd 983f 4e3c cb58 2cbd
000000e0: 56cf 59bd 1201 793d f88a fd3d 1d53 cbbd
000000f0: 9533 ec3d e071 1f3d fb0a 373d cb1b e53c
00000100: 9368 2fbd 9242 efbc 1057 d53c 6747 98bc
00000110: 60e5 593d b469 57bd 1797 07bd b256 4fbd
00000120: 5951 f1bb 8204 aabd dc5d 46bd abac 773d
00000130: 7ae7 c3bb 6fef 5b3d eccd 443c 3992 5dbd
00000140: 86f8 473c fc74 123c 41b0 95bc d3f9 ec3c
00000150: a548 8c3d 59b2 72bb 1a7a 42be 2b5b cbbd
00000160: bf6a 09bc 9e2f ee3c 9558 733d c05a 8dbd
00000170: 7b0b 07bd 947e 873d 0761 993c 38ff 1ebe
00000180: 3098 c1bd 0c12 24bd 7fc8 ad3c 1450 cb3d
00000190: a341 87bd d6f3 a83d 91f4 84bd d5fd d3bc
000001a0: 35a8 a53c ea17 2dbd c991 8c3d b45a aabd
000001b0: e175 063c c966 2bbd 3917 2b3d 0df1 2ebd
000001c0: 81ed bd3c 8081 96bd 1960 623d bbee 973d
000001d0: 2fdc 8fbd 39ee 44bd 012d 0c3d ea96 bebc
000001e0: 7901 f13d 1040 f5bc 7bae 7abd 122d 29bd
000001f0: 4f73 123e 4c8d 273d d761 c8bd fe1b 103c
00000200: b3c2 203e 5526 4abe c127 723d 1c37 aa3d
00000210: f771 9fbd 42b3 cd3b 14a0 0a3e 93f2 a13a
00000220: 26cb 86bc dea9 53bc 30e1 cf3b b6fb eebc
00000230: 5ff3 6bbd 546f 263d 3d49 33bd 3e09 21bc
00000240: c9bc b23d 9df0 bc3b 10db 77be 4c43 49bd
00000250: ad52 68be 6e89 1c3e a384 d53c dedf 21bd
00000260: 2521 163d cd73 9fbd a5b4 bdbd 736c a73b
00000270: a4d0 bb3d c063 943d 2e1b 433e f76a b3bd
00000280: 6282 8e3d 1a3e 5abd 60b4 b23d c92d 633d
00000290: f4c6 f23a 6cba 03be 6722 0ebb ade6 0f3d
000002a0: f8f9 a73c 8872 233e 9549 adbc dfc0 1b3d
000002b0: 7afb 963d e099 3d3e c0fa cf3e d185 2bbe
000002c0: 59e0 293e a1a2 fe3c c8b9 963e c4dc 363e
000002d0: 1854 823d a891 9dbc cfd7 473d ce62 4d3d
000002e0: 3a04 95bd c73d 523c 9e25 a5be 3561 413d
000002f0: 7acb 0cbd 11dc 40bd 5c38 30bd ed16 95be
00000300: 926c b2be 659f f8bd b15b 10be 0995 5b3e
00000310: 93db 31bd b8c0 9b3d 06bf 1cbe def6 973d
00000320: 3bf8 80be 56f8 afbd 2b2a f3bd 0cdf a0bc
00000330: 27e2 953d e19a 843c 58fc e43c bd81 653d
00000340: d740 b33e 08d8 91bd f246 923c 9576 443e
00000350: f402 883d 60ea 78be 9d78 c2be ca24 5dbe
00000360: ef52 093d 248a 5cbc 6b9d 863e 2f1a 403d
00000370: 6f33 f1bd 5d03 c93c c4e3 3a3c ea5c 61be
00000380: 715d bebd 9ed7 4c3d fedd 72be 813e a23e
00000390: bbbc 163e d02f 92bd 0003 8e3d 9559 1b3e
000003a0: db3a 883b abe8 9f3d 823b 693d 16ae 06bd
000003b0: e73f b2be d0a7 88bd 82ea 3bbd 4afe c33d
000003c0: 37dc a93c 63f4 6abe 18d4 083e 838e 9ebc
000003d0: 4460 c73c 830d a1bd d8d8 bbbe 2cd7 c53d
000003e0: 9f98 203e 95d8 62bd b9e0 963c dd91 cfbc
000003f0: 821d e6bd 5ab3 0e3e bece 20be 8822 e13d

fc3.bias f4 [64]
-0.026453042 0.099773586 0.1389267 0.1542841 -0.041280385 -0.023393203 0.09425658 0.05844614
-0.013489082 0.09206948 -0.026292214 0.11628924 0.027571777 -0.10790375 0.014021039 0.0134995
0.10898077 0.03013244 0.10916998 -0.12016847 -0.09652435 -0.058955476 0.13327529 -0.055147324
0.124178134 0.12625669 -0.057583638 0.08329364 0.055298258 0.09063805 -0.15840481 -0.18853538
-0.077011466 -0.060683303 0.030957023 -0.100708544 -0.089893036 0.06608033 -0.059242956 0.034434423
-0.008407682 0.0953746 0.093383916 0.05017396 0.13616267 0.124745265 0.21281305 0.12276583
0.08432264 0.07529075 0.06547249 -0.03841024 -0.016862884 -0.017945182 0.071360804 0.142099
0.176055 0.0417166 0.0761764 0.14163996 0.059599932 0.1485352 0.14386173 -0.044135936
00000000: 0db4 d8bc 1856 cc3d cd42 0e3e a7fc 1d3e
00000010: 9f15 29bd 1aa3 bfbc 9809 c13d 3865 6f3d
00000020: 5001 5dbc ec8e bc3d c562 d7bc 0e29 ee3d
00000030: 35de e13c a4fc dcbd 80b8 653c 022d 5d3c
00000040: 4f31 df3d 4fd8 f63c 8394 df3d e31a f6bd
00000050: 8fae c5bd 4c7b 71bd 5179 083e 29e2 61bd
00000060: 1b51 fe3d 6f49 013e d2dc 6bbd db95 aa3d
00000070: 6d80 623d 71a0 b93d df34 22be 6b0f 41be
00000080: 30b8 9dbd 0e8f 78bd 9599 fd3c 4840 cebd
00000090: d719 b8bd 2055 873d bea8 72bd 1c0b 0d3d
000000a0: 60c0 09bc c253 c33d 1140 bf3d 3683 4d3d
000000b0: 3a6e 0b3e 727a ff3d aaeb 593e a76c fb3d
000000c0: 59b1 ac3d 0932 9a3d 7116 863d 0e54 1dbd
000000d0: 0824 8abc c601 93bc 9d25 923d 6682 113e
000000e0: c347 343e 07df 2a3d 5f02 9c3d 110a 113e
000000f0: 0f1f 743d 9d19 183e 7d50 133e e2c7 34bd

fc4.weight f4 [38, 64]
-0.013601073 -0.26878995 0.41791326 0.10280376 -0.100878835 0.20070647 0.21783702 0.30557358
0.028963536 -0.27546543 -0.19068348 0.28199318 0.18685932 -0.0871194 0.24887903 -0.004057561
0.13360319 0.16903228 0.1750463 -0.00076530315 -0.10860639 0.23049878 0.10480714 -0.018517764
0.111116186 -0.2824411 -0.13096695 -0.17047967 0.3190909 0.18774705 -0.079811916 -0.084296726
-0.07321225 -0.05141114 -0.24432133 -0.1656093 -0.060060516 0.061105713 0.21334197 -0.20083402
-0.06062998 -0.33659178 0.43797553 0.021228123 0.045175772 0.15965188 0.08577646 0.2830164
0.22964112 0.05819119 -0.18805932 -0.23075761 -0.05606827 -0.042401046 -0.27144346 0.08203193
0.15202798 -0.28392085 0.034988854 0.21985696 -0.14151523 0.14421597 0.1000517 -0.13505566
-0.0055226237 -0.05440153 -0.06935528 -0.11931607 0.10336317 0.007403657 -0.07248129 -0.049339622
-0.06852065 -0.06450325 -0.04059778 0.043352127 0.034312144 0.04553497 -0.07383756 -0.06749128
-0.10388321 0.03842707 0.04675083 0.12151344 -0.06587313 -0.10945134 -0.014417216 0.031216979
-0.0019794554 0.075751066 0.099035546 -0.11102998 -0.05048284 0.045826346 0.10159384 0.0042194724
-0.04885608 -0.008354977 0.104737416 0.014173955 0.116490394 -0.059082374 0.06905159 0.01745142
0.07373391 0.056965083 -0.11077158 -0.06262733 0.03881429 0.014796659 -0.07515454 -0.108544916
-0.0631403 0.040468797 -0.060356885 0.06042832 -0.11573398 -0.005049169 0.118556544 0.020655975
0.12228668 0.05664313 0.09307058 -0.044578582 0.0451611 -0.06529185 -0.0706072 0.049061
0.04236035 -0.108290195 -0.10801312 0.10823806 0.059768364 0.023877755 0.018687814 -0.12219712
-0.07909219 -0.07692593 0.122002795 -0.02976358 0.055873215 -0.018779635 0.115496784 0.065873206
0.012812227 0.11361359 -0.009968832 -0.09785479 0.015741587 0.0500568 0.048348844 0.04315102
-0.064496055 0.1222823 0.11662923 0.048947126 0.089262396 0.010829821 -0.042893395 0.011636838
-0.09645641 -0.012842789 0.0046443194 0.07765044 -0.12085135 -0.06977634 -0.015492111 0.013733432
0.082366765 -0.076774836 0.02404201 0.06063254 0.02685365 0.096988246 -0.11908518 -0.022797644
-0.12183891 0.011186436 -0.027438834 0.01704003 0.027387917 0.06995992 0.023666695 0.0025423765
0.02368404 -0.012498975 0.09713346 0.048755854 -0.015308723 0.04068175 0.120126516 0.041650176
0.04186526 0.04611993 0.08843395 0.009670839 0.076669276 0.021472469 -0.032094732 0.050532162
-0.10334958 0.11961174 -0.002340749 0.027290061 0.09310259 -0.074228376 -0.09602289 0.12168369
0.087215796 -0.09950687 -0.054748237 0.023000062 -0.007178873 0.078468084 0.11233541 0.0987594
-0.052425534 0.034028664 0.0070291013 0.11048435 0.030332595 -0.020109817 0.031239435 0.050558105
-0.031142801 0.09782253 0.101565525 -0.074744314 -0.0036770105 0.06682767 0.0558071 0.10684012
0.012808695 -0.113502264 0.0021366477 0.013081312 -0.115176156 0.06792201 -0.07161705 -0.055611655
0.004155457 0.0033911765 0.09033373 -0.07569973 -0.050256222 -0.039058074 -0.118119866 -0.11949344
-0.03380239 0.026802555 0.05337338 -0.11517659 0.10170376 -0.06929211 -0.07053499 -0.08728045
00000000: 09d7 5ebc d69e 89be baf8 d53e c78a d23d
00000010: 9099 cebd ff85 4d3e ab10 5f3e 2474 9c3e
00000020: f044 ed3c ce09 8dbe 8842 43be 6961 903e
00000030: 0d58 3f3e a86b b2bd 25da 7e3e 4af5 84bb
00000040: 46cf 083e cc16 2d3e 563f 333e a09e 48ba
00000050: 076d debd df07 6c3e 20a5 d63d 91b2 97bc
00000060: e290 e33d 1f9c 90be 331c 06be 3992 2ebe
00000070: e25f a33e c340 403e 6e74 a3bd c3a3 acbd
00000080: 4ef0 95bd 7d94 52bd 5f2f 7abe 7c95 29be
00000090: 0402 76bd fc49 7a3d 5176 5a3e 6fa7 4dbe
000000a0: 2457 78bd c255 acbe 543e e03e 9ae6 ad3c
000000b0: 3b0a 393d c87b 233e 92ab af3d 87e7 903e
000000c0: 0b27 6b3e e359 6e3d 9f92 40be b94b 6cbe
000000d0: d8a7 65bd b8ac 2dbd a3fa 8abe 5b00 a83d
000000e0: 39ad 1b3e 135e 91be 7950 0f3d 2f22 613e
000000f0: 5ee9 10be 5aad 133e e8e7 cc3d 084c 0abe
00000100: 20f7 b4bb 24d4 5ebd 240a 8ebd fc5b f4bd
00000110: 12b0 d33d 609a f23b 1271 94bd 5818 4abd
00000120: 8e54 8cbd 481a 84bd dc49 26bd 0092 313d
00000130: e48a 0c3d e082 3a3d 2638 97bd de38 8abd
00000140: b8c0 d4bd b465 1d3d cc7d 3f3d 0adc f83d
00000150: 7ee8 86bd 0628 e0bd 3036 6cbc c0ba ff3c
00000160: c0b9 01bb 6023 9b3d 26d3 ca3d b063 e3bd
00000170: 18c7 4ebd 68b4 3b3d 6e10 d03d 8043 8a3b
00000180: 501d 48bd 50e3 08bc 9280 d63d e039 683c
00000190: 8492 ee3d 5c00 72bd ec6a 8d3d 48f6 8e3c
000001a0: ce01 973d 3854 693d 36dc e2bd c242 80bd
000001b0: bcfb 1e3d b06d 723c a0ea 99bd cc4c debd
000001c0: b44f 81bd 9cc2 253d c838 77bd b083 773d
000001d0: f005 edbd 8073 a5bb c6cd f23d b836 a93c
000001e0: 7071 fa3d a002 683d ca9b be3d 0898 36bd
000001f0: d8fa 383d bcb7 85bd 829a 90bd 30f4 483d
00000200: 0c82 2d3d 40c7 ddbd fc35 ddbd eaab dd3d
00000210: accf 743d 489b c33c 3017 993c 7c42 fabd
00000220: 16fb a1bd 588b 9dbd 9adc f93d c0d2 f3bc
00000230: 50db 643d c0d7 99bc 9489 ec3d 88e8 863d
00000240: 60ea 513c 3eae e83d 5054 23bc 1868 c8bd
00000250: 80f4 803c 5c08 4d3d 7009 463d 20bf 303d
00000260: 8216 84bd 246f fa3d 4edb ee3d c87c 483d
00000270: 34cf b63d 906f 313c fcb0 2fbd 70a8 3e3c
00000280: f08a c5bd 906a 52bc 602f 983b 3207 9f3d
00000290: ea80 f7bd e6e6 8ebd a0d2 7dbc 3002 613c
000002a0: e8af a83d 203c 9dbd c0f3 c43c d459 783d
000002b0: 30fc db3c c6a1 c63d eee2 f3bd 20c2 babc
000002c0: ae86 f9bd 5047 373c 68c7 e0bc 8897 8b3c
000002d0: a05c e03c 2647 8f3d a8e0 c13c 009e 263b
000002e0: 0805 c23c 80c8 4cbc e8ed c63d 38b4 473d
000002f0: 70d1 7abc e8a1 263d e404 f63d 6099 2a3d
00000300: e87a 2b3d 40e8 3c3d dc1c b53d 7072 1e3c
00000310: c804 9d3d 08e7 af3c c475 03bd d0fa 4e3d
00000320: f2a8 d3bd 00f7 f43d 4067 19bb 688f df3c
00000330: 92ac be3d 0c05 98bd a6a7 c4bd 4c35 f93d
00000340: 329e b23d 42ca cbbd b03f 60bd a06a bc3c
00000350: c03c ebbb e0b3 a03d 1c10 e63d 5e42 ca3d
00000360: 28bc 56bd a461 0b3d 6054 e63b 9e45 e23d
00000370: 107c f83c 58bd a4bc d8e9 ff3c 0416 4f3d
00000380: 301f ffbc 2e57 c83d 9601 d03d 8c13 99bd
00000390: 00fa 70bb f2dc 883d fc95 643d fece da3d
000003a0: 90db 513c e073 e8bd 0007 0c3b 0053 563c
000003b0: 7ae1 ebbd b21a 8b3d f6ab 92bd 0cc9 63bd
000003c0: 802a 883b 803e 5e3b e400 b93d 7608 9bbd
000003d0: 78d9 4dbd 5cfb 1fbd d4e8 f1bd fab8 f4bd
000003e0: 6074 0abd 0891 db3c 0c9e 5a3d b4e1 ebbd
000003f0: 104a d03d 06e9 8dbd a674 90bd 18c0 b2bd

fc4.bias f4 [38]
0.045591008 0.03323868 -0.004272744 0.0457976 -0.0024633706 0.028793693 0.12459344 -0.052385554
0.016819641 -0.11351986 -0.06047313 -0.10635695 0.046006024 -0.08990985 -0.0842002 -0.012978926
0.03595233 0.106020376 0.080138594 -0.028348342 -0.020511717 -0.11454551 0.0030041337 0.095333144
0.11747189 0.1138922 -0.101327404 0.01106967 -0.057017773 0.009612888 -0.116284475 -0.033609018
-0.0061430335 0.07880008 0.12198089 0.091181725 -0.09525402 -0.04631555
00000000: a3bd 3a3d 4825 083d 6002 8cbb 4496 3b3d
00000010: 8070 21bb c0e0 eb3c d82a ff3d 3c92 56bd
00000020: 58c9 893c 1a7d e8bd acb2 77bd acd1 d9bd
00000030: d070 3c3d a822 b8bd 2871 acbd 90a5 54bc
00000040: c042 133d 3621 d93d b41f a43d c83a e8bc
00000050: 3008 a8bc d696 eabd 00e1 443b 063e c33d
00000060: 1a95 f03d 5040 e93d be84 cfbd 905d 353c
00000070: 788b 69bd 607f 1d3c 8e26 eebd 9ca9 09bd
00000080: 804b c9bb f061 a13d 1ed1 f93d 7cbd ba3d
00000090: 8a14 c3bd 60b5 3dbd
