models/comparison_1000ep_dqn/best_pointwise_dqn_1000ep_dqn.pt (torch, 141576 bytes, 8 tensors)

fc1.weight f4 [128, 56]
00000000: a3eb f73d e327 803c 29b3 6ebd dbe8 013e
00000010: ff40 0d3d d84e 013e 4dd2 083e c748 ef3c
00000020: 48b4 1dbc a2ee 013e f00c aabd 35f1 a2bd
00000030: fe8a 813d 96c3 ca3d 52ef 14bd 6588 e73c
00000040: 95f9 c2bd 94ce 84bd ddcd 49bc d266 89bc
00000050: b36b 8dbd bf5f 98bd 71a0 b6bd 861a de3c
00000060: 1424 753d bd48 d03d fe5b c23d b30e c43d
00000070: c353 78bd 0d6f df3d d553 d7bb cb8d c7bd
00000080: b8e9 75bc c949 073e 4af1 1f3d 5aa0 bf3d
00000090: 49f0 873c 7258 a9bc 0cf6 013d 5420 38bc
000000a0: 003a 6cbc 39f6 49bb 29a3 28bd 8d3a 94bd
000000b0: 0aad d43d 6d95 a2bd 7901 aabd ea57 41bd
000000c0: 217f 633d c1ab 9dbd fd5b 06bb 7f0a 8fbd
000000d0: 72e1 a7bd fcc5 b6bd 6f5b 033e da9f c2bd
000000e0: a4d2 d43d 0657 82bd a049 93bd 2e8d 413d
000000f0: 5c65 2fbc 0fcc ef3d 5162 92bd 8cca 973c
00000100: c9b8 9b3d 869f ee3d 3087 8b3d 90a7 5abd
00000110: 562d 843d 0768 c8bd 7d9a dfbd bb9c 5dbd
00000120: 80e0 8fbd 7b1d 183d add4 76bd 47eb fd3a
00000130: 6130 77bd 69c8 9dbd ae8b dfbc 8ce0 5dbd
00000140: 5743 9dbd 4f2f f43d 1983 9dbd 3ff9 d0bd
00000150: de8d c5bd fe5e a93b 9063 b5bd 32f1 8a3d
00000160: a339 843c 7986 03bd 47e2 bebd eccb 9ebd
00000170: d257 023e 0feb e23d dfcf d6bd 83ce 483d
00000180: 3662 8abd 59b7 913d 4f11 8d3c f06a ac3d
00000190: 8d3b cdbb d1c7 babd f09d eb3d cfb5 5f3a
000001a0: 672f 00ba 25c4 a4bd 767e 02be 3202 72bd
000001b0: 1175 2bbd b8b8 c13d c9b4 75bd 2894 6ebd
000001c0: a415 fe3c a6f6 b5bd d3a1 8cbc 49df eebd
000001d0: 2393 8dbd 8ccc ccbd bc3d 8ebd 90aa 583d
000001e0: 3d3c 943d d8cf 0b3d f326 00be 7889 e2bd
000001f0: e4ed 993d 6523 edbd 5d72 a43d 9cd0 913c
00000200: 4011 7abd d82c 793d e6bb 803d d838 d8bc
00000210: 7135 94bc 0a4c 13bd 8351 f4bd 71db dabc
00000220: a067 01be f456 d03c f084 9e3d 1d2a 193d
00000230: 0547 b6bd 1dab f3bd 1f45 f93d 70fe b13a
00000240: 02fc 293d 5cff d03c 3254 d5bd 0aa8 c33d
00000250: 5061 223d b04e 283d dc1c d7bd 4428 1bbd
00000260: ba64 05be 9006 94bd bd4a a93d e236 d1bc
00000270: 7100 7e3d 77a7 89bb b53b c93c 72b2 913d
00000280: 596d c83b bf6a 04bc 83dd e53d 7b47 263d
00000290: 5dc4 f63d 56db e0bd 6a76 593d ea99 e93d
000002a0: 0a9e 2b3d c552 c83d 3f4a c9bd a23e 683d
000002b0: 3e5e f53d 7e2b ff3c 35f6 983d 7822 a4bd
000002c0: 4b00 553d d5dd 973d dd5c f2bd 8372 a03d
000002d0: 9bfd 553d a54c 033b 5306 1cbd 43ec 073d
000002e0: 7bb2 03be c3c5 02bd fa9a 8c3c 3740 97bd
000002f0: a9bb 5bbd 7e1b 00bd eff0 29bd 4916 53bc
00000300: 2a90 c8bd 2605 bd3d 953b ef3d ced2 ca3d
00000310: c824 00bc c605 33bd 7581 c73c 8969 1ebd
00000320: de71 c93d 6b49 eb3d 350b 063d 0128 b5bc
00000330: 62a6 04be 1ff8 2bbd 0a39 013e 8ccc f33d
00000340: 55d1 83bd 4ce6 13bc 82c8 03be 6c49 e73c
00000350: dab2 02bd b503 953d 1353 fdbc eae9 b6bd
00000360: f6c9 dfbd 10a8 f13d 5cd2 be3d 4f74 063b
00000370: 2cd2 9d3d 546c 823d 9649 893d 7cee d1bd
00000380: 458f 58bd 08e5 263d d459 dcbd 4841 d43c
00000390: 4c29 ddbd 05e3 00bd 0012 163d 7326 cf3d
000003a0: a896 f1bc 1499 9c3d 21e5 dcbd eb63 c5bd
000003b0: 0178 b93d 79a8 293d 80b7 72bd 7e0c cf3d
000003c0: 803c 5ebc 7eec f33d f62a 52bd ddfa 143d
000003d0: f4fc 01be 89dd d53b 8af9 01bd d7a6 6b3d
000003e0: b5cd 4dbd cb3a f73d a17c d93d b94f e3bb
000003f0: 2cb2 5c3d 08f6 f8bd dc43 0f3d 9063 a1bd
0.12105491 0.01564402 -0.05827633 0.12686484 0.034485813 0.12627733 0.13361473 0.029209508
-0.009625502 0.12688687 -0.08303249 -0.07956163 0.06325339 0.09900586 -0.036361046 0.02826328
-0.0952026 -0.06484714 -0.012317148 -0.016772661 -0.069053076 -0.07440137 -0.089173205 0.027112257
0.05984886 0.10170124 0.09490202 0.09573116 -0.060626756 0.10909853 -0.006571273 -0.09743842
-0.015009336 0.1321174 0.03904847 0.093567565 0.01659407 -0.020672057 0.03172879 -0.011238176
-0.014418125 -0.0030816926 -0.041171227 -0.0723773 0.10384567 -0.07938657 -0.08301062 -0.047202982
0.05554116 -0.07698775 -0.0020501607 -0.06984424 -0.08197297 -0.08924481 0.12827848 -0.095031455
0.10391739 -0.06364255 -0.07191777 0.04725378 -0.010705318 0.11708843 -0.071476586 0.018529199
0.07603604 0.116515204 0.06812894 -0.053382456 0.0645396 -0.09785467 -0.10918138 -0.054104548
-0.07025242 0.03713749 -0.060261417 0.0019372486 -0.060348872 -0.07704241 -0.027288284 -0.054169223
-0.0767886 0.11923086 -0.076910205 -0.1020379 -0.096462 0.0051687947 -0.08856881 0.067842856
0.016140765 -0.032110665 -0.09320503 -0.07753739 0.12728813 0.1107999 -0.10488867 0.04902507
-0.067570135 0.07115049 0.017220167 0.08418834 -0.0062632025 -0.09120143 0.115047336 0.00085338665
-0.0004889876 -0.08045224 -0.12743554 -0.059084125 -0.04185969 0.094590604 -0.059986863 -0.05824676
0.031016178 -0.08884935 -0.017167008 -0.11663682 -0.0691283 -0.09999952 -0.06945369 0.052897036
0.07238052 0.034133762 -0.12514858 -0.11061376 0.07516077 -0.115790166 0.080296256 0.017799668
-0.061051607 0.060833782 0.06285839 -0.026394293 -0.01809189 -0.03596119 -0.119296096 -0.026715966
-0.12637186 0.025432087 0.077401996 0.037393678 -0.08900265 -0.11897872 0.12171387 0.0013579857
0.0415001 0.02551239 -0.104164496 0.09553535 0.039643586 0.041090667 -0.10503551 -0.037880197
-0.13026705 -0.07227814 0.08266208 -0.025538865 0.06201214 -0.0042008716 0.024564603 0.07114114
0.006116551 -0.008082091 0.11223891 0.040595513 0.12049172 -0.10979335 0.053091444 0.1140631
0.041898765 0.09781412 -0.098286144 0.056700356 0.11980866 0.031148668 0.07468835 -0.08014387
0.052002233 0.07415358 -0.118341185 0.078343414 0.05224381 0.0020034697 -0.03809197 0.0331843
-0.12861054 -0.03192688 0.017163742 -0.07385295 -0.053645764 -0.03127622 -0.041489538 -0.012883731
-0.09793122 0.092294976 0.11681286 0.09903489 -0.007821269 -0.043706678 0.024353722 -0.038674865
0.098361716 0.11488613 0.03272553 -0.022113802 -0.12954095 -0.041984674 0.12619415 0.119042486
-0.06436411 -0.009027075 -0.12869456 0.028233252 -0.031908847 0.07276098 -0.030923402 -0.08931334
-0.10927193 0.117996335 0.093174666 0.0020516103 0.07706103 0.06368318 0.067034885 -0.102505654
-0.052871007 0.040745765 -0.10759321 0.025910035 -0.107988924 -0.031466503 0.03663826 0.101147555
-0.029490784 0.07646385 -0.1078589 -0.096381985 0.09056092 0.041420434 -0.05925703 0.101098046
-0.013564229 0.11910342 -0.051310502 0.036372054 -0.1269415 0.006526653 -0.03173212 0.057532158
-0.050245006 0.12071761 0.10619474 -0.006936994 0.053880855 -0.12156302 0.034976825 -0.07880318

fc1.bias f4 [128]
00000000: 4d4d 933d cc21 dabd 3492 74bd 7758 d03d
00000010: 1118 40b8 94dd 413d 91cd b93d c751 abbd
00000020: 3b7d 00be 290e a23d 5be1 da3d 6bc6 7f3d
00000030: 1a1d c83d 4ff5 dd3d b7a6 10bc 8830 053e
00000040: 3347 8fbb 754f e6bd 06ae 873d c65f 67bb
00000050: 17d1 01be 7a83 a4bd cd0e 983d d0f8 febd
00000060: 50bf 883c c361 3f3d b08e 5fbd 045a c0bc
00000070: 3366 a33d e2a7 873d f509 b03c b72c 043e
00000080: 29f4 07bd 1490 61bd 3dc5 f33d 76d1 853d
00000090: f889 d93d 80e2 a2bb d86c eebd e819 b23d
000000a0: 6190 ed3d e53e ae3d 232e ea3d 8b4e eb3a
000000b0: 0a41 f13d 22a7 043e c858 f53d 6047 75bd
000000c0: 1992 80bd b34e 67bd 822c 3e3c 1bca ce3d
000000d0: 63de 10bd 3aed 97bc 35ac 673c 3348 a93d
000000e0: d07d 243c cf0c eb3d d13d e33c dd4a fd3d
000000f0: 0212 bc3c ea21 9a3c 9b48 4bbd 2794 5b3d
00000100: f749 64bd c539 f03d 4aa0 893d 0222 003e
00000110: 9613 c73d 83de 06bd cf3c da3d ddca 68bd
00000120: 6b07 df3c 4683 913c d6ce 793d 143e 6c3c
00000130: 051f 8abd 9d0a 94bd c555 b43b 6e27 a43d
00000140: fb75 923d 228d f13d 9cd4 4d3d f2ea 143c
00000150: f133 3ebd c94f 67bd b5e1 c53d 7f31 c23c
00000160: 6d1b 9abd cddc d6bd 291f 053e c9a7 7fbd
00000170: ed14 97bd a230 febd 978c e8bd 9979 e7bd
00000180: 715d afbc 1d3a d9ba 452f 8ebd 1c1f 023e
00000190: bda4 a5ba a0a5 83bd e879 13bd 8681 eebd
000001a0: dcf9 b4bd 4bcb c93c ff69 9ebd 5813 a43d
000001b0: c2d4 be3d 6d7e a2bd 01b6 863d 8317 c1bd
000001c0: f238 dfbd 6262 dabd 4d93 3ebd bdd7 a6bd
000001d0: 7e55 713d f4fd b73d c6fe ccbd a86e 9bbd
000001e0: 699e 9ebd 60fc 02be 2d90 d4bd d0dc 663c
000001f0: d64d c63c 6214 e2bd dd2d b13d d5e9 d43d
0.07192478 -0.106509775 -0.059709743 0.10173123 -4.579878e-05 0.047330454 0.09072412 -0.08365207
-0.12547772 0.07912857 0.106875144 0.062445085 0.09771176 0.108378045 -0.00882881 0.13006794
-0.0043725013 -0.11245624 0.06624989 -0.0035304888 -0.12677418 -0.0803289 0.07424698 -0.12449801
0.016692787 0.046724092 -0.054579437 -0.023480423 0.07978477 0.06623818 0.021489123 0.12907682
-0.033191834 -0.055069044 0.119028546 0.06534092 0.106220186 -0.0049708486 -0.11641854 0.086963475
0.11599804 0.0850809 0.11434581 0.0017952485 0.11779983 0.12954381 0.11979824 -0.05988252
-0.06277866 -0.056471538 0.011607291 0.10097142 -0.035368335 -0.018545736 0.014140178 0.08265724
0.010039762 0.114770524 0.027739437 0.12367795 0.022957806 0.018815 -0.04962979 0.053608086
-0.0557346 0.11729769 0.06720026 0.12512973 0.097205326 -0.032927047 0.106561296 -0.05683409
0.027225217 0.017762791 0.06098827 0.014419097 -0.06744198 -0.07228587 0.0055033886 0.08015333
0.07151409 0.11794497 0.05025159 0.009089218 -0.046436254 -0.056472573 0.09662191 0.023705242
-0.07524762 -0.10491333 0.13000168 -0.06241587 -0.07377038 -0.1241162 -0.113549404 -0.1130249
-0.021406861 -0.0016573105 -0.0694261 0.1270718 -0.0012637597 -0.06428075 -0.03600493 -0.116457984
-0.088367194 0.02463307 -0.07735061 0.08011502 0.09317924 -0.0793427 0.06577683 -0.09428313
-0.10899533 -0.10663296 -0.046527196 -0.081466176 0.058919422 0.089839846 -0.10009532 -0.075894654
-0.07745058 -0.12791586 -0.10379062 0.014090732 0.024207037 -0.11039044 0.08651326 0.103961624

fc2.weight f4 [128, 128]
00000000: 4637 b23d cf79 163c 16e1 303d 5ba6 b3bd
00000010: 1791 283d e63f 58bd 35d1 6d3d a10e a4bc
00000020: 5c46 583d 6915 463c d2ba 973d f2f3 a43d
00000030: 7ed1 54bd 1fd3 303d eb0e 503d a0c9 76bd
00000040: 49b0 7bbd 6920 e0ba 5244 03bd 7701 c03b
00000050: cabd ac3d 82cf 87bd 2e41 8d3d d1e3 83bb
00000060: c45c 06bd fc3d 88bd e69c 8cbd 6a7b 8f3c
00000070: c456 613d 41ee adbd 9db3 80bd 07e6 c6bc
00000080: 193d 0d3d 4d79 1abd b948 e73c 439e ad3d
00000090: 39ab 3fbd 9494 703d 9ee7 f53c cdc7 b3bd
000000a0: ff06 26bd a96d 02bd 0ef4 7a3c 340a 89bd
000000b0: 28c7 47bd db4f b1bc 7882 31bd 5273 0cbd
000000c0: 9443 5aba 99c1 5ebd b1c1 48bd e2e8 52bd
000000d0: 18aa 67bd 45fe 5fbd 375b 5dbd 6a98 1abd
000000e0: 4e5f 93bc 4912 873d dc1a 37bc cabd b1bb
000000f0: 2479 323d 6849 78bd 4522 a93d 2b49 733d
00000100: 4451 3f3c 14c1 a2bd 0f93 86bd a2cd 6cbd
00000110: 066b 16bd e4cf 853d 979f 123d 0d00 183d
00000120: 8923 c1bc e97f 193c bfbd 313c 8502 373d
00000130: 9bc2 c23c 5cba 9fbd c51d a23d 1d90 a2bd
00000140: b655 793d 8893 1c3d b6c3 18bd b819 72bd
00000150: 9eec 953d 72a9 23bd fa7e b83c 25a3 93bc
00000160: d5c5 93bd 7b46 92bd 358a 5dbd 74e6 283d
00000170: 1e21 0c3c 164e f13b f320 2a3d 01a1 a3bd
00000180: 2566 973d 0ce8 1fbc 1f91 61bc a798 96bd
00000190: 6a34 09bd 8e4c 46bd dd4e 9a3d ddca 91ba
000001a0: 5472 973d b0de aebc b565 60bb e406 143d
000001b0: 82d2 0fbd 50dc b1bd 469d 0bbd edc9 963d
000001c0: 19c8 463d da57 303d a587 3b3d 0dea 9bbd
000001d0: 2c34 3f3d ce7b 253d cca7 02bd a66a afbd
000001e0: 7643 b2bd 3f8e 553d 4c51 a73d 5432 af3d
000001f0: fa83 7a3c 7bab 80bd 88de 11bd 35b6 9dbb
00000200: 75ac 4e3d 9049 98bd 7a4e 8ebd db22 7dbd
00000210: 29fa 76bd 0fe9 7a3d e523 8dbd 58f8 a33d
00000220: 73a8 b43d db30 fd3b 2228 0cbd a4ed 96bb
00000230: 3517 10bd 7e05 b43d aa4b 0abd da07 663d
00000240: 28ef 5bbc a34e 60bd a961 fabc 08cb 9f3d
00000250: f8c0 a93c dc7b 893d badd da39 a848 803d
00000260: b692 5b3d be02 1bbc f61f 70bd 5cd0 5e3d
00000270: b9ef 133d b8bb ef3c 13b6 dcb9 c531 733d
00000280: 0be1 b3bd 5a1d a7bc d38a 5d3c 655e c23c
00000290: cdcb 463c e42c 463d 33a6 7b3d 5b8e 3e3d
000002a0: dc66 823d 11fd e5bc bfbb fbbc aa22 64bd
000002b0: 01b6 a1bd 3f87 c83a 1ca8 273d 242f 51bd
000002c0: 6528 3bbd 96bd b2bd 37f0 94bc 8cb7 273d
000002d0: 7e83 7c3d 061b 2f3d f18b 96bd 7535 193d
000002e0: eff4 ff3b 0074 543d 82ed 873d b6bc b0bc
000002f0: 06c5 16bc faef c53c 7c3f 483d dba6 8c3d
00000300: bc09 aa3c a99d 3e3c 9f0c 9c3d e436 0dbd
00000310: 3f9c a93b 02b8 c5bc 90d1 43bd f683 09bd
00000320: 545f 653d 9631 22bd bb67 99bd d791 9f3d
00000330: f451 66bd 670b 7c3c 2414 b13d 3359 a5bc
00000340: 9c37 9b3d e30a e93c e0c9 123d 5e9d aabc
00000350: 91b1 643c 574a 1fbd 648b 7e3d 99cc acbb
00000360: 877c 44bd f8f3 8cbc ecdc a7bd 409e a3bd
00000370: 759d 71bd 081d 79bd 39e6 17bd 9d89 473c
00000380: 602c 063d a99c 83bd fc81 f2bc 2ec0 943d
00000390: 6dbd b33c be80 1b3c 8452 8e3c e640 8f3c
000003a0: 5b05 593d 5bc6 13bd 6543 b23d 5e1d 24bd
000003b0: 0bfd 443c a902 98bd ed3c 433d 302b c4bc
000003c0: ce71 1f3d d070 ac3d 0535 88bd 2ae4 3d3d
000003d0: 29ba 99bd 521d 6c3d 8264 893d 5c36 70bd
000003e0: 0e93 0b3d 73c3 7a3d 34d4 473d 3795 863d
000003f0: 3cc5 e43c 7b91 41bd ffc3 4d3d 27b4 0c3d
0.08701949 0.009184315 0.04318341 -0.08771964 0.041153993 -0.052795313 0.058060843 -0.020026507
0.052801475 0.0120900655 0.0740868 0.080543414 -0.0519576 0.04317009 0.050795477 -0.06025088
-0.061447416 -0.0017099503 -0.032047577 0.0058595496 0.08434637 -0.06631376 0.06897198 -0.0040249606
-0.032803312 -0.066524476 -0.068658635 0.017514903 0.055014387 -0.08492709 -0.062842585 -0.024279607
0.034482095 -0.037713338 0.028232919 0.08477452 -0.04679415 0.058735445 0.03001767 -0.08778343
-0.040534016 -0.03184286 0.015316976 -0.06691399 -0.048773915 -0.021644523 -0.043337315 -0.034289666
-0.000832611 -0.054383848 -0.049012844 -0.051491626 -0.0565587 -0.05468585 -0.054042067 -0.03774301
-0.01798978 0.065952845 -0.011175837 -0.005424236 0.04357256 -0.06061688 0.082584895 0.05939595
0.01167709 -0.07946983 -0.06571018 -0.057813294 -0.03672316 0.065337926 0.035796728 0.037109423
-0.023576515 0.009368875 0.010848462 0.044680137 0.023774436 -0.07799217 0.07915834 -0.07937644
0.060872756 0.038226634 -0.03729602 -0.05910656 0.07320522 -0.039956518 0.022521485 -0.01802213
-0.07215468 -0.07142349 -0.054086883 0.041235402 0.008552818 0.007364045 0.04153533 -0.079896934
0.073925294 -0.009759914 -0.01376751 -0.07353335 -0.03349725 -0.048412852 0.07534573 -0.001112308
0.07394853 -0.02134642 -0.003424031 0.036139384 -0.035112865 -0.086845994 -0.034085535 0.07362733
0.04853067 0.04305253 0.045783658 -0.07613001 0.046680614 0.040401272 -0.031898305 -0.085652635
-0.087042734 0.05213761 0.08169803 0.08554521 0.015290255 -0.06282707 -0.035612613 -0.0048129805
0.050457437 -0.07435906 -0.06948562 -0.06180082 -0.060297165 0.06125742 -0.06891612 0.08006352
0.08821192 0.0077267713 -0.03421796 -0.0046059657 -0.035178382 0.0879011 -0.033763565 0.05615983
-0.0134237185 -0.054762494 -0.030564146 0.07802397 0.020721897 0.067130774 0.000417454 0.06263858
0.05360671 -0.009461103 -0.05862423 0.054397926 0.03611729 0.029264316 -0.00042097326 0.059373636
-0.08783158 -0.020399738 0.013521868 0.023726651 0.012133551 0.048382655 0.061437797 0.04652248
0.06367275 -0.028074773 -0.030729173 -0.05569712 -0.078960426 0.0015299096 0.040931806 -0.051070347
-0.04569282 -0.08727567 -0.01818095 0.04094653 0.06164884 0.04275038 -0.073509105 0.037404496
0.007811181 0.05186844 0.06637098 -0.02157436 -0.0092022475 0.024162281 0.04888867 0.06867763
0.020756595 0.011634269 0.07619595 -0.034476176 0.0051760967 -0.024135593 -0.047807276 -0.033573113
0.055999115 -0.03959807 -0.07490488 0.077914886 -0.0562305 0.015383578 0.0864642 -0.020184135
0.07578966 0.028447574 0.035837054 -0.020826992 0.013958351 -0.038889255 0.062144652 -0.0052734134
-0.04797032 -0.017206177 -0.081964344 -0.07989168 -0.058988053 -0.060818702 -0.03708479 0.012178806
0.032757163 -0.06426365 -0.029602997 0.07263218 0.021940911 0.009491144 0.01737333 0.017487
0.052983623 -0.03607784 0.08704261 -0.04006707 0.012023221 -0.074223824 0.047665525 -0.023946375
0.038926892 0.08419955 -0.06650738 0.046360172 -0.0750621 0.05764515 0.067086235 -0.05864559
0.03407579 0.06122155 0.048786357 0.06571429 0.02792608 -0.04725788 0.050235745 0.034351494

fc2.bias f4 [128]
00000000: 1c0d 943d ee0d b4bd f647 9bbd 6601 603d
00000010: 2d29 89bd c4cd 81bd f5c6 96bd 00fc 9f3d
00000020: 84c4 acbd 4afe 82bd 9d0a 7fbc 107e a4bc
00000030: d662 943a 2680 923d dd84 8f3d 5a6f 49bb
00000040: 6a4c d6bc c6cc 46bd 0127 413c 944c 22bd
00000050: 7de1 6e3d b848 48bd dfe3 29bd d607 3d3d
00000060: 0639 7abc 2067 7bbd 3299 f93c f724 1abd
00000070: f1ec edbb 06dc a7bd 3e12 5fbd 5d61 d63c
00000080: 9368 353d 2cc6 5ebd 0108 233d e45f 8b3d
00000090: 6208 4fbd f2fa 873d 46ce f03b d586 25bd
000000a0: 1260 5a3d 4e7a 7bbd 59ca b2bd d4b4 b13d
000000b0: 2636 e53c a6b4 253d b2e6 fc3b a6ab c2bc
000000c0: ffa4 babc a299 7a3c 983d 963c d662 a93d
000000d0: 3321 2d3d 8f5d a0bb ec0d 703d 1d5a 7a3d
000000e0: d9b2 64bc 13d6 80bd 2d70 313d cf25 02bc
000000f0: b944 ab3d 26c6 84bd 3d72 7d3d c425 9abd
00000100: e7b2 413d 4dff 9dbd 75dd 4e3d 00ed 72bd
00000110: b55b 9cbd 4b1d 80bd d9a5 9c3d e846 98bd
00000120: 0c31 08bd 3daa 13bd 1980 8f3d f31a 84bc
00000130: 02f3 1f3c 211d 933d df25 6abd db4b a23d
00000140: 6417 febc c18f 8ebd 64ef aa3d cec4 ae3d
00000150: 5c38 ab3d 2832 ba3c b962 9f3d ab88 3cbd
00000160: 5788 b43d b2da df3c 89a9 923d 8d57 193d
00000170: d208 4bbd 6286 873d 4c2f 313d 53a3 62bd
00000180: e06c 3f3d eadf adbd b4f9 2bbc ec98 55bb
00000190: 9f4b 4fbd 9779 65bc a608 3c3d 22da 69bb
000001a0: 8639 9f3c 35c5 a5bd 42eb 3dbd e99f 363c
000001b0: 1cd8 6ebd 8355 4f3c 7755 e03c addd b03d
000001c0: f47c 623d 7f5d 9f3c cc42 8bbc c71b 39bd
000001d0: dcfd 3abd d856 13bc e520 9cbd e417 ad3d
000001e0: b753 fabc e631 67bd d2be 373c 4187 873d
000001f0: d61b 753d 0ead 8d3c 33d0 4abb 28ba 313d
0.07229063 -0.087917194 -0.07582085 0.054688834 -0.06697307 -0.06338075 -0.07362167 0.07811737
-0.0843592 -0.06396158 -0.015566495 -0.020079643 0.0011320959 0.071533486 0.070077635 -0.0030736537
-0.026159484 -0.04853513 0.011789084 -0.03962381 0.05832051 -0.048897475 -0.04147708 0.04615005
-0.0152723845 -0.061377645 0.030468557 -0.03763291 -0.0072609116 -0.08196263 -0.054460756 0.026169473
0.044289183 -0.05438821 0.039802555 0.06805399 -0.050545104 0.06639661 0.0073488085 -0.04041179
0.053314276 -0.061395936 -0.08730001 0.08677068 0.027979922 0.040455483 0.0077179307 -0.023763489
-0.022783754 0.015295418 0.018339917 0.082708046 0.04226799 -0.0048939656 0.058607027 0.061121095
-0.013958656 -0.062908314 0.04331987 -0.007943585 0.08362717 -0.06483106 0.061876524 -0.075267345
0.047289755 -0.077147104 0.050504167 -0.059308052 -0.07634679 -0.06255587 0.076488204 -0.07435399
-0.0332499 -0.036051024 0.070068546 -0.016126132 0.009762527 0.0718329 -0.057165023 0.079246245
-0.031017013 -0.06961013 0.083464414 0.08533631 0.08360359 0.022728994 0.07782502 -0.046028774
0.08815067 0.027325962 0.071612425 0.03743701 -0.04956896 0.06617428 0.043257996 -0.05533154
0.04673469 -0.08489974 -0.010496546 -0.003259237 -0.050609227 -0.01400604 0.045906685 -0.0035682996
0.019436609 -0.08094255 -0.046366937 0.011146524 -0.058311567 0.012654665 0.027384503 0.08636031
0.055294946 0.019453762 -0.016999625 -0.045192506 -0.045652255 -0.008992873 -0.07623462 0.084518224
-0.030557496 -0.05644407 0.011214929 0.066175945 0.059841 0.017294433 -0.003094685 0.043390423

fc3.weight f4 [64, 128]
00000000: 0a96 f8bc dc5a 9bbd a961 bbbc 6a37 9c3d
00000010: 3447 e2bc b975 9e3c 05e9 7bbd 8dd1 453d
00000020: 6f05 183d 2042 74bd 11bc 533c 47c3 5a3d
00000030: 70c8 dcbc f8a3 9ebb 4890 40bd bf67 023c
00000040: 3296 673d d725 8dbd e85e 243c 58f7 8fbd
00000050: f542 87bd eeef 613d 7ca8 3abd 863e 003d
00000060: f903 94bd 1e77 41bd 80c1 4dbd 9998 143d
00000070: 1898 463d 6c65 a4bd e6c4 26bc c9be 8abd
00000080: 561b 193d 3484 81bd a91d dabb 5622 403d
00000090: b29f 5b3d 5489 893d f052 813c 951d 453d
000000a0: 0bfe 85bd 0cf6 a93c 06e2 c33c b6a5 36bd
000000b0: 256d 033d bb07 423c a5f7 863c 6577 87bd
000000c0: ffb5 323d 8ee3 70bd 7bdf 43bd 8b3d f8bc
000000d0: bc93 b4bd be77 0bbd 9ea5 63ba b1a2 933d
000000e0: 7d65 d3bc 3666 0dbb 690e 7ebd 1477 873c
000000f0: 6fdc 543c 2a33 4cbd 98d1 433d 8ca4 15bd
00000100: 6b15 683d b27a 913d 39df d7bb 8ca9 2b3d
00000110: d7f4 b0bc 95ef a4bd ff9e 103d 1ac3 b33d
00000120: b626 933d d179 3e3c 7e4f ab3d adfc 4bbc
00000130: 084f 0dbd ca1a 59bd 287a 063d 3ddd 63bd
00000140: 644c 37bd 00d1 893d 3db4 bf3c 1988 a9bd
00000150: 02e4 a33d 4f25 82bd 8a92 993c cd94 35bc
00000160: 7bc4 b63c 9353 93bc 817e ae3d 0d26 59bd
00000170: ecdc 033c fe71 87bd 9efd 6a3d 8bbc f63c
00000180: 10c6 103d b9b5 66bd ad43 b63b 3a0b d2bb
00000190: 89cd 84bd d51f 4a3d 9b6d 84bd c215 99bd
000001a0: bd53 98bd fb64 773d e7b3 5f3d acdf 933d
000001b0: 561c cdb9 d01a c43b d3f7 233d 7ce3 363d
000001c0: 6621 b03d 8c8f 84bd f959 b6bc b620 c0bc
000001d0: 65d5 41bc 570c 5dbd 6c6e 81bd 5890 453d
000001e0: 1bca de3c 1d1e 143d 2906 753c b441 bc3c
000001f0: 6636 8339 823d bfbc 644f 3ebc 1529 9e3d
00000200: a852 afbd f5d7 393c 9fdb cabc 5708 b73b
00000210: b831 a03d f1e8 453d dc4f a4bd d3af 9abd
00000220: fb16 cabc 5b64 4abd 04bc a83d ab09 90bd
00000230: 2120 f43c ae4e 8c3d e7b2 453d 8cf5 8d3d
00000240: 0f8a acbd 42d7 9fbd 5c27 063d c854 893d
00000250: 3ed6 b0bd d877 2abc f545 8339 3ab1 5bbd
00000260: 0302 adbd a187 03bd bcb1 99bd fd53 7bbd
00000270: 8d8f 94bd 29b1 163d 39bb a73d 9b62 7fbc
00000280: a980 1e3d cd43 81bc 1b2a 8d3d 93a6 c93c
00000290: ab27 953d 47f4 383d 6b74 243d 9cd4 a4bd
000002a0: c3fa b83b 1f75 83bd fbcc 98bd 81da 1cbd
000002b0: 13eb a33b cce1 853c a440 123d c3ad 61bd
000002c0: 91a3 9b3d 3a0a 533c 97b4 cc3c 3043 853d
000002d0: 4e6e 40bd b742 523d 9999 813d f4c3 cf3b
000002e0: ca90 fb3c 02a9 ab3d 3db9 6a3d fd6b f0b9
000002f0: 086a d5bc aed6 adbd 7af0 583d 2b40 983c
00000300: 1be1 6dbd a053 333c 32dd 67bb 8a92 7e3c
00000310: 779b 54bc 2f5a 383d 69a5 b0bd e6b4 9e3c
00000320: 5141 c2bb 00e5 773d cbe9 3cbd e8b8 68bd
00000330: 5c19 89bd 21de 7fba ffe0 bd3b 9ddc 38bd
00000340: e83c aabd 662e a5bc 7680 5bbd 589f 193d
00000350: a9f6 17bd dc27 07bd 7a3e 983d feba 12bd
00000360: 8aa0 6bbc ac5b 7ebd 3de7 84bd b71b 4fbd
00000370: fb42 363d caa3 79bd 6cfd 54bd 2200 883d
00000380: da7e 80bd 0d4e 97bc 367b 9c3c e296 363d
00000390: 6c79 5d3d 2986 e6bc 5957 8dbd b2dd 533d
000003a0: baa2 d23b 0896 32bc 9c82 ad3d 008c b3bd
000003b0: 75c2 1dbd 6e24 963d 1321 a53c 5e07 d5bc
000003c0: a2dd 26bd dd42 c63c b633 9cbd 220f 913d
000003d0: 6644 57bd fd75 913c f9f8 8c3d 6e40 8c3d
000003e0: c00a a83d 83fb a63d fa41 c73c 5384 2d3d
000003f0: 7a49 5e3b 85a8 013d 9973 913d 16a0 543d
-0.030344982 -0.075856894 -0.022873716 0.07627757 -0.027621843 0.019343244 -0.06150152 0.048295546
0.037114557 -0.059633374 0.0129232565 0.053408887 -0.026951045 -0.004841324 -0.047012597 0.007959305
0.05653972 -0.06891983 0.010032393 -0.07029599 -0.06604568 0.055160455 -0.045570835 0.031309627
-0.0722732 -0.04723274 -0.050233364 0.03627834 0.04848489 -0.08027157 -0.01017878 -0.06774671
0.037379585 -0.06324044 -0.006656368 0.046907745 0.053619094 0.067156464 0.015786618 0.048123915
-0.065425955 0.020747207 0.023911487 -0.044591628 0.03208651 0.011842663 0.016475508 -0.066145696
0.043630596 -0.058810763 -0.04782055 -0.030302783 -0.088172406 -0.034049742 -0.00086840417 0.07208765
-0.02580523 -0.0021575815 -0.06202546 0.016536273 0.012992009 -0.04985348 0.047807306 -0.036533877
0.05666105 0.071034804 -0.0065878895 0.04190974 -0.021601124 -0.08053509 0.03530788 0.08777447
0.07185118 0.011625723 0.08364771 -0.012450379 -0.0344992 -0.053004064 0.03283134 -0.05563091
-0.044750586 0.06729317 0.023401374 -0.08277912 0.080024734 -0.06354772 0.018746633 -0.01108284
0.022310486 -0.017984187 0.085202225 -0.053014804 0.008048277 -0.06613539 0.057370774 0.030119201
0.035345137 -0.056325648 0.005562267 -0.0064100297 -0.06484515 0.049346764 -0.06466218 -0.07474853
-0.07437847 0.060399037 0.054614928 0.072203964 -0.0003912176 0.0059846416 0.040031265 0.04465054
0.0860012 -0.06472692 -0.0222597 -0.023453098 -0.011830662 -0.053966846 -0.063198894 0.04823336
0.02719598 0.03616153 0.014955082 0.022980548 0.00025026797 -0.023344759 -0.011615608 0.077226795
-0.08560687 0.011342992 -0.024762927 0.005585711 0.07821983 0.048317853 -0.080230445 -0.07553067
-0.024669161 -0.049412113 0.08238986 -0.07033094 0.029800477 0.068509445 0.048266318 0.069316
-0.0842477 -0.07804729 0.03275238 0.06705624 -0.086346135 -0.01040455 0.0002503839 -0.053635813
-0.08447649 -0.032111768 -0.07504603 -0.061359394 -0.07253943 0.036790047 0.08190007 -0.015587474
0.03869692 -0.0157794 0.068927966 0.024615562 0.07282957 0.045154836 0.040150087 -0.080483645
0.0056451275 -0.064188235 -0.07460972 -0.03829432 0.0050023883 0.01634302 0.035706177 -0.055097353
0.07599557 0.012880856 0.024988456 0.065069556 -0.046980195 0.051333155 0.063281246 0.006340498
0.03070869 0.08381845 0.057305563 -0.00045856825 -0.026051536 -0.084882125 0.05296371 0.018585285
-0.058076005 0.010945231 -0.0035379645 0.015537867 -0.012976519 0.04500788 -0.086252995 0.019373368
-0.0059281965 0.060521126 -0.0461214 -0.056816965 -0.0669429 -0.0009760578 0.005794644 -0.04513227
-0.08312398 -0.020163726 -0.053589307 0.037505478 -0.037100468 -0.032996997 0.074337915 -0.03582286
-0.014381537 -0.062099144 -0.06489418 -0.05056354 0.04449747 -0.060947217 -0.051999494 0.0664065
-0.06274195 -0.018469835 0.01910172 0.044577487 0.054070875 -0.028140144 -0.06901426 0.051725097
0.00642809 -0.010900028 0.084721774 -0.08766937 -0.038515527 0.07331167 0.020157373 -0.02600449
-0.04073871 0.024201805 -0.076270506 0.070829645 -0.052555464 0.017756457 0.06883425 0.068482265
0.082051754 0.08153441 0.024323452 0.042362522 0.0033918307 0.031654853 0.07102127 0.051910482

fc3.bias f4 [64]
00000000: 0612 0c3d affd 05bd 8140 633c 3118 213c
00000010: ea26 97bb e120 223d b3ce 303d e210 a4bc
00000020: 436b 863b 8cb9 013d e8d6 91bd 6def 693d
00000030: 0781 993d 524a 66bc cf92 64bd 4ed7 bfbc
00000040: c2b3 40bd fde1 973d a5f8 853d 8805 f33c
00000050: 2fe4 8939 b23a 5abc 37f2 683d d11d 12bd
00000060: 99fd d03c 2c63 b1bc 1fae aebd 2b30 993d
00000070: 3e4f acbd 52a5 3dbd 0c8d 8fba a8f4 9b3d
00000080: 164a 913d 1510 77bd 2c31 a73c 0c3c 5fbd
00000090: 26d3 913c 9c28 213d b8b3 98bd da06 2cbd
000000a0: c6e4 1bbd 5abc 57bc b016 b33d 6f7a 0a3d
000000b0: 3b40 a13c f7ae a4bc ed26 763c fb73 043c
000000c0: 1f2d 203b 69c3 453d c133 4e3d 5545 283d
000000d0: a43a 9ebd 8a2d db3c b407 56bd 0895 3cbd
000000e0: 5fca 16ba 6934 a6bd da3b 74bd 91a1 dc3a
000000f0: 6921 893d 7307 873d 9d4c 883d e5c4 973d
0.034196876 -0.032712635 0.013870359 0.009832428 -0.004612793 0.039582137 0.043165874 -0.020027582
0.004102142 0.031671092 -0.07121068 0.0571131 0.07495313 -0.014055805 -0.05580407 -0.023418095
-0.04704643 0.07416151 0.06541566 0.029665723 0.00026300686 -0.013319658 0.05687162 -0.035672966
0.02551155 -0.021653734 -0.08529305 0.074798904 -0.08413552 -0.04630024 -0.001095207 0.07615024
0.07094209 -0.06031807 0.02040919 -0.054500625 0.017800879 0.03934537 -0.07456154 -0.04199872
-0.038059972 -0.013167465 0.08744562 0.033808168 0.019683948 -0.020102961 0.015023929 0.0080842925
0.0024440957 0.04828206 0.050342325 0.041081745 -0.077260286 0.026755113 -0.05225344 -0.046040565
-0.00057522015 -0.08115465 -0.05962739 0.0016832819 0.066958256 0.06593218 0.06655238 0.074106015

fc4.weight f4 [38, 64]
00000000: 8072 a13b de83 b93d c0e6 353d d8c1 afbd
00000010: 1a24 c13d aebe fbbd 001c fd3b b054 03bc
00000020: ce39 85bd 2e60 e93d d0a8 dc3c a6ba c63d
00000030: b8fe fd3c 70b8 dcbd d018 063c d4ec b8bd
00000040: 7001 2d3c 0075 a0ba 1215 adbd a0bc da3d
00000050: 60ed b33b 6826 4c3d f0ee 1bbc b0e8 0f3d
00000060: de63 823d 4c6d 3fbd dab5 88bd 6c71 ef3d
00000070: 68e8 98bd f0d7 b23c 64e0 603d e871 eb3c
00000080: e850 6f3d 3cb4 37bd 4c47 0e3d 6836 983c
00000090: 9c4d 643d f8de 103d 7aba b43d b858 e53d
000000a0: f64b aebd fc6e b6bd 784f 3a3d c0a5 893c
000000b0: 3ce3 b73d d8e7 bbbd 40ac 17bc b891 943d
000000c0: c053 8ebb 4e97 b13d 72c5 b0bd 3821 cebc
000000d0: 744b d13d 06b6 b5bd 64f0 2d3d c20b ed3d
000000e0: 980c f9bd 7809 2cbd 005a f6bb 3261 92bd
000000f0: 20d1 7e3d bced 04bd 1c03 5bbd 6c19 eebd
00000100: 80a5 48bd 0025 94bb 3823 ec3d 0474 e4bd
00000110: e020 a63c 2663 e8bd f875 af3d 5677 923d
00000120: 3c8d fcbd 3eb5 b83d d263 dabd 1492 6cbd
00000130: 3077 cebc 7495 a73d aab8 8cbd ce37 eb3d
00000140: b8f9 53bd d0e8 cebd a68c c33d f8f8 2c3d
00000150: 9ccd 223d 3cc3 2dbd 5c0f 8b3d 5209 a23d
00000160: c860 0e3d 1c3a 433d 8876 f7bc 38a5 073d
00000170: 6c9d c0bd bc1e 42bd 6e03 d6bd b485 0d3d
00000180: c6a8 833d e4c6 9a3d b877 053d a498 b5bd
00000190: b41d 32bd b0b8 59bc 2ef0 9dbd 54c6 07bd
000001a0: 84a2 913d ba99 b8bd 086a f23d d098 ddbd
000001b0: 30d4 c0bc 10e7 5fbd c480 37bd 283b ae3c
000001c0: 5655 9b3d c27f ccbd 7875 d8bc 30b2 ba3c
000001d0: 78c3 bfbd 785a 633d c688 a43d 4a62 bbbd
000001e0: 7810 cabc 2828 8abd 6258 c43d 5856 f8bc
000001f0: 1e9e f63d 5843 2e3d 62d2 9bbd ec5a 843d
00000200: c4bd dc3d d0e5 4abd 689a d2bc b4b3 3f3d
00000210: 543d f93d 7087 2bbd 70d8 c0bd 4864 eb3d
00000220: b81f 983c 1045 a1bc 54f9 c8bd 4a0f dd3d
00000230: f873 a8bd 74a7 ea3d 7ef8 cabd a8a5 373d
00000240: 96f8 f93d e0b4 89bb 70cc 19bd c011 bfbc
00000250: 5628 b1bd d447 453d 088c 493d acb4 9e3d
00000260: 308b 363d e62f 80bd f0da 9f3d d459 993d
00000270: 4c7a 8abd bc47 d03d b87f c0bc 68fa be3d
00000280: 5c2e a9bd ae8a fd3d 2e8f a0bd 64be 58bd
00000290: 4eb0 c03d a4ea 6f3d 0ce1 943d a624 c83d
000002a0: 747f 903d a87a 223d 2407 a83d 3cab fd3d
000002b0: 18c3 853d f008 973c 60a4 46bc 68cf a83d
000002c0: 3000 4b3c 0025 d8bb 0278 d53d 98e6 ffbc
000002d0: 4498 b83d 0087 64bb 387a 823c 303c cabd
000002e0: 48dc eabd 68e2 62bd 5608 a23d 00bc 7cba
000002f0: d6bd 94bd 00ce 8cbb a6c6 8dbd 18b7 aabc
00000300: 1c25 f03d 8c37 a13d 3477 17bd 20fc b93d
00000310: 3cda c73d d6d2 a8bd a0e4 6f3c e218 8d3d
00000320: d0b8 2bbd 1863 bb3c 407c 1a3c a49a b9bd
00000330: 9cd9 153d c005 aebc 2a0f f63d 48fe d4bd
00000340: bc77 d5bd ac52 bbbd 1c69 6d3d a81f dabd
00000350: a22b c2bd 4e8f e43d d093 a2bd d207 b63d
00000360: 903b ec3c e07e 553c 36b4 d0bd 8049 23bd
00000370: 00ef c4ba 9c48 eebd 68fa d53c 809f adba
00000380: c8ca 26bd e0e0 18bc a06d 473c 78b0 713d
00000390: 780d 833c 58f1 c6bd 7aca f2bd 802e bd3c
000003a0: 189e b1bd 1053 ccbc 0056 d6bc 8cb6 aa3d
000003b0: 486d d7bc b809 93bd de1c efbd 081f 29bd
000003c0: ec41 f13d f0e2 b03c 101a 63bd 58aa f63d
000003d0: e880 f2bc f0fd 723d 94ef 013d 4443 cc3d
000003e0: 2eae ce3d 1adc 9b3d 3830 663d ce87 bdbd
000003f0: 409c 20bb e462 e1bd 48a0 9f3d 70a2 79bc
0.0049269795 0.09058355 0.044409513 -0.08581895 0.09430714 -0.12292229 0.007724285 -0.008015797
-0.06505166 0.11395298 0.026935965 0.09703569 0.031005248 -0.10777366 0.008184627 -0.090295464
0.010559425 -0.00122419 -0.084512845 0.106805086 0.005490944 0.049841315 -0.009517416 0.035134017
0.063667044 -0.046735093 -0.066753104 0.116915554 -0.07466203 0.021831483 0.054901496 0.028740838
0.058426768 -0.04484962 0.034735963 0.01858063 0.055738077 0.03536889 0.0882463 0.111985624
-0.08510582 -0.08907887 0.045485944 0.016802669 0.089788884 -0.0917508 -0.009257376 0.07254356
-0.00434348 0.08671437 -0.0863141 -0.025162324 0.1021947 -0.08872609 0.042465582 0.11574508
-0.12160605 -0.042001218 -0.007518053 -0.07147445 0.062211156 -0.032453284 -0.053469762 -0.116259426
-0.048985958 -0.0045210123 0.11530155 -0.11154941 0.020279348 -0.11347036 0.08567423 0.07151668
-0.12331626 0.09018944 -0.106635705 -0.0577565 -0.025203317 0.08182803 -0.068711594 0.11485253
-0.051751822 -0.10102999 0.09548311 0.042229623 0.039746866 -0.042422518 0.06790039 0.07911934
0.034760267 0.04766284 -0.030207887 0.03311655 -0.09405026 -0.04739259 -0.10449873 0.034551337
0.06428675 0.075574666 0.032584876 -0.088670045 -0.04348536 -0.013288662 -0.07711826 -0.033148125
0.071110755 -0.09013696 0.1183663 -0.10820162 -0.023538679 -0.054663718 -0.044800535 0.021268442
0.07584636 -0.09985305 -0.026423201 0.022790045 -0.093634546 0.0555062 0.080339 -0.091496065
-0.024666056 -0.067459404 0.0958717 -0.03031461 0.12041877 0.042544693 -0.07608487 0.064626545
0.107783824 -0.049535573 -0.025708392 0.046802238 0.121699005 -0.04187721 -0.09416282 0.114937365
0.018569812 -0.019686252 -0.098131806 0.10793932 -0.08225244 0.114577204 -0.099106774 0.044835716
0.12205617 -0.00420247 -0.037548482 -0.023323894 -0.086502716 0.048164204 0.04920581 0.07749304
0.044566333 -0.06259136 0.07805431 0.074878365 -0.067616075 0.10169932 -0.023498401 0.09325105
-0.082607955 0.12379967 -0.07839809 -0.052915946 0.094086275 0.05857338 0.07269487 0.09772615
0.0705556 0.039667755 0.08204487 0.12386176 0.06531352 0.018436879 -0.012124151 0.082426846
0.012390181 -0.0065962076 0.1042328 -0.031237885 0.09013417 -0.0034870505 0.015927419 -0.09874761
-0.114677966 -0.0553917 0.07911746 -0.00096410513 -0.07262771 -0.004297018 -0.06922655 -0.020839259
0.11725828 0.07871923 -0.036978915 0.09081292 0.09758422 -0.08243339 0.014641911 0.06889512
-0.041924298 0.0228744 0.009429038 -0.090626985 0.03658448 -0.021242976 0.12014611 -0.10400063
-0.10423228 -0.09146628 0.05796157 -0.10650569 -0.094809785 0.11160146 -0.07938349 0.0888821
0.028836995 0.013030738 -0.101906225 -0.039865017 -0.0015024841 -0.11634943 0.02612038 -0.0013246387
-0.04072073 -0.009330958 0.012172133 0.059006184 0.015997633 -0.097140014 -0.118550256 0.023093462
-0.08672732 -0.024941951 -0.026164055 0.08335599 -0.026297227 -0.07179588 -0.11675428 -0.04128936
0.11780152 0.021592587 -0.055444777 0.12044209 -0.029602483 0.059324205 0.03172262 0.099737674
0.10091816 0.076103404 0.05619833 -0.09254418 -0.0024507195 -0.1100519 0.07794243 -0.015236482

fc4.bias f4 [38]
00000000: 6085 babd b646 b43d 8067 ee3d 2cc1 55bd
00000010: 28f8 563d 20a6 b9bb 1005 623c c8c8 4b3d
00000020: 84e5 d1bd 0cfa 483d 40cc 29bd a8b1 01bd
00000030: 1618 8a3d e865 e9bd 0023 4f3c 764c c0bd
00000040: e6d5 c53d f495 ec3d 40ca e33d ae99 fdbd
00000050: d0be 03bd 3805 97bc 5076 b73d 4cdb dfbd
00000060: 1695 84bd f804 d23c 4847 873c f03e f23d
00000070: e098 69bc 7c29 26bd 204e 643d 8a17 943d
00000080: d085 263c 0ed9 d23d 24cc 393d 120d 943d
00000090: cedd 9abd d413 d73d
-0.091074705 0.088025495 0.11640835 -0.052186176 0.052482754 -0.0056655556 0.013795152 0.049752027
-0.10248855 0.04906659 -0.041454554 -0.031663567 0.06742875 -0.1139639 0.012642622 -0.09389584
0.096599385 0.11552039 0.111225605 -0.12382828 -0.032164395 -0.018435106 0.08958113 -0.109304994
-0.064737484 0.025637135 0.016513482 0.118284106 -0.01425764 -0.040566906 0.05573857 0.07231052
0.010163739 0.10295306 0.0453607 0.072290555 -0.07561837 0.10501829
