models/comparison_1000ep_dqn/pairwise_dqn_1000ep_dqn.pt (torch, 170176 bytes, 8 tensors)

fc1.weight f4 [128, 112]
00000000: 594d 233e 5c6a 2f3d a4a5 f43c 7318 833d
00000010: 9751 233e edf9 0e3e 8a29 203e d291 463e
00000020: 5ef4 d03d 475d 4a3c fc95 123e 47c4 8b3d
00000030: fe05 1d3e 48f2 f13d cd8e 4f3d eba3 113e
00000040: 47df 783d 9efd cc3d e014 b53c 8fb6 7c3d
00000050: 8e4a fe3d ab2d 2a3e b728 1c3e 83a0 173e
00000060: a650 9e3d 912f fb3d 4fb2 bc3b c88e ef3c
00000070: cc63 0f3d e252 4a3c a92c 9e3d 0f35 0b3e
00000080: 6e74 2d3e 5cb0 353d b976 733d 1097 123e
00000090: 416c d23b ca09 1a3e fe3e 2b3e 105b c93d
000000a0: c1e0 41be 6d13 1dbb 1e4b c73d 9cce 153e
000000b0: 3dbb 363e eb45 2f3e b063 db3d e12f 8abd
000000c0: 8bb9 c63d 7160 b53d ad88 073d 5341 4d3c
000000d0: 6563 ef3d 309e 1a3e 706f 693c aac7 133e
000000e0: d7de c63d bb25 a13c a622 4a3d b60d de3d
000000f0: 6d8a 083e 76ce 8f3d ce08 bf3d d955 29bb
00000100: e6e1 273e 7c79 6d3c e115 dd3d 2013 993d
00000110: f9b0 453d 4160 003e 7abf 1a3c 6ef1 df3d
00000120: 86dd cb3d 262e 853d 28d8 dd3d 8e76 123e
00000130: 17b2 273d 313c 113d bc0c ec3d 4573 463c
00000140: bf21 9d3c 4218 c43b 0285 b23c 733e 333e
00000150: d7cf c23d 8f43 e33d c0f1 8e3d 5c8f 3e3d
00000160: 2430 b63d 7c4d 643d 722c 353c c254 233e
00000170: 3822 893d 1ce8 c13c 77c0 163e 7b8a 163e
00000180: df41 a93c 597a 023e a3b1 123e 81cc 1a3d
00000190: aba9 163e a537 df3c f61d f0bd 1519 f1bd
000001a0: 7191 8c3d e1ad 143d 2929 103e e012 883c
000001b0: 7438 e13d 9103 4ebe 45bf 913d b997 f43d
000001c0: 945c 67bd b90c a03e 9590 0b3e adf1 743e
000001d0: 1a2f 803c c5f9 fb3d 9908 a93c 0953 a43e
000001e0: d812 ca3b 0066 5b3e 1f87 a5bd 71fd 793d
000001f0: 4ca3 8f3d 34a4 d33c fee9 053d e5b1 dcbc
00000200: aee4 cb3b badf 9c3d ff90 393d 6c65 00bd
00000210: a278 703d 8837 a33c 611b 993d dfb0 593b
00000220: bcab af3b 3645 a73d 8a89 18bb f94a 0abd
00000230: 0bb5 2f3d f251 6bbd 43d6 1e3d f5ea 8dbd
00000240: 23fd b8bd 0327 3e3d 4789 62bd 764b 3f3d
00000250: 601b 8dbd 05c8 06be 945c 803c dee2 413d
00000260: 9eb1 c83e 64dc 68bd a5e7 afbd 08ce 50bd
00000270: 4788 393d b445 8f3d 6281 0bbf b969 4dbb
00000280: e054 503d eaa7 45bd 0b72 48bd 225e a9bd
00000290: 390e dd3c 338b d13e 995b aebd d663 833d
000002a0: ec9c dd3c ffb2 6f3d 88d2 053d faa3 763d
000002b0: cf72 eb3c 4511 30bd 791e 083d b01d afbb
000002c0: 8027 523c 62af 9dbc 0456 45bd 6576 64bd
000002d0: a718 15bd 60c5 87bd 0325 abbd a47d cabd
000002e0: ff9d 03bd fa29 00bd ebdb 88bd 9510 363d
000002f0: 00b7 533d 952a 3dbd dc37 9fbc 15c0 7b3d
00000300: 0c59 6fbd ed6c 06bd cf5d 903d ab65 a6bb
00000310: 0de9 6f3c 1d92 3a3d 40be 84bd deec 953c
00000320: 4de1 c7bc 4360 99bd 49c0 73bb 77e9 9cbd
00000330: 215f abbd 8078 a53d e053 59bc 18f9 2e3d
00000340: 5329 87be e7eb 5cbe da7c e739 ba98 a13d
00000350: edc0 913b f967 5bbd f28b fb39 563a 5d3d
00000360: f662 2ebd 1007 8abd 51e8 20bd 19e8 9cbd
00000370: 5d0e 7d3d 5381 3e3e d6b1 9c3d 8788 cebd
00000380: 07b3 54bc 488b 1d3f d46e f93d 8f87 0e3f
00000390: b5e1 5f3e e8ab 943e 04a3 13be ae7d 023f
000003a0: dcf5 c53d 94db 8a3e e6c4 e9bd aeed b7bd
000003b0: 2630 f73c 2fdc 8ebd cfa8 c5bc f302 dbbd
000003c0: 5824 0b3d 23cd c63c f12e 913d 4667 e2bd
000003d0: 5a5c 06be 87d7 07bc 9600 e2bd d6f5 ddbd
000003e0: cf35 433d bd4f c2bc 1e0e f8bd f7fd e0bd
000003f0: 8d71 eb3c 845f a0bc 2a37 413d b0fe 00be
0.15947475 0.04282604 0.02986414 0.06401148 0.15949093 0.13962527 0.15640846 0.19391564
0.10202859 0.012351341 0.14315027 0.06824546 0.15334317 0.118137896 0.050673295 0.14222686
0.06075981 0.10009311 0.02210468 0.06169754 0.12416564 0.16618983 0.15249906 0.14807324
0.07730226 0.12264932 0.0057585607 0.029242888 0.035007283 0.012348862 0.07723362 0.13594459
0.16938946 0.044357643 0.059439395 0.14315438 0.0064215963 0.15042797 0.16723248 0.09831822
-0.18933393 -0.0023967877 0.09731124 0.14629596 0.17844863 0.17116515 0.10712373 -0.067474134
0.09703358 0.08856285 0.03308933 0.012527782 0.1168888 0.15099406 0.01424776 0.14431635
0.09710472 0.019671312 0.04934945 0.10842459 0.13334055 0.07021801 0.09327851 -0.0025838523
0.16394767 0.014494296 0.10795189 0.07474351 0.048264477 0.12536718 0.009445066 0.10934721
0.099543616 0.06502943 0.10832244 0.14303038 0.040941324 0.035457794 0.115258664 0.012112443
0.01918113 0.005984337 0.021791939 0.17504291 0.095122986 0.1109687 0.06979704 0.046523437
0.08895901 0.055737957 0.01105796 0.15950301 0.0669598 0.023670249 0.14721857 0.14701264
0.020661293 0.12741984 0.14325576 0.037792686 0.1471316 0.027248213 -0.117244646 -0.11772362
0.06863678 0.036298636 0.14078201 0.016610563 0.10997096 -0.20118548 0.0711656 0.11943001
-0.056484774 0.31259707 0.13629372 0.23920317 0.01564746 0.12303499 0.020633982 0.320946
0.006166797 0.21425629 -0.08082413 0.061032716 0.07013568 0.025835134 0.032693855 -0.026940295
0.006222329 0.0765986 0.045304295 -0.031346723 0.058708794 0.01992394 0.07475925 0.0033216996
0.0053610485 0.08167498 -0.002327534 -0.033762906 0.042897265 -0.057451196 0.038778555 -0.0692958
-0.09032657 0.046423923 -0.0553067 0.046702825 -0.06889987 -0.13162239 0.015669145 0.047335498
0.3919801 -0.056850806 -0.085891046 -0.050977737 0.04529598 0.06995717 -0.544943 -0.0031343533
0.050862193 -0.04825584 -0.048936885 -0.082699075 0.026984321 0.40926513 -0.085135646 0.064155266
0.027052365 0.058520313 0.03267148 0.060214974 0.028741268 -0.04298522 0.033232186 -0.005344115
0.0128268 -0.019248668 -0.048177734 -0.055776972 -0.036400463 -0.06629443 -0.08356669 -0.09887245
-0.0321331 -0.031290032 -0.06682571 0.044449408 0.051688194 -0.046183188 -0.019435816 0.06146248
-0.05843453 -0.032818723 0.070491426 -0.0050780377 0.014642966 0.0455495 -0.064816 0.018301424
-0.024399424 -0.074890636 -0.0037193468 -0.076617174 -0.08367754 0.08079624 -0.013264626 0.042718023
-0.26398715 -0.21574365 0.00044152775 0.078904584 0.0044480474 -0.053565953 0.00047978718 0.05401071
-0.042574845 -0.06739628 -0.039284054 -0.076614566 0.061781276 0.18604021 0.07651107 -0.10084634
-0.012982137 0.6154065 0.12179342 0.55675596 0.21863444 0.29037404 -0.14417654 0.5097302
0.096660346 0.2712065 -0.114145085 -0.08980881 0.030174326 -0.069755904 -0.024128346 -0.10693922
0.033970207 0.024267739 0.070890315 -0.11054854 -0.13121167 -0.008291132 -0.11035268 -0.10837905
0.047658738 -0.023719663 -0.12112068 -0.1098594 0.028740669 -0.019576795 0.04717175 -0.12597156

fc1.bias f4 [128]
00000000: afce 30bd 7a38 6e3d 4538 9d3d f54d b0bc
00000010: 62ec fcba 331a 463d 76fa efbd a141 18be
00000020: 2bef a93c 883c 703d 7048 163d 237d 20be
00000030: 6695 43be 5d37 27bd 525a 83bc ae1c 6cbc
00000040: 566b 8238 de73 513c e13d 88bc d0b4 773d
00000050: 448d 00be 42e9 63bd d010 243c 8159 0dbd
00000060: 134d f83c a1ee 7c3d fb3a d8bd 03ce bebd
00000070: 0325 803b 081f 27bd bc59 cfbd 2111 3abd
00000080: a60b db3c 549b 93bd b162 003b d4c3 2dbe
00000090: 0853 06be e6a1 2cbe db04 a8bd 9b1a ad3d
000000a0: 9eab 3f3d 3086 893d 0eab cfbd 1f74 bcbd
000000b0: da64 5abc 596f a9be 7ab8 64bd 4ad1 57be
000000c0: e55b 0f3d 6584 a1be 6247 ccbc 19ac 81bd
000000d0: b02e c8bc 10a3 603c 65bb 53bd 5dbb 19be
000000e0: 42e2 513c 62d0 dbbc 1a13 32bd cfc7 eabd
000000f0: 691e 48bd 8428 c3bd de43 b9bd a9f0 6ebd
00000100: fa92 f8bc f0e3 e53d b52d 793c 5efa c2bd
00000110: 4703 f9bd 3430 50bc 93cf 1dbc 1aae c73d
00000120: 710c 4dbd ccd8 53bd 66d3 a8bd 519d 82bd
00000130: f891 e1bb 2a19 eabd d95c bcbd ee2d 47bc
00000140: e152 4fbe eca5 80bd 661d 9abd dbe0 51bd
00000150: 8959 163d c3c8 663d d211 973c e9db 0abe
00000160: 849c da3d e4ec 2fbe b522 b03d 53cc 59bc
00000170: 39d0 87be 1981 cabc 9aa2 6c3d c915 343d
00000180: ba68 153d 178b a33d 47b1 d3bd 7451 173e
00000190: e853 183d b500 1dbe aa89 05be 91d6 bb3d
000001a0: af18 f9bd 2b85 3abe 781f 8fbd ad7e 863c
000001b0: 2d05 d13c 91ae 77bd 57ca 29be cef4 0cbe
000001c0: dd7b 093d af5f 88be 4057 a3bd 9033 f4bb
000001d0: 4e3b 06be 03bb cd3c df8f 2ebc 6e4c 16be
000001e0: b518 41bd 6408 a3bd ef71 ca3d 97d9 c03c
000001f0: 8e22 c1bd b479 0bbe f499 55be c961 7bbd
-0.04316586 0.05815933 0.07676748 -0.021521548 -0.0019296522 0.04836483 -0.117176935 -0.14868785
0.020743927 0.058651477 0.036690176 -0.15672736 -0.1909996 -0.040824283 -0.016034279 -0.014411135
6.218876e-05 0.012783973 -0.016631069 0.06047517 -0.12553889 -0.055642374 0.010013774 -0.034509186
0.03031019 0.06175101 -0.10558125 -0.09316637 0.003910662 -0.040801078 -0.10124537 -0.04542649
0.026738953 -0.07207361 0.0019590075 -0.16969234 -0.13117611 -0.16858634 -0.08204051 0.0845234
0.046794526 0.06715047 -0.10140048 -0.09201836 -0.013329709 -0.33092764 -0.055839993 -0.21075931
0.034999747 -0.31546322 -0.024936382 -0.06331653 -0.024436325 0.013710752 -0.051692385 -0.1501288
0.012810292 -0.026832763 -0.043475248 -0.11463892 -0.048857126 -0.09529212 -0.09046148 -0.05833498
-0.030343521 0.11225116 0.015208651 -0.0952041 -0.12158828 -0.012706805 -0.009632009 0.09750004
-0.050060693 -0.051720425 -0.08243446 -0.06377662 -0.006883856 -0.11430581 -0.09197397 -0.012156947
-0.2024646 -0.06281647 -0.075251386 -0.05123983 0.03670648 0.056343805 0.018441115 -0.13560452
0.10674384 -0.1718021 0.0860037 -0.013293344 -0.2652605 -0.024719762 0.057772256 0.04396609
0.03647683 0.07985514 -0.10336547 0.14777166 0.037189394 -0.15332301 -0.13040796 0.09171785
-0.12162911 -0.18214862 -0.06988424 0.016417826 0.025515163 -0.060469214 -0.16581093 -0.1376526
0.03356539 -0.266355 -0.07975626 -0.007452436 -0.1310856 0.025113588 -0.010654419 -0.14677593
-0.047142703 -0.07960585 0.09885012 0.023541255 -0.09430419 -0.13620645 -0.2085951 -0.061372552

fc2.weight f4 [128, 128]
00000000: c276 9b3c f547 d5bd b322 1cbd a6a4 88bd
00000010: 83d1 92bd f950 fdbd ca8d 6b3d 5bb6 5a3d
00000020: fe65 843c 027e 5ebc 0098 b6ba 6da8 b9bc
00000030: 6b02 9bbd c967 3cbd 595c 8cbd 6aec 443d
00000040: b9fd 193d feb6 07be 9e49 6b3a 09e1 9c3d
00000050: 200b b8bd 4c38 92bb 0c5c 80bb 4d6b 143d
00000060: 78a7 14bc 3dcf 17bd c0f8 98bd ae09 bbbd
00000070: 6648 aebd ad80 8cbd e8a2 41bd 7b89 ecbd
00000080: ad3b 3abd 16b0 60bd 2c55 483d 9d9d ccbc
00000090: 8330 d7bd 1072 dbbd d5cd ab3b 6bb7 ff3d
000000a0: 153a 833c 7f99 e6bd f869 b3bd f324 a2bb
000000b0: a5fc cebc a5cc 6c3c 4505 173c ea57 eb3c
000000c0: c929 a7bd bed3 01bd c400 443d c2a9 363c
000000d0: 4192 e83b a101 e43b 6a95 c7ba 7182 c3bb
000000e0: 840b b1bd 1704 d7bd b918 553d 7abe 783d
000000f0: 7a88 1d3d a693 a83d ad2d e6bd ddfe 2f3c
00000100: 1101 a5bd 21d0 f4bc 6a38 c1bd 3af7 b5bc
00000110: 5ea1 b2bc 0aa1 0fbe 2e32 40bd f334 00be
00000120: fe9b aebd 6380 da3c 7dc5 bfbd c482 f6bd
00000130: 30da 7f3d 551d 12be ba82 4cbd de31 9b3d
00000140: bc0b e2bc efb8 0e3d 1910 e0bd 2eb1 a4bd
00000150: 02f9 063d 01c9 83bd 3430 8ebb 93c9 81bd
00000160: fc09 bc3c e36f 2abe e6d6 393d 24db 823d
00000170: 8f27 18be 0a75 c1bc 3c8a 20bd 1b3b 8ebd
00000180: 1f6d a9bd 9ee1 2c3c ad93 0d3c ea2a 25be
00000190: fb6f 99bd c204 acbc 7505 43be a544 2bbe
000001a0: ba1a b7bd 0c99 04be 9e53 21bd 192a a9bd
000001b0: b38d de3c 6443 b23c 6fa6 bbbc f44a 0b3d
000001c0: d840 09ba 2750 7d3c 7674 b3bc 2446 f6bd
000001d0: 720d a0bc f11c c2bd 4dfd 7b3c e69c 0bbd
000001e0: 4f96 f33c ac36 dd3c 6602 57bd 129a 9b3c
000001f0: ace1 e63a 730f ebbd 094c 093d 6405 9fbd
00000200: 33e8 b03c fc28 8a3e 91b4 5f3e f135 c6bd
00000210: da65 103e 7787 f63a 7e02 79bd fbc5 a3bd
00000220: cb11 79bd bd17 c4bc 1507 273c 8751 a5bc
00000230: 829d 093d 9b25 a3bd 7640 cbbd 711b 64bd
00000240: 825b 5ebd 09cc 963d ec9e d8bd d755 95bc
00000250: 84ab e2be a6a9 6ebe e624 933c c0b8 2dbe
00000260: 1a82 5b3c 6a01 95bb 7eaa 293d d70a 0fbf
00000270: a85d 25be 5b44 16be dbac 2ebd 034c 143c
00000280: 628e 4bbe e51e 083d ca19 d93c e552 5a3e
00000290: fabd 23be 8d63 15bd 76cb b2bc 1805 f9bd
000002a0: 1c6e 07bf e008 113c 14e3 1cbe cdb3 edbb
000002b0: 239c adbd b85e a33c e2de 71bd 631a dcbe
000002c0: 9366 df3d 73a9 143d 253b 8dbd df51 7c3d
000002d0: 9702 e43b 5a04 edbd 2de6 173d 6864 57be
000002e0: 040a 743c c5c4 8bbe ccd5 243e 3991 73bd
000002f0: 71c8 04bd e777 46bd 411c 123d fc4e 1d3d
00000300: 7981 4bbe 356c 023e 143a adbd ad8a d0be
00000310: 8f2d 1bbd 4255 efbd 39d0 393d 4246 c2bc
00000320: d3e2 02be 5451 49bd 71eb bc3d 2dd3 3cbe
00000330: 010b 41be 4521 873d 7185 70be 7fcb 01bf
00000340: e9f7 55bd f701 8e3c 7524 08be 4d89 48bd
00000350: 4fa0 83bd 20b0 f1bc d991 40bb 126b efbe
00000360: 55e0 a2bd 6a58 afbe ef59 553e 2c39 9a3d
00000370: 837e 26bf c28d 36be 9cd6 24bf 0ae7 34be
00000380: 7618 583e 3b67 42bd a7fd 07be 4009 b5bd
00000390: 0f8f acbe 7320 77bd 846f a9be d18b e5bd
000003a0: 919d 12be 97b4 803d 4041 a13c 48ad e0be
000003b0: 0103 073e 0100 04bd 97cb 2bbe 2c8f c2bd
000003c0: e99b 66bd fd82 0dbe b468 5ebd 5fa3 d13e
000003d0: 5757 96bd 3ebd 2e3e 371f b0be ea9f b03c
000003e0: 26c6 2abc 3bd8 ddbd f090 72be 1535 df3d
000003f0: 5274 ab3e af5a 92be e359 ac3d b3dc b7be
0.018977527 -0.10414115 -0.03811903 -0.06672029 -0.071688674 -0.1236896 0.057508267 0.053396564
0.016161915 -0.013579847 -0.0013930798 -0.02266332 -0.075688206 -0.045997415 -0.068535514 0.048077025
0.037595484 -0.132534 0.00089755084 0.076601095 -0.08986497 -0.0044622775 -0.003917223 0.036235142
-0.009073131 -0.037062872 -0.0746932 -0.09132706 -0.08509903 -0.068604805 -0.0472745 -0.1154966
-0.045467068 -0.05485543 0.04890935 -0.0249775 -0.105073 -0.10715115 0.005243043 0.12486156
0.016018907 -0.11259746 -0.08760446 -0.0049482523 -0.025266955 0.014453088 0.009217565 0.028728444
-0.08162267 -0.031696074 0.047852293 0.011148872 0.007097513 0.006958202 -0.0015227024 -0.0059664776
-0.086447746 -0.10498827 0.05202553 0.060728528 0.038460232 0.08231287 -0.11239181 0.0107419165
-0.08056844 -0.0298844 -0.09434588 -0.022212613 -0.021805461 -0.14026275 -0.046922855 -0.12520199
-0.08525847 0.026672548 -0.0936384 -0.1203666 0.06246394 -0.14269002 -0.049929358 0.07577871
-0.027593486 0.034844335 -0.109405704 -0.08041607 0.032952316 -0.06434823 -0.0043392424 -0.06337275
0.02295398 -0.16644244 0.04537096 0.06389454 -0.1485884 -0.023615379 -0.03919433 -0.06944867
-0.08272766 0.010551838 0.008641166 -0.16129652 -0.07492062 -0.020998362 -0.1904505 -0.16725405
-0.089406446 -0.12949008 -0.039386384 -0.082599826 0.027167177 0.02176065 -0.02290651 0.034007028
-0.0005235798 0.015461004 -0.021906119 -0.12025097 -0.019537661 -0.094781764 0.015380216 -0.034085177
0.029734759 0.027003609 -0.05249252 0.018994365 0.0017614863 -0.11477556 0.03351978 -0.077647
0.021595096 0.26984394 0.21846224 -0.09678257 0.14101353 0.0018808682 -0.060793392 -0.07996746
-0.060807984 -0.0239371 0.01019456 -0.020180477 0.033597477 -0.07966157 -0.09924404 -0.055690233
-0.054286487 0.07363135 -0.10577187 -0.018229408 -0.4427148 -0.23306903 0.01796193 -0.16965008
0.013397718 -0.0045472877 0.04142236 -0.55875915 -0.16149008 -0.14674513 -0.042645317 0.009051326
-0.19878533 0.03323259 0.026501555 0.21320684 -0.15990439 -0.036471892 -0.021825533 -0.12159175
-0.5290239 0.008852214 -0.15320998 -0.0072541 -0.08477046 0.019942626 -0.05905045 -0.4298888
0.10908236 0.036294412 -0.068960465 0.061601516 0.0069583165 -0.115730956 0.037084747 -0.21034396
0.014894966 -0.2729856 0.16097182 -0.059464667 -0.03241772 -0.04845419 0.035671476 0.038405403
-0.19873609 0.1273659 -0.08458343 -0.407308 -0.037885245 -0.116861835 0.045364592 -0.023715142
-0.12781839 -0.049149826 0.092245944 -0.18439932 -0.18851854 0.065981425 -0.23488404 -0.50701135
-0.05223838 0.017334921 -0.13295157 -0.048959065 -0.06427061 -0.029502928 -0.0029383807 -0.46761376
-0.07952944 -0.34247142 0.20835088 0.07530436 -0.6503679 -0.17827514 -0.6438997 -0.1766626
0.21103081 -0.04746173 -0.13280354 -0.08839655 -0.33702895 -0.06033368 -0.33092892 -0.112083085
-0.1431792 0.06284445 0.019684434 -0.43882203 0.1318474 -0.032226566 -0.16776882 -0.09499964
-0.05630103 -0.138195 -0.05429907 0.40944955 -0.073408775 0.17064378 -0.34398815 0.021560628
-0.010423219 -0.10832258 -0.23688102 0.108987965 0.33487183 -0.2858481 0.08415582 -0.35910568

fc2.bias f4 [128]
00000000: 2b83 95bd ded8 1c3c 50a1 8fbe ed5c 493e
00000010: 091c 27bc 92e4 a0be 87e0 8f3d e795 20bb
00000020: 4c42 8d3d 2a02 c7bd 9230 de3d 7dc6 1dbd
00000030: 7991 5b3d 535d adbe 03fd 163d 6407 7fbe
00000040: 582a 75bd 0fdd 373e d4e1 f53d 898f d4be
00000050: 7833 a5bd 20f2 813e aedb 2dbd 6c40 b23d
00000060: bec2 f93d 25ab 9a3d 28ae 53be b8b1 00bd
00000070: ba5e 63be b911 04be 7fcf 7a3e 5c38 38be
00000080: dc82 2abd 3e3b cc3c d9f3 bbbd 3aff 71be
00000090: bab2 5fbe a666 1fbe a485 60bc b057 debd
000000a0: 97bf 88bc 3246 94bd e966 d5bc 0b7f 6a3e
000000b0: a81f 453d 8135 593c 1aec d8ba 9e32 803c
000000c0: 697e e1bd 6d70 b13d e11e 523c 1a43 da3d
000000d0: 88ee 2abe b625 923c 9ab5 a5bd f870 ebbd
000000e0: 78ab a5bd 014e 19be a344 5fbc 14fe a33c
000000f0: 0052 cabd 4e16 843e 1e21 f6bd cc05 fbbd
00000100: c77a b53d 383d 983a fb85 e93d e80b e23c
00000110: aad5 013e 53d3 36bd ad5d d2bd decc 12be
00000120: 639d 0b3e 882d be3c a7a6 873d 1ce6 ffbc
00000130: 5196 2f3e 0d52 19be 9b07 7e3e 8a1e 3d3d
00000140: 32bf e3bc 0987 8cbb 6b7f ad3d 39ce 053e
00000150: c8a1 14be ea49 b03d 1103 183e 55ef 0abd
00000160: b0d2 13be c11c 93be 4c4a 7f3d a82a a23d
00000170: 2b4e 19be 5759 21be c567 a5bd 602e 363e
00000180: 0c1d ce3d e9f0 13be 65de cdbd d1b3 81bd
00000190: f3e4 903e 5a3e b7bd f1b9 e1bd 7bfd c43d
000001a0: de27 083d af0e 273e 395c 7abe 728c a5bd
000001b0: aad6 7cbd 3e5b dfbd 168c 79bd 938a 463e
000001c0: 630a 5dbe e904 24bd 27f0 073d f77f b9bd
000001d0: 0198 4e3e c158 1fbe 1b61 16bc ce2f 053e
000001e0: 293b a33d da9f e9be 0454 86bd 26fb 13bd
000001f0: e745 7b3e bf7e a0bc 1477 543e 122d 6f3d
-0.07300409 0.00957319 -0.2805276 0.19664355 -0.010199555 -0.31424385 0.07025247 -0.0024503411
0.06897411 -0.0971721 0.10849108 -0.03851937 0.05360553 -0.33860263 0.036862385 -0.24905163
-0.059854835 0.17955421 0.12005964 -0.4151576 -0.080664575 0.2538004 -0.04244583 0.08703694
0.12195347 0.075521745 -0.20671904 -0.031419486 -0.22204104 -0.12897386 0.24493216 -0.1799025
-0.041628703 0.024930593 -0.091773696 -0.23632517 -0.21845523 -0.15566501 -0.013703737 -0.10856569
-0.01669292 -0.07239951 -0.026050048 0.22900026 0.048125893 0.013257385 -0.0016549856 0.015649136
-0.11010439 0.08664022 0.012824745 0.1065733 -0.16692555 0.017840248 -0.080912784 -0.114961565
-0.08089346 -0.14971162 -0.013627204 0.020018615 -0.098789215 0.25798267 -0.12018035 -0.12256965
0.088613085 0.0011614924 0.11402508 0.027593568 0.12679163 -0.04463513 -0.102717735 -0.14335963
0.13634257 0.02321507 0.06623583 -0.031237654 0.17147185 -0.14972706 0.24807589 0.046171702
-0.02780113 -0.0042885584 0.08471569 0.13066949 -0.1451484 0.08607848 0.1484492 -0.03391965
-0.1443584 -0.28732875 0.062326714 0.07918292 -0.14971225 -0.15756737 -0.08076433 0.17791128
0.10064134 -0.14447369 -0.10052184 -0.063331254 0.28299674 -0.089474395 -0.11021794 0.0961866
0.033241145 0.16314195 -0.24449243 -0.080834284 -0.061728157 -0.10906075 -0.060924612 0.193888
-0.21585993 -0.040043745 0.03318801 -0.090576105 0.20175172 -0.155612 -0.009178425 0.13006517
0.07970268 -0.4562977 -0.065589935 -0.036128186 0.24538384 -0.019591687 0.2074855 0.05839259

fc3.weight f4 [64, 128]
00000000: b218 993c a5e7 f2bc c040 adbc fef7 c3bd
00000010: 769d 543d 919e 8cbc 22ed 1abe 817e 03bc
00000020: be45 0abe b741 953d eb21 043e d152 273e
00000030: 7c00 74bd e8e2 f73d 7889 a53d 5d20 a2bc
00000040: 5e1a 453c e6f3 73be 1a31 afbd de98 9f3d
00000050: 7dda 45be 67f5 d0bc edff 83be 3067 6bbe
00000060: d619 70be 6594 9bbe efd7 d8bc d9af 2b3c
00000070: b36c 7fbd 32b8 853d b271 3d3e b7a4 5ebe
00000080: b748 e3bd 881d e9bc 1d0d fa3c d7ab 8cbe
00000090: e5c2 b9bd 5d61 743d 0d7a 9ebe d603 313d
000000a0: 2c5b bebd f6e3 983e f625 853c 513a bdbd
000000b0: b88e e73e d216 3cbd 118f 493e dd17 b93d
000000c0: 3591 f6bd 4d86 463e 6bed 7b3d 69b1 643d
000000d0: aac9 eb3d 54f5 f8bd 983f 4e3c cb58 2cbd
000000e0: 56cf 59bd 739f 833e 734b 76bc f9c0 c8bc
000000f0: 9533 ec3d d331 a0bd 5532 303d 2aaa 843d
00000100: cb81 ce3c a074 debb 330f 213e 9f01 9cbd
00000110: ba02 08bd 864a eebc 0a2f f7bd c272 47bd
00000120: b07d 17be e928 8abe d52f dfbd 1087 d93d
00000130: 1de3 d23c 6fef 5b3d 5830 d1bd 4d70 7fbc
00000140: a74d 833d 92fb d03d 6370 633d 7860 8b3a
00000150: 4337 78bd 051a 08be 5914 70be e88b 2f3a
00000160: 0079 4ebd a104 5dbd f2e7 033e aec7 fb3c
00000170: 3c2b 22be 87d4 c53d 0761 993c 4c3b fabe
00000180: 4236 61bc 0c12 24bd 1847 ed3b 8cc8 92bc
00000190: 6942 09be d6f3 a83d 91f4 84bd 3edf 5abe
000001a0: c93b b0bd e391 2dbe 1fd2 82bc 21d1 abbd
000001b0: 9ad3 113d d15c 57bd 3c41 173c a2f9 2cbe
000001c0: da73 0dbe ee0f b8bd 795f 1fbd bbee 973d
000001d0: 0377 bebd f456 aa3d 6601 97bd 5fdf 883d
000001e0: 823b 963d c142 1fbd f59e 623d 5894 e7bb
000001f0: c60c e43d 30d6 4a3e 1a55 55be ce67 493d
00000200: b3c2 203e 9100 6bbd 01dc d83d da57 c43d
00000210: 865c 8fbd 7d9a cbbd 057a 453e 8aba b9bd
00000220: fd8a 9039 ee45 62be 5e7b 7a3d 6481 fcbd
00000230: 8dcf 13bc 2ccd 2abe 1785 a7bc 4f2f 63be
00000240: 6597 333d cead 4b3d a6e7 09bf 74dd f63d
00000250: e18c acbe 79a0 7e3e ffaa 133e 0961 133c
00000260: 1269 633e e2ef 343e 6f68 94be 5dbb 8cbd
00000270: 2a1b 603e 37f8 af3e 9096 e53d 8083 02be
00000280: 16d4 913d 80b5 ae3d d40d a63d dd8f 6c3e
00000290: cdc2 bf3d d62f e8bd 1e2e f43d 1056 c13c
000002a0: da31 be3d 634b 5b3d c989 de3d bb8e 1e3d
000002b0: 15b2 3bbd 6d15 823d 81bf 933e 6d20 2bbe
000002c0: d999 533e 989b 6dbd bcfa ee3e 8bbf fc3e
000002d0: 56e7 1a3e 15b4 a53d cfd7 473d 494c c13d
000002e0: 3a04 95bd 9d47 aa3e 4d48 55be cc5b 923e
000002f0: 7acb 0cbd f355 c13c d7c9 553d ddbb c0be
00000300: 3f8c efbe ba0f 0abe aaa9 6bbe 2c60 733e
00000310: d152 06bf f2b2 2f3d bc75 6cbe def6 973d
00000320: f427 31bf fac7 c5be e234 9dbe b08e 0a3c
00000330: 06d4 aa3d e19a 843c 1333 e43d fae1 0c3e
00000340: de87 d03e e9be 4abd ce13 0a3e 70ac 6b3e
00000350: fb69 9cbd 5b94 9ebe cf6e cbbe cd38 70bd
00000360: 01fa 0fbd c606 c8bd 76b1 0b3f 0538 973e
00000370: c6ac 12be 0c8a f8bb c85b a13c 4ae0 89be
00000380: 0b19 4f3d 664c 503d 671f bfbd 9293 f63d
00000390: 007f bb3d d02f 92bd 0003 8e3d 21b0 813e
000003a0: 8d64 243d 923b 973d e7b2 b83d 11f8 8a3d
000003b0: 97d6 d9be c789 edbd b3c8 b23d 44a4 923e
000003c0: b866 febe bc4b 77be 0d18 d73c 838e 9ebc
000003d0: e490 4e3e 0b85 9bbd d77d 73bf b955 0d3e
000003e0: a254 ea3d 44e9 4bbe 4497 203d 9b0e 3fbe
000003f0: f13b babc 9cfd 8c3e b859 22bc b057 d5bd
0.018688533 -0.029651472 -0.02114904 -0.09568785 0.05190798 -0.017165454 -0.15129521 -0.008025766
-0.13503167 0.07287925 0.12903564 0.16340186 -0.059570774 0.12103826 0.08082861 -0.019790823
0.012030212 -0.23823509 -0.08554287 0.07792829 -0.19321628 -0.025507642 -0.25781193 -0.22988582
-0.23447356 -0.30386654 -0.026470153 0.010478937 -0.062359523 0.06529273 0.18500403 -0.21742521
-0.11097854 -0.028456464 0.030523831 -0.27474853 -0.09070376 0.059663165 -0.30952492 0.04321655
-0.092947334 0.2986142 0.016253453 -0.092396386 0.45226073 -0.0459202 0.19683482 0.09037755
-0.12039415 0.19387169 0.061505716 0.055833254 0.11513074 -0.121561676 0.012588404 -0.042076867
-0.053176247 0.25707588 -0.015032637 -0.024506079 0.11533276 -0.07822003 0.04301675 0.06477769
0.025208374 -0.006788805 0.15728454 -0.07617497 -0.033205725 -0.02908827 -0.12069519 -0.048693426
-0.1479404 -0.26984337 -0.10897795 0.10621464 0.025743062 0.05369514 -0.10214299 -0.015590739
0.064112954 0.10204233 0.055527102 0.0010633608 -0.060599577 -0.13291176 -0.23445262 0.0006696568
-0.050408363 -0.053959493 0.12881449 0.030734863 -0.15836805 0.09659677 0.018723024 -0.48873365
-0.013745846 -0.040056273 0.007241141 -0.017917894 -0.1340424 0.08249633 -0.0649196 -0.21374223
-0.08605153 -0.16950183 -0.015969334 -0.083894975 0.03560219 -0.05257875 0.009231862 -0.16892102
-0.13813725 -0.08987413 -0.03890941 0.07418581 -0.093000434 0.08317366 -0.073733136 0.0668323
0.07335569 -0.03888202 0.055327374 -0.0070672445 0.11135249 0.19808269 -0.20833245 0.04917126
0.15699272 -0.057373587 0.105888374 0.09587069 -0.07000069 -0.09941576 0.19284828 -0.09068783
0.00027569375 -0.22096989 0.06115281 -0.12329367 -0.009021652 -0.1667983 -0.020449204 -0.22186016
0.043845553 0.0497263 -0.5386909 0.120539576 -0.33701232 0.24865903 0.14420699 0.008995303
0.2220805 0.17669633 -0.28985927 -0.06871674 0.21885362 0.3436906 0.11210358 -0.12745476
0.0712053 0.08530712 0.08108106 0.23101754 0.09363327 -0.11337249 0.11922859 0.023600608
0.09286852 0.05353869 0.10866124 0.038710337 -0.04582413 0.06351743 0.28857043 -0.16711588
0.20664157 -0.058009714 0.4667567 0.49364886 0.1512731 0.080909885 0.048789795 0.09438378
-0.07276197 0.33257762 -0.20828362 0.2858566 -0.034373738 0.023600554 0.052194443 -0.37643328
-0.46786687 -0.13482562 -0.2301394 0.23767155 -0.5247012 0.042895265 -0.23091787 0.07420133
-0.6920159 -0.38629133 -0.3070441 0.008456871 0.083412215 0.016187133 0.11142554 0.13758078
0.40728658 -0.049498472 0.13484117 0.23014998 -0.07637402 -0.3097256 -0.39732978 -0.05864792
-0.03515053 -0.09766917 0.5456766 0.29534927 -0.1432372 -0.007584816 0.019697085 -0.2692893
0.050560992 0.05085411 -0.093321614 0.120398656 0.09155083 -0.07138026 0.06934166 0.25329688
0.040134955 0.07384409 0.09018498 0.06785596 -0.42546532 -0.115985446 0.087296866 0.2864095
-0.49687743 -0.24149984 0.026256585 -0.019355064 0.20172459 -0.07593735 -0.9511389 0.13802232
0.11441924 -0.19913203 0.03920676 -0.18657915 -0.02273366 0.2753724 -0.009909086 -0.10417116

fc3.bias f4 [64]
00000000: a805 05bc 0110 f13d 1a19 213e 7897 9e3e
00000010: 12c6 40be bbcc 1e3d 4583 bd3c 3d2b aa3d
00000020: a54d 91bd 2ff1 173e e10a f2bc ae58 5e3e
00000030: 7ea3 523e 2aa0 5bbe ceb0 bd3d 4496 fcbd
00000040: 2005 ab3e 7297 74bd 8324 453e 5efa 19be
00000050: e720 4bbd 2e5a 07bd bd14 3b3e 6532 cabd
00000060: 0f30 d23e e100 c43d 029c 3bbe d369 223e
00000070: 9a04 aa3d 4d8c 503e 5575 8cbe 1531 a4be
00000080: 6d58 83be bc2b 72bc 1c7d 003d f68f 85be
00000090: 3ad3 70bd faeb e6bd d353 0dbe 6be3 ac3d
000000a0: 5a35 ecbc ecb9 c23d 2947 253e bafc 49bd
000000b0: 0bf8 683d cb84 633e 0e8f c73e 14f4 663e
000000c0: 82ae 143e e816 62bd 25fb b13d d357 84bc
000000d0: 0ffc 16bd 17ae 0cbd d67d 393e 1059 863e
000000e0: e89e 813e 5d2f 703d 5025 863d a01f 1e3e
000000f0: a339 073e a6ae af3d 1e87 883e a2d3 7fbe
-0.008119024 0.11770631 0.15732232 0.30974936 -0.18825558 0.038769465 0.023133883 0.08309028
-0.07094888 0.14838098 -0.029546203 0.21713516 0.2057018 -0.21447816 0.092622384 -0.123333484
0.33402348 -0.059714742 0.1925221 -0.15036914 -0.049591925 -0.033044986 0.1826963 -0.09872893
0.4105229 0.0957048 -0.18321231 0.15860681 0.08301659 0.2036602 -0.27433267 -0.32068697
-0.256534 -0.014780935 0.031369314 -0.26086396 -0.05879519 -0.11275478 -0.13801508 0.08441814
-0.028834034 0.09508118 0.16140427 -0.049313284 0.056877177 0.22218625 0.3897633 0.22554046
0.14519694 -0.055197626 0.0869048 -0.01615516 -0.036861476 -0.034345713 0.18114409 0.26239824
0.25316548 0.05863892 0.065500855 0.15441751 0.1320558 0.085782334 0.26665586 -0.24983075

fc4.weight f4 [38, 64]
00000000: 41b5 a63d 7812 09be bb93 c23e 60e0 b73d
00000010: 5055 7dbd e8b4 983e c636 3e3e 79a2 583e
00000020: 96a1 8bbc f75f debe c5c0 87be dfca 963e
00000030: e023 393e 718a 8fbd 140d e13e b714 9dbc
00000040: b03e ec3d 1480 a33e c020 183e bde1 fd3c
00000050: d215 72be f8c0 1f3e b396 213d 9bde 93bd
00000060: 7ffc fd3d 3d75 16bf 94a2 c3be dbc3 2cbe
00000070: b929 763e abe4 cb3d ab23 18be ec72 0bbe
00000080: 53c0 abbd f6c9 9dbe 4be6 e9be 1e4e 1bbe
00000090: ec1d 23be e9d9 b0bd 928d 713e 2184 0fbf
000000a0: 0663 21be 47d5 93be 5564 f23e a1e1 6e3d
000000b0: 870b 02bd e78e eb3d cc20 103e dead 883e
000000c0: e6bc 883e 0a25 e6bd 7fb7 90be 95a7 87be
000000d0: 3a19 7bbd a968 bdbd 2950 01bf 944c fd3d
000000e0: 035c 073d f8f8 09be 5fe4 203e 5a2e dd3d
000000f0: 2cac 50be 5293 d63d 514a 4f3e 354d e8bc
00000100: 20f7 b4bb 24d4 5ebd 240a 8ebd fc5b f4bd
00000110: 12b0 d33d 609a f23b 1271 94bd 5818 4abd
00000120: 8e54 8cbd 481a 84bd dc49 26bd 0092 313d
00000130: e48a 0c3d e082 3a3d 2638 97bd de38 8abd
00000140: b8c0 d4bd b465 1d3d cc7d 3f3d 0adc f83d
00000150: 7ee8 86bd 0628 e0bd 3036 6cbc c0ba ff3c
00000160: c0b9 01bb 6023 9b3d 26d3 ca3d b063 e3bd
00000170: 18c7 4ebd 68b4 3b3d 6e10 d03d 8043 8a3b
00000180: 501d 48bd 50e3 08bc 9280 d63d e039 683c
00000190: 8492 ee3d 5c00 72bd ec6a 8d3d 48f6 8e3c
000001a0: ce01 973d 3854 693d 36dc e2bd c242 80bd
000001b0: bcfb 1e3d b06d 723c a0ea 99bd cc4c debd
000001c0: b44f 81bd 9cc2 253d c838 77bd b083 773d
000001d0: f005 edbd 8073 a5bb c6cd f23d b836 a93c
000001e0: 7071 fa3d a002 683d ca9b be3d 0898 36bd
000001f0: d8fa 383d bcb7 85bd 829a 90bd 30f4 483d
00000200: 0c82 2d3d 40c7 ddbd fc35 ddbd eaab dd3d
00000210: accf 743d 489b c33c 3017 993c 7c42 fabd
00000220: 16fb a1bd 588b 9dbd 9adc f93d c0d2 f3bc
00000230: 50db 643d c0d7 99bc 9489 ec3d 88e8 863d
00000240: 60ea 513c 3eae e83d 5054 23bc 1868 c8bd
00000250: 80f4 803c 5c08 4d3d 7009 463d 20bf 303d
00000260: 8216 84bd 246f fa3d 4edb ee3d c87c 483d
00000270: 34cf b63d 906f 313c fcb0 2fbd 70a8 3e3c
00000280: f08a c5bd 906a 52bc 602f 983b 3207 9f3d
00000290: ea80 f7bd e6e6 8ebd a0d2 7dbc 3002 613c
000002a0: e8af a83d 203c 9dbd c0f3 c43c d459 783d
000002b0: 30fc db3c c6a1 c63d eee2 f3bd 20c2 babc
000002c0: ae86 f9bd 5047 373c 68c7 e0bc 8897 8b3c
000002d0: a05c e03c 2647 8f3d a8e0 c13c 009e 263b
000002e0: 0805 c23c 80c8 4cbc e8ed c63d 38b4 473d
000002f0: 70d1 7abc e8a1 263d e404 f63d 6099 2a3d
00000300: e87a 2b3d 40e8 3c3d dc1c b53d 7072 1e3c
00000310: c804 9d3d 08e7 af3c c475 03bd d0fa 4e3d
00000320: f2a8 d3bd 00f7 f43d 4067 19bb 688f df3c
00000330: 92ac be3d 0c05 98bd a6a7 c4bd 4c35 f93d
00000340: 329e b23d 42ca cbbd b03f 60bd a06a bc3c
00000350: c03c ebbb e0b3 a03d 1c10 e63d 5e42 ca3d
00000360: 28bc 56bd a461 0b3d 6054 e63b 9e45 e23d
00000370: 107c f83c 58bd a4bc d8e9 ff3c 0416 4f3d
00000380: 301f ffbc 2e57 c83d 9601 d03d 8c13 99bd
00000390: 00fa 70bb f2dc 883d fc95 643d fece da3d
000003a0: 90db 513c e073 e8bd 0007 0c3b 0053 563c
000003b0: 7ae1 ebbd b21a 8b3d f6ab 92bd 0cc9 63bd
000003c0: 802a 883b 803e 5e3b e400 b93d 7608 9bbd
000003d0: 78d9 4dbd 5cfb 1fbd d4e8 f1bd fab8 f4bd
000003e0: 6074 0abd 0891 db3c 0c9e 5a3d b4e1 ebbd
000003f0: 104a d03d 06e9 8dbd a674 90bd 18c0 b2bd
0.0814004 -0.13385952 0.38003334 0.08978343 -0.06184894 0.2982552 0.18575582 0.21155728
-0.017044824 -0.4343259 -0.2651426 0.29451653 0.18080091 -0.070088275 0.4395529 -0.019174917
0.11535394 0.31933653 0.14856243 0.03099143 -0.23641136 0.15600955 0.03945036 -0.07220193
0.124016754 -0.5877264 -0.38209975 -0.16871588 0.24039353 0.09955724 -0.14857356 -0.13618058
-0.08386292 -0.30818146 -0.45683512 -0.15166518 -0.15929383 -0.08635313 0.23589161 -0.5606099
-0.1576043 -0.28873655 0.47342172 0.058320645 -0.031749275 0.11501866 0.14075011 0.2669515
0.26706618 -0.112375334 -0.28264996 -0.26495042 -0.061303355 -0.09248478 -0.5051294 0.12368122
0.033046734 -0.1347388 0.15712117 0.107998565 -0.20378178 0.10477318 0.20243193 -0.028357128
-0.0055226237 -0.05440153 -0.06935528 -0.11931607 0.10336317 0.007403657 -0.07248129 -0.049339622
-0.06852065 -0.06450325 -0.04059778 0.043352127 0.034312144 0.04553497 -0.07383756 -0.06749128
-0.10388321 0.03842707 0.04675083 0.12151344 -0.06587313 -0.10945134 -0.014417216 0.031216979
-0.0019794554 0.075751066 0.099035546 -0.11102998 -0.05048284 0.045826346 0.10159384 0.0042194724
-0.04885608 -0.008354977 0.104737416 0.014173955 0.116490394 -0.059082374 0.06905159 0.01745142
0.07373391 0.056965083 -0.11077158 -0.06262733 0.03881429 0.014796659 -0.07515454 -0.108544916
-0.0631403 0.040468797 -0.060356885 0.06042832 -0.11573398 -0.005049169 0.118556544 0.020655975
0.12228668 0.05664313 0.09307058 -0.044578582 0.0451611 -0.06529185 -0.0706072 0.049061
0.04236035 -0.108290195 -0.10801312 0.10823806 0.059768364 0.023877755 0.018687814 -0.12219712
-0.07909219 -0.07692593 0.122002795 -0.02976358 0.055873215 -0.018779635 0.115496784 0.065873206
0.012812227 0.11361359 -0.009968832 -0.09785479 0.015741587 0.0500568 0.048348844 0.04315102
-0.064496055 0.1222823 0.11662923 0.048947126 0.089262396 0.010829821 -0.042893395 0.011636838
-0.09645641 -0.012842789 0.0046443194 0.07765044 -0.12085135 -0.06977634 -0.015492111 0.013733432
0.082366765 -0.076774836 0.02404201 0.06063254 0.02685365 0.096988246 -0.11908518 -0.022797644
-0.12183891 0.011186436 -0.027438834 0.01704003 0.027387917 0.06995992 0.023666695 0.0025423765
0.02368404 -0.012498975 0.09713346 0.048755854 -0.015308723 0.04068175 0.120126516 0.041650176
0.04186526 0.04611993 0.08843395 0.009670839 0.076669276 0.021472469 -0.032094732 0.050532162
-0.10334958 0.11961174 -0.002340749 0.027290061 0.09310259 -0.074228376 -0.09602289 0.12168369
0.087215796 -0.09950687 -0.054748237 0.023000062 -0.007178873 0.078468084 0.11233541 0.0987594
-0.052425534 0.034028664 0.0070291013 0.11048435 0.030332595 -0.020109817 0.031239435 0.050558105
-0.031142801 0.09782253 0.101565525 -0.074744314 -0.0036770105 0.06682767 0.0558071 0.10684012
0.012808695 -0.113502264 0.0021366477 0.013081312 -0.115176156 0.06792201 -0.07161705 -0.055611655
0.004155457 0.0033911765 0.09033373 -0.07569973 -0.050256222 -0.039058074 -0.118119866 -0.11949344
-0.03380239 0.026802555 0.05337338 -0.11517659 0.10170376 -0.06929211 -0.07053499 -0.08728045

fc4.bias f4 [38]
00000000: d3dd 883e 4825 083d 6002 8cbb 4496 3b3d
00000010: 8070 21bb c0e0 eb3c d82a ff3d 3c92 56bd
00000020: 58c9 893c 1a7d e8bd acb2 77bd acd1 d9bd
00000030: d070 3c3d a822 b8bd 2871 acbd 90a5 54bc
00000040: c042 133d 3621 d93d b41f a43d c83a e8bc
00000050: 3008 a8bc d696 eabd 00e1 443b 063e c33d
00000060: 1a95 f03d 5040 e93d be84 cfbd 905d 353c
00000070: 788b 69bd 607f 1d3c 8e26 eebd 9ca9 09bd
00000080: 804b c9bb f061 a13d 1ed1 f93d 7cbd ba3d
00000090: 8a14 c3bd 60b5 3dbd
0.26731738 0.03323868 -0.004272744 0.0457976 -0.0024633706 0.028793693 0.12459344 -0.052385554
0.016819641 -0.11351986 -0.06047313 -0.10635695 0.046006024 -0.08990985 -0.0842002 -0.012978926
0.03595233 0.106020376 0.080138594 -0.028348342 -0.020511717 -0.11454551 0.0030041337 0.095333144
0.11747189 0.1138922 -0.101327404 0.01106967 -0.057017773 0.009612888 -0.116284475 -0.033609018
-0.0061430335 0.07880008 0.12198089 0.091181725 -0.09525402 -0.04631555
