models/comparison_1000ep_dqn/pointwise_dqn.pt (torch, 131720 bytes, 7 tensors)

fc1.weight f4 [128, 56]
000000 a6 ae 29 3e 78 e7 04 3f 4e 80 91 3d 0c e6 a2 3e
       0.1657053 0.51915693 0.0710455 0.31816137
000010 f2 8c 96 3e d6 6b 89 3e d8 28 7a bd e6 2b 1b 3f
       0.29404408 0.26840085 -0.061074108 0.6061386
000020 a0 29 9b 3e 3e ff 72 3e f4 2a a1 bc a8 7e 94 3d
       0.30305195 0.2373018 -0.019673802 0.0725072
000030 52 1b 41 bd c7 36 98 3d 56 02 0e 3e 6e 9d 80 bd
       -0.047145195 0.07432323 0.13868079 -0.06280027
000040 68 29 61 bc 46 6b 14 3d ef 69 e3 3d 38 a9 82 3c
       -0.013742782 0.036235116 0.111041896 0.01594983
000050 bc dc 0d 3e 6a 54 b2 3d 93 b4 30 3e 52 6a 2a bd
       0.13853735 0.08707507 0.17256384 -0.0416053
000060 ce 1b 28 3c 1e 14 7e 3c f8 4b 1e 3e 0c f1 37 bc
       0.010260535 0.015507726 0.15458667 -0.011226904
000070 fe e7 7c bd 85 6d 60 39 4c 82 b1 3d b0 d2 1e 3e
       -0.061744682 0.00021403104 0.0866743 0.15510058
000080 8d d7 be 3d ae e8 95 3c d6 d0 00 3d 18 c4 00 3e
       0.09318457 0.018299427 0.03144916 0.12574804
000090 c4 d3 74 3c 8e 80 3f bd a9 6e 3c 3e 1c 5e e5 bc
       0.014943067 -0.04675346 0.18401588 -0.027998976
0000a0 a9 cf 43 be 60 d4 0a be ff 60 31 3e ed fc 1e bd
       -0.19122185 -0.13557577 0.17322157 -0.038815428
0000b0 8e d1 cd 3d f4 35 ec bc ef 58 ec 3d 49 b8 43 3e
       0.10049735 -0.02883432 0.115404 0.19113268
0000c0 62 09 16 3d e2 e8 a0 3c 0c 51 09 3d 6f 5e ff 3d
       0.036630042 0.019642297 0.033524558 0.12469184
0000d0 41 ea 20 3e c9 7f 1b be 78 d1 8e bd e8 e1 27 39
       0.15714361 -0.15185465 -0.06973547 0.00016010518
0000e0 b6 36 3b 3e b8 f4 47 3e 72 63 06 3e af 6d 67 3e
       0.1828259 0.19526947 0.13123873 0.22600435
0000f0 9d 86 28 3e e2 f0 4d 3e 0d ba 7a 3e 01 e6 b9 bc
       0.16457601 0.20111421 0.24485035 -0.022692682
000100 74 94 41 3e dc 3f 3e 3e 03 2b 76 3e 73 a4 64 3d
       0.18904287 0.18579048 0.24039845 0.055820893
000110 f2 1b 81 3e dd 8c ed 3d b4 42 5c 3e ee be 66 3e
       0.25216633 0.11599133 0.2150982 0.22533771
000120 5c 83 11 3d cc c4 14 3e 66 ea 20 3e cc 8d b6 3d
       0.035525665 0.14528197 0.15714416 0.08913764
000130 96 58 3a 3e 59 e4 43 3d 2a fa 1a 3e ac 53 8e 3e
       0.18197855 0.04782519 0.15134493 0.27798212
000140 44 f5 42 3e e8 9b d7 3d ec 1b b5 3d 1f 09 85 3e
       0.19038874 0.10527784 0.08843216 0.2598352
000150 52 84 11 3e 15 da 42 3e 27 3d 2b 3d 9f 9e e3 3d
       0.14210632 0.19028504 0.041806366 0.11114239
000160 c2 11 b0 3d a6 95 80 3e 3e e9 fc 3d 75 ee 88 3e
       0.08597137 0.25114173 0.12349175 0.26744428
000170 9d 18 c0 3d 88 a5 0b 3e 88 bd 0d 3e 09 ad bd 3d
       0.093796946 0.13637364 0.13841832 0.092615195
000180 68 65 ce bd a9 de b3 be ce d3 8a 3e 8c 34 91 3d
       -0.100779355 -0.35130814 0.2711472 0.07090101
000190 10 a9 78 3e ab 05 cc 3c 7f 14 b9 3b 56 fe 45 3e
       0.24283242 0.024905046 0.0056481953 0.19335303
0001a0 03 db 83 3e 15 f8 2d 3e d7 ed 3e 3e 07 b1 b2 3d
       0.2575303 0.16989167 0.18645416 0.087251715
0001b0 71 e9 05 3e 86 a7 34 be 3d 64 ad 3d 95 e7 36 3e
       0.13077332 -0.1764203 0.084663846 0.17861779
0001c0 e7 a3 db bd eb 84 20 be 5c 4e 0e be 4b ff 00 be
       -0.10724621 -0.15675704 -0.13897079 -0.12597387
0001d0 ec 23 0e be 9f 1b 49 3c bc 5f dd bd 4c 45 f1 bd
       -0.1388089 0.012274652 -0.108092755 -0.117807955
0001e0 e2 06 4f be 65 8b d6 3a 9d 81 eb 3b 83 be 11 be
       -0.2021747 0.0016368447 0.007187082 -0.1423283
0001f0 47 4f 48 be f9 0d 25 3d a8 d6 b9 bd 42 95 f5 bd
       -0.19561492 0.04029653 -0.090741456 -0.11991359
000200 ed a2 18 bd 1b 58 19 be 4d 7d a1 3c df 48 3d 3d
       -0.037264753 -0.14975016 0.019713068 0.046212073
000210 00 cb 22 be a5 bd 4c 3d 28 6c 2f be 44 ba f9 bc
       -0.15897751 0.049985547 -0.17131102 -0.030484326
000220 a7 55 67 bd 75 be 98 bd 79 29 48 be de bd 5c 3c
       -0.05647817 -0.07458202 -0.1954707 0.013473002
000230 d5 57 1a be b4 b7 49 3d 9e 8d ea bc 83 c0 84 3c
       -0.15072568 0.04924746 -0.028631981 0.016205078
000240 7c da 0a be 59 7c 34 be 7b df 01 3c 35 54 3c be
       -0.13559908 -0.1762556 0.007926817 -0.18391497
000250 94 ed 1c bd 32 c8 04 be ae 4d 84 bd 12 a6 2e be
       -0.03831251 -0.12966993 -0.06460129 -0.17055538
000260 4c 64 27 bf df 94 2f bf 74 eb 95 bd d2 4b 70 3d
       -0.65387416 -0.68586534 -0.073203 0.058666058
000270 a4 da c9 bc 7a bf 2c bd 86 e2 44 be f0 ff ca be
       -0.024640389 -0.042174794 -0.19227037 -0.3964839
000280 d6 3c ab bd dd d2 48 be da c5 a7 bd 99 e0 1a 3a
       -0.08361213 -0.19611688 -0.08192034 0.00059081014
000290 4f f0 32 be 33 fb 07 bf ff 9a 4f be f0 7c 3f be
       -0.17474483 -0.53117675 -0.2027397 -0.18700004
0002a0 3c ae 44 3d c8 dc c2 3d 98 bd 78 3d 6c ab d2 bc
       0.048017725 0.09514767 0.060727686 -0.025716506
0002b0 2a 03 1f 3d c7 35 5a 3d 57 a2 3f 3e fd 6a db 3d
       0.038821377 0.053273942 0.18714271 0.10713766
0002c0 9e cd 33 3e a0 ea 0e 3e df e4 31 3d b5 98 90 3e
       0.17558905 0.1395669 0.04343116 0.28241506
0002d0 83 b2 86 3e 27 b8 3c 3e 7c c3 8d 3e 4d 01 72 3e
       0.2630807 0.18429624 0.27688205 0.23633309
0002e0 f0 a3 ae 3d 83 b2 57 3e 6a b3 22 3e 0e ea ae 3d
       0.08527362 0.2106419 0.15888754 0.08540736
0002f0 ce 64 62 3e ee 66 55 3e 04 54 aa 3c ef c3 84 3d
       0.22108766 0.20840046 0.020792015 0.06482684
000300 d3 a2 83 3e 00 b3 49 3e 53 92 3c 3e 38 30 8a 3d
       0.25710163 0.1969719 0.18415193 0.06747478
000310 79 5f 68 3e e1 6f b9 3d a5 43 98 3d 39 10 83 3e
       0.2269267 0.09054542 0.07434777 0.25598314
000320 a1 8d 64 3d 8c d6 58 3e ac 1b 7c 3e ca 87 bb 3d
       0.05579913 0.21175593 0.24619931 0.09156759
000330 38 af 27 3e d2 89 8c 3e ff 81 5c 3e be e5 ab 3d
       0.16375434 0.274489 0.21533965 0.08393429
000340 45 85 f9 3d c4 38 91 3e d8 48 fa 3d 4d ae 5d 3e
       0.12183622 0.2836362 0.12220925 0.21648522
000350 99 d2 7f 3e c6 9c 46 3e 72 45 ec bb a5 72 d1 3d
       0.2498268 0.19395742 -0.007210427 0.10226945
000360 97 7b 68 3e 7e df 88 3e b8 48 36 3e 28 70 89 3e
       0.22703396 0.2673301 0.17801178 0.2684338
000370 ed fb 2d 3e 5f 43 4d 3e 28 43 40 3d d7 d3 8b 3e
       0.16990633 0.20045231 0.046939045 0.27310058
000380 ce 0e d5 bd ad 6a 5f 3c b5 28 9a 3d 54 82 c3 bc
       -0.104032144 0.013636273 0.075272955 -0.023865856
000390 a6 e4 20 3d c5 fd 3d bd 00 85 9a bb 3d 30 73 bd
       0.039280556 -0.04638459 -0.004715562 -0.059372175
0003a0 25 50 6d bd d3 31 8f 3d 7c 3b af 3c 05 7b 77 bd
       -0.05793776 0.06991925 0.021390669 -0.060420055
0003b0 41 72 f4 bb ab a0 7d 3d d2 23 da bd 6c 97 74 3d
       -0.007459909 0.061920803 -0.106513634 0.05971472
0003c0 d7 04 eb 3d e1 51 5d 3d cb a2 66 3d a1 a3 2c 3d
       0.114755325 0.054033164 0.056307595 0.042148236
0003d0 80 15 92 3d 2f d9 0d 3e 61 b6 54 3c de d7 27 bc
       0.07133007 0.1385238 0.012982936 -0.010244338
0003e0 55 a8 a4 3d 09 48 f0 3d 65 5d 02 bd e7 ab b8 bd
       0.08039919 0.117324896 -0.03182735 -0.09017163
0003f0 e4 07 24 3d 15 e0 6b 3d 3a a3 c8 3d a3 28 18 3e
       0.040046588 0.05758675 0.09796758 0.14859252

fc1.bias f4 [128]
000000 d0 72 4c 3d 5d 76 b3 bd 61 61 77 3d 82 05 6b be
       0.04991418 -0.087628104 0.060395602 -0.2295132
000010 e3 21 97 3d 52 0d 00 3d 57 9f b2 3c 17 8c a8 3c
       0.0737951 0.031262703 0.021804495 0.020574613
000020 9a ff bb bd b7 49 56 bd 8e 36 4e 3e 42 81 22 3e
       -0.091796115 -0.052316394 0.20137998 0.1586962
000030 0e 5c d2 be 0b 5d d3 bd f7 7b dc be 6d 2f d1 3d
       -0.41085857 -0.10320481 -0.43063328 0.10214124
000040 2e 1b 62 3e e7 c5 9c 3d d3 f0 1f bc dc b9 71 3e
       0.2208068 0.076549344 -0.009762007 0.23606056
000050 78 8c 96 be 4f c2 44 bd 2e fc 20 be 45 3d 2e bd
       -0.29404044 -0.04803687 -0.15721199 -0.0425389
000060 f2 0c d0 3d 5e 72 54 bd 0a 40 0f be 92 84 09 bd
       0.10158719 -0.05186688 -0.13989273 -0.033573695
000070 7e a1 18 be 64 9b 04 be 4b f3 96 bd 2e 10 c2 bd
       -0.14905354 -0.12949902 -0.07370623 -0.09475742
000080 0f 09 92 3c 04 09 04 3d f6 38 dc 3d e9 bf 8c be
       0.017826585 0.03223516 0.10753052 -0.27490166
000090 00 34 2f 3c 31 d7 9c 3d 6b 47 f9 bb 78 dd 97 bd
       0.01069355 0.07658232 -0.0076073906 -0.07415289
0000a0 f7 5c be 3d 3a 6b ff bd 52 90 3c be f9 5f be 3c
       0.092950754 -0.12471624 -0.18414429 0.023239123
0000b0 bc 01 5d bd 58 45 92 3d 46 40 87 3b f7 03 f3 3c
       -0.053956732 0.071421325 0.004127535 0.029664977
0000c0 11 de 1e bf 73 b7 b5 bd 27 79 b4 bd 46 78 3c 3e
       -0.62057596 -0.08872881 -0.088121705 0.18405256
0000d0 75 51 0b bc 00 be 78 bd 7c 06 f4 bd ea b1 f7 3d
       -0.008503308 -0.060728073 -0.11915299 0.12094481
0000e0 2a 5f 4e 3c cb 82 99 bc 30 3e 68 bc 27 6b 99 be
       0.012595931 -0.018739125 -0.014174983 -0.29964563
0000f0 68 d0 cb bc dd d4 23 be d0 7b f8 be c8 f9 05 3c
       -0.02487965 -0.1599917 -0.4853196 0.008177228
000100 d6 0a 20 3e 10 8e 74 bd 77 18 4f be cf 1c 6e bd
       0.15629134 -0.059705794 -0.20224176 -0.058132943
000110 d0 12 0b 3e 5b f3 19 3d a6 c0 b1 bd 00 44 e6 bd
       0.13581395 0.037585597 -0.08679323 -0.11243439
000120 4e b5 e2 bb d7 e4 9c 3d 2f 88 5e 3e 49 5a 40 be
       -0.006918586 0.07660835 0.21731637 -0.18784441
000130 94 56 c3 3d ec e9 85 bc c7 23 00 be e5 cb d4 3c
       0.09537998 -0.016346894 -0.12513648 0.02597613
000140 c6 3a 8f bd 70 0d 23 bd 79 84 23 3e 4b 84 db bd
       -0.06993632 -0.039807737 0.15968503 -0.10718592
000150 f0 67 08 3e 72 6c c0 3d 41 74 a9 be f4 16 57 be
       0.13320899 0.09395684 -0.33096507 -0.2100485
000160 ab 91 73 3d 6c 99 45 3d 74 55 1b bd a0 cd 27 be
       0.05946509 0.048242018 -0.03792329 -0.16387033
000170 10 a7 b5 bd d8 95 bf 3c 23 76 09 be bb 8c 8f bd
       -0.08869755 0.02338688 -0.13423972 -0.07009264
000180 a2 f6 db 3d c7 e4 87 3c f0 e5 2b 3d 09 2e f3 3d
       0.10740401 0.016588582 0.041967332 0.11874015
000190 03 bf 14 bd 99 f6 b2 3d c5 4e d1 bc 17 1a 98 bb
       -0.036314975 0.08738441 -0.025550256 -0.004641782
0001a0 2e 51 de bd c4 04 a2 bd 4b 4e 95 bd b1 76 88 3d
       -0.108553275 -0.07911065 -0.07290324 0.066632636
0001b0 c6 b0 85 3c e2 cf 68 3d 5d 24 3b be 84 fa c4 bd
       0.016319644 0.056838877 -0.1827559 -0.096180946
0001c0 0f 2d c8 3d d4 61 04 be 4d a9 c3 bb 6a ae d1 be
       0.09774219 -0.12927943 -0.00597111 -0.4095338
0001d0 d1 0f 25 bf 70 12 05 3e da 1e 47 bd ea 49 31 bd
       -0.6447726 0.12995315 -0.048613407 -0.04328338
0001e0 eb 91 4c 3d 33 5c 8b bd fd 37 0b be 9e 4d cd bd
       0.049943846 -0.06804695 -0.13595577 -0.1002457
0001f0 ef 29 b7 bd e3 37 41 3e 4f d5 12 3e f1 22 a1 3c
       -0.08943545 0.18868975 0.14339183 0.019669982

fc2.weight f4 [128, 128]
000000 b7 0c cc bb 42 21 ac bd 8e 80 a8 be 50 74 22 3e
       -0.0062271017 -0.08404781 -0.3291058 0.15864682
000010 25 84 6b bd 77 dd 9c bd 8a 49 7b bd ab 7a 77 bd
       -0.05749907 -0.076594286 -0.06134943 -0.06041972
000020 5f 2b 0c 3d 4a 30 30 3c 25 46 ed be db d9 b1 3e
       0.03422105 0.0107537005 -0.4634258 0.34736523
000030 a4 52 78 3d 25 31 8e bd 0c f7 cf bd 38 c9 e6 3c
       0.060625687 -0.06942967 -0.10154542 0.02817212
000040 7e 51 e3 3e f8 4b 88 bd 18 94 ae 3d 4b b0 44 be
       0.4439811 -0.06655115 0.085243404 -0.19207875
000050 4b 70 3a be 45 a7 0e bd 24 29 80 3c ab 0d e3 bc
       -0.18206899 -0.03482749 0.015644617 -0.027716478
000060 38 e0 a9 bd 0d 9b c3 bc 48 1c 34 bd fc 96 75 3c
       -0.082947195 -0.023877645 -0.043972284 0.014989611
000070 d6 07 df bc 51 82 6e 3d 78 8a a7 3d 86 7a dc 3c
       -0.027225416 0.05822975 0.08180708 0.026913892
000080 3a 45 8a bd 37 85 3f be 1e 58 c3 3d 47 ea 20 3d
       -0.06751485 -0.18703161 0.095382914 0.039285924
000090 9a 3b 18 bb 75 0b 25 bc 91 ff de bc 33 52 f1 bd
       -0.0023228885 -0.010073532 -0.027221473 -0.117832564
0000a0 1f a8 15 bc 0a 50 62 bd 79 38 51 bb 45 6e c7 bc
       -0.0091343215 -0.055252112 -0.003192453 -0.024344573
0000b0 34 cd 2f bc 4e b1 bd 3d 76 e0 bf bd af 68 44 3d
       -0.010730077 0.09262334 -0.093689844 0.047951397
0000c0 66 75 45 be ab 80 e3 3c 27 7d e1 3d c2 ac df 3e
       -0.19283065 0.027771315 0.11010199 0.4368649
0000d0 f7 62 f8 bd f7 e7 af 3c 4f 99 e3 bc b2 0b 73 bd
       -0.12128251 0.021472914 -0.027783064 -0.059337325
0000e0 26 ad c0 be bc 24 33 bd b1 76 03 3d da b1 91 bd
       -0.37632102 -0.043736205 0.032095615 -0.071140006
0000f0 9c b4 e5 be c0 5e 24 be 5b d4 ce bd 32 d2 aa bd
       -0.44864357 -0.1605177 -0.10099097 -0.08340873
000100 40 2d d5 3b 40 fa 52 bf b5 fb 40 bd 07 3e 3d bd
       0.0065056384 -0.824131 -0.047115047 -0.046201732
000110 d1 37 5c 39 51 8d 59 3b c3 20 a6 bb d1 b2 ac 3d
       0.00021001628 0.0033195803 -0.0050698235 0.08432544
000120 6d 2b 43 be 63 b5 7c be a9 34 5a 3d 7c 65 05 be
       -0.19059534 -0.24678569 0.053272877 -0.13026994
000130 2e 53 64 3c f3 79 62 bd 78 ef 3a bc b4 bf 14 3e
       0.013935847 -0.05529208 -0.011409633 0.14526254
000140 63 e7 0a 3d 56 e2 97 bd d0 e8 32 bd 52 c8 a3 3c
       0.033912074 -0.07416217 -0.04367906 0.019992981
000150 2c 01 d0 be 1b 88 d6 bc 01 1f 35 be 1c 4a e5 bd
       -0.40625894 -0.026187947 -0.17687608 -0.11195776
000160 69 b9 10 3e 49 55 f9 3c b7 83 5f bc b7 92 12 3c
       0.14133228 0.030436175 -0.013642243 0.008946112
000170 87 21 ec bb b9 4a 24 bd d1 6c d6 bd 65 a0 eb 3d
       -0.007206145 -0.040110324 -0.10469974 0.11505202
000180 d1 45 94 3d 29 b0 09 3e 28 e2 36 3d 6f a7 9b 3e
       0.07239879 0.13446106 0.044649273 0.3040118
000190 ba 92 50 3e 29 2b 0e bd 59 32 00 3f 13 f0 1e 3c
       0.20368472 -0.03470913 0.50076824 0.009700793
0001a0 bb a5 a0 bd c8 14 3a 3c ce b4 06 be 55 4c 7c 3c
       -0.078441106 0.011357494 -0.13154909 0.015399058
0001b0 66 30 36 bd 67 55 a7 bd 21 f4 b0 be 74 a2 83 bd
       -0.04447975 -0.08170586 -0.34561256 -0.0642747
0001c0 91 47 c7 bd 83 a4 76 3d b8 51 1b 3d 12 22 ce bd
       -0.09730447 0.060215484 0.03791973 -0.10065092
0001d0 8c 81 28 be 83 e7 06 be 96 4c 9d 3d f2 77 40 3d
       -0.16455668 -0.13174252 0.07680623 0.04698939
0001e0 0e 35 21 ba 51 5c ab 3d 89 3d a2 bd 4f 54 16 bd
       -0.00061495684 0.08367217 -0.07921893 -0.036701497
0001f0 21 7b 73 bd 19 b1 61 bd 7b fe d4 3e 66 2d 40 3d
       -0.059443597 -0.055100534 0.41600403 0.046918295
000200 a1 83 33 3a 18 86 9e 3d 36 72 97 ba 41 bd 02 3e
       0.00068479223 0.0774042 -0.0011554423 0.12767507
000210 3f 56 51 bd 00 d9 89 bd 34 ff 6b 3d 29 ee 40 bd
       -0.05110764 -0.067308426 0.057616428 -0.047102127
000220 ed 46 6f bd 67 52 89 3d a4 f8 b3 be f2 b3 a8 3e
       -0.05841725 0.0670517 -0.35150635 0.32949787
000230 a4 13 83 bd 83 78 93 3d 85 bb 29 be ed 47 91 bc
       -0.064002305 0.0720072 -0.1657544 -0.017734492
000240 99 87 61 3e 0e 89 2c be c0 ea 81 3d af 4a 79 be
       0.22024383 -0.16849157 0.06343603 -0.24344896
000250 a2 e6 d8 3d 0f 5b 8f bd 37 e2 82 bd 99 3c a6 3d
       0.10590865 -0.0699979 -0.06390803 0.08117027
000260 ab ba 2c bd 2e 9b fb bd ea 9e 5c bd 92 73 85 3d
       -0.042170208 -0.122854576 -0.05386249 0.06516184
000270 e7 5a d2 3d 49 61 88 bc 6f a8 8d bd 8e 73 20 3d
       0.102712445 -0.016647952 -0.06916892 0.0391727
000280 0c 29 2a bd a2 35 40 bd 4b 09 b8 3d ed d8 29 bd
       -0.04154305 -0.04692615 0.089861475 -0.041466642
000290 6e 3f b7 bd 0e bd ac bc a0 fb 9f 3d 9f a1 d3 bc
       -0.08947645 -0.021086242 0.078116655 -0.025833903
0002a0 bd 9a 85 3d af 5f 1f bd f5 d3 f6 3d 37 76 0b bc
       0.065236546 -0.03890961 0.12052146 -0.008512071
0002b0 55 dc 5b bd eb 43 ad bd ac 8a 08 be 0a b1 bc bb
       -0.053676922 -0.0846022 -0.13334149 -0.0057584094
0002c0 47 72 cf 3c 6d c5 30 3e 44 9e b3 3d 2f 82 8d 3e
       0.025323046 0.17262812 0.08770421 0.27638385
0002d0 48 83 90 bc 6e ed a6 3c 7b b7 84 3d a8 f0 8d bc
       -0.017640725 0.020376887 0.064803086 -0.017326668
0002e0 a0 04 2c be e4 33 f3 bc ee ee d1 bc a5 ad 9b 3d
       -0.1679864 -0.02968783 -0.025626626 0.076014794
0002f0 08 b3 58 be b2 cc cd 3c 11 a2 53 bd d2 0d 3e 3d
       -0.21162045 0.02512202 -0.05166823 0.0463999
000300 12 06 2c be 13 a7 50 bf e9 9b 02 3d 9f 51 21 3d
       -0.1679919 -0.81504935 0.03188697 0.03938448
000310 5e 61 c0 3d a3 87 95 3d 2c d3 80 3c d0 f1 07 bd
       0.09393571 0.07301261 0.015725695 -0.033189595
000320 07 dd 98 bd b7 15 f0 bd d4 48 33 bd af 2c 23 bd
       -0.074640326 -0.11722892 -0.043770626 -0.039837535
000330 8f 4b 4b 3d e1 09 f5 3c 6e fe 7a 3d 00 74 08 3d
       0.049632605 0.029911937 0.0612778 0.03331375
000340 06 64 1c bd f6 e7 42 3b 2b ec 03 bd 10 6f 80 bd
       -0.038181327 0.002974031 -0.03220765 -0.062711835
000350 a3 6c 69 be aa b4 71 bc 37 4e 65 bd 60 9a 28 3d
       -0.22795348 -0.014752546 -0.055982795 0.04116285
000360 99 57 f4 3d 18 ab 31 3d 75 b2 11 3d 22 57 46 3c
       0.119307704 0.04337606 0.03557058 0.012105735
000370 62 3e 42 bd 3c 16 0a 3d f5 8b ef ba 72 cd e5 bd
       -0.047422774 0.03371261 -0.0018275963 -0.11220826
000380 93 20 8a 3d 88 0d 7b 3d 45 7e 76 bd f6 cc b1 3e
       0.06744494 0.0612922 -0.060179014 0.34726685
000390 7a 81 7d 3e d1 4a 8f bd 9b a1 ff 3e 4f 36 88 bd
       0.24756423 -0.06996692 0.49927983 -0.066509835
0003a0 8a f7 d5 bc 33 f6 38 bd 67 c1 b5 3c 08 fb 71 bd
       -0.026119012 -0.04515667 0.022186948 -0.059077293
0003b0 dc 1a 22 bc 5f 71 41 bd 2b 6c 62 3d f2 9b 75 3d
       -0.009894099 -0.04722726 0.05527894 0.059963174
0003c0 75 15 2f 3d a6 53 80 3d 93 cb 3a 3d 04 54 dd 3c
       0.042745072 0.06265955 0.0456043 0.0270176
0003d0 f3 7e f5 bd d5 a5 ee bc 97 f2 d7 3d e0 50 76 bd
       -0.11987104 -0.02913181 0.10544317 -0.060135722
0003e0 ae 26 c4 3c e7 df 09 3d 15 bc 42 bd 62 d7 2c bd
       0.023944225 0.033660796 -0.04754265 -0.042197593
0003f0 3a 70 0e bd 2c 07 27 3b a9 c4 bd 3e c4 7a 9c bb
       -0.034774996 0.0025486453 0.37064102 -0.004775377

fc2.bias f4 [128]
000000 f5 a9 17 3e e9 3a dc 3d 19 73 b0 bd e8 27 57 bd
       0.14810927 0.10753424 -0.08615703 -0.052528292
000010 cd 5c 24 3e fb 21 15 3e 88 05 9d 3d 65 55 2f 3e
       0.16051026 0.14563744 0.076670706 0.17122419
000020 18 b4 25 3d 5d be c9 bd eb 94 39 3e c6 2e 97 ba
       0.040454954 -0.09850762 0.18123214 -0.0011534325
000030 da 63 2f 3e 3b 0b 9c bd b1 2a 83 3e ca 00 1b 3e
       0.17127934 -0.076193295 0.25618508 0.1513702
000040 b3 23 a3 bc 9a 46 37 3b 68 7e 8b bd 40 f3 9e bd
       -0.019914484 0.0027965666 -0.068112195 -0.0776124
000050 98 68 69 bd 3d c5 f4 bd 8d 2c 28 be e6 30 7a 3e
       -0.056984514 -0.11951683 -0.16423245 0.24432716
000060 35 86 93 bd fb 4b 20 bd 4c 06 f2 bd 2e e3 87 3e
       -0.07203332 -0.03913496 -0.11817607 0.26540512
000070 d3 50 7b bc c5 89 35 3e 88 65 86 be 60 71 f5 3d
       -0.015339094 0.17728336 -0.26249337 0.11984515
000080 fe 92 6c 3e 31 08 5c bd 43 58 83 3e 83 ec c0 bd
       0.23102948 -0.05371875 0.25653276 -0.09420111
000090 74 ec db bd e3 68 78 3e c3 f9 38 bd f5 64 03 be
       -0.10738459 0.24258761 -0.045160066 -0.12831481
0000a0 4c 94 1d 3e 8b c1 10 3e d9 79 c7 3b 37 f2 55 bd
       0.15388602 0.14136331 0.0060875234 -0.052232947
0000b0 b2 d8 6b 3e 69 0c 39 3b 3b bb 54 3e f5 f4 33 bf
       0.23031881 0.0028236157 0.20774548 -0.7029565
0000c0 d4 b0 aa 3c 3d 6c a6 bd 8f 24 b0 bd df 49 bf bd
       0.020836271 -0.081261136 -0.08600723 -0.09340262
0000d0 40 49 c1 3d 9b fc 49 bd 0c e4 d9 bd fb 3f 79 bc
       0.094377995 -0.04931317 -0.106391996 -0.015213008
0000e0 34 12 74 bd 0a 89 4f bd 02 e2 5c 3e 3f 96 8f bd
       -0.059587672 -0.0506678 0.2157059 -0.07011079
0000f0 0e 6b 5c 3e 53 77 e9 bd 8c 5a 90 3d e9 e1 d4 bd
       0.21525213 -0.113997124 0.070485204 -0.103946514
000100 b5 c6 c0 3d 6b 48 94 bd 1f b7 74 bd 3a 1b 30 bd
       0.094129 -0.07240375 -0.05974495 -0.042994715
000110 fc 79 3b 3e 7c 57 f8 bd 06 52 17 bc 36 2b cc 3c
       0.18308252 -0.12126061 -0.0092358645 0.024922948
000120 61 76 16 bd 26 d3 8e bd b8 fa a8 bd 09 45 6d 3e
       -0.03673399 -0.06973867 -0.08250946 0.23170866
000130 ce cb b6 3d 31 b5 79 3e c9 59 87 3d 1e 98 5d bd
       0.089255914 0.24385525 0.06608922 -0.05410015
000140 d8 b6 c9 bd 8b 1f b5 3d 15 be 4f 3e 06 39 7e 3e
       -0.09849328 0.08843907 0.20287354 0.2482644
000150 37 60 3f 3c a3 94 44 3e 75 55 71 bd 21 ec 20 bd
       0.011680654 0.19197325 -0.05891939 -0.03928769
000160 d5 b6 c6 bd 74 e1 23 3d 8a c8 d9 bd 8a 06 0c bd
       -0.09702841 0.04000993 -0.10633953 -0.034185924
000170 ab c2 8f 3e c4 8a 31 3d 7b cf 4a 3e b9 cd 71 bd
       0.28078207 0.043345228 0.1980571 -0.059034083
000180 79 0f 19 3e 51 bb dc 3c b1 cd 65 3e 37 53 64 bd
       0.14947309 0.026944788 0.22441746 -0.055743422
000190 17 7b d8 3d 87 da b4 bd 09 68 da bb 1f e0 cc bd
       0.105703525 -0.08830743 -0.006665234 -0.10003685
0001a0 3f ac 60 be 74 b0 58 3e 72 06 e1 bd 58 19 ad 3c
       -0.21940707 0.21161062 -0.109875575 0.021130249
0001b0 b9 3b 06 3d 79 07 37 3e 48 fe 23 3d 1b 46 05 be
       0.0327718 0.17873944 0.040037423 -0.13015024
0001c0 4b 2d 0b be 3c f3 3c 3e cb ce 40 3e 3f a6 66 bd
       -0.13591497 0.18452162 0.18828885 -0.05631089
0001d0 5e 36 2c 3e 5a 15 c6 bd 07 c1 50 3e 38 0e 0d 3e
       0.16817614 -0.09672041 0.20386134 0.13774955
0001e0 ff df f1 bd 2c f1 24 be 35 df d7 bd da 60 6e bd
       -0.11810302 -0.16107625 -0.1054062 -0.058197834
0001f0 92 89 57 bd 1f 58 0f bc ed a3 39 bd 24 e1 95 bd
       -0.05262143 -0.008749037 -0.045322347 -0.07318333

fc3.weight f4 [64, 128]
000000 6d 87 0e bd 0e a2 9e bd cf e3 2f 3d 0e 23 ee bc
       -0.03479712 -0.07745753 0.042941865 -0.02906945
000010 01 80 b7 3b 27 9c b0 bd f4 d8 e3 3c a6 fe d0 bd
       0.005599976 -0.08623534 0.027813412 -0.1020482
000020 d4 0f 8c 3d 68 8b 9a bd 33 4d 5f 3d c1 f9 65 bc
       0.068389565 -0.07546121 0.054516982 -0.014036597
000030 1f aa 67 bd 6a 49 e6 3c a0 3d f7 3c 42 4a 26 bd
       -0.056558724 0.028111178 0.030180752 -0.04059816
000040 8b 3c ec 3c fc 07 a4 bd 08 4a 66 bd e2 84 a9 3d
       0.028837463 -0.080093354 -0.056222945 0.082772985
000050 a5 50 00 bd 97 3d f7 3c cf 2e 10 bd 01 c9 be bd
       -0.03132691 0.030180736 -0.03520089 -0.09315682
000060 f6 94 04 bd 97 1b cc 3c 3e 5c 9e bc 52 3e 95 bd
       -0.032368623 0.0249155 -0.019331094 -0.07287277
000070 16 90 56 bd 3e 27 20 3d be 09 fd 3c fb 06 68 bd
       -0.052383505 0.039099924 0.030888434 -0.056647282
000080 0f 0f ae bd b4 e5 1f 3d 36 fc e0 bc 9c ab 73 3d
       -0.08498966 0.03903742 -0.027464014 0.05948983
000090 2c 97 08 3d e4 2e 91 bd f7 3a 4a 3d c3 2e 2e bd
       0.033347294 -0.07089022 0.04937264 -0.042525064
0000a0 d0 e6 59 3d 8f ba b0 bd 30 a2 9d bc bc 99 60 3d
       0.053198636 -0.08629333 -0.019242376 0.054834113
0000b0 97 06 aa bc 18 c5 9a bd 8b ee d9 bd 97 6d 9f bd
       -0.020755095 -0.07557124 -0.106412016 -0.077845745
0000c0 b7 dd 41 3d 93 54 33 3d 72 90 92 bd c8 89 81 3d
       0.047330584 0.043781828 -0.07156457 0.06325108
0000d0 5f 6c 29 3d d5 7a 36 3d c8 48 38 3d de b2 a4 3d
       0.041363116 0.044550736 0.044991285 0.08041929
0000e0 f2 b9 72 3d fd e0 8d bd 33 a4 1e 3d c3 e2 ac bd
       0.059259363 -0.06927679 0.03873081 -0.08441689
0000f0 27 ea bd bd 99 e2 a8 bd 58 9f 24 3d 43 b9 6e bd
       -0.09273177 -0.08246345 0.040191025 -0.058282148
000100 c6 51 b9 bd 66 44 9a bc bd 5a 86 3d b6 1d 4e bd
       -0.090488 -0.018831443 0.06560276 -0.050321303
000110 6f 58 7f bd f8 6f 1f bc a7 a7 24 bd 40 2a ab bd
       -0.062340196 -0.009731285 -0.04019895 -0.08357668
000120 a8 1f 84 bb 53 86 90 bd bc d9 5d 3d 08 f0 bb bc
       -0.004032094 -0.0705687 0.054162726 -0.022941604
000130 29 52 5e bd 43 ee c2 3c 6a 43 9f bd a5 85 78 bd
       -0.054277573 0.023795253 -0.0777653 -0.06067433
000140 b0 b2 dd bb e6 bd f9 bc 03 46 96 bc cb 11 44 3c
       -0.006765686 -0.030486058 -0.018343931 0.011967133
000150 b9 ec 07 bb 0b ab e1 bc 14 34 be 3a ec b2 95 bd
       -0.0020740463 -0.02754738 0.001451137 -0.07309517
000160 c0 e2 fa bc 4d 56 fa bc 7d 74 8b bd 38 9b 9f 3d
       -0.030625701 -0.03055873 -0.06809328 0.077932775
000170 59 6a bf bd d0 57 d7 3a 70 7a 8c bd 39 37 97 bd
       -0.09346456 0.0016429368 -0.068592906 -0.0738358
000180 f0 2b b5 bd 0d 02 7f bd 59 2e cc bd 22 eb 68 3b
       -0.08846271 -0.062257815 -0.099697776 0.003554054
000190 f5 4c 8c bc d3 6f 88 bd 9c e0 d8 bb e5 2b a1 bd
       -0.01712654 -0.06661954 -0.0066185724 -0.078697
0001a0 c2 5c e0 bc a4 8c 7c bd ae d9 24 3c b8 a3 f8 bb
       -0.02738798 -0.061657563 0.0100616645 -0.007587876
0001b0 af d3 43 bd 30 6c 31 bd e3 2f ad bd 25 c6 48 bd
       -0.0478093 -0.043316066 -0.08456399 -0.04901709
0001c0 8f 0b 30 3d c3 1a ad 3b 74 ba 66 bc 33 f1 07 3d
       0.042979773 0.0052827313 -0.01408254 0.03318901
0001d0 7b 7a 3f bd 5b e9 1e 3d 10 3f 0b bc 9b 06 96 bd
       -0.046747666 0.038796764 -0.008498922 -0.07325479
0001e0 65 9e 2c 3d 10 1a 1e 3d de 3f 2b 3d 77 df 83 bd
       0.042143244 0.038599074 0.041808955 -0.06439107
0001f0 40 3f 4f bd 2e 58 bf bc 61 b9 49 3c 63 28 a3 3d
       -0.05059743 -0.023357477 0.012312264 0.079666875
000200 78 48 c6 bc e7 08 63 3d 6d 6a d1 3c 0f ab 1d bd
       -0.024204478 0.05542841 0.025563443 -0.038493212
000210 2f 99 a9 bd 42 9f 23 bc 99 03 1b bd cd ab 02 bd
       -0.082811706 -0.0099867005 -0.037845228 -0.031902123
000220 29 97 ed 3c a7 da d8 3c fc df a4 3c c3 81 b5 3c
       0.029002743 0.026471449 0.020126335 0.022156602
000230 1c e7 f3 3b a4 12 0f bd 71 ff 9d bd ab 54 75 3b
       0.007443322 -0.034929886 -0.07714737 0.00374345
000240 8e 23 9e bd f0 d1 d8 3c 75 9f 6f bd 63 7d 89 3b
       -0.07721625 0.026467294 -0.05850168 0.0041958555
000250 a5 a8 50 3d 74 97 85 bd ef 1e ae bd d0 ed 92 3a
       0.050942082 -0.06523028 -0.08501994 0.001120979
000260 1f 13 8c bd e0 30 ad bd 05 6f e7 bc 49 28 ce bc
       -0.068395846 -0.08456588 -0.02825118 -0.025165694
000270 27 20 c7 bc b8 ed 27 bd b6 f9 dc bc 23 dd 40 3d
       -0.024307324 -0.04099819 -0.02697454 0.047085892
000280 bd f8 d6 bc f0 1f 91 3d f1 5d 43 bd 70 6a 8c bd
       -0.026241655 0.0708617 -0.04769701 -0.06856239
000290 49 5b 2d bc 9f bf 8a 3d 78 6d 6d bd b8 b3 06 bd
       -0.010580846 0.0677483 -0.057965726 -0.032886237
0002a0 ae 04 26 3c 49 8b 1a be 61 04 72 bc b4 49 a5 3d
       0.010132952 -0.15092196 -0.014771552 0.080706984
0002b0 14 f4 7d bd af fe af bd 15 85 41 3d 1a 3a 48 bd
       -0.06200035 -0.08593499 0.047246058 -0.048883535
0002c0 82 71 4d 3d b7 9c fc 3b 2c 9b 8a bc 82 5b 93 3d
       0.050157078 0.0077091116 -0.016919695 0.07195188
0002d0 2f 57 8d bb b7 cf a4 3c a4 f7 0a 3d 34 df 88 3c
       -0.0043133716 0.020118577 0.033927575 0.016707994
0002e0 00 15 9a bc 06 38 91 3d e9 5a 02 be 3d 07 61 3d
       -0.018808842 0.07090764 -0.12729992 0.054938544
0002f0 09 11 35 3b 3a 04 cf 3c 10 b2 9f 3d 61 a8 6c bd
       0.0027628562 0.02527057 0.077976346 -0.057777766
000300 7f 57 84 3c 04 71 e0 3c 93 f5 0f 3d dd 6b fb bc
       0.016155003 0.02739764 0.035146307 -0.030691082
000310 6b 60 a7 bd 88 92 a3 3d 28 a8 03 3d 54 a3 7b bd
       -0.08172687 0.07986933 0.03214279 -0.06143506
000320 5e 6f 76 3d ca 6a 86 3c f6 47 5f 3d 3e 92 85 3c
       0.0601648 0.016408343 0.054511987 0.016305085
000330 6f 7f b2 ba ab 5d c2 bd 74 98 dd bd ad 55 1f 3d
       -0.00136183 -0.09490522 -0.10820094 0.038900066
000340 0b 4f 9b bc cd a7 08 bd be cd 82 3d 71 a4 b9 bb
       -0.018958589 -0.033363152 0.063868985 -0.005665355
000350 fa d4 35 3d 91 77 6a bc d6 3c bc 3c 12 66 5e 3c
       0.044392563 -0.014310733 0.022978228 0.01357414
000360 0b f8 1e 3d 15 b2 f8 bc 70 e1 93 bb 3d 15 c9 bc
       0.03881077 -0.030358354 -0.004512958 -0.02454626
000370 5d ab 52 3d 19 ce 53 3d 36 47 9c bd f8 80 5a bd
       0.051432956 0.051710222 -0.0763077 -0.05334565
000380 21 58 c2 bd 07 1f 08 bd 26 ed d3 bd d0 a8 13 3d
       -0.094894655 -0.033232715 -0.10347967 0.036049664
000390 83 b4 49 bc 1e 14 3a 3d 9f aa aa bd 5e e9 79 bd
       -0.012311104 0.04542934 -0.08333325 -0.061013572
0003a0 f6 54 5c bd ef c0 2d bd f2 e9 a0 3d 18 01 5b bd
       -0.053791963 -0.042420324 0.078571215 -0.05346784
0003b0 ea 31 a6 3d ee 58 65 3d 53 9c 88 bc 98 e7 4e bb
       0.08114989 0.055993013 -0.016676104 -0.0031571146
0003c0 2c fb 88 bd 51 f6 11 bd b3 d8 03 3d 98 c7 91 bb
       -0.06688532 -0.035635296 0.032189082 -0.0044488423
0003d0 5a 0e 72 bd 4b 37 ca bb 7e 4c e1 3c ad ac 91 ba
       -0.059095718 -0.006171142 0.027502295 -0.0011114083
0003e0 09 45 9d bd 5d 5f fe 3c e1 47 44 3d f4 3b 9f 3d
       -0.07679183 0.031051332 0.04792011 0.07775107
0003f0 a6 a7 9e 3d 99 56 1a bd 2b 91 b7 3b 12 e8 6a bd
       0.0774682 -0.037680242 0.005602022 -0.057350226

fc3.bias f4 [64]
000000 d2 4d 3a bb f7 86 9c bd 04 1d 7b bd c9 6e c5 ba
       -0.0028427732 -0.0764293 -0.06130697 -0.0015062924
000010 39 5d 8f bd 34 41 b9 bd 66 13 06 be 90 13 0b bd
       -0.07000203 -0.0904564 -0.13093337 -0.033954203
000020 35 0b 97 3d ca c5 92 bd 4d 4e a4 bd a8 c6 c6 bd
       0.073751844 -0.071666315 -0.08022747 -0.097058594
000030 0c ec 9a 3e 66 30 70 3e 26 e4 2d bc e1 fa 6a bc
       0.30258214 0.23455963 -0.010613477 -0.014342041
000040 77 91 de bd c7 2b 4f 3e e4 7f 19 bd d5 06 80 3a
       -0.10867589 0.20231543 -0.03747548 0.0009767661
000050 40 de 63 bd 8e 2b 66 3e af ed 95 3e 9b 8c de bd
       -0.055631876 0.22477552 0.292829 -0.10866662
000060 18 2f a8 3c 5a 0e b2 bc bd 90 64 bd ca 66 2b 3e
       0.020530269 -0.021735359 -0.055802096 0.1673843
000070 d1 53 ac bd 81 3a ae bc 75 9b c5 bd 2c f4 a2 3e
       -0.08414424 -0.021268131 -0.09648792 0.31826913
000080 88 dd ff bc a7 57 11 3e 10 4d 71 3e 5e 60 68 3e
       -0.031233564 0.14193593 0.23564553 0.22693011
000090 50 41 c0 bd 70 19 b1 bd 47 1d 29 3e f7 e4 bf bc
       -0.09387457 -0.0864743 0.16515075 -0.023424609
0000a0 76 42 60 bd 65 5b 3c 3c e6 70 87 b9 6d 9f 9c bc
       -0.054750882 0.0114963995 -0.00025833322 -0.019118989
0000b0 27 d2 80 3e 22 25 60 3e f8 f3 ef bb 01 92 d1 bc
       0.25160334 0.21889165 -0.0073227845 -0.025582315
0000c0 9f 23 93 bd 0d 30 a5 3e df 63 3a 3e aa df 82 3e
       -0.071845286 0.32263222 0.1820216 0.25561267
0000d0 c5 10 98 3e e6 06 a1 bd 64 9d 7c 3c d3 ab a6 3e
       0.29700294 -0.07862644 0.015418384 0.32552966
0000e0 36 18 30 bd b3 53 36 be 8b 10 b7 3a 7e cd a2 3e
       -0.04299184 -0.17805366 0.0013966722 0.31797403
0000f0 1c d3 83 3e 8a ae fd bc f4 c2 b2 bd 57 6b a1 3e
       0.25747 -0.030967016 -0.087285906 0.31527206

fc4.weight f4 [1, 64]
000000 48 b2 89 3d b7 9e b1 bc c1 4a f3 bd 10 45 68 3b
       0.067234576 -0.021682126 -0.118794926 0.0035441555
000010 0b ba 98 3c 82 66 c0 bb b3 72 f7 bc da 6e c1 bd
       0.0186434 -0.005871595 -0.03020606 -0.094449714
000020 38 b8 23 bf a4 fd 18 3d 02 0d 1f 3d 0e bd 1b bd
       -0.6395297 0.037351266 0.038830765 -0.038022093
000030 04 bc b3 3e bc a2 9c 3e 0d 04 9e bc e3 64 e7 3b
       0.35104382 0.30592906 -0.019289041 0.007061587
000040 5c 1d b0 bc 86 26 90 3e 1f b7 b2 3c 30 e8 13 3c
       -0.021498375 0.2815439 0.021815835 0.009027526
000050 1d c2 e4 3c 18 49 8c 3e b6 c2 98 3e 2f 10 00 bb
       0.027924592 0.27399516 0.29836053 -0.0019540896
000060 64 29 5e bd 8b 1b e8 bd af 77 66 bc d8 fe 7d bf
       -0.054238692 -0.113333784 -0.014066621 -0.99216986
000070 7c 8a e4 3c e5 1c a2 be 9c ca e2 bc 2d f1 9e 3e
       0.027898066 -0.3166267 -0.027684502 0.31043378
000080 ff df d0 bb 88 ef b3 bd 8f 3e 74 3e 74 32 90 3e
       -0.0063743587 -0.08785921 0.23851989 0.28163493
000090 a3 c9 a2 3d c2 54 3e bc c8 c6 b7 3e 15 1d af bd
       0.079486154 -0.0116168875 0.35893846 -0.08550469
0000a0 78 2b 83 bd 2b a0 b5 ba 16 cd 40 bc b5 72 d6 3c
       -0.064047754 -0.0013856938 -0.011767646 0.026177743
0000b0 96 f1 7b 3e 0f 24 78 3e 34 e4 e3 b8 7a 09 a3 bd
       0.24603876 0.24232505 -0.000108667096 -0.07960792
0000c0 e6 ee a1 3c 77 92 9e bf 96 cc 91 3e f8 df 8c 3e
       0.019767236 -1.2388448 0.284764 0.27514625
0000d0 fb 3d 85 3e 56 51 5f 3c 31 1f 30 be 28 22 97 3e
       0.2602385 0.013630232 -0.17199399 0.29518247
0000e0 33 4d 53 3c 7f 1d c8 bc b5 39 43 3b af aa 98 3e
       0.012896824 -0.024428127 0.0029789035 0.2981772
0000f0 f1 08 da 3e de 49 71 3a 83 31 76 3c 3d cc 7f 3e
       0.42584947 0.00092044275 0.015026453 0.24980254
