src/python/services/models/comparison_5000ep_dqn/pairwise_dqn_5000ep.pt (torch, 160720 bytes, 8 tensors)

fc1.weight f4 [128, 112]
-0.18390766 0.3092763 -0.1265325 0.23082556 -0.12928155 0.13185461 -0.13613671 0.15411834
-0.055617966 0.1007587 -0.13996822 -0.20348495 -0.030209146 -0.11976879 -0.052025832 -0.13925795
-0.14406165 -0.10121563 -0.03569792 -0.15405631 -0.045939848 -0.05409475 -0.19207992 -0.19903782
-0.10781841 -0.05885607 -0.2007491 -0.16166115 -0.028636627 -0.16267446 -0.10273684 -0.0194621
-0.032276854 -0.13908678 -0.19947629 -0.12093808 -0.04656374 0.21856171 -0.18392058 -0.14823078
-0.14085451 -0.20082082 -0.20384979 -0.05499148 -0.057648525 -0.03340453 0.35905796 -0.023750328
-0.113450825 -0.14088283 -0.05467817 -0.19684927 -0.046038825 0.048735548 -0.06698209 -0.038541943
-0.020156201 1.7993412 0.06996098 1.6385385 0.90272963 1.2919577 -0.3224064 1.5747252
0.834635 0.48175943 -0.20518754 -0.13991642 -0.018706465 -0.08023732 -0.19634637 -0.09436868
0.0066090655 0.0065684784 0.0014615878 -0.088159 -0.034170974 -0.15286586 -0.08165403 -0.13808073
-0.03378632 -0.054277316 -0.013059397 -0.12154418 -0.04321198 -0.20298928 -0.16565396 -0.13369825
-0.16983189 -0.1731284 -0.18288544 0.016338734 0.039927524 0.047826324 -0.16168667 -0.22646493
0.9375434 -0.91965896 -0.10651663 -0.19194892 -0.101772524 -0.13047223 -0.28977394 0.09620438
-0.09100142 -0.052903354 -0.038799375 -0.13294992 -0.11404669 0.36931387 -0.21194655 -0.096014276
0.0602928 0.13976356 -0.019920819 0.14677683 0.13022733 0.1464225 0.12661634 -0.009458326
0.0013357073 0.12318242 0.037719112 0.074262016 0.08396236 0.0933634 0.13894142 -0.01418004
0.11152058 0.15102236 0.15647878 0.0691458 0.13295239 0.08373959 0.11383982 0.031071207
0.09925633 0.07513439 0.026391083 0.10251452 0.096862204 0.095282406 0.07694117 0.061260365
0.11293537 0.046654947 0.14239845 0.027680121 0.08726312 0.14311 -0.023830138 0.13306338
-0.10223505 0.0033852868 0.041026175 0.09258291 0.11688314 -0.023494778 -0.09789627 -0.07520017
0.045278985 0.08619703 0.0268765 0.062162247 -0.009943684 0.050797738 0.13397744 0.07329143
0.017486757 0.05331784 0.086295135 0.16216487 0.004509191 0.031818494 0.06833242 0.06419054
0.025275944 0.08406385 0.014828831 0.07172484 0.05423291 0.12945256 0.066078976 0.13472204
0.059065904 0.051100183 0.041686594 0.00024050583 0.0238469 -0.0028169984 0.004888215 0.047222205
0.14773583 0.0171441 0.14257084 0.07841666 -0.017450191 0.10788958 0.109092236 -0.0270286
0.012807768 0.15457919 -0.0056934534 0.024810724 0.13995749 0.027086556 -0.004760883 0.010147546
0.028729515 0.040067114 -0.028755246 0.08136004 0.14083323 -0.0016401921 -0.13170916 0.0062879217
0.14929172 0.004853392 0.095855236 0.13548236 0.002654386 -0.025735067 0.009094474 0.025869377
0.6752857 0.85178506 0.7254761 0.7505431 0.71528065 0.7033987 0.6895747 0.7279529
0.65350646 0.69787383 0.60099995 0.6373628 0.72450405 0.6270964 0.68564177 0.61350644
0.67320067 0.63727826 0.7201743 0.6894355 0.6288997 0.6113037 0.6267126 0.58639216
0.734764 0.5950481 0.6786183 0.67797494 0.71587837 0.61637247 0.7356094 0.6421008
00000000: 4a52 3cbe 7759 9e3e bc91 01be 895d 6c3e
00000010: 6262 04be e504 073e 6c67 0bbe 33d1 1d3e
00000020: aacf 63bd 945a ce3d d453 0fbe 5c5e 50be
00000030: 2c79 f7bc 5749 f5bd 0a19 55bd a399 0ebe
00000040: e684 13be 244a cfbd fb37 12bd f0c0 1dbe
00000050: 6c2b 3cbd 7592 5dbd 99b0 44be 92d0 4bbe
00000060: e6cf dcbd 1013 71bd 2c91 4dbe 808a 25be
00000070: 5c97 eabc 2294 26be b167 d2bd fb6e 9fbc
00000080: bc34 04bd c46c 0ebe 8343 4cbe 62ae f7bd
00000090: 9fb9 3ebd a4ce 5f3e ad55 3cbe cfc9 17be
000000a0: 2a3c 10be f9a3 4dbe 00be 50be bf3e 61bd
000000b0: dc20 6cbd 30d3 08bd 72d6 b73e 0c90 c2bc
000000c0: e858 e8bd 9743 10be 37f6 5fbd db92 49be
000000d0: 3593 3cbd ed9e 473d e82d 89bd 28de 1dbd
000000e0: 9e1e a5bc d050 e63f b447 8f3d a1bb d13f
000000f0: 4a19 673f df5e a53f 7412 a5be 9890 c93f
00000100: a4aa 553f 2ca9 f63e af1c 52be 4046 0fbe
00000110: 4d3e 99bc 7753 a4bd 060f 49be 5e44 c1bd
00000120: dc90 d83b 643c d73b c092 bf3a b58c b4bd
00000130: ddf6 0bbd de88 1cbe 3a3a a7bd 0965 0dbe
00000140: 8663 0abd e451 5ebd 15f7 55bc 28ec f8bd
00000150: 0cff 30bd 6cdc 4fbe 31a1 29be 32e8 08be
00000160: 69e8 2dbe 9248 31be 5246 3bbe cfd8 853c
00000170: 0b8b 233d 89e5 433d 3191 25be 6ce6 67be
00000180: d802 703f c56e 6bbf 6425 dabd 428e 44be
00000190: 1d6e d0bd 839a 05be 405d 94be cd06 c53d
000001a0: f45e babd 30b1 58bd 18ec 1ebd 0624 08be
000001b0: 5091 e9bd b516 bd3e 8408 59be 22a3 c4bd
000001c0: 95f5 763d 2e1e 0f3e fc30 a3bc aa4c 163e
000001d0: 505a 053e c8ef 153e b7a7 013e 18f7 1abc
000001e0: e612 af3a 1147 fc3d 5b7f 1a3d af16 983d
000001f0: 75f4 ab3d 4f35 bf3d a946 0e3e 6653 68bc
00000200: e764 e43d 9ba5 1a3e f93b 203e 509c 8d3d
00000210: ac24 083e aa7f ab3d da24 e93d 0b89 fe3c
00000220: e746 cb3d 0fe0 993d 1d32 d83c 22f3 d13d
00000230: b15f c63d 6c23 c33d 5593 9d3d 26ec 7a3d
00000240: a94a e73d 4219 3f3d e6d0 113e 6cc1 e23c
00000250: 02b7 b23d 6e8b 123e 6c37 c3bc c441 083e
00000260: 9c60 d1bd b0db 5d3b 100b 283d 1c9c bd3d
00000270: 6d60 ef3d 1f78 c0bc d77d c8bd 8c02 9abd
00000280: 7576 393d 1288 b03d 1b2c dc3c d79d 7e3d
00000290: d5ea 22bc 4a11 503d 6231 093e d119 963d
000002a0: 6340 8f3c cf63 5a3d 81bb b03d 8c0e 263e
000002b0: d6c1 933b 1c54 023d def1 8b3d 5476 833d
000002c0: 7f0f cf3c ab29 ac3d a0f4 723c 79e4 923d
000002d0: 5423 5e3d 368f 043e 6a54 873d 93f4 093e
000002e0: 17ef 713d 6d4e 513d 90bf 2a3d 4b30 7c39
000002f0: 935a c33c 649d 38bb 522d a03b 126c 413d
00000300: 1048 173e c971 8c3c 17fe 113e ea98 a03d
00000310: b4f3 8ebc 36f5 dc3d c06b df3d 156b ddbc
00000320: acd7 513c 024a 1e3e 2690 babb dc3f cb3c
00000330: 0451 0f3e a0e4 dd3c 2e01 9cbb e541 263c
00000340: 295a eb3c 6a1d 243d 1f90 ebbc 18a0 a63d
00000350: 9636 103e b7fb d6ba c4de 06be e90a ce3b
00000360: eedf 183e 3409 9f3b c04f c43d e3bb 0a3e
00000370: 35f5 2d3b 59d2 d2bc fd00 153c 04ec d33c
00000380: 86df 2c3f 960e 5a3f cdb8 393f 9823 403f
00000390: a21c 373f f011 343f f887 303f 1f5b 3a3f
000003a0: 334c 273f dca7 323f 22db 193f 352a 233f
000003b0: 1979 393f 6489 203f 3886 2f3f c20e 1d3f
000003c0: e156 2c3f ab24 233f 585d 383f d87e 303f
000003d0: 92ff 203f 667e 1c3f 3d70 203f cc1d 163f
000003e0: 7e19 3c3f 1355 183f eeb9 2d3f c48f 2d3f
000003f0: ce43 373f 96ca 1d3f e650 3c3f b860 243f

fc1.bias f4 [128]
0.17929216 0.01699943 -0.6763359 -0.026629485 -0.17933895 0.0016676649 -0.16378756 -0.16805932
-0.37344486 -0.11643517 -0.014209012 0.038969897 0.016322142 -0.019751912 -0.2307209 -0.100035004
-0.0045833024 -0.09644824 -0.018303234 -0.105151705 -0.08741788 -0.05392694 -0.13194613 -0.025193404
-0.6532554 -0.01810974 -0.080574766 -0.25208318 -0.08577205 -0.051545624 0.08306282 -0.03534544
0.08448916 0.020217866 0.100925624 -0.06421989 -0.43163866 -0.016691886 -0.013404859 0.042582776
-0.19863397 -0.15219568 0.100287184 -0.07798585 0.075928405 0.07771483 -0.0973216 -0.021325953
-0.1580229 -0.00018406738 -0.1724153 -0.0406077 0.13188292 -0.1348576 0.089720026 -0.10883725
-0.26856565 -0.22023845 -0.13004868 0.0065171532 -0.24310093 -0.25595722 0.076252885 -0.13416399
-0.23897475 0.008213175 0.007780364 0.028676292 -0.21062712 0.27270433 0.012681695 -0.10603176
-0.60524434 -0.0656739 0.09035745 0.09597297 0.08423025 -0.041068517 -0.046787884 -0.020112677
-0.37312233 -0.14103508 -0.017416194 -0.22809894 -0.12684993 -0.034594394 0.04265019 -0.10556726
-0.16247422 -0.018094221 0.025501683 -0.10119342 -0.17130369 -0.0380535 0.0018969623 0.23737435
-0.01526718 0.0339249 0.032428548 -0.055838138 -0.05848128 -0.41600505 0.085844606 -0.1980478
0.13965873 -0.1637566 -0.12938008 0.15283254 -0.417463 -0.32085866 -0.34471944 -0.7389435
-0.14515327 -0.023468014 -0.1518661 0.08216532 -0.24626924 0.020754358 -0.0340278 0.018781884
-0.12826855 -0.19733745 -0.011478635 -0.11956071 0.02293865 0.021056587 -0.36577597 -0.31765634
00000000: 5d98 373e 6342 8b3c 5924 2dbf 1426 dabc
00000010: a1a4 37be 8c95 da3a edb7 27be be17 2cbe
00000020: 2a34 bfbe 9075 eebd eacc 68bc e69e 1f3d
00000030: 03b6 853c c3ce a1bc 1a42 6cbe 27df ccbd
00000040: 872f 96bb a886 c5bd aaf0 95bc c759 d7bd
00000050: 2508 b3bd 7fe2 5cbd e31c 07be 6662 cebc
00000060: bf3b 27bf e15a 94bc 6204 a5bd 0c11 81be
00000070: 42a9 afbd 8121 53bd d71c aa3d 61c6 10bd
00000080: a708 ad3d f09f a53c 18b2 ce3d b885 83bd
00000090: beff dcbe 6cbd 88bc 0ea0 5bbc 476b 2e3d
000000a0: b466 4bbe 2fd9 1bbe 5e63 cd3d 0cb7 9fbd
000000b0: 5a80 9b3d f428 9f3d 8c50 c7bd c4b3 aebc
000000c0: c1d0 21be 3602 41b9 a38d 30be 4254 26bd
000000d0: 510c 073e 1c18 0abe 22bf b73d 10e6 debd
000000e0: 7081 89be 3086 61be 7b2b 05be d88d d53b
000000f0: 73ef 78be d30c 83be 792a 9c3d 4962 09be
00000100: ccb5 74be 8e90 063c 6cf2 fe3b 8bea ea3c
00000110: a3ae 57be e79f 8b3e e2c6 4f3c 2e27 d9bd
00000120: 4bf1 1abf 0a80 86bd 540d b93d 7a8d c43d
00000130: e980 ac3d 7637 28bd a7a4 3fbd 57c3 a4bc
00000140: e409 bfbe 806b 10be 68ac 8ebc c592 69be
00000150: f3e4 01be dab2 0dbd f7b1 2e3d a633 d8bd
00000160: a45f 26be 553a 94bc e8e8 d03c 7f3e cfbd
00000170: 3c6a 2fbe fddd 1bbd 7ea3 f83a 4312 733e
00000180: 3223 7abc d6f4 0a3d ccd3 043d 88b6 64bd
00000190: 118a 6fbd 9dfe d4be 4ccf af3d 0bcd 4abe
000001a0: b302 0f3e cfaf 27be 367c 04be 2280 1c3e
000001b0: b6bd d5be 9647 a4be 117f b0be 672b 3dbf
000001c0: 0fa3 14be fe3f c0bc c982 1bbe 4b46 a83d
000001d0: 012e 7cbe 0b05 aa3c bc60 0bbd 77dc 993c
000001e0: d558 03be d412 4abe e210 3cbc 3fdc f4bd
000001f0: d6e9 bb3c dd7e ac3c fd46 bbbe daa3 a2be

fc2.weight f4 [128, 128]
-0.06225769 -0.038614348 0.44608048 0.08640941 -0.20905325 -0.06956791 0.22787875 0.017204357
0.5051622 -0.44143015 -0.4798216 -0.15863794 -0.0013173283 0.33307025 0.15896371 -0.2943085
-0.25748542 -0.22917385 -0.60846263 0.075672336 -0.5704436 -0.13357374 -0.0705195 0.0007130128
-0.40403423 0.19674897 0.13384575 0.3619065 0.05712841 0.014380724 0.3364658 0.0635994
0.49774373 -0.008635492 -0.08392167 -0.1931342 -0.03620816 -0.034481637 -0.17690842 -0.01301413
-0.054055326 0.15880886 -0.102231786 0.16644266 -0.027920421 0.36935505 0.06549256 -0.07395817
0.24567786 0.4941821 0.010930889 0.07965634 0.048427448 -0.7780786 -0.40379187 0.06783456
-0.34608984 0.12993382 0.3066968 -0.037210155 0.058458716 -0.06666185 0.065957814 0.16796352
0.07971506 -0.042476006 -0.036111638 0.1319361 -0.07858893 -0.032743 0.003382432 -0.03278261
0.049670342 0.2551917 -0.19563283 0.11034739 -0.15868177 -0.088754445 0.2747773 -0.0057098405
-0.021529542 0.01585843 -0.0041797184 0.4959772 -0.29186174 0.008533677 -0.13769157 -0.032451347
-0.2712232 -0.048711732 0.010100357 -0.06626922 -0.19919398 -0.39797676 0.051159404 -0.3341484
-0.09887073 -0.3980784 -0.027885742 -0.7039783 -0.29479712 0.3859976 -0.32612276 -0.0836805
0.1601022 -0.19068713 0.03763124 0.112307176 -0.1967555 0.060099885 -0.2778937 -0.08896424
-0.10149433 -0.0009634984 -0.2755629 0.16184433 -0.13535154 -0.011337479 0.07819374 0.34415218
-0.04460995 -0.5000577 -0.6735911 0.111274086 0.030607356 -0.078601636 -0.38668212 0.11679399
-0.108547665 -0.052389465 -0.018034501 0.018246213 0.03369033 -0.032712616 -0.032847535 -0.01871387
-0.13338266 -0.07990321 -0.07668523 -0.08641734 -0.06627116 -0.11980743 -0.032135107 0.00908085
-0.13071041 -0.061924394 -0.06436707 -0.08132376 0.035211015 0.0019984865 0.04623098 -0.10959745
0.01521142 -0.089611106 -0.041030344 0.041279968 -0.06842028 -0.020646045 -0.09322031 0.014853613
0.02498407 0.02592966 -0.09139372 -0.020312572 0.011383427 0.035386767 -0.029429203 -0.053157426
-0.06767491 -0.03854063 0.025466861 -0.088361025 -0.045540903 -0.10664512 -0.02017813 -0.0114566935
-0.04754376 -0.05642478 -0.038177323 -0.097762965 0.020526072 -0.08303203 -0.00362093 -0.08830993
0.050493285 0.028291235 0.059137408 -0.0057447944 0.058680058 -0.027636083 -0.011617031 0.06952995
-0.07709451 -0.08175799 -0.002081538 -0.07241331 -0.044914477 0.012042165 0.042894445 -0.06615565
0.057065558 -0.054720458 -0.040379528 0.039528646 -0.010325517 -0.06034646 0.023810921 -0.04707476
-0.07384597 -0.09598427 -0.058424387 -0.06317522 0.020398743 -0.028809315 0.0018815225 0.014768914
-0.08854462 -0.05691246 -0.02107198 0.024873711 -0.008224999 -0.022462409 -0.044025797 -0.036125153
-0.021707961 -0.06249232 -0.07198207 -0.09081886 0.016974114 -0.023219435 0.035732117 -0.121164426
0.049797814 -0.13292044 0.012625048 -0.025268096 0.044848897 0.011706686 -0.115864605 -0.06977407
-0.087942205 0.023170738 0.041254215 0.010229809 0.022588259 -0.0012987562 -0.03501287 -0.013107938
-0.004527502 -0.07719177 0.028219828 -0.024185125 -0.023981115 0.020951161 -0.09110524 -0.023228213
00000000: eb01 7fbd 142a 1ebd a964 e43e 6bf7 b03d
00000010: 0e12 56be 9f79 8ebd 0c59 693e 27f0 8c3c
00000020: 4f52 013f 2203 e2be 2dab f5be fc71 22be
00000030: 34aa acba 2f88 aa3e 62c7 223e 9baf 96be
00000040: 21d5 83be 8dac 6abe 35c4 1bbf 19fa 9a3d
00000050: 9708 12bf 8ec7 08be 876c 90bd 7be9 3a3a
00000060: 93dd cebe 9078 493e dc0e 093e cf4b b93e
00000070: 7bff 693d 219d 6b3c 3f45 ac3e 6740 823d
00000080: 44d8 fe3e e17b 0dbc 20df abbd f9c4 45be
00000090: 024f 14bd 9e3c 0dbd 7b27 35be 3839 55bc
000000a0: 1e69 5dbd ca9e 223e e65e d1bd f26f 2a3e
000000b0: 5eb9 e4bc 1b1c bd3e f720 863d 6277 97bd
000000c0: fa92 7b3e 7005 fd3e 7917 333c dd22 a33d
000000d0: dc5b 463d 2930 47bf cfbd cebe d9ec 8a3d
000000e0: b032 b1be 5f0d 053e 5d07 9d3e ad69 18bd
000000f0: 6872 6f3d 0286 88bd e414 873d a1fe 2b3e
00000100: a641 a33d 52fb 2dbd cce9 13bd 421a 073e
00000110: 3cf3 a0bd 861d 06bd cbab 5d3b 0f47 06bd
00000120: 2173 4b3d 7da8 823e f953 48be d0fd e13d
00000130: 797d 22be e4c4 b5bd 9caf 8c3e 9d19 bbbb
00000140: b95e b0bc 8ae9 813c 05f6 88bb b9f0 fd3e
00000150: e76e 95be d6d0 0b3c 05ff 0cbe b4eb 04bd
00000160: c4dd 8abe f485 47bd f87b 253c 28b8 87bd
00000170: 82f9 4bbe 9cc3 cbbe 868c 513d 8015 abbe
00000180: bd7c cabd efd0 cbbe a470 e4bc ec37 34bf
00000190: a6ef 96be 7aa1 c53e 90f9 a6be af60 abbd
000001a0: d5f1 233e 7d43 43be 3723 1a3d 4e01 e63d
000001b0: 467a 49be 4c2b 763d 1548 8ebe e232 b6bd
000001c0: 42dc cfbd 4893 7cba 9516 8dbe 85ba 253e
000001d0: 9899 0abe d5c0 39bc 0a24 a03d b734 b03e
000001e0: ecb8 36bd c803 00bf 7770 2cbf abe3 e33d
000001f0: 47bc fa3c e5f9 a0bd 33fb c5be b031 ef3d
00000200: 3d4e debd 5696 56bd 17bd 93bc 1579 953c
00000210: dffe 093d aafd 05bd 238b 06bd d44d 99bc
00000220: 7795 08be 4ba4 a3bd 250d 9dbd 93fb b0bd
00000230: 2db9 87bd 995d f5bd 1aa0 03bd d8c7 143c
00000240: f3d8 05be 6fa4 7dbd e2d2 83bd 128d a6bd
00000250: 6d39 103d 0af9 023b b25c 3d3d a174 e0bd
00000260: 5239 793c 0786 b7bd 6f0f 28bd 2f15 293d
00000270: ef1f 8cbd e521 a9bc 4aea bebd 925c 733c
00000280: 64ab cc3c 706a d43c a12c bbbd 8d66 a6bc
00000290: 8e81 3a3c b7f1 103d 8315 f1bc 9abb 59bd
000002a0: 2599 8abd c8dc 1dbd e19f d03c a0f6 b4bd
000002b0: 1989 3abd c268 dabd 9b4c a5bc dbb4 3bbc
000002c0: 3fbd 42bd ac1d 67bd d35f 1cbd f337 c8bd
000002d0: 4b26 a83c b20c aabd 204d 6dbb d6db b4bd
000002e0: 0cd2 4e3d 05c3 e73c 113a 723d d43e bcbb
000002f0: 805a 703d 1165 e2bc 5c55 3ebc b865 8e3d
00000300: bae3 9dbd bc70 a7bd 6a6a 08bb 6e4d 94bd
00000310: 3ef8 37bd 804c 453c 16b2 2f3d 9d7c 87bd
00000320: 93bd 693d 8f22 60bd 0165 25bd cae8 213d
00000330: 5b2c 29bc da2d 77bd 1f0f c33c 77d1 40bd
00000340: 8e3c 97bd 6793 c4bd 694e 6fbd 0262 81bd
00000350: 441b a73c 8301 ecbc 6b9d f63a 51f9 713c
00000360: e256 b5bd 0a1d 69bd 259f acbc f4c3 cb3c
00000370: 25c2 06bc 1603 b8bc 6554 34bd f8f7 13bd
00000380: e5d4 b1bc f2f7 7fbd 566b 93bd 3dff b9bd
00000390: 4c0d 8b3c af36 bebc d75b 123d 0e25 f8bd
000003a0: cbf8 4b3d 4c1c 08be 4ad9 4e3c 0aff cebc
000003b0: 7ab3 373d 66cd 3f3c 6c4a edbd b5e5 8ebd
000003c0: 0b1b b4bd 8fd0 bd3c 2efa 283d ee9a 273c
000003d0: 030b b93c 073b aaba a869 0fbd adc2 56bc
000003e0: 715b 94bb b816 9ebd 452d e73c e21f c6bc
000003f0: 0b74 c4bc c5a1 ab3c 6295 babd 1849 bebc

fc2.bias f4 [128]
-0.22368838 -0.14437692 0.05871478 -0.17030898 -0.25883815 0.14092523 -0.03911843 -0.28329623
-0.089753024 0.0057316204 -0.33229464 -0.16302195 0.048304584 -0.22908401 0.2515614 -0.38926265
-0.08716016 -0.07257868 -0.11450193 0.6445604 0.019728119 0.050713476 0.24472918 0.3096656
0.30925635 0.08691001 -0.017958438 0.014203949 0.4484 0.15735734 -0.05895578 0.13985904
0.023251763 -0.53616047 -0.7949862 0.05716481 -0.45128366 -0.54162747 0.14854534 0.053787824
0.41668975 -0.45036623 0.6086961 -0.19078623 -0.34856313 0.2960948 0.23892042 0.18731003
-0.32662493 0.10110394 0.15656687 -0.24687439 -0.17103928 -0.1320158 0.2240677 -0.05024417
-0.078168906 0.2257113 -0.0559658 0.12119235 0.31107104 -0.142637 0.33498418 -0.16443984
0.22577628 0.035872784 -0.0676223 0.35505596 -0.40189058 -0.09450836 0.22857647 0.23870954
0.090795785 -0.18524033 -0.36450818 -0.023789035 -0.03808725 -0.16316402 -0.5952574 0.4153923
0.469609 0.078341946 -0.087603375 -0.29584602 -0.175285 -0.49722555 -0.26735666 0.31178913
-0.11891277 0.28490853 -0.18512762 -0.022313874 0.16444239 -0.6600319 -0.034971666 0.5131179
-0.04148115 0.3284823 -0.016909702 0.331774 -0.44184947 -0.3305063 0.035899825 -0.55799234
-0.044346567 -0.13782391 -0.49500245 0.33547252 0.56789935 0.26665902 0.00018958736 -0.46871448
-0.021127706 -0.15598407 -0.20431824 0.49037406 0.08295573 -0.16015743 -0.22871393 -0.09045664
0.30270043 -0.5556559 -0.1024584 0.03239215 0.14991231 -0.62102574 0.38598973 -0.18037279
00000000: 910e 65be 8bd7 13be e97e 703d 7a65 2ebe
00000010: 6f86 84be b44e 103e a63a 20bd 340c 91be
00000020: 6fd0 b7bd 51d0 bb3b 8622 aabe 3aef 26be
00000030: 07db 453d 0095 6abe a8cc 803e 6f4d c7be
00000040: 0781 b2bd 22a4 94bd fd7f eabd e901 253f
00000050: dd9c a13c efb8 4f3d 499a 7a3e 7d8c 9e3e
00000060: d956 9e3e e0fd b13d 931d 93bc aeb7 683c
00000070: af94 e53e 4822 213e 9e7b 71bd 3537 0f3e
00000080: 7b7a be3c d041 09bf 3784 4bbf a625 6a3d
00000090: a70e e7be 19a8 0abf 451c 183e 9f50 5c3d
000000a0: 5c58 d53e 6796 e6be 82d3 1b3f 775d 43be
000000b0: de76 b2be bd99 973e 8ea7 743e 33ce 3f3e
000000c0: 623b a7be 950f cf3d 1153 203e a4cc 7cbe
000000d0: ec24 2fbe 262f 07be 0172 653e d5cc 4dbd
000000e0: 0517 a0bd dd20 673e 653c 65bd b233 f83d
000000f0: b444 9f3e 6f0f 12be 0c83 ab3e eb62 28be
00000100: e631 673e 57ef 123d 8f7d 8abd e5c9 b53e
00000110: 9ac4 cdbe 998d c1bd f30f 6a3e 4670 743e
00000120: 24f3 b93d a4af 3dbe d1a0 babe 39e1 c2bc
00000130: 6001 1cbd 7814 27be ca62 18bf 4dae d43e
00000140: 9770 f03e be71 a03d 6669 b3bd 2179 97be
00000150: e97d 33be 5994 febe f9e2 88be d3a2 9f3e
00000160: 8a88 f3bd 88df 913e 1892 3dbe 96cb b6bc
00000170: 9663 283e daf7 28bf 733e 0fbd b25b 033f
00000180: 23e8 29bd d52e a83e 3786 8abc 48de a93e
00000190: 183a e2be 1f38 a9be b20b 133d 96d8 0ebf
000001a0: bfa4 35bd b621 0dbe f670 fdbe 0ec3 ab3e
000001b0: da61 113f 8887 883e f8cb 4639 58fb efbe
000001c0: 0314 adbc 4aba 1fbe cd38 51be 4f12 fb3e
000001d0: b2e4 a93d 4f00 24be fc33 6abe 5541 b9bd
000001e0: 8dfb 9a3e 773f 0ebf b6d5 d1bd a2ad 043d
000001f0: 9d82 193e 8bfb 1ebf 72a0 c53e a5b3 38be

fc3.weight f4 [64, 128]
-0.7127894 0.028047182 0.2353795 -0.12327579 -0.7178985 -0.43600118 -0.12796682 -0.12532715
-0.21012306 -0.21245386 -0.6116157 -0.27717775 -0.7158116 -0.3516984 -0.44007725 -0.13823572
-0.00035045733 0.08997988 0.011944249 0.12262326 -0.4630452 -0.079754755 0.2640297 -0.9900969
0.051088493 -0.289416 0.051301286 0.12126508 -0.1074535 -0.5579614 -0.7667981 -0.37023243
-0.11072878 -0.65441895 -0.2119845 -0.20842233 -0.058552526 -0.016590374 0.19328666 -0.647377
-0.20245177 -0.60784197 -0.18343168 -0.0669484 -0.11954055 -0.5304584 0.38081664 0.45332998
-0.30779883 0.01075855 -0.6983905 0.4776609 0.2287281 -0.112674795 -0.024446601 0.06180646
-0.20754883 -0.12988122 -0.16399786 -0.27420485 -0.01978588 -0.19477962 -0.33713314 -0.099776395
-0.64476675 -0.81340784 -0.47106668 -0.67501545 -0.17613876 0.053920582 0.6516272 -0.21719846
0.31230417 -0.28009814 0.020133954 -0.2597284 -0.14492877 -0.11854813 -0.0646391 -0.025086699
-0.524645 -0.026430346 0.011497531 -0.58932894 0.003551504 0.039137296 0.17218366 -0.033902213
-0.2170841 -0.87452817 -0.5876627 -0.8210474 -0.10754888 -0.3348948 -0.17667815 -0.876454
-0.11471843 -0.3874724 0.19239211 -0.30011126 -0.3977495 -0.35654348 0.02560955 -0.24290046
0.4859754 0.044509515 -0.46879295 -0.3183392 -0.24463767 -0.049729493 -0.406881 -0.21495843
-0.45943123 0.06848561 -0.07483796 -0.29761207 0.07761969 -0.25541857 -0.66386193 -0.5633358
-0.31027678 -0.12504083 -0.06093207 0.1660299 -0.5682483 -0.17749721 0.51309377 -0.018570827
-0.55271167 -0.071347736 0.1502558 0.002705228 0.30454654 -0.3424857 -0.14848436 -0.8767656
0.25126156 -0.17338976 -0.17111953 -0.35647187 -0.06972408 -0.18376622 0.07028635 -0.060697652
-0.09546552 -0.29415795 0.029261366 -0.11969297 -0.54641664 -0.32338172 -0.1503113 0.08098593
0.18293826 0.0033278977 -0.04962636 -0.105863005 -0.71620685 -0.46072495 -0.34199786 0.72649395
0.04680804 -0.35581672 -0.37701598 -0.04016116 -0.14552818 -0.33956367 -0.7767724 -1.3419738
-0.1551757 -0.07066114 0.3598105 -0.05994247 0.27177203 0.75552064 0.21964577 0.7180289
-0.37664732 1.1924642 -1.2555734 -1.1602242 -0.8085461 -0.02691674 0.6753992 0.46137288
-0.09327821 -0.32814723 -0.25802785 -0.019059433 0.07884562 -0.21230456 0.0070956685 0.005679876
0.39444205 -0.044943463 0.0028715238 -1.8189179 -0.50981754 -0.11714101 0.5150635 -0.6510496
-0.053073183 -0.806669 0.074346304 -0.36162913 0.2858987 -0.042091332 0.15342864 -0.22273408
0.018450122 0.6704626 0.023658723 0.5067861 0.020611042 -0.073806345 -0.76610875 0.071629144
-0.5062105 -0.08157678 -0.3261089 0.32825357 0.3002964 -0.548791 0.05051327 -1.5809004
-0.37923178 -0.0263672 -0.56286365 -0.7318023 -1.2797304 -0.15513468 -1.1519141 -0.8543588
-1.5423037 -0.035547834 -0.520914 -1.1435133 0.34510687 -1.1361887 0.14901467 -0.22152974
0.14881183 -0.0048424318 -0.24074441 -0.017372407 -0.30416268 0.16160691 -0.14392576 0.26023492
-0.0012103867 -0.4000354 0.072955556 0.6929604 -0.8058502 -0.7257602 1.1122617 0.09407138
00000000: 5e79 36bf 34c3 e53c 5307 713e 0478 fcbd
00000010: 32c8 37bf 8c3b dfbe bc09 03be c355 00be
00000020: 802a 57be 818d 59be d992 1cbf 3eea 8dbe
00000030: 6e3f 37bf d011 b4be ce51 e1be aa8d 0dbe
00000040: 96bd b7b9 5f47 b83d d0b1 433c e721 fb3d
00000050: 4314 edbe 7656 a3bd e72e 873e fe76 7dbf
00000060: 2b42 513d 552e 94be 4c21 523d d459 f83d
00000070: 9510 dcbd 8fd6 0ebf e14c 44bf 1b8f bdbe
00000080: c5c5 e2bd 0088 27bf 7712 59be aa6c 55be
00000090: c6d4 6fbd 89e8 87bc f0ec 453e 80ba 25bf
000000a0: 844f 4fbe 889b 1bbf 84d5 3bbe 3e1c 89bd
000000b0: add1 f4bd 1fcc 07bf 66fa c23e de1a e83e
000000c0: cf97 9dbe a144 303c b8c9 32bf f88f f43e
000000d0: b337 6a3e 0bc2 e6bd 3d44 c8bc c528 7d3d
000000e0: ae87 54be 95ff 04be 0eef 27be 9464 8cbe
000000f0: ff15 a2bc 4f74 47be b79c acbe 9157 ccbd
00000100: 6f0f 25bf 7f3b 50bf a72f f1be d0cd 2cbf
00000110: b85d 34be d4db 5c3d 0ad1 263f 4669 5ebe
00000120: 55e6 9f3e 0669 8fbe f6ef a43c 1ffb 84be
00000130: 3568 14be 5dc9 f2bd 8161 84bd 9f82 cdbc
00000140: 224f 06bf 7484 d8bc 2460 3c3c 43de 16bf
00000150: 5ac0 683b 6e4e 203d ea50 303e 0cdd 0abd
00000160: 4b4b 5ebe 14e1 5fbf 1071 16bf 2a30 52bf
00000170: 9642 dcbd 5577 abbe 1eeb 34be 4a5f 60bf
00000180: 7ff1 eabd c862 c6be 7002 453e 2fa8 99be
00000190: d3a5 cbbe de8c b6be 1ecb d13c e6ba 78be
000001a0: c5d1 f83e 9c4f 363d a105 f0be 5bfd a2be
000001b0: 4c82 7abe 27b1 4bbd b552 d0be 101e 5cbe
000001c0: 923a ebbe 2f42 8c3d a544 99bd 9c60 98be
000001d0: 12f7 9e3d 39c6 82be dbf2 29bf c636 10bf
000001e0: 99dc 9ebe b40a 00be e893 79bd be03 2a3e
000001f0: b878 11bf d4c1 35be 1d5a 033f d921 98bc
00000200: 837e 0dbf c31e 92bd a8dc 193e 324a 313b
00000210: 86ed 9b3e 495a afbe 490c 18be b673 60bf
00000220: 5ba5 803e 168d 31be f539 2fbe 7b83 b6be
00000230: 80cb 8ebd 362d 3cbe 4af2 8f3d 1a9e 78bd
00000240: 6d83 c3bd df9b 96be 88b5 ef3c 9621 f5bd
00000250: f6e1 0bbf 4a92 a5be 35eb 19be f4db a53d
00000260: 2b54 3b3e dc18 5a3b 0345 4bbd b4ce d8bd
00000270: 5559 37bf 24e4 ebbe 581a afbe 82fb 393f
00000280: cab9 3f3d 9c2d b6be 3d08 c1be 0780 24bd
00000290: 5705 15be 4adb adbe 8eda 46bf ccc5 abbf
000002a0: 61e6 1ebe cab6 90bd 1539 b83e 3c86 75bd
000002b0: b425 8b3e cd69 413f d2ea 603e bed0 373f
000002c0: ebd7 c0be aba2 983f a1b6 a0bf 3a82 94bf
000002d0: e1fc 4ebf 7f80 dcbc f6e6 2c3f 1139 ec3e
000002e0: a508 bfbd ea02 a8be 3a1c 84be 8722 9cbc
000002f0: d079 a13d 5e66 59be c882 e83b 411e ba3b
00000300: 4ff4 c93e a316 38bd 2d30 3c3b 4dd2 e8bf
00000310: 6783 02bf a0e7 efbd 34db 033f 30ab 26bf
00000320: 4463 59bd dc81 4ebf e042 983d 7427 b9be
00000330: 5061 923e f667 2cbd 661c 1d3e 6714 64be
00000340: b624 973c 70a3 2b3f f0cf c13c bcbc 013f
00000350: 7dd8 a83c c827 97bd b41f 44bf 4db2 923d
00000360: 0397 01bf ba11 a7bd bff7 a6be da10 a83e
00000370: 73c0 993e 917d 0cbf 01e7 4e3d f25a cabf
00000380: ab2a c2be 0700 d8bc d517 10bf 6557 3bbf
00000390: 35ce a3bf a0db 1ebe ec71 93bf 42b7 5abf
000003a0: 356a c5bf 9b9a 11bd 9f5a 05bf a55e 92bf
000003b0: d9b1 b03e a26e 91bf 4d97 183e b1d8 62be
000003c0: 2162 183e 43ad 9ebb b485 76be 9450 8ebc
000003d0: 36bb 9bbe 487c 253e 4661 13be 833d 853e
000003e0: d7a5 9eba 71d1 ccbe b969 953d da65 313f
000003f0: 334c 4ebf 6ccb 39bf 975e 8e3f 7fa8 c03d

fc3.bias f4 [64]
-0.2076505 0.23747016 -0.08710102 0.34997493 -0.006500576 0.0061695348 0.2682162 -0.40346867
0.16402419 -0.18574134 0.08211183 -0.8739146 0.4668291 0.38551104 0.2656153 -0.4800797
0.19392568 0.22223444 0.28856626 -0.23532148 0.37866652 -0.3000893 -0.23348628 0.14902432
-0.23233041 -0.76855874 0.06196135 -0.0007050505 -0.570283 -0.36930493 0.131959 0.329804
-0.29712245 -0.34363678 -0.169387 -0.012815693 0.3376333 -0.4758576 -0.35486737 -0.2962239
0.5693978 0.58200186 -0.03848217 0.71240616 -0.5216066 0.4099763 0.63417506 -0.20243385
-0.10916675 0.640137 0.014230187 -0.35832167 0.0009128586 0.21735515 0.49349746 -0.00024751146
-0.3612023 -0.23491645 0.3066793 0.10065265 0.51235324 0.33089104 -0.038034875 0.3276834
00000000: 55a2 54be 612b 733e 0562 b2bd ea2f b33e
00000010: c902 d5bb cf29 ca3b a253 893e 7293 cebe
00000020: f5f5 273e fa32 3ebe 3f2a a83d deb8 5fbf
00000030: 3904 ef3e b461 c53e bbfe 873e 02cd f5be
00000040: 7494 463e 6d91 633e f5be 933e 1df8 70be
00000050: 94e0 c13e 4ea5 99be 0717 6fbe d599 183e
00000060: 06e8 6dbe 44c0 44bf 2fcb 7d3d 23d3 38ba
00000070: 11fe 11bf 8915 bdbe 4320 073e 12dc a83e
00000080: 6f20 98be 29f1 afbe c973 2dbe eaf8 51bc
00000090: 46de ac3e 9ba3 f3be 2db1 b5be a9aa 97be
000000a0: 0ec4 113f 13fe 143f 7b9f 1dbd 4060 363f
000000b0: 0388 05bf 6ae8 d13e 4c59 223f d24a 4fbe
000000c0: d192 dfbd 05e0 233f bb25 693c f075 b7be
000000d0: e74c 6f3a 5992 5e3e b3ab fc3e 6dc4 81b9
000000e0: 82ef b8be f08d 70be 1205 9d3e fa22 ce3d
000000f0: 9529 033f 8d6a a93e 75ca 1bbd 1ec6 a73e

fc4.weight f4 [2, 64]
0.2900977 0.16153418 0.31557003 -0.32725722 -0.20705062 0.19597876 0.07533675 0.4598533
0.3483016 0.16860029 0.16159791 -0.23244931 0.114855684 -0.38546276 0.29601058 0.015896093
0.3696882 -0.13924259 0.22621663 -0.10445092 0.18755645 0.48589572 -0.05159932 0.6542337
-0.3487143 -0.2887403 0.27274564 -0.70767677 0.07269751 -0.41482732 -0.1925355 0.15282805
-0.101484776 0.29157758 -0.011825503 -0.27572897 0.09386244 -0.19854249 -0.016292179 -0.26036307
-0.26087278 0.15895976 0.31640333 0.14129938 -0.1483312 -0.1036473 0.37619132 0.173299
0.20103784 0.2791279 0.6529299 -0.52632815 0.30490905 -0.66550475 -0.22596781 -0.09078329
0.37034583 0.017672133 0.24204656 0.48282298 0.22872289 0.9904717 0.25804082 0.43252924
0.08552426 -0.022052497 -0.073409036 0.07619165 0.08352682 0.060505927 0.08763306 0.011592999
0.111370966 -0.022019953 -0.06747025 0.10016744 0.04324709 -0.022616342 -0.058064967 0.007322535
-0.006342426 0.10959934 -0.10806976 0.00687024 0.04493572 0.105832726 -0.04597728 -0.022490278
0.048869073 0.12237948 0.11259991 -0.04689391 0.10081814 0.105897844 0.022742018 -0.05683084
0.11526486 0.032149702 -0.052181527 0.100727096 -0.08998762 -0.08858527 0.10830982 0.014846042
0.08697955 -0.03990288 0.05755861 -0.02530256 0.015138537 0.06957953 0.022175461 0.07195228
0.032548785 0.098530084 0.09451264 0.0667914 0.060625926 0.056116015 0.084152356 -0.024374306
-0.120712206 0.079693034 -0.0514331 0.0608844 -0.11907385 -0.099880874 0.06127751 0.024017394
00000000: b087 943e 3769 253e 6592 a13e 428e a7be
00000010: 1405 54be a8ae 483e 274a 9a3d e471 eb3e
00000020: 9654 b23e 8ea5 2c3e ec79 253e 3107 6ebe
00000030: 7539 eb3d 605b c5be b38e 973e 8638 823c
00000040: c647 bd3e 9c95 0ebe 55a5 673e 5dea d5bd
00000050: cc0e 403e 53c7 f83e cf59 53bd dc7b 273f
00000060: ae8a b2be c5d5 93be 51a5 8b3e 4e2a 35bf
00000070: 6fe2 943d 3f64 d4be 0728 45be f57e 1c3e
00000080: 40d7 cfbd a849 953e c1bf 41bc 592c 8dbe
00000090: f33a c03d b94e 4bbe 2d77 85bc 4f4e 85be
000000a0: 1e91 85be 59c6 223e 9eff a13e c9b0 103e
000000b0: 22e4 17be 0945 d4bd 269c c03e 4b75 313e
000000c0: dddc 4d3e dae9 8e3e 6a26 273f 71bd 06bf
000000d0: 0a1d 9c3e 855e 2abf 1b64 67be 97ec b9bd
000000e0: f89d bd3e 26c5 903c 0edb 773e 9334 f73e
000000f0: 5536 6a3e 8e8f 7d3f ed1d 843e 7974 dd3e
00000100: 5827 af3d 70a7 b4bc 7a57 96bd 5e0a 9c3d
00000110: 1c10 ab3d 10d5 773d f678 b33d 90f0 3d3c
00000120: 7616 e43d 3063 b4bc d82d 8abd 9624 cd3d
00000130: dc23 313d e845 b9bc 88d5 6dbd e0f1 ef3b
00000140: 20d4 cfbb 9e75 e03d ae53 ddbd c01f e13b
00000150: 840e 383d d4be d83d ac52 3cbd 883d b8bc
00000160: f02a 483d 18a2 fa3d c89a e63d d413 40bd
00000170: be79 ce3d f8e0 d83d 784d ba3c 74c7 68bd
00000180: fc0f ec3d 68af 033d 4cbc 55bd 024a ce3d
00000190: 6e4b b8bd 326c b5bd 8ad1 dd3d d03c 733c
000001a0: 5622 b23d 3471 23bd 94c2 6b3d 5047 cfbc
000001b0: a007 783c b67f 8e3d 50a9 b53c b85b 933d
000001c0: e051 053d 24ca c93d d88f c13d eec9 883d
000001d0: e452 783d e8d9 653d 1258 ac3d a0ac c7bc
000001e0: f637 f7bd 1a36 a33d 84ab 52bd ec61 793d
000001f0: fedc f3bd 588e ccbd 20fe 7a3d 20c0 c43c

fc4.bias f4 [2]
0.43719712 -0.10714251
00000000: 4dd8 df3e 886d dbbd
