models/1000_episodes/best_dqn_test_prioritization_1000.pt (torch, 439258 bytes, 6 tensors)

fc1.weight f4 [128, 684]
000000 ea f8 71 bd a7 19 0e 3d 7d 52 ca 3e ab 29 4d bd
       -0.059075274 0.034692433 0.3951606 -0.050088566
000010 96 40 e0 3d ce 82 21 3e 3e 71 fb 3d de b8 46 3e
       0.10949819 0.15772554 0.122774586 0.19406459
000020 66 1f 88 be 36 c9 23 3c 11 5e 7b be b5 b8 55 3f
       -0.26586455 0.009996703 -0.24547602 0.83484966
000030 14 33 b3 3e f3 8a 19 be 0d a2 15 3d 59 c8 e1 3d
       0.34999907 -0.14994411 0.036531497 0.110245414
000040 a1 1d ae 3c 14 93 75 3e 7a ec 08 bc 78 78 0c 3f
       0.021254363 0.23981887 -0.008357162 0.5487132
000050 0a 8f 78 3e 37 67 10 3f 0c b7 fa 3d e8 4e 65 3d
       0.24273315 0.56407493 0.12241945 0.055983454
000060 1c c5 70 3e 08 c1 a9 be 24 68 b0 3d 6e f6 d6 be
       0.23512691 -0.33155084 0.08613613 -0.41984886
000070 6a f5 b7 bd b5 22 47 be e3 5b 24 bd 4d 6a 2b 3c
       -0.08982356 -0.19446833 -0.040126693 0.010462356
000080 bb 40 dc 3e 1a 82 b1 3e 24 24 0d 3f 1a 1c e7 3e
       0.43018135 0.34669572 0.5513327 0.45138627
000090 93 59 1a 3f bf a5 f9 3e bd 12 1a 3f 10 72 4c 3e
       0.6029293 0.48759267 0.6018484 0.19965386
0000a0 e4 53 8e 3e c3 58 61 3e 4f 9a 1f be ae 86 b9 bc
       0.27798378 0.22006516 -0.15586208 -0.022647228
0000b0 4a 92 41 be a4 2a 8c 3e 05 be 95 be 5b 79 f0 bd
       -0.18903461 0.27376282 -0.29246536 -0.11741897
0000c0 c9 8f a1 bd 9f 11 f0 3d 8b 55 86 3d 58 27 1b 3f
       -0.07888753 0.11722111 0.06559285 0.6060691
0000d0 12 5b 6d 3f 06 9b 2b 3f ae 00 33 3f 92 82 e7 3e
       0.9271709 0.6703342 0.6992291 0.45216805
0000e0 96 1d b0 bd 53 fa 07 3d e5 df 8a 3e d6 44 57 3e
       -0.08599393 0.033197712 0.27123943 0.21022353
0000f0 45 77 03 be 4e fb 29 be 5c 52 26 3f 6c 65 37 3c
       -0.12838466 -0.16599771 0.6496942 0.011193614
000100 2a 6a 8e bd 06 60 88 3c 10 e5 0e 3e 12 a6 aa 3e
       -0.06953843 0.01664735 0.13954568 0.33329827
000110 06 2d 0f 3f 06 e7 1a 3f 93 62 0c 3f ef 68 08 3f
       0.55928075 0.60508764 0.5483791 0.53285116
000120 55 14 19 3f 6a f8 c7 3c 37 c8 ee bc 00 cb 88 3e
       0.5979665 0.024410445 -0.029148204 0.26717377
000130 1f fc 89 3c ff 5c 81 be 57 4a 1b be 4c 42 96 3f
       0.016843854 -0.25266263 -0.15165077 1.1738982
000140 79 51 c2 be 26 55 25 3e 73 70 27 3e c8 77 29 be
       -0.37952784 0.16145763 0.1635149 -0.16549599
000150 68 3d d6 3d 26 1f 34 bc e5 f1 83 3e 5a d3 ce 3e
       0.10460931 -0.0109937545 0.25770488 0.40395623
000160 79 44 f8 3c 44 4e d0 3d 9d ef 83 3e c2 80 bf 3d
       0.030306088 0.10171178 0.25768748 0.093507305
000170 25 36 3f 3e 64 17 21 be 94 a6 c7 3e bc e3 a1 be
       0.18672998 -0.15731579 0.38994277 -0.3161906
000180 0b a1 85 be 4e 18 9c be 38 4a 19 be a9 ba c0 bd
       -0.2609943 -0.30487293 -0.14969718 -0.094106026
000190 36 a7 3e bc 2a 26 9e bd 48 55 28 bf ee d5 8c 3e
       -0.011636546 -0.07722123 -0.6575513 0.27506965
0001a0 3c 2e 02 3e 0e 10 1e bf e3 5e ff be 30 e0 38 be
       0.1271295 -0.6174325 -0.4987708 -0.1805427
0001b0 34 c3 f3 bd d5 4c 45 3e f7 54 c1 be 2d 17 b3 3e
       -0.119024664 0.1926759 -0.37760136 0.3497862
0001c0 b4 8e 90 be 79 31 e1 3e af 72 58 3e 77 53 b2 3d
       -0.28233874 0.43983057 0.21137498 0.08707326
0001d0 04 87 84 3d cf bc ac be de 68 89 be e6 9c e8 be
       0.06471065 -0.337378 -0.2683782 -0.45432204
0001e0 77 30 59 bb a1 0d 49 3e 9b d6 00 bf ef 78 8e be
       -0.003314046 0.19634105 -0.5032746 -0.2782664
0001f0 fb ed a9 bc a8 00 5a bc 2e b4 9c 3e 3e d9 84 3e
       -0.02074336 -0.0133058205 0.30606216 0.25946993
000200 7c b3 ab bd a4 80 c7 bd cb 1e 70 bf 1c 7b aa bf
       -0.08383843 -0.09741333 -0.93796986 -1.331882
000210 1f 8f dc bd b9 60 0d be 47 c2 6b 3e 2f 97 86 3e
       -0.10769486 -0.13806428 0.2302333 0.2628722
000220 3e 24 95 ba 42 ab 0f 3f 07 a9 c8 3e b1 fe 5b bd
       -0.0011378599 0.56120694 0.39191458 -0.05370969
000230 cf fa b0 bb 17 57 f6 bd a7 7f d1 bb 04 3a de 3e
       -0.0054009925 -0.1202833 -0.006393391 0.43403637
000240 d2 8a 9e be 44 20 32 3e fc 11 84 be 72 26 49 3f
       -0.30965286 0.17395121 -0.2579497 0.7857429
000250 5d bd 91 3e d2 af a7 bd af b5 f2 bd a1 17 ac bf
       0.28464785 -0.08187832 -0.1185106 -1.3444711
000260 63 d2 35 bf 88 c8 47 3e 9c ab f5 3e 49 ad 5a 3e
       -0.7102415 0.1951009 0.4798249 0.21355166
000270 bd 9f 26 3e da c8 9a 3d 6b 3f cb 3e 4a 80 16 3f
       0.16271873 0.07557841 0.39696822 0.58789504
000280 c9 23 b5 3e 37 c2 69 3e 9c 43 c1 be 51 51 74 bd
       0.35378864 0.22827993 -0.37746894 -0.059647862
000290 29 b0 5e bf 6c 07 90 bf 6e 15 2c be 3a c0 98 bd
       -0.8698755 -1.1252265 -0.1680505 -0.07458539
0002a0 00 94 97 bd 1e 5c cf bd f6 bf 32 3f c4 67 25 3f
       -0.07401276 -0.10124992 0.6982416 0.6461146
0002b0 21 a3 00 3f 57 77 38 3f 09 d2 12 3f 3d 3f c8 3e
       0.50248915 0.720571 0.5735174 0.39110747
0002c0 f4 0c c3 3e 78 00 99 3e 25 0c 8b be 40 06 5d be
       0.3809582 0.2988317 -0.27157703 -0.21584415
0002d0 48 2e 99 be ea 08 46 3f 83 bc 9b be 13 fa b9 be
       -0.29918122 0.7735735 -0.3041726 -0.36323604
0002e0 00 14 9a bd d7 05 af bf 4c 97 18 bf ea ef 5b be
       -0.07523346 -1.3673657 -0.5960586 -0.21478239
0002f0 06 da 91 3d 06 76 65 3e 4f 34 67 be 3b 4c 9c be
       0.07121663 0.22408304 -0.22578548 -0.3052691
000300 9c a3 e9 3e 48 74 0c 3f 3b 86 84 3e 72 69 d3 be
       0.45632637 0.5486493 0.2588366 -0.41291386
000310 d0 e8 8c be 9a 6e 8e be 6b 78 26 3f 54 c3 8c 3e
       -0.27521372 -0.27818757 0.65027493 0.27492774
000320 89 9d ba 3e 4b 17 f3 3e 6f 92 00 3f fa ec 0c 3f
       0.36448315 0.4747871 0.5022344 0.550491
000330 2e 72 6a be f7 8d 9f 3d 38 29 3b bc 62 b2 73 be
       -0.22895119 0.077907495 -0.011423402 -0.23798516
000340 3f 8e bf be 69 96 41 bd a8 cf 87 3d 0d e7 3b be
       -0.37413213 -0.047262583 0.06631404 -0.18349858
000350 bb 3d 9d bc 43 b0 82 3d e9 c1 94 3d c9 df 94 3e
       -0.019194474 0.063812755 0.07263548 0.29076985
000360 46 c3 c5 3e 2c ec df bd 6b 11 91 bd dd 61 70 3d
       0.38625544 -0.10933718 -0.070834 0.05868708
000370 39 f0 80 bc 81 6f 11 3e 61 b6 8e 3e e7 92 d8 3d
       -0.015739547 0.14202692 0.2787352 0.105748944
000380 b9 5d fe 3d 52 c7 15 3e b9 dc 8b 3e 66 0b 8f 3e
       0.1242022 0.14626816 0.27316836 0.27938384
000390 11 2d a5 3e 7b ee 32 bf 5b ec ae be 96 60 a2 be
       0.32260945 -0.6989514 -0.341647 -0.31714314
0003a0 86 69 f6 3b 2f 7c 6c be a9 f7 f2 3a 6a 45 19 bd
       0.0075199036 -0.23094247 0.0018536943 -0.037419714
0003b0 71 d1 1f bf 2c fd 1f bf 7d 6c 32 3f af 36 07 3f
       -0.6242896 -0.62495685 0.6969679 0.52817816
0003c0 e0 6a 05 3f d1 bc 33 3f 3a db 82 3f 69 ee 41 3e
       0.52116203 0.70209986 1.0223153 0.18938603
0003d0 d0 c8 98 3d 69 56 0e 3f 82 9f 89 be 80 79 d0 be
       0.07460177 0.556006 -0.26879507 -0.40717697
0003e0 65 20 15 bf 35 e0 72 3f 46 b7 1e be 38 15 a4 bd
       -0.58252555 0.9487336 -0.15499601 -0.0801186
0003f0 18 76 8f bc 9a 51 a9 3d 5f 31 00 3e d0 d1 de 3c
       -0.017512366 0.082675174 0.12518834 0.027199656

fc1.bias f4 [128]
000000 8d ff 8e 3e d6 64 12 3e 2f 93 db bd 31 64 44 bd
       0.27929345 0.14296278 -0.107214324 -0.047947112
000010 57 31 5f 3e 07 f1 d3 3b 3b 0b 31 3c 39 ae 92 3e
       0.21796165 0.0064679417 0.0108059 0.28648546
000020 30 4b 65 bd 74 8c 23 3f 8c 2f 20 bc 41 68 f5 39
       -0.055979908 0.6388619 -0.009776961 0.00046807717
000030 74 af 69 bd c8 59 32 3e 0d 8a 42 bd a5 73 a4 bc
       -0.05705209 0.17417061 -0.047494937 -0.020074675
000040 5d d5 64 3e 99 8c a6 3c 43 9f f1 3e c8 c3 9d 3d
       0.22347017 0.020330714 0.4719182 0.07703358
000050 ff 64 54 3c 00 e8 8a bd d4 78 a3 bd c2 8c 88 bb
       0.0129635325 -0.06782532 -0.079820305 -0.0041671703
000060 a6 fd db 3d 2d 06 84 3e fd 5e ad 3e 1d 84 5d bd
       0.10741739 0.25785962 0.33861533 -0.05408107
000070 52 57 ef bd 54 9e d6 3d c8 23 80 3e 5d 73 b8 3b
       -0.11686577 0.104794174 0.250273 0.0056289867
000080 ae 35 24 bd 91 ec b8 3a be 9c 26 3c 2c 3c eb bc
       -0.040090255 0.0014108588 0.010169206 -0.028715216
000090 be 45 40 3e 56 4a 32 3f b7 f1 08 3e d4 5c 06 bd
       0.18776605 0.6964468 0.13373457 -0.03280337
0000a0 93 53 06 bc 09 bb 9f bd a3 14 d8 bc 60 bf 96 bd
       -0.008198637 -0.07799346 -0.026377028 -0.07360721
0000b0 b3 92 35 3e 75 24 77 bc 81 f5 39 bd eb e8 94 bc
       0.17731743 -0.015084376 -0.045400146 -0.01817747
0000c0 25 03 53 bd 23 b6 38 3d 11 e2 bf bd b7 f3 23 bd
       -0.05151667 0.045095574 -0.093692906 -0.040027346
0000d0 5f 13 64 3e f6 14 16 bc a0 ab a1 3e 4f bf ae bb
       0.22273014 -0.009160271 0.31576252 -0.0053328644
0000e0 26 e3 2e 3e ac 11 c8 b9 c9 c9 a9 3e 88 fd a9 3d
       0.17078838 -0.0003816014 0.33161762 0.083003104
0000f0 b5 49 cc 3d bf 6a 47 3e 97 d5 80 bd 02 98 49 bd
       0.09974996 0.19474314 -0.06290739 -0.04921723
000100 98 7f f1 3c db 33 ea 3d b2 4b a1 bd 00 06 b4 bd
       0.029479787 0.11435672 -0.07875766 -0.08790207
000110 15 a9 08 bd fe 3d c4 3d ea 58 d2 bc cf 17 ca bc
       -0.033364374 0.095821366 -0.025677163 -0.024669556
000120 75 af 51 bd 19 0d 85 3e b8 cb e9 3d 7d da 82 3d
       -0.05119272 0.25986555 0.114158094 0.063893296
000130 4d 26 3a bd e9 3e 51 3e 6b a2 e5 bc 3d da 96 3e
       -0.045446683 0.20434155 -0.028031548 0.29463378
000140 6b 9c 22 3f d8 97 af 3e 46 81 a0 bd 42 5f 36 3f
       0.63519925 0.34295535 -0.07837157 0.712391
000150 e9 1d 22 3e 3e 93 20 3f 40 61 0c 3e 11 77 71 bd
       0.15831722 0.62724674 0.13708973 -0.05895144
000160 61 2b ec bd 90 02 69 3d 30 58 e5 bd 7c 28 4d 3e
       -0.11531711 0.05688721 -0.11198461 0.20034975
000170 3a 9f 85 3c 24 8f 80 3e 7c f5 38 3f ae d5 1c 3e
       0.016311277 0.25109208 0.7224958 0.15315887
000180 d7 ea 84 3e c5 07 8f bc 2c ef d2 3d 3b 71 1c 3e
       0.2596042 -0.01745976 0.10299525 0.15277569
000190 c9 42 c4 bc 35 12 8a 3e 6f 5c 28 bd e1 e5 1f 3e
       -0.023957627 0.26967016 -0.041103777 0.15615036
0001a0 24 76 1e bd de 94 c9 bd 8d d8 cb 3d 65 98 18 3e
       -0.038686886 -0.09842847 0.09953413 0.14901884
0001b0 98 ed e1 3d 3a d4 73 3e eb 7b 79 bc 7e eb 07 be
       0.110316455 0.23811427 -0.015227298 -0.13273427
0001c0 23 cf 53 3e 25 ce d0 3e 2f 88 9a 3e 02 0a b6 3e
       0.20684485 0.40782276 0.30182025 0.3555451
0001d0 8e 86 40 be ea 40 13 3d fb 00 bb bd d6 a4 0e 3f
       -0.18801329 0.03595058 -0.091310464 0.5572027
0001e0 bd 8a ce 3c 43 57 c0 3b 40 5b 7f bd 57 a1 10 bd
       0.02521264 0.0058697774 -0.062342882 -0.035310116
0001f0 98 2a 80 3e b8 5d 8c bc 72 df e9 3b 2c 91 0c be
       0.25032496 -0.017134532 0.0071372325 -0.13727254

fc2.weight f4 [128, 128]
000000 f9 b4 f4 be d8 da 13 be 4c d9 61 3c 82 16 15 3c
       -0.4779432 -0.14438951 0.013784718 0.009099605
000010 1b 30 7b be ae db b0 3b e4 ed 9a 3d 0c 97 ca be
       -0.2453007 0.0053972816 0.07564905 -0.39568365
000020 0a 79 71 bc 43 45 95 be 5f 13 5f bc 49 33 a0 bc
       -0.014738331 -0.29154405 -0.013615458 -0.019555705
000030 bf 4b 8b 3c 81 48 87 be 40 46 80 bd 72 b4 49 3d
       0.017003892 -0.26422504 -0.06263399 0.04924435
000040 72 e8 05 3e 88 3f 91 bd 84 d4 d8 be 89 1e 9f 3e
       0.13076952 -0.07092196 -0.42349637 0.31077984
000050 90 da 8f 3d 67 11 53 bd 91 92 5b 3c f8 52 42 3d
       0.07024109 -0.051530268 0.013401643 0.047442406
000060 a0 8d 45 be eb 3b 96 be 8b 46 9d be af ea 37 bd
       -0.19292307 -0.2934259 -0.30717883 -0.044901546
000070 cf 57 1f bc 0b e6 16 bf 7d a4 07 bf 8e 46 6a bd
       -0.009725525 -0.5894477 -0.52985364 -0.057196192
000080 92 5f c9 3c 40 49 80 3d b8 e5 82 bd 6d 9c ca bc
       0.024581704 0.06263971 -0.063914716 -0.024732793
000090 1c b9 96 be 2c b0 12 be be a7 fb bd 70 f8 87 3d
       -0.29438102 -0.14325017 -0.12287854 0.066391826
0000a0 64 b7 a0 bd fc 33 b1 3d 87 b0 72 3c 4d 57 ef bd
       -0.07847479 0.08652493 0.014812595 -0.11686573
0000b0 04 1c 56 3e ba 9c 80 b8 d1 c5 2d 3d 05 61 d4 bb
       0.20909125 -6.132708e-05 0.04242498 -0.006481292
0000c0 1b 61 b2 39 8a 2a b8 3d 79 ae 38 3d ce dc 45 bc
       0.00034023155 0.08992489 0.045088265 -0.01207657
0000d0 28 cb ea bc 99 fc 89 3d 83 65 2c be f5 b7 3d bb
       -0.028661326 0.06737632 -0.16835599 -0.0028948758
0000e0 e5 00 19 3e aa bd 3b 3e b3 b7 45 3c 7a 83 f1 3d
       0.14941747 0.1833407 0.012067723 0.11792655
0000f0 3b 26 d3 bd fd 7e 63 3e d3 1c c5 bc ad 75 9b bc
       -0.10310026 0.22216411 -0.024061596 -0.01897701
000100 5d 70 3e be 10 fd 33 be 5e af e4 bd ab c5 b7 3b
       -0.1859755 -0.17577004 -0.11166261 0.0056082807
000110 80 e6 ba 3c ee 84 f6 bd 4a b8 9a 3a a1 1a 85 3c
       0.02281499 -0.12037073 0.001180419 0.01624805
000120 eb 84 25 3d 6f 47 8d be d0 d1 9e 3d 69 2e 5b 3e
       0.040409964 -0.27593562 0.07754862 0.21404423
000130 45 cb 9b bd 73 b6 65 be 45 f2 85 3d 89 bf e0 3d
       -0.0760713 -0.2243288 0.0654035 0.109740324
000140 aa a6 99 be fe c4 b7 be 4f d8 ea bd a0 ed 8b be
       -0.30009967 -0.3589248 -0.11467039 -0.2732973
000150 6d 42 d4 3d 01 8f 31 bd ea 80 2f bf 56 9f 41 3d
       0.10364232 -0.04334927 -0.6855608 0.047271095
000160 55 8e df be e7 3a ed be bb 44 e3 3b fb ff a9 bd
       -0.43663278 -0.46334 0.0069356835 -0.083007775
000170 ef 8f 00 3b af f0 09 be 11 c5 ed 3d 03 e5 fd be
       0.001961704 -0.1347072 0.11609853 -0.49588785
000180 1c c8 24 3e 4e b8 e4 bd c5 d3 12 be 20 7d 0c 3e
       0.1609196 -0.11167966 -0.14338596 0.13719606
000190 6e 32 03 bc 09 9d a8 bd b1 fb 97 3d 9a 72 a4 3c
       -0.008007629 -0.08233077 0.07421053 0.020074178
0001a0 45 29 9f 3d 13 30 33 be 5b 6e 82 be 44 6e ff 3d
       0.077715434 -0.17498808 -0.2547482 0.124722034
0001b0 50 a3 db bd 29 69 3e bd f0 50 34 bd 71 90 19 bd
       -0.10724509 -0.046487007 -0.0440225 -0.037491266
0001c0 6a 56 15 bf e8 9a 10 3c 01 fe e8 bd f7 1b bb bc
       -0.5833498 0.008825995 -0.113765724 -0.022840483
0001d0 16 ac 98 bd aa 2e 75 3e 86 87 be bb 9a da 0c be
       -0.07454698 0.23943582 -0.0058144955 -0.13755265
0001e0 ad b0 a5 3d 53 1f 5d be 03 55 09 be 3f 14 2e bb
       0.08090339 -0.2159398 -0.13411336 -0.002656236
0001f0 67 5f 8b be 16 de a8 bc 93 ee 5a bd 75 0e e1 3c
       -0.27221224 -0.020613711 -0.05345018 0.027472714
000200 97 4a 46 bd 58 40 6a bc aa 40 17 bd 84 22 96 bd
       -0.04841098 -0.014297567 -0.036926903 -0.07330802
000210 34 69 98 bc 18 a1 94 bd a0 c3 1e bd cd fc 64 3d
       -0.018604852 -0.07257289 -0.03876078 0.055905152
000220 51 bc 8e 3c 9f d5 6d bd 03 85 52 bd ce fd 69 3d
       0.01742378 -0.058065053 -0.05139638 0.057126813
000230 a8 99 49 3d e5 ae aa 3c f0 57 47 3c 9e 9b a7 3d
       0.049218804 0.02083535 0.012166962 0.081839785
000240 eb 24 6b bd 94 6b a4 3d 64 ee b6 bd fd 73 2c bc
       -0.057408255 0.080283314 -0.08932188 -0.010525701
000250 f4 aa 37 bd ec 04 af bd 15 2c b6 bd 35 10 79 bd
       -0.044840768 -0.08545861 -0.08895127 -0.06080647
000260 95 87 34 3d 49 57 45 3c 72 93 76 bc 20 c0 73 bd
       0.044074614 0.012044736 -0.015049802 -0.059509397
000270 99 78 3d 3d c5 7f 32 bd 12 d3 55 3c f4 f7 15 bd
       0.04625759 -0.04357888 0.013050811 -0.03661342
000280 4f 29 9a 3d c5 c9 11 3d e0 3e 60 3d de 8e 82 bd
       0.0752741 0.035592813 0.054747462 -0.06374906
000290 36 46 27 bd 7f 48 a1 bd 52 95 90 bd 41 3a f8 3b
       -0.040838443 -0.07875156 -0.070597306 0.007575304
0002a0 ad 07 3c 3d 4a 65 29 3d 9e c7 87 3d 74 01 0c bb
       0.045905758 0.041356362 0.06629871 -0.002136317
0002b0 63 e8 96 3c af e8 b8 bd 93 a1 96 bd 7e 58 12 3c
       0.018421357 -0.09028756 -0.073550366 0.008932231
0002c0 98 ad 90 3d 6f ec 79 ba da ac 44 bd 25 aa d3 bc
       0.070643604 -0.00095338275 -0.048016407 -0.025837967
0002d0 e0 67 bb bd ec 18 83 bd 3f 03 f4 bc 8d 46 a1 3b
       -0.09150672 -0.06401238 -0.029786704 0.0049217404
0002e0 2e e7 4e 3d 3f 5a f5 3b cf bc 0b bc fb f8 fd bc
       0.05051344 0.007487565 -0.008528902 -0.031002512
0002f0 13 ee d7 bc 53 cc d9 bc b6 25 d1 39 64 32 97 bd
       -0.02635864 -0.026586687 0.00039891683 -0.07382658
000300 0b 24 10 3d 82 51 0b 3c 20 0d 1e bd af 18 ce bb
       0.035190623 0.00850332 -0.038586736 -0.0062895636
000310 26 90 24 3d 8e c0 9d bd be ca 04 bc a0 27 4d bd
       0.040176533 -0.077027425 -0.008104978 -0.050086617
000320 82 cf 12 bd 28 0d 29 bc 1d 74 63 bd 84 db ac 3c
       -0.035842426 -0.010318078 -0.055530656 0.021100767
000330 cf 79 0b bd 49 33 66 3d 3e 61 f8 bc 3e 2f 09 bd
       -0.034051713 0.056201253 -0.030319806 -0.03349232
000340 26 22 a1 bc c7 90 ea bc 22 37 5f bc 25 52 05 3d
       -0.019669604 -0.028633488 -0.0136239845 0.032549042
000350 77 36 2e 3b 76 4c 75 bd 5f 6b b7 bd c3 00 2e 3d
       0.0026582757 -0.059887372 -0.08956026 0.042481195
000360 72 d8 0e 3d b2 55 bc bb 6d d3 9d 3d 02 07 91 bd
       0.034874387 -0.0057475204 0.07706342 -0.07081415
000370 60 14 6d 3d 94 09 44 bd bc e4 27 bd 0b 91 b8 bd
       0.05788076 -0.047860697 -0.040989622 -0.0901204
000380 43 27 12 bd 4a b0 df 3a 3c 47 61 3c d1 30 84 bc
       -0.035681974 0.0017066088 0.013749894 -0.016136559
000390 66 d8 51 bd 6f 97 82 bd 57 bd c3 bd fd 3b 1f bd
       -0.051231764 -0.0637654 -0.09557598 -0.03887557
0003a0 5e b6 8c bd 3b 40 83 3d 20 44 55 bb fc 15 3a 3d
       -0.06870721 0.06408735 -0.0032541826 0.045431122
0003b0 5f e9 12 bc 15 7a 3f bd fc f2 0e bc 12 55 87 bd
       -0.008966773 -0.046747286 -0.008724924 -0.06608023
0003c0 ac e7 b9 bd da 25 a0 bd 38 09 74 3d 56 12 c3 bd
       -0.09077391 -0.078197196 0.059579104 -0.09524982
0003d0 84 9e ae bd cb e1 08 bd 7d d3 c6 3c 08 f1 78 bd
       -0.08526328 -0.033418458 0.024270767 -0.06077674
0003e0 34 c7 e4 bc 18 07 8c 3d f3 03 62 bc 8e 20 c5 3c
       -0.027927019 0.068372905 -0.013794887 0.024063375
0003f0 a8 22 9a bc b5 3c f3 bc c7 a9 08 3d bc fa 1d 3d
       -0.018815354 -0.029692033 0.033365037 0.038569197

fc2.bias f4 [128]
000000 0a 68 21 3e 73 e9 71 bd 2e 99 95 3d 53 46 98 bd
       0.15762344 -0.059060525 0.07304607 -0.07435288
000010 40 60 1b bd dc cf f1 bd b0 db 03 be 6f 7f 83 3c
       -0.037933588 -0.11807224 -0.12876773 0.016051976
000020 54 5b ab bc dc 62 de 3d 90 57 ab 3d b2 76 98 3e
       -0.020917572 0.108587 0.083663106 0.29778057
000030 b5 85 f3 3a 6c af 2d 3d 91 53 cf bd 36 92 32 bd
       0.0018579277 0.042403623 -0.10123361 -0.04359647
000040 d2 72 18 bc 6e 6f d0 3d 0e 83 1c bd c1 b1 9e bd
       -0.009304719 0.101775035 -0.03821092 -0.077487476
000050 31 3f 24 3e ea cc c8 3e 9f 0d b1 bd 99 60 cc bd
       0.1603973 0.39218837 -0.08645176 -0.09979362
000060 c4 20 e2 bd 48 f8 78 bd af ea 38 3e 25 9f 43 be
       -0.11041406 -0.060783654 0.18058275 -0.19103678
000070 cd e1 1d 3f ce 90 d2 3d 09 90 1b be 8d 27 96 bd
       0.6167267 0.102815256 -0.15191664 -0.073317625
000080 3f fb 12 3d 0b b5 5f bd 85 e5 76 bd 28 16 c6 3e
       0.03588414 -0.054616015 -0.06027748 0.3868878
000090 80 fe a0 bc a8 ba 83 bd 98 85 87 bc c0 17 05 be
       -0.019652605 -0.06432086 -0.016543195 -0.12997341
0000a0 40 29 92 3d c7 98 e4 bd ae 2f fd 3c 9d 68 5c 3e
       0.07136774 -0.111619525 0.030906525 0.21524282
0000b0 b6 98 05 3c 1b eb bf 3d 56 71 28 3f bb e5 64 3d
       0.008154085 0.09371015 0.65797937 0.05588315
0000c0 f8 12 83 bd 01 30 c4 3e 7d bd f0 3e 28 2e ea 3c
       -0.064001024 0.38317874 0.47019568 0.028586462
0000d0 c4 f1 fa bd 5d fa 23 3d 0b 71 9f bd 92 9c f4 bd
       -0.122531444 0.040033687 -0.07785233 -0.11943926
0000e0 11 55 c9 bc 0a fa 89 bd fa cb bf bd db a8 84 bc
       -0.024576696 -0.06737144 -0.09365077 -0.016193798
0000f0 5b 9b 53 bd 7e ea ca 3e b1 b2 10 be 4f d6 d9 3e
       -0.05166183 0.39632028 -0.14130665 0.42546317
000100 6a 0a 93 3d 5f a6 9b 3d fd 16 90 3e fc c3 45 be
       0.07179721 0.07600092 0.2814254 -0.19313043
000110 12 3e 47 bc 3f 28 78 be 42 ef 17 be ee b2 5a 3e
       -0.012160795 -0.24234103 -0.14837363 0.21357319
000120 9d 8b ca 3a e2 92 1b 3e 5f d1 59 bd 95 73 fe 3e
       0.0015452985 0.1519275 -0.053178187 0.49697557
000130 c1 d1 24 3e 23 65 24 3d a4 eb 1f 3e ba 7a d7 3a
       0.1609564 0.040135514 0.15617234 0.0016439774
000140 49 e9 fd bd 84 4b ec 3e 0e f3 99 bd 9b 82 8f 3c
       -0.12398011 0.46151364 -0.07517062 0.017518332
000150 5b 68 5b bd c1 5c 3a 3f 9d f6 b8 3e e8 69 9b bd
       -0.053566318 0.7279778 0.3612565 -0.075885594
000160 00 1c 70 3e 56 d8 cc bc c1 df ab 3d 14 b5 13 be
       0.23448181 -0.0250055 0.08392287 -0.14424545
000170 94 c8 dc 3e 87 4e 0b 3c 5a 40 20 be 59 02 1a be
       0.4312178 0.008502609 -0.15649548 -0.15039958
000180 71 c1 bf bd 72 61 05 3a dc ec 31 3e 54 30 c3 3d
       -0.09363068 0.0005088068 0.17375511 0.09530702
000190 78 e9 4a bd 26 54 3e be 4e 21 57 3c 95 be 3e 3b
       -0.04953906 -0.18586788 0.013130499 0.0029105295
0001a0 60 7f 05 3f d6 88 68 3d 7a ef 4a 3d 7f 1f a3 3e
       0.52147484 0.056771122 0.04954479 0.31859967
0001b0 12 15 31 3c 60 92 e2 bd 66 b0 19 be 75 6b 5b bd
       0.010808246 -0.11063075 -0.15008697 -0.053569276
0001c0 2a d2 8b bd 93 2a 42 3e 16 09 72 bd 3f 44 de bd
       -0.06827195 0.18961553 -0.059090696 -0.10852861
0001d0 25 7d e3 bd 4e 6f e9 bd db a5 0e be 69 59 ac bb
       -0.11107854 -0.11398183 -0.13930456 -0.005259682
0001e0 fe 1d 8b 3e 12 96 77 bc 2e ae 4f be f2 20 b0 3e
       0.2717132 -0.015111463 -0.20281288 0.34400135
0001f0 ad 01 dc bd 45 04 b7 bd 23 b2 01 3e 6f 03 16 bc
       -0.10742507 -0.08936361 0.1266561 -0.009156092

fc3.weight f4 [38, 128]
000000 83 7a 35 3e 10 b2 1f 3d e2 8f 8b 3d f5 7f 16 bd
       0.17722516 0.038988173 0.06814553 -0.036743123
000010 9f 2c c6 3a 1c 8e 3a bd 90 1d ee 3b ad f2 af 3c
       0.0015119499 -0.045545682 0.0072667077 0.021478022
000020 8d d0 12 bc c3 76 a6 bc 31 af 65 3d 52 ef 58 3e
       -0.008960855 -0.020320302 0.05607528 0.21185043
000030 9e 44 c5 bc 60 6c 0f bd 2a ca a9 3c dd 5d 4a bd
       -0.02408057 -0.035015464 0.020726282 -0.04940592
000040 1c 72 cc 3d 59 d4 5c 3e 9b 03 e9 3a 41 01 32 3d
       0.09982702 0.21565379 0.0017777564 0.043458227
000050 d0 af 3c 3e 75 96 30 3e 97 2e c1 3d 8b 83 5c 3d
       0.18426442 0.17244895 0.094327144 0.053836387
000060 ad c5 09 3c 34 15 81 3b 5d 7e ae 3d 21 8d 81 be
       0.008408946 0.003939295 0.08520196 -0.25302985
000070 e8 84 2f 3e 30 de 3c 3e 01 63 25 3d 99 a3 42 3d
       0.17140543 0.18444133 0.04037762 0.0475193
000080 77 5c 43 3b 3b f9 57 bd d4 58 d0 bc 19 bb 69 bd
       0.0029809752 -0.05272792 -0.025432982 -0.057063196
000090 d3 39 5a bb 4e 3b b3 3c 81 30 93 bc 08 e1 48 3c
       -0.0033298626 0.021878865 -0.017967464 0.012260683
0000a0 ba b9 65 bd ad a6 ce bd 08 79 8c bd 06 75 34 3e
       -0.056085326 -0.10090385 -0.068590224 0.17622766
0000b0 ce 44 1f 3c cb b3 07 3d 4c dd 45 3e fc 1c 3e 3e
       0.009720994 0.03313045 0.193227 0.18565744
0000c0 bc 12 aa 3d 33 43 12 3e 04 72 ba bc 75 1e 73 bd
       0.083043545 0.14283447 -0.022759445 -0.059355218
0000d0 e9 a4 fa bc 0c 3e d4 bc 6f bd 9b 3c 18 af ee 3d
       -0.030596213 -0.025908493 0.019011227 0.1165449
0000e0 bb 48 69 3d cb 0b e9 bc 6e bc 6a 3d ed 26 a5 3c
       0.056954127 -0.028448006 0.057308607 0.020160163
0000f0 b4 5a a3 3c 2c fe 27 3e 41 9c 02 3d d0 27 39 3e
       0.019940712 0.16405553 0.031887297 0.18081594
000100 cf f6 35 3d 92 18 31 3c 0e 1b fe 3d 26 e8 10 3e
       0.04442483 0.010809081 0.12407504 0.14151058
000110 26 d4 26 bd 6a 15 49 3d b6 65 a7 bc 22 7a a3 3c
       -0.040729664 0.049092688 -0.020434242 0.019955698
000120 b5 3a 6c bd 3d 35 19 3e 04 e7 15 3d 77 b4 62 3e
       -0.057673175 0.14961715 0.036597267 0.22139154
000130 8f e1 b3 3d b9 fc 6a bd 1e f9 45 bd 96 5b 8a 3d
       0.08783256 -0.05736992 -0.04833328 0.0675575
000140 1c 78 09 bd 43 b4 86 3e 8e d1 3e bc 3b 1e 92 be
       -0.03356181 0.26309404 -0.011646641 -0.2853869
000150 31 d2 8f bd ba bc 2a 3e 2a 53 64 bd 37 3a 74 bc
       -0.07022513 0.16673556 -0.055743374 -0.014906458
000160 f1 95 87 3d db 66 06 3d 5f 02 e8 3d d2 3d 2d bb
       0.06620396 0.032812934 0.11328577 -0.0026434553
000170 1d 54 ed 3d 6d 69 fa 3c d4 f1 22 3d dc b1 30 bd
       0.11588309 0.030567849 0.039781407 -0.04313837
000180 2d da 65 bd df e1 a0 bc f7 7f a8 3d 3f ea fe bc
       -0.05611627 -0.019638954 0.08227532 -0.031117557
000190 da 41 90 3c 55 23 07 3e 31 53 d2 3c c0 43 3c bd
       0.017609525 0.13197072 0.025674434 -0.04596305
0001a0 a4 96 e5 3d 7d 9b 82 bd 9e 87 2b 3d 0c 7e 33 3d
       0.11210373 -0.06377313 0.04187738 0.04382138
0001b0 eb ee 88 3c 60 bb 6e bd d1 f1 b2 bd 8a 5a 4a bd
       0.016715487 -0.058284163 -0.08737529 -0.04940275
0001c0 46 c3 54 bd 5e 99 3f 3e e7 ab 74 3c c0 aa 0a bc
       -0.05194404 0.18710849 0.014933563 -0.008463562
0001d0 e5 b8 4a 3d 62 83 e8 bb 04 6d 10 bc 51 42 3e bc
       0.049492735 -0.00709574 -0.008815054 -0.011612491
0001e0 93 f1 6e 3e 8a 16 c3 bc e6 e8 a1 bd 15 f3 c8 bc
       0.23334341 -0.023814458 -0.0790575 -0.024529973
0001f0 3f 67 43 3d 81 18 e5 bd c4 6a 13 be 58 2b e9 3d
       0.047705885 -0.111863144 -0.14396197 0.1138522
000200 5d dd 31 3e a3 77 cc bc 62 d0 bf 3b 2b 9e 32 be
       0.173696 -0.024959391 0.0058536986 -0.17443149
000210 dd f5 4d 3c eb 40 25 3d b1 0b 2a 3a 74 29 99 bb
       0.012570825 0.040345114 0.00064867275 -0.004674131
000220 db eb 44 3d 30 41 6b 3c a2 18 cc 3c 71 60 d3 bc
       0.04807649 0.014358804 0.02491409 -0.025802823
000230 08 29 7e 3d 9a 55 dc 3c e4 30 ee bc d2 b6 12 bb
       0.06205085 0.026896287 -0.029076047 -0.0022386801
000240 1e fe b5 3d 11 a0 05 3e 1d 9c 2d 3d 7c b8 bf 3b
       0.0888636 0.13049342 0.04238521 0.0058508497
000250 43 a6 2d 3e 2b e6 86 3d 27 00 9d bc 65 4a 68 bc
       0.16957955 0.0658687 -0.019165112 -0.014177893
000260 e5 2f f7 bc cb 04 61 bc f7 66 84 3d 3d 3a 85 3d
       -0.030174205 -0.013734053 0.064649515 0.06505249
000270 37 4b 39 3e 0d a3 3e 3d 1d 3e 3e bd 1b 23 2c bd
       0.18095098 0.046542216 -0.046445955 -0.042025667
000280 1a 30 0a 3d fb 30 0a bc ee fe 03 3d 44 89 b3 3d
       0.03373728 -0.008434529 0.03222554 0.08766416
000290 30 2b 03 3b 63 84 32 bd a5 13 69 bd ee d2 c6 bc
       0.0020014755 -0.043583285 -0.0569035 -0.024270501
0002a0 74 c0 2c 39 b4 5d 12 bd 23 11 bd 3c e6 c9 4c 3e
       0.00016474893 -0.035733894 0.02307946 0.19998893
0002b0 6f ca 22 3c 3f e3 61 3d ec 01 66 3e 41 1b 36 3e
       0.009935959 0.05514836 0.2246167 0.17783834
0002c0 2d c3 a5 3c 2f 85 04 3e a0 a3 0c 3e f0 b6 02 3b
       0.020234669 0.1294143 0.13734293 0.0019945465
0002d0 7c b4 f8 3c 67 05 c2 bc 2b e4 7a bd 17 72 a1 bd
       0.0303595 -0.023684217 -0.061252754 -0.07883089
0002e0 5b 0a 81 3d bd 01 a6 3c a3 61 26 3d 93 d3 90 3d
       0.06300803 0.0202645 0.040620457 0.070716046
0002f0 df b4 83 bc 70 2a 2a 3e 79 8f 96 bd 18 d8 cd be
       -0.016077457 0.16617751 -0.07351584 -0.4020393
000300 af 68 d5 3c 6a 8d 5f 3d 82 3c 08 3e 56 e1 a9 3d
       0.026050894 0.054578222 0.13304332 0.082949325
000310 bc 3d ad 3d 0d 98 6b 3b f4 fe 1a 3d 76 1d 89 bc
       0.084590405 0.0035948784 0.0378408 -0.01673768
000320 23 4c d9 3b 73 e3 12 3e b4 81 3e bd af 19 0b 3e
       0.0066313907 0.14344577 -0.046510413 0.13584016
000330 86 0c 82 bc bb 7f af 3d 4b 42 22 3d 76 42 94 3c
       -0.015875112 0.085692845 0.039614003 0.018098097
000340 25 eb b4 3c c9 08 1e 3e 3f 86 64 3d 44 0c 6c bd
       0.022084782 0.15433039 0.05579209 -0.057628885
000350 5b 21 14 3d a3 84 3c 3e d2 05 e4 3d 2b f8 26 3d
       0.036164623 0.18409972 0.11133923 0.040764015
000360 e7 3f cc 3d 5b bf 5b bd a7 cb e5 bd 6d 82 15 bd
       0.09973126 -0.053649288 -0.11220484 -0.036501337
000370 bf ee 06 3e d2 be 88 bb 99 fa 26 3d 54 89 83 bd
       0.13177012 -0.004173138 0.040766332 -0.06422678
000380 39 11 aa bc 12 07 1f bd b1 3c 70 be bd 8d eb bb
       -0.020760166 -0.038825102 -0.23460652 -0.0071885274
000390 c0 e8 2f bd 3b 5b db 3c 64 00 9e 3d 21 d6 95 bc
       -0.042946577 0.0267769 0.07714918 -0.018290581
0003a0 33 d5 c8 3d ce b5 64 3c 81 f5 21 bc 5f fa fa 3d
       0.098062895 0.013959361 -0.009885193 0.12254786
0003b0 51 39 58 bc ea 8a 47 bd 31 fc fa bc 96 d1 6c 3c
       -0.013197259 -0.048716463 -0.030637832 0.014454266
0003c0 70 5c 81 3d b5 5a 12 bd c2 d3 bd bc dd 73 01 3c
       0.06316459 -0.035731036 -0.023172263 0.007901159
0003d0 7f 41 45 3c a2 be 01 3d d6 d4 4f bc 1e 2e 99 bb
       0.012039541 0.031675942 -0.012685021 -0.004674687
0003e0 9c 48 f9 3d a1 a7 fe bc 09 0a 22 be ec 84 d0 3d
       0.12172052 -0.031085791 -0.1582414 0.10181603
0003f0 53 75 65 bc 8e 33 79 bb e6 d5 23 3e 19 c0 50 bc
       -0.014005023 -0.0038025114 0.15999565 -0.012741112

fc3.bias f4 [38]
000000 76 f1 7a 3f ef d0 6f 3f 13 1e 39 3f 0c 8e b3 3e
       0.9802469 0.9367818 0.72311515 0.3506931
000010 a9 70 12 3e 92 72 3b 3e e1 96 b9 3e f1 32 10 3f
       0.14300789 0.18305424 0.36247924 0.5632773
000020 f5 48 95 3e 77 ce ad 3e de 84 35 3e a2 ed e7 3e
       0.29157224 0.33946583 0.17726466 0.45298487
000030 2e ad 20 3f ce 2c 02 3f a1 dd b8 3e 3a 65 7f 3e
       0.6276425 0.50849617 0.3610659 0.24940959
000040 ef 1a d2 3e 75 dc a8 3d 31 40 af 3e 0a c8 24 3d
       0.41036174 0.08245174 0.34228662 0.040229835
000050 f6 ff a5 3d e8 3c 10 3e e1 a6 84 3e 50 c7 a4 3e
       0.08105461 0.14085734 0.25908569 0.32183313
000060 c7 1d 80 3e 32 5f 4b 3e 24 f0 24 bd 48 b1 b1 3e
       0.25022718 0.19860533 -0.04026808 0.34705567
000070 cc f8 0f be 02 83 44 3e 55 78 52 3e d2 5e 27 bc
       -0.14059752 0.191906 0.20553716 -0.010215478
000080 2b ec 1c 3e 1f 56 69 3e 2c 37 ab 3e 75 19 50 bd
       0.15324466 0.22786759 0.3344053 -0.050805528
000090 f2 18 68 3c 69 af a1 bd
       0.014166104 -0.07894785
