models/comparison_apache@curator_1000ep_dqn/best_pointwise_dqn_apache@curator_1000ep_dqn.pt (torch, 165180 bytes, 8 tensors)

fc1.weight f4 [128, 56]
000000 b3 8a db 3c 22 93 20 bd 01 c7 1c bd 39 82 c9 bd
       0.026799535 -0.039202817 -0.038275722 -0.09839291
000010 4f 44 4f 3c 42 00 03 3e 27 39 95 3c fe 9f fa 3d
       0.012650563 0.12793067 0.018215729 0.12237547
000020 11 87 98 3d bb 9a ae bd 1f fc a7 3d d9 d9 c5 3c
       0.07447637 -0.08525606 0.08202385 0.02415173
000030 26 3e 33 3c 19 87 d5 bd 2a 37 72 3d c3 d6 b3 bd
       0.01094011 -0.104261585 0.05913464 -0.08781197
000040 eb dd 44 3d 82 a1 75 3d 0b 8b 2f bd 14 08 6d 3d
       0.0480632 0.05996848 -0.04285721 0.057869032
000050 84 ad 3a bd a8 5f ca 3c 5c b7 ff bd 84 7e 2a bd
       -0.045575634 0.024703816 -0.12486145 -0.04162456
000060 ef ee e7 bd c1 76 49 3d 93 ca fe 3c 2a ba 06 3e
       -0.1132487 0.04918552 0.031102454 0.13156953
000070 c6 d0 b5 bd ca c7 05 3e 54 2d 6e bd b4 3c f6 bc
       -0.08877711 0.13064495 -0.058148697 -0.030058242
000080 d9 74 71 3d 9b c3 ba 3d 8c 9f 8f 3d 79 4a 00 3e
       0.058949325 0.0911934 0.07012853 0.12528409
000090 7a 1f c6 3d 19 f8 ee 3c 20 be c4 3d a9 7a 97 3d
       0.096739724 0.029171037 0.09606576 0.073964424
0000a0 89 df 25 bb 75 9e 82 3d aa ca a8 3c 9f eb c6 3c
       -0.002531024 0.063778795 0.02060445 0.024282275
0000b0 4c b4 3a 3d 9f 87 eb 3d c0 23 01 be ea d0 06 bd
       0.0455821 0.11500477 -0.12611294 -0.03291408
0000c0 0e d5 52 3d 62 e4 1b 3d a3 c8 cc bd 9d 65 06 3e
       0.051472716 0.0380596 -0.09999206 0.131247
0000d0 54 a1 d0 bd 56 44 70 3d 14 7d 4c 3d ae b4 73 bd
       -0.10187021 0.05865892 0.04992397 -0.05949848
0000e0 1c 3f 99 3c d5 26 5c bd 48 b8 ee bd ae 40 08 3d
       0.01870685 -0.05374797 -0.116562426 0.03326481
0000f0 e1 b7 c8 bc df e9 aa 38 d1 35 29 bd 22 92 32 bd
       -0.024501743 8.1497936e-05 -0.04131109 -0.043596394
000100 69 e4 aa bd 5c 21 f0 bd c9 3d 5e 3d 23 42 c3 3c
       -0.08344347 -0.11725113 0.05425814 0.023835247
000110 93 f7 94 bc a5 26 7f 3a fe 88 cb bd cc 4e c6 3d
       -0.018184459 0.00097332365 -0.099382386 0.09682998
000120 9a c9 1f 3d c6 52 77 3d 39 df b8 bd 22 1f ab 3d
       0.03901062 0.060381673 -0.09026951 0.083555475
000130 55 df a4 bd 83 32 75 3c 3e 1a 84 bd 50 86 c0 3b
       -0.0805041 0.014965656 -0.06450318 0.0058753863
000140 3c 5b fd 3d 86 7e 8f 3d c3 44 fc 3d 29 3e 86 bd
       0.12370917 0.07006554 0.12317803 -0.06554825
000150 26 01 fa 3d 12 2d d3 ba 79 a3 78 3d 6b d0 b7 3d
       0.1220725 -0.0016111454 0.060702775 0.089752994
000160 a6 b1 fd 3c 96 2a c6 bd 1e 08 40 bd 7f 47 99 3c
       0.030968498 -0.096760914 -0.04688274 0.01871085
000170 53 35 ef 3d 41 9f f6 3b df f1 0c bb 35 a6 fa 3d
       0.11680093 0.0075263088 -0.002150647 0.12238733
000180 4e 47 74 3d 2c 59 55 3d ca a3 f2 ba 60 bd ce 3d
       0.059638314 0.052086994 -0.0018511948 0.10094714
000190 7c 4d 56 3d c8 63 0a 3d 28 bc 6c ba 26 c9 a1 bd
       0.05231999 0.033786565 -0.0009030723 -0.07899694
0001a0 5c f0 83 bd 62 23 c8 bc cc 84 be bd 09 31 bb bd
       -0.06442329 -0.024430934 -0.09302673 -0.09140212
0001b0 ea d3 ad 3d f6 03 3c bd 88 92 c0 bd b3 54 a4 3d
       0.08487685 -0.045902215 -0.094029486 0.080239676
0001c0 b0 6c df 3d 61 28 09 bd a8 a9 9f bd e0 98 0f be
       0.10909402 -0.033485774 -0.07796031 -0.14023161
0001d0 bd 4f 02 be 69 b3 db 3b 44 b8 e3 bd 7d a6 ee 3d
       -0.1272573 0.006704737 -0.1111913 0.11652849
0001e0 fb db 79 bc f8 4d 70 3d a6 a7 b0 3c c1 c2 0d 3c
       -0.015250201 0.058668107 0.021564316 0.00865239
0001f0 6b db 84 bd c4 a0 05 be 73 2a 9e 3d b9 67 2e bd
       -0.06487163 -0.13049608 0.0772294 -0.042579386
000200 40 31 80 bd fd f0 b3 bd c3 c3 d7 3d cc 21 8f bd
       -0.06259394 -0.08786199 0.105353855 -0.06988868
000210 73 0e de 3d e4 44 db bd 8c a7 db bc af 61 5b 3d
       0.108426 -0.10706499 -0.026813291 0.053559955
000220 1b ac 4b 3c a7 ad 01 bd 4d 00 9c 3d dd c1 07 bc
       0.01243117 -0.03165975 0.07617245 -0.008285967
000230 88 b8 94 bd c6 38 88 3d 7f b5 52 bd 4d 10 0b be
       -0.07261759 0.06651454 -0.05144262 -0.13580437
000240 68 56 ac 3d 13 c2 17 be cb 81 83 3d be a3 ff bc
       0.08414918 -0.14820127 0.064212404 -0.031206008
000250 b7 47 98 bd 8b b7 00 be 53 33 87 bd d6 ac 16 be
       -0.074355535 -0.12570016 -0.06601586 -0.14714369
000260 85 9c 5f bd 1e 3f ca 3c 5e b2 b5 bd 08 fc ee 3d
       -0.054592628 0.0246883 -0.088719115 0.11669165
000270 5c f7 cc 3d fb b0 32 bd bf a3 98 bd ae 3f bc 3d
       0.100081176 -0.043625813 -0.07453107 0.091918334
000280 11 fb 10 be 5d 38 89 3c 36 31 18 be 69 b5 08 be
       -0.14158274 0.016750509 -0.14862522 -0.13350452
000290 66 40 af bd 60 81 9b bd 6e d8 c0 bd fc 9e a9 bd
       -0.08557205 -0.07593036 -0.09416281 -0.08282277
0002a0 8b d9 4f 3d 7b ae c7 bc 1c 5d fc bc 75 76 09 3d
       0.050744575 -0.024375191 -0.030806117 0.033560235
0002b0 ac db 9a bd e7 6e 74 bd 56 06 0e 3d 57 43 c0 bc
       -0.0756143 -0.059676077 0.03467401 -0.02346961
0002c0 ae 79 49 bd c9 e1 91 3c 60 03 f4 3d f7 d9 ae bd
       -0.04918831 0.017807858 0.11914706 -0.08537667
0002d0 35 2f cc bd 12 5f 0d bc 71 2c f7 3d 5b ca bc bd
       -0.099699415 -0.008628624 0.120690234 -0.09218284
0002e0 da b5 ab 3d 5c 40 e5 bd 69 73 6d 3d 95 1d 26 3d
       0.08384295 -0.11193916 0.05797139 0.040555555
0002f0 df 45 cd bd c8 08 a8 bc 28 30 ef bd ab 1f f7 3d
       -0.100230925 -0.020512 -0.11679107 0.12066587
000300 e2 81 b0 bd 2d 44 4c 3d 01 8d d3 bd 11 fa 65 bd
       -0.08618523 0.049869705 -0.10329629 -0.056146685
000310 73 d1 df bd 30 1b 0e 3d d7 a2 a2 bd fd 1e a7 3c
       -0.10928621 0.034693897 -0.079412155 0.020400519
000320 1a 58 6b bb 19 9c 8d bd f5 73 20 bd 95 11 09 3e
       -0.0035910667 -0.06914539 -0.039173085 0.13385613
000330 0b 04 a9 bd 7e 0d 97 bc 2f c0 fd 3d ce 98 41 3d
       -0.08252724 -0.01843905 0.12390172 0.047264867
000340 63 e4 f3 3d 3a 6a 52 3c 43 92 d3 3d 07 85 ca bd
       0.11908796 0.012842709 0.103306316 -0.09888654
000350 d3 e4 38 3c 88 d9 eb bb 9a 33 00 bc 25 74 9e bd
       0.011285025 -0.0071975626 -0.007824803 -0.077369966
000360 b5 8b c5 bd 56 60 9a bd 94 2b 01 3e 30 89 e3 bc
       -0.096457876 -0.07537906 0.1261428 -0.027775377
000370 ff e0 92 3d 1d e8 86 ba f1 25 18 3d 36 a4 f9 3d
       0.07171821 -0.0010292564 0.03714556 0.12189524
000380 47 65 07 3e fa 10 26 3c 99 8a 02 3e f9 26 d8 3d
       0.13222228 0.010135883 0.12748183 0.105543084
000390 24 04 42 bd 66 c3 fa 3d 84 70 7c 3d 4b 84 80 3d
       -0.04736723 0.122443005 0.06163074 0.06275233
0003a0 08 43 7f 3d e8 95 bf bc 7a d9 60 bd 44 48 06 bd
       0.062319785 -0.02338691 -0.0548949 -0.03278376
0003b0 06 ab 75 3d f8 c0 5e 3d 7f f3 9b 3d f9 36 0d 3e
       0.059977554 0.054383248 0.076148026 0.13790502
0003c0 0c 44 e7 bd 4d 01 82 3d e6 ee bb bd 9d 81 8a bd
       -0.11292276 0.06347904 -0.09176426 -0.06763003
0003d0 39 0b 28 3d f6 e5 ee bd ee 7c a2 bd ea 23 72 bc
       0.041026328 -0.11664955 -0.07933985 -0.01477907
0003e0 c2 82 79 3d cd a1 8e 3b 9b 98 6f 3d fe 8e b8 bd
       0.060915716 0.0043527842 0.058495145 -0.090116486
0003f0 84 73 d6 bc 45 84 ba bd 35 78 c3 bd b5 09 30 3d
       -0.026178129 -0.0910726 -0.09544412 0.042978007

fc1.bias f4 [128]
000000 39 4c 90 bd ef 14 1f 3c cc a8 0a 3e 28 ce 0c be
       -0.07045788 0.009709581 0.13540953 -0.13750517
000010 3a d9 cf bd d0 4e d8 3d 4b e1 9f 3d d8 c3 0f 3e
       -0.101488546 0.10561907 0.07806643 0.14039552
000020 f9 7a 00 be 16 3f 10 bd e4 c4 75 3d 5e bc a0 3d
       -0.1254691 -0.035216413 0.060002223 0.07848428
000030 b9 43 a5 bd 10 e4 d8 3d 21 8a 40 3d 50 0d d7 3d
       -0.08069558 0.105903745 0.04700673 0.10500586
000040 a8 15 93 3d b3 40 e0 bd 6c 23 dd 3d 55 0b f3 bd
       0.07181865 -0.109498404 0.10797772 -0.11867396
000050 5a d9 74 3d 40 a1 14 3d bb 90 7e bc ea 8b a6 bd
       0.059777595 0.036286592 -0.015537436 -0.08132155
000060 ae 19 60 bd 23 13 06 3e 3b 60 f2 3c c2 cf b6 bd
       -0.05471199 0.13093238 0.029586902 -0.089263454
000070 c3 e8 34 3d ef 38 ef bd a1 6f fb bd 4c 6e 05 3e
       0.04416729 -0.11680781 -0.12277151 0.13030356
000080 a4 51 92 3d 4c e0 c7 bd 15 1a 29 bd c3 26 10 3e
       0.07144478 -0.09759578 -0.04128464 0.14077286
000090 19 c3 fd bd aa a4 3c 3c ff ac 94 3d 70 54 00 be
       -0.123907275 0.011513868 0.07259559 -0.1253221
0000a0 35 b9 f4 bd 6f 17 95 3c 2e 68 02 3e e5 90 15 3e
       -0.11949388 0.01819965 0.12735054 0.14606054
0000b0 a9 55 d0 bd 83 4c da 3d 45 69 33 bd 2f 3f bf 3c
       -0.101725884 0.10659125 -0.043801565 0.023345558
0000c0 02 98 bf 3d 51 c6 2d bd fc 6d 80 bd 1e 84 82 3b
       0.09355165 -0.042425457 -0.06270978 0.0039830348
0000d0 8c 51 de bb 0c a0 45 3d 2d 0a 2a bc df b9 cf bc
       -0.0067846235 0.048248336 -0.010378403 -0.025357185
0000e0 92 7a 0b 3d b2 e6 70 bd 1e 07 04 bc c7 eb 58 bd
       0.03405244 -0.05881376 -0.0080583375 -0.05295923
0000f0 cb a9 11 bd 8f c5 fb 3c 03 f5 c4 bd 35 52 cb 3d
       -0.035562318 0.030733852 -0.09617045 0.09927789
000100 d7 85 bb bd fe 18 5a bc 59 da d3 3d 40 57 91 3d
       -0.09156387 -0.013311623 0.10344381 0.0709672
000110 0f 46 31 bd fa 73 2f bd 2d 91 f1 3d eb d9 01 be
       -0.043279704 -0.042835213 0.11795268 -0.12680785
000120 23 3a 61 bc b2 02 cc 3d 52 52 91 bd b5 f7 2c bd
       -0.013746771 0.099614516 -0.070957795 -0.04222842
000130 09 36 3b 3d 22 8a dc bc 19 fd 19 3d ac 55 0b be
       0.04570583 -0.026921336 0.03759489 -0.136069
000140 c4 fd 1f bd d9 be 16 3e c9 3d ca 3c 4a eb b7 bd
       -0.03906037 0.1472124 0.024687665 -0.08980425
000150 4f d9 8f bd f0 d4 fd bd 2e e3 08 3d 3a ff b8 3b
       -0.0702387 -0.1239413 0.03341978 0.0056456598
000160 f0 a6 fe bd 06 a8 8c bd 93 09 d7 bd 09 79 b8 3d
       -0.124341846 -0.068679854 -0.10499873 0.090074606
000170 5e 7d d7 3d ab b3 c2 bd bc 64 46 3d d8 f4 9e 3d
       0.10521959 -0.09506925 0.04843591 0.07761544
000180 3a fe 84 3d 93 99 06 be b5 f9 2a 3d ae a6 a6 3d
       0.06493802 -0.13144521 0.041742045 0.081372604
000190 1a 8c 0f be a3 72 c8 3d d8 49 05 3d a0 a5 9d 3d
       -0.14018288 0.0978749 0.032541126 0.07697606
0001a0 06 49 a2 bd 6c 56 05 bd 74 8e b5 3d 5c 06 55 bd
       -0.07924084 -0.03255312 0.088650614 -0.052008018
0001b0 ce 71 eb 3d 0f c7 ca bd c9 ce 1f be eb 3b 76 bd
       0.11496316 -0.09901249 -0.15606226 -0.060115736
0001c0 b6 fb 01 be 5d 0f 99 bd e0 35 f2 3d 09 08 12 3e
       -0.12693676 -0.074736334 0.11826682 0.14260878
0001d0 ce 73 51 3d 76 d5 51 3d 5b fa 9a bd 77 bc e0 3c
       0.05113583 0.051228963 -0.07567283 0.027433617
0001e0 fe 6e 68 bd 87 e5 d7 3d 3f ad 73 bd 82 2d ff 3c
       -0.056746475 0.10541826 -0.059491392 0.03114963
0001f0 64 1a c2 bd eb ca 8a bd 6f b0 f8 bd b9 0f eb bd
       -0.0947769 -0.06776985 -0.12143027 -0.11477608

fc2.weight f4 [128, 128]
000000 9d 75 6b 3d 23 95 99 bd c6 8f 9b bd 3e 33 57 3d
       0.05748521 -0.07499149 -0.07595782 0.052539103
000010 af a8 b5 bc 4d 72 c7 3c 26 0a 8f 3d 18 ec b9 bd
       -0.022175161 0.024346495 0.069843575 -0.090782344
000020 b6 4a 74 3d 28 7e 4b 3d b7 1f 7a bd 5a 51 54 3d
       0.059641562 0.04968086 -0.061065402 0.051835395
000030 c2 f5 a9 bc 5f 45 0e 3d d8 49 b5 bd 6f b2 39 3d
       -0.02074707 0.034734126 -0.08851975 0.045336183
000040 df 81 8d 3d fa f2 87 3d 4f 16 fa bc 12 f7 8a bd
       0.069095366 0.06638141 -0.030528216 -0.06785406
000050 ae fb 29 bd fb 8b 9c bd 83 18 90 bd e4 24 8f 3d
       -0.041499786 -0.07643887 -0.07035925 0.06989458
000060 54 ae ad bd 15 5a 2b bd a6 5c 75 bd b0 4a 9c bc
       -0.08480516 -0.041833956 -0.05990281 -0.019078583
000070 63 9f 17 3d c1 cc 36 bd b1 7d a8 3c 1f 5f 93 bd
       0.037017237 -0.044628862 0.020567747 -0.07195877
000080 aa 2f 80 bd c9 45 2c bd f6 b7 5a 3c b5 46 6d bd
       -0.06259091 -0.04205874 0.013349524 -0.05792876
000090 3c e9 50 3d 9f aa 57 bd b2 0e 37 3d 14 0b 44 3b
       0.05100368 -0.05265295 0.04469175 0.002991383
0000a0 d7 ff 93 3c e6 57 57 bd 7b 6a 27 bd b4 ca 95 3d
       0.01806633 -0.05257406 -0.040873032 0.07314053
0000b0 26 0a ef bc f0 2e a8 bc 73 9e 72 bd b7 21 9d bc
       -0.029179644 -0.020530194 -0.05923314 -0.019181116
0000c0 3c 57 0e bd 10 4e 32 3d 7a be 3d bd 3a 8f 75 3a
       -0.034751162 0.043531477 -0.04632423 0.0009367351
0000d0 d7 ba 1c 3d 58 97 82 3d 3d 0a 3a bd a7 50 20 bb
       0.03826412 0.06376523 -0.04541992 -0.0024462135
0000e0 e1 48 d6 3b cd 35 a9 3d ff 29 4a bd e4 03 a2 3d
       0.0065394496 0.08262215 -0.049356457 0.07910898
0000f0 51 a4 03 3d c9 6f c5 bc 57 db ad 3d 26 5f 94 bd
       0.032139126 -0.024101155 0.084891014 -0.072447106
000100 9b 6b 04 3d c2 4d 6a 3d cc 97 94 bd ce cc 6a bd
       0.032329183 0.057203062 -0.072555155 -0.057324223
000110 41 22 15 bd 94 59 3f 3d eb 04 2f 3d 20 f1 9b ba
       -0.03640962 0.046716288 0.0427293 -0.0011897422
000120 91 14 ba 3c 5c 33 0a 3d 1d d6 ae bd 05 95 35 3d
       0.022714885 0.033740386 -0.085369326 0.04433157
000130 45 24 9d bd d4 57 06 3d d6 18 5f 3c 7b ef 3a 3d
       -0.076729335 0.032798603 0.013616761 0.045638543
000140 9e 68 9f 3d 68 2b a2 bd ad dd 2c 3d e7 82 99 bd
       0.07783626 -0.07918435 0.042203594 -0.07495671
000150 66 73 8a bd 42 00 97 bd 57 6b 28 3d 51 40 3f 3d
       -0.06760292 -0.07373096 0.041117992 0.046692196
000160 29 d8 9f bd ce 9d 2d 3d bb bd 1d bc a1 5d f4 3c
       -0.07804901 0.042386822 -0.009627755 0.029829802
000170 59 db 0e bc fa 34 cf 3c 0d 91 a2 bd a9 f9 82 3d
       -0.008719289 0.025293816 -0.079378225 0.06395275
000180 df 29 82 bc 10 f0 89 3d 2d 50 9f 3c 84 68 5c bd
       -0.015889106 0.067352414 0.01944741 -0.05381061
000190 2f 95 0e bc b9 da 5c bd 85 98 a3 b9 9d 7e fc ba
       -0.00870256 -0.053919528 -0.0003120342 -0.0019263808
0001a0 56 f5 c3 3c 94 0f 5f 3d 88 1d 0e 3d ce 1e ae bd
       0.023920696 0.054458216 0.034696132 -0.08501969
0001b0 5d ce 18 3d 85 3d 35 39 1f 04 92 3d 8d 2f 0b bd
       0.03730618 0.00017284423 0.07129692 -0.033980895
0001c0 e9 df 5d bd d1 63 a7 bd 28 78 80 bb 12 02 e1 bb
       -0.054168615 -0.08173335 -0.0039205737 -0.006866702
0001d0 5a 17 62 bd 40 9b 21 3c bc ba 99 b8 c5 08 8c bc
       -0.05519805 0.009863675 -7.3303905e-05 -0.017094025
0001e0 20 a1 32 3b d7 da 3f bd d9 f8 91 bc 15 f0 0f 3d
       0.0027256683 -0.04683956 -0.017818855 0.03514107
0001f0 b3 1e 83 3d 1a 21 20 bd 46 f2 8e 3d 59 8e a6 3d
       0.0640234 -0.039094068 0.06979804 0.081326194
000200 26 47 18 bd 1e c6 0c 3d eb fb 1b bd 3d ce 99 3d
       -0.037177227 0.034368627 -0.038082045 0.0751004
000210 4b 93 80 3d c6 ea bf 3b 8d 78 75 bd 6d 58 ad 3c
       0.06278094 0.0058568446 -0.05992942 0.021160329
000220 f9 03 c7 bc b1 6d 8f 3d ca 28 87 3d 9b fb 4d bd
       -0.024293886 0.07003344 0.06599577 -0.050288778
000230 f8 3a 38 bd 44 7c bc 3d d5 63 9a 3d ff ec a2 3d
       -0.044978112 0.09203389 0.07538573 0.0795536
000240 a0 35 86 3d 98 ac 0a 3d d9 d0 0c 3c 76 b4 8d 3d
       0.06553197 0.033856004 0.008594715 0.06919186
000250 d8 6b a3 bd e6 61 0b 3d d0 dc 48 3c f9 0d 12 3c
       -0.07979554 0.03402891 0.012259677 0.008914464
000260 b1 b7 d0 3c 86 7e 54 bd f9 2a f2 bb a5 d7 42 bd
       0.025478216 -0.051878475 -0.0073903766 -0.047568936
000270 08 b6 3d bd eb a4 71 3d f7 79 9d 3d 55 6e 95 3d
       -0.046316177 0.05899517 0.076892786 0.07296435
000280 14 9c d6 3d f6 ea 12 bc 66 d6 c9 bc 67 b8 61 3c
       0.10478988 -0.008967152 -0.024638366 0.013776875
000290 1f 83 a1 bd 9d 12 61 bb 1e be 82 3d 75 38 8f bd
       -0.078863375 -0.003434337 0.06383918 -0.0699319
0002a0 5b b9 10 3d b9 a7 8d bd 39 b9 89 3d a2 ee 75 3d
       0.03533302 -0.06916756 0.067247815 0.06004203
0002b0 1e e8 8b bd 37 d4 ed bc 96 11 a6 3d de ae 7c 3d
       -0.06831382 -0.029031856 0.08108823 0.061690204
0002c0 b3 97 7f 3d 6e d9 2b 3d 3b 49 a9 3d 26 c0 a7 bc
       0.06240053 0.041955404 0.08265921 -0.020477366
0002d0 1e d8 88 bd 07 6a 6a 3b 03 fc 81 bd 47 7a 98 3d
       -0.06681846 0.0035768764 -0.063468955 0.074451976
0002e0 48 cf 93 bd e0 b8 bf 3d 27 c1 89 bd 4c f0 5f 3c
       -0.0721727 0.09361434 -0.06726294 0.013668131
0002f0 f0 00 0c 3c ee 00 2c bd b9 fa 81 3d 9d 8f 99 3d
       0.008545145 -0.041993074 0.0634665 0.07498095
000300 0b 12 cc bc bf f0 66 bc 7e 23 4c 3d da 77 c4 3d
       -0.024910947 -0.014095484 0.049838535 0.09593172
000310 7c 37 ae 3d d4 05 37 3d 46 10 d4 3d c1 c7 a2 3d
       0.085066766 0.044683293 0.103546664 0.07948256
000320 74 5c c6 bc fc fa 9a bc 68 53 92 bd 43 9b e9 3b
       -0.024214007 -0.018918507 -0.07144815 0.0071291043
000330 13 94 54 3d 8d 26 d8 3c 16 26 19 bd 84 88 d7 bc
       0.051899027 0.02638557 -0.037389837 -0.026310213
000340 75 30 f0 3c 0b b8 a8 3d 88 e9 cd 39 ac 68 9e 3c
       0.029319981 0.082382284 0.0003927464 0.01933702
000350 06 db c2 3d e6 39 cd bc 82 2f 2c 3d c0 be b6 bc
       0.09514432 -0.025052022 0.042037494 -0.022307754
000360 d8 cc 9b bd a4 93 9a 3b 66 91 e0 3d 17 27 4c bd
       -0.0760743 0.004717307 0.109652326 -0.049841966
000370 ac d3 09 3d b2 5d 2a 3d ae eb a1 3d b3 02 b1 3d
       0.03364913 0.04159326 0.079062805 0.08643093
000380 a3 ac 7e 3d ba b9 bd bc 3c fb 64 3d ed d0 7a 3d
       0.062176358 -0.02315985 0.05590366 0.061234403
000390 8f 7d ba bc a2 e3 04 bd 23 df 13 bb 01 ca 36 bd
       -0.02276495 -0.03244365 -0.002256342 -0.04462624
0003a0 a4 0b 93 3d 70 95 73 bd 11 f1 ff ba 4d 7b aa bd
       0.07179955 -0.059468687 -0.00195268 -0.08324299
0003b0 41 3b d3 bc 16 0c 8e 3d d8 fe c5 bd 46 ee 4c 3d
       -0.02578509 0.06935899 -0.09667748 0.050031923
0003c0 9d c7 1a bc b4 60 8e 3d 9f 7f 63 bd 16 ae 82 bc
       -0.009447006 0.069520384 -0.05554163 -0.015952151
0003d0 a5 3a 9b 3d cd 99 2d bc 73 ec af 3c 00 a1 bf bc
       0.07579545 -0.010595751 0.021475052 -0.0233922
0003e0 77 2a d8 bc 33 22 f9 3c 3d e0 de bc 31 55 93 3b
       -0.026387436 0.030411815 -0.027206535 0.0044962396
0003f0 0f 94 0c bb 4c 2e 69 bd 49 ba cd bc 1c 0f a1 3d
       -0.0021450554 -0.056928918 -0.025113242 0.0786421

fc2.bias f4 [128]
000000 e2 55 2b bc 74 75 02 bc 38 13 f4 bc 95 18 07 3c
       -0.010457488 -0.007962573 -0.02979432 0.008245607
000010 ac dd 54 bd ff 35 34 3d a3 ba 62 bd 0b 73 64 bd
       -0.051969215 0.043996807 -0.055353772 -0.055773776
000020 67 19 be bb cf 07 4b 3d 92 5c c9 3c 37 71 bc bd
       -0.005801368 0.049567994 0.024580274 -0.092012815
000030 8e 5b 88 3c 70 81 4e 3d 9e 02 bd 3d 75 86 3e bd
       0.01664522 0.05041641 0.09229015 -0.046514947
000040 6e b8 a8 3d d6 3e a6 bc 48 84 97 3c 4b 49 c9 39
       0.08238302 -0.020293634 0.018495694 0.00038392315
000050 32 32 9b 3d d7 b4 89 bd 82 42 b5 bd 27 02 c0 3d
       0.07577933 -0.067239456 -0.08850576 0.093754105
000060 bb 94 a9 bd e6 a6 84 bb db 16 6d 3d 68 c3 4b 3b
       -0.08280321 -0.004048216 0.057883125 0.0031091813
000070 8f bd 76 bd 24 dc fa bb e0 38 99 3d 7b ca 09 bd
       -0.06023937 -0.0076556373 0.07481551 -0.033640366
000080 a4 c5 5f 3d 6e 89 29 3c e4 f9 3c bb 04 1a 08 3d
       0.054631844 0.010347707 -0.002883547 0.033227935
000090 80 1f a4 3d 96 cf 9f bc c4 f2 9e 3d 8d 73 3a 3d
       0.08013821 -0.019508164 0.077611476 0.045520354
0000a0 c3 e7 1f 3c 2e d8 8c 3d 7d fc 73 bd 16 f3 7d bd
       0.009759846 0.068771705 -0.059566963 -0.061999403
0000b0 55 e2 69 bd fe 5b be 3d 33 61 91 3d f9 12 20 3d
       -0.057100613 0.0929489 0.070986174 0.039080594
0000c0 87 1d 92 bd fd 69 97 3d 5c 09 97 3c 83 fa d0 3d
       -0.07134538 0.073932625 0.01843708 0.10204031
0000d0 4c a2 92 bd 45 34 9d bd f8 7d 6d 3c 8c 8d 9f bc
       -0.07159862 -0.07675985 0.014495365 -0.019476674
0000e0 ef 12 2d 3d 84 d6 00 bc 4f 90 6f 3c 79 bf 65 3d
       0.042254385 -0.0078636445 0.014621808 0.056090806
0000f0 26 a7 93 3d 53 31 91 3d 0a e6 99 bd 71 35 b1 bc
       0.072096154 0.07089486 -0.075145796 -0.021631928
000100 ac 5c 46 3c 84 aa 88 bd 0f 23 c7 bc 20 35 8d 3d
       0.012107056 -0.06673148 -0.02430871 0.068948984
000110 d2 7f c7 3d 65 29 52 3c 92 bc 5e bd 91 81 33 bd
       0.09741177 0.012827252 -0.054379053 -0.043824736
000120 99 59 11 3d 2f 53 11 bc 65 4f 62 bc ab 3a 88 bd
       0.035485838 -0.00886993 -0.013812874 -0.06651815
000130 b2 80 7e bd 98 90 8b 3d bc 4b 91 bc 15 4c 12 3d
       -0.062134452 0.068146884 -0.017736308 0.03571709
000140 00 37 ad bd e2 42 9b 3d 31 06 0b 3d 31 0b 4a 3d
       -0.08457756 0.07581116 0.03394145 0.04932708
000150 bf 00 29 3d c8 3a 66 bd 04 ea 6a bc fe 6b c2 3d
       0.041260477 -0.056208402 -0.01433802 0.09493254
000160 23 06 3d bc 76 95 a8 bd 99 e1 33 3d f9 6a 9e bc
       -0.011537108 -0.082316324 0.04391632 -0.019338118
000170 d9 ff 59 bd 9a 0a 3f 3d 0f 84 7c bd 17 22 69 3d
       -0.05322251 0.04664097 -0.06164938 0.056917276
000180 35 4e b5 bd 9a 38 35 3d 4c a7 76 bd 7f 51 a7 3d
       -0.088528074 0.044243433 -0.06021814 0.08169841
000190 a2 64 e0 bc 0b d3 7e 3c f9 56 a9 3d 81 40 93 bc
       -0.027391735 0.015553246 0.08268542 -0.017975094
0001a0 23 b4 78 bd 04 7c b2 bd a1 17 fd bc ad 61 3c 3d
       -0.060718667 -0.0871506 -0.030895056 0.04599159
0001b0 fa 64 d6 3c e4 56 32 3d e7 7b 02 bd b6 38 26 3d
       0.026171196 0.043539897 -0.031856444 0.040581428
0001c0 7b fe 08 bb 76 66 cd 3d 3e 23 c2 3d 86 77 78 3d
       -0.0020903635 0.100293085 0.09479378 0.06066086
0001d0 ca 1e 2b bd 1d a4 2c 3d 5a d7 62 bd 7f c2 2c 3d
       -0.04177741 0.042148698 -0.055381157 0.042177673
0001e0 30 ce bb bd dd 4f 5a 3c 4c 66 c8 3d ab cb a2 3d
       -0.091701865 0.013324705 0.097851366 0.07949003
0001f0 be 1b 35 3d c5 c8 24 3d 9c 38 12 3d d8 4a 1c bd
       0.04421591 0.04023053 0.03569852 -0.038157314

fc3.weight f4 [64, 128]
000000 ec e7 36 bd 7a ec 5e bb b8 14 13 3d d0 e5 43 bb
       -0.04465477 -0.0034015463 0.03590843 -0.0029891618
000010 e6 2d 9b bd 37 08 9f bd b8 ec 2b 3d 24 1a 66 bd
       -0.07577114 -0.07765239 0.0419738 -0.056177273
000020 b0 86 01 3d af 4a a0 3d ce 9d 2b bd 80 1c ba 3d
       0.03162259 0.07826745 -0.04189854 0.09087467
000030 e4 bb a3 bd 76 9d 97 bd 09 59 cf 3c c9 27 c4 bc
       -0.07994822 -0.0740308 0.02531101 -0.023944752
000040 30 e3 aa bd a5 48 ae 3d aa 40 51 bd d9 f5 fa bc
       -0.08344114 0.085099496 -0.05108706 -0.030634807
000050 f9 c7 a3 bd 29 c0 9e 3d 00 fb ef 3c 19 e2 be bc
       -0.07997126 0.077514954 0.02929449 -0.023301171
000060 26 d4 87 3d 08 50 e4 3c c9 8b a0 bd 08 02 68 3d
       0.06632261 0.027870193 -0.07839162 0.056642562
000070 d9 7c f4 b9 94 dc 5c bd d6 1e 0f bd c8 23 a0 bd
       -0.00046632325 -0.053921297 -0.034941517 -0.07819325
000080 3e c3 07 bd f2 24 87 3d 51 02 57 3d cc d4 83 bd
       -0.03314518 0.06598844 0.052492443 -0.06437072
000090 c9 3a 84 bd 57 0f 21 bd 6f 0b fc 3c 3c 5a 24 3d
       -0.06456525 -0.03932127 0.03076717 0.040125117
0000a0 08 35 35 ba 1e 14 6a bb 2a be 3e 3d 56 e0 80 3d
       -0.00069125043 -0.0035717557 0.046568073 0.06292789
0000b0 00 c9 5a 3d e7 3b 5d bd e2 fb 3d bd fd 6b 4e bd
       0.053414345 -0.054012205 -0.046382792 -0.050395954
0000c0 8a 4f a9 bd 5a 67 93 bd 1a f2 a6 3d 0f 33 a3 bc
       -0.08267124 -0.07197447 0.08151646 -0.019921808
0000d0 97 94 db 3c 93 0b 2d bc 74 a3 df bc e4 81 a0 3d
       0.026804252 -0.010561842 -0.02729962 0.07837275
0000e0 0b 10 b2 bd 2a 07 f7 bc 52 5f b1 3d ac 09 bc bd
       -0.08694466 -0.030154783 0.08660759 -0.09181532
0000f0 17 ed 37 3c cd 6d fe bc 31 32 7f bd 0a 0d 84 bd
       0.01122596 -0.031058216 -0.062303726 -0.064477995
000100 dd 42 ff bc 71 3e 01 bd 99 30 c0 bc 32 92 7c bd
       -0.031159813 -0.03155369 -0.023460673 -0.06166286
000110 db bd e6 3b 3e 95 22 bd 74 a7 71 3d fa fc 7e bd
       0.0070416755 -0.03969311 0.058997586 -0.062252976
000120 32 64 23 bd 4e eb 19 bc 73 90 76 3d 8e 6f 98 bd
       -0.039890476 -0.00939448 0.06019635 -0.07443152
000130 b5 2a 6f 3d 18 e7 5b 39 3d 63 9d bd dc 05 b7 3c
       0.058390338 0.00020971557 -0.07684944 0.022341661
000140 5b e9 4c bd 64 87 2e 3d 3f d4 6f 3d 48 64 5d 3d
       -0.050027233 0.042609587 0.058552023 0.054050714
000150 ab 21 2c bd 6e 36 06 3d f5 55 87 3c 35 0d a5 3d
       -0.042024296 0.032766752 0.01652048 0.0805916
000160 1a 8a 5a bd dd 29 ab bc 24 0c 1c bd c9 66 40 bd
       -0.05335436 -0.020893985 -0.038097516 -0.046973024
000170 c0 e4 a8 3b c8 02 5d 3c fe db 73 bd cf e0 a2 3d
       0.0051542222 0.013489433 -0.059535973 0.07953035
000180 b8 2d 92 3d a7 34 4b bc f6 f1 8d bb 9f c4 9e 3d
       0.071376264 -0.01240269 -0.0043318225 0.07752346
000190 33 5d 88 bc c1 ec 72 bc 34 e1 20 3d a0 95 9a 3d
       -0.016646003 -0.014826954 0.03927727 0.0754807
0001a0 ae a5 94 3c 2d 21 c0 bc a6 13 4b 3d bf 75 2e 3c
       0.018145408 -0.02345332 0.049579285 0.01064819
0001b0 c8 dc a9 3c af 03 46 bd 11 4c ab bc f2 c6 98 bd
       0.02073516 -0.048343357 -0.020910295 -0.07459821
0001c0 cc 7e 02 bd 3f 59 24 3d 57 6e a2 3b ba 19 8b bd
       -0.031859204 0.040124174 0.004957001 -0.06792016
0001d0 2d 1a c3 bc fa ac a2 bd 02 c6 63 bc e7 d9 b0 3d
       -0.023816193 -0.07943149 -0.013902189 0.086353116
0001e0 ac 8e 65 bc fb bb 8f bb 92 4e 1c 3d ea e1 a4 bc
       -0.014011066 -0.0043864227 0.038160868 -0.020127255
0001f0 f6 f9 bf 3c 95 6c 6a bd fe cf 0b 3d 0d 63 4b 3d
       0.02343462 -0.05723246 0.034133904 0.04965501
000200 fc 31 b1 3d f2 82 e2 3c 14 05 7f 3d 08 cd 1e 3b
       0.08652112 0.02765033 0.062260702 0.0024231095
000210 1c 5c 0f 3d 9f cd a9 3d 91 41 aa bd 1c ce 60 bd
       0.03499995 0.08291172 -0.08313287 -0.05488406
000220 1f 01 28 bc 44 e7 09 3d 1a 4f 95 bd d4 8c a0 bd
       -0.010254174 0.033667818 -0.07290478 -0.07839361
000230 91 2a b5 3c 5c 11 1d 3d 6e 2c e2 3c 33 eb ca bc
       0.022115024 0.038346633 0.027609076 -0.024770355
000240 65 5b aa 3d a5 22 c8 bc 56 4f e6 bc 52 fe a1 bb
       0.083182134 -0.024430582 -0.028114002 -0.0049436474
000250 2d d7 5a 3d 4b 99 51 3d 7e 8f d1 3d c6 83 a2 3d
       0.053427864 0.051171582 0.10232447 0.0793529
000260 a1 80 3b bd ea 7a 5c 3d 14 01 0f 3d a0 5c be 3d
       -0.045776967 0.053828157 0.034913138 0.092950106
000270 f6 bd 9b 3d 64 7c 0a bd 3a 00 a8 3d 82 2c 51 bd
       0.076045915 -0.033810034 0.08203168 -0.051067837
000280 39 78 b1 3d 07 f5 5b bd ee c3 08 3d df fd 8b 3d
       0.08665509 -0.053700473 0.033389978 0.068355314
000290 db 5b a6 bc e2 02 8b bd 55 8a a4 3c c3 d8 87 3d
       -0.020307472 -0.06787659 0.020085493 0.06633141
0002a0 b9 5b f0 bc 56 86 08 3d 57 63 6d bd a6 ce 1e 3d
       -0.029340612 0.033331238 -0.057956066 0.038771294
0002b0 12 1f 80 3d 45 17 37 ba f9 d1 88 bd 8f cb 62 bd
       0.06255926 -0.00069843634 -0.06680674 -0.05536991
0002c0 c0 a8 a9 bc c4 00 df bc 7e 85 42 3d 2c d7 fa 3c
       -0.02071035 -0.027222045 0.04749059 0.03062018
0002d0 b9 f6 7d bb 7a 69 14 3d 80 7e 93 3d c7 29 43 bd
       -0.0038751794 0.036233403 0.07201862 -0.047647264
0002e0 d6 bc a5 3d 60 a2 c2 bc 23 10 77 3c 76 91 8f 3c
       0.08092658 -0.023759067 0.015079531 0.017525416
0002f0 0c 6a ec bc 19 6e cf 3d c5 74 20 3d 93 1c 67 3d
       -0.02885916 0.10128421 0.03917386 0.056423735
000300 92 93 95 3c ed 1b e4 3c 78 11 ac 3d 91 37 37 3c
       0.018258844 0.027845347 0.084017694 0.011182682
000310 ca d7 a9 3d 66 80 d5 bb 8a 79 13 bd 42 e9 88 bd
       0.082931116 -0.0065155504 -0.03600458 -0.066851154
000320 a2 8f 59 bd cd ed 47 bc 26 38 d1 bc e4 ee 2f 3d
       -0.053115495 -0.012202692 -0.025539469 0.042952433
000330 2d 52 89 3c cf d4 04 3d b7 7d b6 3d 92 cf b4 3d
       0.016762817 0.032429513 0.08910697 0.088286534
000340 26 97 21 3d da 2c 14 3d c3 02 46 3d 11 d5 44 bd
       0.039450787 0.036175586 0.048342478 -0.04805476
000350 3c 17 ff bc fb ea 61 3d 15 7d ae 3d ea ca eb 3c
       -0.031139009 0.055155735 0.08519951 0.02878328
000360 81 02 8c 3d e9 b0 24 3c 57 90 c5 bc a6 f6 2e 3b
       0.06836415 0.010051944 -0.024116678 0.0026697307
000370 8a bb 47 3d b1 43 44 3c 54 48 e8 bb 74 f5 c0 3d
       0.048762836 0.0119790295 -0.0070887003 0.094218165
000380 17 52 57 bd 70 85 e0 3b 9c 54 b3 bd fc 6d b2 3d
       -0.05256852 0.0068518445 -0.08756372 0.08712384
000390 7a 47 7b 3d 7c f6 8a bd 10 93 90 3d b3 aa 57 bd
       0.061347462 -0.067852944 0.070593 -0.052653026
0003a0 c6 ef 51 bd 32 01 ae 3d 8f 81 37 bd 64 4d ad 3d
       -0.051254056 0.08496322 -0.04480129 0.08462027
0003b0 a0 40 31 3d a5 ac 97 3c 29 95 91 3d 9a 37 99 bd
       0.04327452 0.01851494 0.07108528 -0.07481308
0003c0 6a 16 af 3d 71 ff ef bc 5d 42 88 bd 6e d5 a4 3d
       0.08549197 -0.029296609 -0.06653283 0.08048521
0003d0 1b 3a 0b bd 12 41 e8 3c dd d1 86 3c d7 15 1d bd
       -0.03399096 0.02835134 0.016457492 -0.038350906
0003e0 69 ef e7 bc 74 09 75 3d bd 35 56 bd 8e 75 08 bd
       -0.028312402 0.05982347 -0.052297343 -0.033315234
0003f0 e0 ec 13 3c bf 65 32 bc 15 35 fe 3c f4 da a5 3d
       0.009028643 -0.010888516 0.03103117 0.080984026

fc3.bias f4 [64]
000000 83 5e 83 bd 4d 91 b9 3d 78 c1 aa bc a4 f5 c0 3d
       -0.06414511 0.09060917 -0.020844206 0.09421852
000010 8d 63 a4 bc 9f 86 e9 3c b3 dc 39 3d 9c 96 dc ba
       -0.020067 0.028506575 0.04537649 -0.0016829553
000020 f7 a6 11 bd b6 cb 66 3d 0c bd 3c bd 44 8e a6 bc
       -0.03555962 0.056346618 -0.046078727 -0.02033151
000030 f0 72 8d bc df 7c 74 bd 28 e8 54 3d 62 13 ca 3c
       -0.01726672 -0.0596894 0.051979214 0.024667446
000040 01 dd 42 bd c1 a7 1b bd 05 3b f2 bc 18 34 53 3d
       -0.047574047 -0.03800178 -0.029569158 0.051563352
000050 cf 05 f5 bc c3 5f a9 3d ff 44 17 bd e9 bd 5b bd
       -0.029909996 0.08270218 -0.036931034 -0.05364791
000060 77 5f 6e bd 5a 7b 84 3d 57 ec 60 3d d0 91 d5 3d
       -0.05819651 0.0646884 0.05491289 0.10428202
000070 77 42 51 3d 4c 96 95 bd 58 dc 26 3d 20 fb 6d bd
       0.051088776 -0.073040575 0.04073748 -0.05810082
000080 81 9e 71 bc 37 88 80 bc f6 10 8c 3d ee 79 22 3d
       -0.014747263 -0.015689952 0.068391725 0.039667062
000090 ea 03 22 3c 71 d4 61 3c bc fa ec 3c ff bf ed 3c
       0.0098886285 0.01378356 0.028928153 0.029022215
0000a0 4b 2a 5a bd 44 e5 ff 3b 58 33 69 3c 94 61 b4 3d
       -0.05326299 0.007809313 0.014233433 0.08807674
0000b0 fc 06 93 bc f4 6a d1 3c 47 c7 b7 bd cd 04 cc bc
       -0.017947666 0.025563695 -0.08973556 -0.024904633
0000c0 74 6d 84 bd 3b b9 d4 bb c1 5c 75 bd f4 d1 75 3d
       -0.06466189 -0.0064918078 -0.05990291 0.06001468
0000d0 50 cd a3 bd 3d fa 3b 3d 0b 92 04 bd 22 29 3e 3d
       -0.079981446 0.045892943 -0.03236584 0.046425946
0000e0 87 f0 c4 3d 4d f8 3c bd 1a d9 14 3c bb db a1 bc
       0.096161895 -0.046135236 0.009084964 -0.019758096
0000f0 64 e0 86 bb 62 d3 54 bd f3 9c fe 3c 5e 58 e6 3c
       -0.004116105 -0.051959403 0.031080699 0.028118309

fc4.weight f4 [128, 64]
000000 07 6b 96 bd 53 68 9c 3d 6c 8b 3d 3d 82 ae 9f 3d
       -0.073446326 0.07637086 0.04627554 0.077969566
000010 ff 54 d4 bd 55 1e ba 3d 45 76 b6 bc 76 84 06 3c
       -0.10367774 0.090878166 -0.022273192 0.008210292
000020 8c da b1 bd 4d 86 a9 3d 86 0e 85 bd 93 48 b9 bc
       -0.08684263 0.08277569 -0.06496911 -0.022617614
000030 1a 31 6a bc 61 6e 26 bb 1a 5e 7c bd fc da 9f 3d
       -0.014293933 -0.002539538 -0.06161318 0.0780544
000040 85 49 64 bd 15 c3 b2 ba cb 0f 94 bd 2f 24 82 3d
       -0.055734176 -0.0013638461 -0.07229575 0.06354558
000050 9e 92 b3 bc e4 fc 87 3d d3 a1 cb bd ce 2c be 3d
       -0.021920498 0.06640032 -0.09942975 0.092858896
000060 29 09 c5 3c 81 2b 06 bd 6c 69 c5 3c 97 79 8e 3d
       0.02405222 -0.032756332 0.02409812 0.06956785
000070 71 7a b3 bc 0c 54 f5 3d 55 60 2a 3c fe e0 87 bd
       -0.02190897 0.11978921 0.010398944 -0.06634711
000080 cf a6 dc bd d9 a9 cb bd 23 a1 6c bd a2 8d bd bb
       -0.10774004 -0.09944505 -0.05777086 -0.005784706
000090 6b b8 b5 bd 39 9c 3f 3d 50 ef bb 3d 3b 54 e4 3d
       -0.088730656 0.046779845 0.091765046 0.11148878
0000a0 bc 6e d7 3c b0 02 ab bd 03 1c ff 3c 0c f0 f1 3d
       0.02629792 -0.08350122 0.031141287 0.118133634
0000b0 eb 3b ac 3d 67 34 56 bd 77 33 b1 3d e3 44 ba 3d
       0.08409866 -0.05229607 0.08652394 0.0909517
0000c0 21 dc 7b bd 4c 89 01 3e dd c2 c7 3d 7a 8a c5 bd
       -0.06148923 0.12650031 0.09753964 -0.09645553
0000d0 a7 c7 83 bd 00 6d dd bd 98 51 ab 3d 71 9f 4d 3d
       -0.06434565 -0.10811806 0.08365172 0.050200883
0000e0 90 01 32 3c d0 11 d5 3d 30 90 19 3d 39 ec 2e bd
       0.01086463 0.10403788 0.037491024 -0.04270575
0000f0 cf 46 29 3d 37 d2 94 bd 88 b3 0e bd aa 06 f8 3c
       0.041327294 -0.07266658 -0.034839183 0.030276615
000100 20 5c 96 bb 94 9c d5 bd 88 d5 30 bd a8 4f ba 3c
       -0.004588619 -0.104302555 -0.04317239 0.022743061
000110 8c 7a 8b 3d 32 13 f9 bd 12 21 ae 3d a6 02 d8 3d
       0.06810483 -0.12161864 0.085024014 0.1054738
000120 80 99 95 bd e6 ac dd bd 64 2e 6a 3d 72 1f a1 3d
       -0.073046684 -0.108239934 0.057173148 0.07867326
000130 5c ea 1e 3d 2e 3b a8 bd a4 81 37 3d 24 d5 e6 bd
       0.03879772 -0.08214413 0.04480137 -0.11271122
000140 60 1d db 3c ce ac e7 bd 74 ec 79 3d 2c ca bf 3d
       0.026747406 -0.11312257 0.061016515 0.09364733
000150 3e 8e cf 3d 8a 58 96 bd c4 8d 4f bd 40 fd 68 bb
       0.101345524 -0.07341106 -0.050672308 -0.003555134
000160 98 81 6f 3d 00 fc 18 3b 1a 48 92 3d f0 51 02 bc
       0.0584732 0.0023343563 0.071426585 -0.007954106
000170 e8 f4 9a 3c 7c 4e 91 3d 32 98 f0 bd 68 1f 63 bd
       0.018915609 0.07095048 -0.11747779 -0.055449873
000180 9a fa a4 bd 14 05 eb bd 4c d1 2a 3d fc bd 47 bd
       -0.08055611 -0.11475578 0.041703507 -0.048765168
000190 2c bb 58 bd da 5b f9 3d bc e2 a4 bd 3c 82 c4 bd
       -0.052912876 0.121757224 -0.08051059 -0.09595153
0001a0 f8 0b f2 3c 8c ff e7 3d ee 3d e4 bd 7c 62 15 3d
       0.029546723 0.113280386 -0.11144625 0.036470875
0001b0 96 33 fc 3d a4 61 4f bd 90 f0 9a 3c 7c 44 b0 bd
       0.12314527 -0.050630227 0.018913537 -0.08606812
0001c0 00 be c5 bb e6 df f1 bd ec b8 5b bd 36 48 d0 bd
       -0.0060346127 -0.11810283 -0.053643152 -0.10170023
0001d0 1c f7 bc 3d b2 ca e4 3d c0 b9 9c bc 58 de d7 bd
       0.0922682 0.111714736 -0.019131541 -0.105404556
0001e0 d4 07 7c bd 16 60 c0 3d 10 3a 2e bc f0 92 67 3c
       -0.061530903 0.09393327 -0.01063396 0.014134154
0001f0 68 7f 17 3d 62 dd ba bd 44 69 48 bd 84 80 c3 bd
       0.03698674 -0.09124257 -0.048928514 -0.09545997
000200 0c 10 2c 3d 80 55 13 bb 5c fd 8d 3d b2 e5 d4 bd
       0.04200749 -0.0022481382 0.0693309 -0.103953734
000210 00 7c 36 3a 2a 99 eb 3d 86 f5 c4 bd 44 44 2a bd
       0.00069612265 0.11503823 -0.096171424 -0.04156901
000220 88 da f8 bc 54 a8 3c bd 4c 4b 92 bd 5a 66 91 3d
       -0.030377641 -0.046058968 -0.07143268 0.070996
000230 e0 00 d0 bb 88 cf 22 bd 74 16 35 3d 34 ec ac bd
       -0.0063477606 -0.0397487 0.044210866 -0.0844349
000240 10 0c f3 bc ae 7f 94 3d a4 00 a0 3d 1c 15 11 bd
       -0.029668838 0.072509155 0.07812622 -0.035420522
000250 f8 3e 98 3d 64 80 09 bd b8 17 ba bc 3e 81 bf bd
       0.07433885 -0.03356971 -0.022716388 -0.09350823
000260 5c a1 dd bd c8 3d 17 3d a0 2e c8 3b 54 c6 42 3d
       -0.108217925 0.036924154 0.0061090738 0.04755242
000270 0a be 9f bd 50 7b ea 3d 18 0b fd bd b4 2a 5b 3d
       -0.07799919 0.11449301 -0.123556316 0.05350752
000280 08 a6 15 bd 60 5c 8f 3c 3e 87 e4 bd 26 75 91 bd
       -0.036535293 0.017500103 -0.11158608 -0.071024224
000290 80 6c aa 3d 1c de b6 3d 2c 95 ce bd 10 45 3b 3c
       0.08321476 0.08929083 -0.10087046 0.01143004
0002a0 f0 2b 94 bc 58 44 3f bd b8 d6 3b 3d 2e a5 ae bd
       -0.018087357 -0.046696037 0.04585907 -0.08527599
0002b0 10 1e 96 bc 8c b8 8a 3d 2e fa fe 3d 4c 4b da bd
       -0.018324882 0.06773481 0.12450062 -0.10658893
0002c0 e0 15 fb bb 00 85 33 ba b8 ec 90 bd c0 bf 4d 3c
       -0.00766252 -0.00068481266 -0.070764005 0.012557924
0002d0 6c ca 3e 3d 40 2b 68 bd e6 84 8e 3d 50 36 dc bc
       0.046579763 -0.05668187 0.06958942 -0.026881367
0002e0 18 2a 27 3d bc eb 8a bd 44 6d ab bd a0 38 5f bd
       0.040811628 -0.06783244 -0.0837045 -0.05449736
0002f0 48 0a 3b bd 9a 66 9b 3d a0 d4 38 3d c8 06 fb bd
       -0.0456641 0.07587929 0.04512465 -0.12257153
000300 28 35 c2 3c ac 4f 8a bd 02 06 dd 3d 00 12 58 3c
       0.023706988 -0.067534775 0.107921615 0.013187885
000310 b8 5b a1 bd c0 8f 8a 3b 3a 8d ba 3d 90 fb af 3d
       -0.07878822 0.004228562 0.09108968 0.085929036
000320 a4 85 a4 bd 96 43 9c bd 08 b5 e3 bd f0 30 2c bd
       -0.080333024 -0.076300785 -0.11118513 -0.042038858
000330 d4 32 60 3d e8 f5 2a bd 84 fb f0 bd 22 25 9f 3d
       0.054735973 -0.04173842 -0.11766723 0.077707544
000340 e8 02 e8 3c f8 95 82 3c 14 2a d1 bd 30 62 ac bd
       0.028321698 0.015940651 -0.10213104 -0.08417165
000350 d8 9e cf bc 54 c4 e6 bd a0 da c3 3b aa 47 a6 bd
       -0.025344297 -0.11267915 0.00597699 -0.081191376
000360 7c ee 7f 3d 38 00 18 bd f4 7b c4 3d 38 53 e0 3d
       0.062483296 -0.037109584 0.09593955 0.10953373
000370 06 e7 c9 bd fe 9e c8 bd 9c d2 e3 3d 04 7b 5a 3d
       -0.09858517 -0.0979595 0.11124155 0.053339973
000380 66 f6 da bd 00 3a 6c 3d 88 9c ca 3d 3c b2 d6 bd
       -0.10691528 0.0576725 0.09893137 -0.10483214
000390 e8 39 87 3d 00 c3 86 bc 7c ec 10 3d 50 c3 e3 bc
       0.066028416 -0.016450405 0.03538178 -0.027803093
0003a0 bc b1 52 3d 40 bc cc bd 56 a5 93 3d f0 07 c0 bc
       0.051439032 -0.09996843 0.0720927 -0.023441285
0003b0 f2 4b 91 3d 6c 11 ea 3d 5e 7c ef bd 68 34 eb bd
       0.070945635 0.11429104 -0.11693643 -0.11484605
0003c0 b6 ed a6 3d b8 3b 95 3d 0c 00 43 bd 90 29 0b 3d
       0.081508085 0.07286781 -0.047607467 0.033975184
0003d0 50 75 e6 3d e8 68 f4 3c 60 d3 24 bd 08 8f 95 3c
       0.11252844 0.02983518 -0.040240645 0.01825668
0003e0 52 17 e3 3d 74 e4 2f 3d 30 4b 6b 3c 7a 39 e9 3d
       0.11088432 0.04294248 0.014361188 0.11387916
0003f0 00 ea 43 bc b8 03 b2 bc bc 2a 64 bd 80 fb d8 ba
       -0.011957645 -0.021730289 -0.055704817 -0.0016554445

fc4.bias f4 [128]
000000 f5 ff dc 3d 10 c1 96 3d 5e f7 82 bd 74 f7 c1 bd
       0.107910074 0.073610425 -0.06394838 -0.09471026
000010 64 c3 ef bd 88 08 b8 bd 00 70 1a 3b 44 30 77 bd
       -0.1170719 -0.08986002 0.0023565292 -0.060348764
000020 50 67 3e bd 00 b1 0c 3b ec d8 e5 3d c8 70 fa 3c
       -0.046485245 0.0021467805 0.11223015 0.030571356
000030 b6 c9 ea 3d 48 92 82 bd 1c d1 00 bd da 57 f0 bd
       0.114642546 -0.06375557 -0.031449422 -0.11735506
000040 4e 43 fb 3d fe ca a0 3d 5c a5 c6 3d 18 63 c9 bd
       0.12268697 0.07851218 0.096995085 -0.09833354
000050 e8 0a 94 bd b0 57 23 bc a0 b8 a0 3d 02 8e ee bd
       -0.07228643 -0.009969637 0.078477144 -0.116481796
000060 18 e3 db 3d b2 c2 af bd 74 f5 95 bd 28 43 f7 bd
       0.10736674 -0.08582057 -0.07322207 -0.12073356
000070 1e 14 c9 bd d4 50 6e bd 7e 22 ed bd cc 38 5a 3d
       -0.0981829 -0.058182552 -0.115788445 0.053276822
000080 c0 1b 14 bb 32 06 e7 bd e0 3a 96 3b f8 fd eb bc
       -0.0022599548 -0.112804785 0.004584655 -0.028807625
000090 02 29 f9 bd 3a 7e aa bd 7c 07 87 3d c0 f9 f0 bc
       -0.12166025 -0.08324857 0.065932244 -0.029415965
0000a0 c0 7f 1b 3b 58 c2 e1 3d d0 69 03 bc 30 be 10 bc
       0.0023727268 0.11023396 -0.008020833 -0.008834407
0000b0 8a 58 ab 3d 5e 6d 88 3d 1c e7 3c bd c2 02 ef bd
       0.08366497 0.06661485 -0.04611884 -0.11670448
0000c0 00 a0 44 38 e0 ae a5 3b e4 4a 24 bd ec 7c 16 3d
       4.6879053e-05 0.005056247 -0.040110484 0.03674023
0000d0 64 5e f2 3d 64 7f 07 3d 0e e5 cb bd fc 44 ae 3d
       0.1183441 0.033080474 -0.09955798 0.085092515
0000e0 a8 cd 72 bd 70 4c 90 bc d0 c9 9c 3c 80 38 fd 3b
       -0.05927816 -0.017614573 0.0191392 0.0077276826
0000f0 18 42 ca bc 64 76 3d bd d4 99 97 bd aa 3a c9 bd
       -0.02468972 -0.046255484 -0.07402387 -0.098256424
000100 d2 2d b1 3d ca 9e 9f 3d fc 4d 71 3d 5c 67 e9 bd
       0.08651318 0.077939585 0.058912262 -0.11396667
000110 64 5b cf bd 90 39 df bc 80 73 aa 3a 20 bb 01 bc
       -0.10124853 -0.027249128 0.0013004392 -0.007918149
000120 c8 51 97 bc c0 5d 9a bc 2e 76 80 bd 30 0e 66 3c
       -0.018471614 -0.018843532 -0.06272541 0.0140414685
000130 74 c4 9d bd 7e e1 d3 3d aa 56 a7 3d 10 3c 3a 3d
       -0.07703486 0.103457436 0.08170827 0.045467436
000140 e8 51 ee bc a0 91 5a 3c 00 b0 18 b9 54 37 a9 bd
       -0.02909179 0.013340384 -0.00014561415 -0.08262506
000150 2c 3f b9 3d 68 c0 21 3d 08 c3 c4 bc 48 c0 e3 bd
       0.09045252 0.039490134 -0.02401878 -0.11120659
000160 fe 20 f7 bd 80 62 99 3a ea 85 cf 3d f4 55 80 3d
       -0.1206684 0.0011702329 0.10132964 0.06266394
000170 f0 53 1f bd 68 e7 67 3d ee 10 af 3d e0 38 a7 3c
       -0.03889841 0.05661717 0.08548151 0.020412862
000180 d4 d6 d1 3d 18 d2 8e 3d 54 3a 86 3d d4 cb c5 bd
       0.10246053 0.06973666 0.06554094 -0.09658018
000190 b0 74 9c bc 74 f1 af bd 24 49 47 bd 60 7b 39 bc
       -0.01909861 -0.085909754 -0.048653737 -0.011320919
0001a0 80 7d 9d 3d d0 34 31 bc 00 1d d6 bb 5a 32 d2 bd
       0.07689953 -0.010815814 -0.006534219 -0.1026351
0001b0 40 2e c6 3d b8 61 a7 3c d8 87 da bc 92 9d 9e bd
       0.0967679 0.020432338 -0.026676103 -0.07744898
0001c0 10 dd 15 bd 80 85 99 bc f4 54 87 bd 20 c1 cc 3d
       -0.036587775 -0.018740416 -0.066080004 0.09997773
0001d0 20 76 c2 bd d0 b4 3a bc b0 44 b7 bd 50 46 c7 3d
       -0.09495187 -0.011395648 -0.08948648 0.09730208
0001e0 72 1a a3 bd a0 74 89 bd f0 82 16 3d a8 9b e9 3c
       -0.079640284 -0.067116976 0.036745965 0.028516605
0001f0 60 49 05 bc 78 e8 f9 bc e4 c2 18 bd 16 58 ae bd
       -0.00813517 -0.030506358 -0.037295237 -0.08512895
