models/comparison_apache@curator_1000ep_dqn/best_pairwise_dqn_apache@curator_1000ep_dqn.pt (torch, 193840 bytes, 8 tensors)

fc1.weight f4 [128, 112]
000000 ab b9 9e 3d 76 0b ee 3d b8 56 71 3d 83 ee 83 bc
       0.07750257 0.1162328 0.058920592 -0.016104942
000010 9c 53 3b 3e 3c 37 95 ba a1 e9 8e 3d 55 a1 28 3e
       0.18293613 -0.0011384259 0.06978155 0.16467793
000020 c9 b5 e8 3d 2d 15 06 3e 15 ba 11 3e cf 60 2a 3e
       0.11362798 0.13094015 0.14231141 0.16638492
000030 3a 14 af 3d b1 25 de 3d 8e 13 53 3d e6 27 f9 3c
       0.0854878 0.10847033 0.05153232 0.030414533
000040 45 be df 3d 11 41 7b 3c b0 c5 25 3e 08 7d 33 3e
       0.10924963 0.015335337 0.16188693 0.17528164
000050 7d 1b ce 3d 38 c1 fa 3c 7e f1 bc 3c d3 3b 28 3e
       0.10063837 0.030609712 0.023064371 0.16429071
000060 27 cb 88 3d 92 38 ca 3c b0 b7 07 3e e6 79 f6 3c
       0.06679373 0.024685178 0.13253665 0.030087423
000070 b4 89 0f 3e 50 b7 b3 3d eb 50 eb 3d bd e5 1c 3e
       0.14017373 0.087751985 0.11490043 0.15322013
000080 29 fb 85 3d 94 bb b6 3d 6a 00 08 3d 56 aa 05 3e
       0.065420456 0.089224964 0.03320352 0.13053259
000090 71 f1 93 3c 37 35 2a 3d 98 e1 d3 3c a2 37 a5 3d
       0.018059464 0.041554656 0.025864407 0.08067252
0000a0 4d 70 83 3e 28 ae 88 3e c4 72 3e 3e 4d 8f 15 3d
       0.25671616 0.2669537 0.18598467 0.036513615
0000b0 80 56 1b 3e 40 93 3e 3e b4 79 31 3e ae fe f8 3d
       0.15169716 0.18610859 0.17331582 0.12157951
0000c0 19 07 f3 3d bd 11 17 3e b5 36 27 3d d8 53 3a 3e
       0.11866588 0.1475286 0.040823657 0.18196046
0000d0 02 7e 77 3d a1 48 f1 be 33 1f db 3d 3d ef 49 3e
       0.060422905 -0.47125724 0.1069931 0.19720168
0000e0 a1 9f 45 3e b3 9d 07 3c 9b 75 1c 3e 7e f5 40 3e
       0.19299175 0.0082773445 0.15279238 0.18843648
0000f0 f3 89 24 3e b8 87 3a 3d 07 b3 78 3d 6c f8 f8 3d
       0.16068248 0.045539588 0.06071761 0.12156758
000100 52 03 e9 3d a3 63 ce 3d c4 a4 64 3d 06 55 a9 3d
       0.113775864 0.10077598 0.055821195 0.0826817
000110 74 76 e0 3d 9a 1e 89 3d d0 8e 52 3e 7e 5d 1c 3e
       0.10960093 0.0669529 0.20562291 0.1527004
000120 be 57 13 3e dd 3c 12 3e 3c 03 0c 3e 6b 86 85 3d
       0.1438894 0.1428103 0.13673109 0.06519779
000130 44 dc 3c 3e 7c 9b d2 3d a0 d5 2d 3e 2b 8d d8 3c
       0.184434 0.102835625 0.16976023 0.026434502
000140 bb 61 2b 3e 9f 81 1b 3e 2c 89 13 3e a8 b1 e2 3d
       0.167365 0.15186165 0.14407796 0.110690415
000150 f5 3f 2c 3e 2a f0 03 3e 74 69 1b 3e dd ae 5e 3d
       0.16821273 0.12884584 0.15176946 0.05436598
000160 90 f0 46 3d b8 a8 3a 3e 67 8b ec 3d 9d 64 76 3d
       0.048569262 0.18228424 0.115500264 0.060154546
000170 09 d8 ff 3d e3 de 27 3e 26 a3 33 3e 02 ac 3c 3e
       0.12492377 0.16393618 0.17542705 0.18424991
000180 2d 3f 79 be b6 fe f4 bd 73 fc 07 3e 3e 24 0f 3e
       -0.24340506 -0.11962645 0.13279895 0.13978669
000190 aa 16 b2 3d 8a 81 53 3d 8a 7e 0f 3d c7 63 b9 bd
       0.08695729 0.05163721 0.035032786 -0.09052234
0001a0 60 f6 46 3e a8 3b 49 3e 42 05 ae 3d b5 06 09 3e
       0.19429922 0.19651663 0.084970966 0.13381465
0001b0 b5 a8 38 3e 5f 3c 2b bf 04 6c 3c 3e e4 0e 3e 3e
       0.18033107 -0.66888994 0.1840058 0.18560368
0001c0 4b 98 98 3c 31 2d 9a 3d e5 1e 70 3d e2 5e 55 3d
       0.018627306 0.07528151 0.058623213 0.05209244
0001d0 7c 77 1d 3b d0 25 25 3e 94 5b 1a 3e d2 e0 b7 3d
       0.0024027517 0.16127706 0.15073997 0.08978428
0001e0 e7 0c 0e 3e 19 2d 81 3d cc a1 c5 3d 90 ac c8 bb
       0.1387211 0.0630743 0.09650001 -0.0061240867
0001f0 90 59 01 3c bf 66 cc bb 9f 54 86 3d e6 20 6c bc
       0.0078948885 -0.006237834 0.06559109 -0.0144121405
000200 12 de 84 3c f8 71 14 3b 3c 82 67 3c a7 2a 28 3d
       0.016219173 0.0022650938 0.014130171 0.0410563
000210 97 77 0c 3e f4 e4 d5 3d 5b 5e 13 3e 94 66 62 3d
       0.13717495 0.1044406 0.14391463 0.055273607
000220 57 c2 59 3c 5d 80 77 3d e8 3e 75 3b 09 85 92 3d
       0.013290963 0.06042515 0.0037421528 0.07154281
000230 74 1c 1a 3e 57 c9 49 bc 1a 20 0e 3c fd 66 c3 bc
       0.15049917 -0.01231607 0.008674646 -0.02385282
000240 7f 6f bb 3d f1 21 ea 3c 86 d2 db bc 0d 2c be bc
       0.091521256 0.028580638 -0.026833784 -0.023214364
000250 bf 6e 7e 3b 97 d9 88 bc 2a d7 d7 3c 4b 4e 0b 3e
       0.0038823334 -0.016705317 0.026347715 0.13604085
000260 9b d6 00 bd c1 82 04 3d 9a 51 06 3e 7d 15 1e 3d
       -0.031454664 0.03235126 0.13117066 0.03859471
000270 4f 07 2d 3d 1f 42 09 3e 26 a4 30 be 07 4e 50 be
       0.0422433 0.1340413 -0.17250118 -0.20342265
000280 53 1d 12 3d 8a de 13 3e 71 62 12 3e 1d aa 8c bc
       0.035672497 0.1444036 0.14295365 -0.01717096
000290 ad ab 9a 3c e9 fc 1d 3e b9 4f b1 3d 37 b6 34 bc
       0.01888069 0.15428509 0.08657784 -0.0110297715
0002a0 ad cb 09 3e 96 ed b1 bc b2 56 87 3d cd f9 f1 3b
       0.13456602 -0.021719735 0.06608333 0.007384515
0002b0 8e 67 a9 3d a4 a2 0d bd f0 61 ca 3d b6 c1 0f 3e
       0.082717046 -0.034578934 0.09881961 0.14038739
0002c0 48 3f 9f 3d 61 1f e9 3d ad 07 92 3c 5d ae ce 3d
       0.07775742 0.11382938 0.017825926 0.10091851
0002d0 d7 ff 1b 3c 8a e1 77 3d 99 7a cd 3d a3 3f 09 3e
       0.009521446 0.060517825 0.10033149 0.13403182
0002e0 06 8e 6e 3c a6 c3 10 3d cc 4d f6 39 2b 0d 0d 3e
       0.014560228 0.035342835 0.0004697874 0.13774554
0002f0 d1 ac 05 3d ec c8 bb bc bc 44 6b 3d df bc 06 3d
       0.032635514 -0.022922955 0.057438597 0.032894965
000300 2f 4a fb 3d ea 60 1d 3e 97 07 0d 3e 73 5f 6c 3d
       0.12270009 0.15369001 0.13772427 0.057708215
000310 af b3 96 3d 22 56 da 3d 0f 25 0d 3e 6a 17 20 3c
       0.07358491 0.1066096 0.13783668 0.009771207
000320 92 40 06 3e fe 9b 92 3c 29 ff 07 3e c2 45 5e bc
       0.13110569 0.017896648 0.1328093 -0.013566436
000330 91 93 c7 3d 74 dd 9c 3d 6f 2d 45 3d 6b 4b 03 3e
       0.09744943 0.07659426 0.048139032 0.12821738
000340 e0 b2 10 3d 64 48 1a be a4 a5 ca 3c b4 af b1 bc
       0.03532684 -0.15066677 0.024737187 -0.021690227
000350 95 cf a2 3d d9 4b 72 3d 5c b7 97 bc 87 84 84 3d
       0.079497494 0.059154365 -0.01852005 0.0647059
000360 71 b3 79 3d bf 27 04 3d 48 df e7 3c 7a 95 a9 3c
       0.060962144 0.032264467 0.028304711 0.020701159
000370 15 ee 9b 3d fa 72 04 be d6 73 06 3e 98 fb 35 bc
       0.0761377 -0.12934485 0.13130125 -0.011107348
000380 ca 47 6f bd 50 5e 98 3d 74 f8 1d bd 70 e9 36 bc
       -0.058418073 0.07439864 -0.03856702 -0.011164054
000390 f5 c0 04 3d e3 c3 c2 bc 8f ec 85 3d 30 26 43 bd
       0.03241058 -0.023775047 0.065392606 -0.04764384
0003a0 ce 1f 31 3d a8 21 1d 3d cf ba da 3d ff fc d2 bc
       0.043243222 0.038362175 0.10680162 -0.025755404
0003b0 13 56 db 3d aa 00 06 3d be 16 4a 3d 04 d7 89 bc
       0.10709777 0.032715477 0.049338095 -0.01682616
0003c0 22 36 9a 3d 8b 36 46 bd 0f e0 90 bc 4a 95 b9 3d
       0.07529856 -0.04839186 -0.017684964 0.09061678
0003d0 35 89 44 bc 00 01 9b 3d cb 98 d2 3d 21 e3 ff 3b
       -0.011995603 0.0756855 0.10283049 0.0078090583
0003e0 fb 3e 47 3d 52 dc 42 3d 96 87 df bc 34 cf 4d bc
       0.048644047 0.047573395 -0.027286332 -0.012561608
0003f0 da f0 69 bd e1 44 78 3d b1 e6 8c 3d 10 53 ad bb
       -0.05711446 0.060612563 0.068799384 -0.005289443

fc1.bias f4 [128]
000000 56 6e 81 bd 0f 64 df bc 97 6c d2 bc 83 eb f2 bd
       -0.06319873 -0.027269391 -0.025686545 -0.118613265
000010 ef 98 5e bd 27 10 9f bc 12 e1 9c ba a2 f0 c7 bd
       -0.054345068 -0.019416882 -0.0011968932 -0.09762694
000020 af 9b 8d bd 81 10 41 bd 10 24 d7 3c 0c 70 2a bc
       -0.0691446 -0.04713488 0.026262313 -0.010402691
000030 eb 18 07 bd 79 65 17 bd 53 fd 31 bd fa 41 2c bc
       -0.032982748 -0.036962006 -0.04345448 -0.010513777
000040 d8 3c ab bd 22 b2 e4 3c 82 14 26 3d 76 49 ec 3c
       -0.083612144 0.027916972 0.0405469 0.028843623
000050 13 91 2e bd 0e 0c 3f 3d 9f 65 59 be 28 76 04 3d
       -0.042618822 0.046642356 -0.21230172 0.032339245
000060 76 55 03 be bb c2 97 3d 4f 01 02 be 20 54 d0 3d
       -0.1282557 0.07410189 -0.12695812 0.101722956
000070 80 3c a9 bd 6e 4e e3 3d 27 7d 8b 3d 19 de ea bd
       -0.082634926 0.11098944 0.0681098 -0.11468143
000080 af 2b 23 be d8 8b c7 bd 8c 77 4c be 17 36 75 be
       -0.15934633 -0.0974347 -0.19967479 -0.23946415
000090 01 7b 20 bd 6a 02 0f 3d 3a 89 16 be 0d 0f 91 3d
       -0.039179806 0.03491441 -0.14700785 0.07082949
0000a0 37 84 c3 be c5 30 88 be ba 7c 3e bd 81 6a a7 bd
       -0.3818681 -0.26599708 -0.046505667 -0.08174611
0000b0 cb 25 77 be 26 1a 94 3d 45 96 8e bd 74 c8 30 be
       -0.2413551 0.0723155 -0.069622554 -0.17263967
0000c0 b8 b7 64 bd b5 f2 c8 3c 0d df c9 bd 85 71 0f bd
       -0.05583927 0.024529794 -0.09856997 -0.03502037
0000d0 e6 20 29 be 2e 07 fe bd 8c 1c 05 be dd 88 c0 bd
       -0.16516456 -0.12403713 -0.12999171 -0.094011046
0000e0 4c af 53 3d d9 08 d3 be 88 d6 eb bd 54 4a 9f 3d
       0.051680848 -0.41217688 -0.11515528 0.07777849
0000f0 40 76 ad bd 8a 0b 3a be 3b 08 73 bd 4e ca 56 3d
       -0.0846982 -0.18168464 -0.05933402 0.052439027
000100 56 a5 92 bd 5c 32 92 3c 52 3d 38 be 96 fc 0b be
       -0.071604416 0.017846279 -0.17992142 -0.13670573
000110 d5 e6 2f bd 39 4f d4 bd d2 62 d4 bd 76 9a 05 3d
       -0.042944748 -0.10366673 -0.10370411 0.03261801
000120 1c ff d2 bc ca 64 10 bd dc 9c 6c bc f1 a5 fd bc
       -0.025756411 -0.03525237 -0.014441695 -0.030962916
000130 c2 ef 69 ba 07 61 6e 3c 67 01 93 be 82 ad c2 3d
       -0.00089239713 0.0145495 -0.28712007 0.0950575
000140 07 a9 8f bd 78 f0 12 be 2b 9f 62 be a0 85 2e be
       -0.07014661 -0.14349544 -0.2213103 -0.17043161
000150 43 4a c3 be 01 ae 58 3e 5e 08 c5 bd df 82 0c 3e
       -0.38142595 0.21160127 -0.096207365 0.13721798
000160 cc fa 22 bb 33 09 45 3c 59 5d 35 be 20 99 e7 bd
       -0.0024868725 0.012026119 -0.1771139 -0.11308503
000170 16 f8 9f 3d 1c f2 3c bd f5 be 8e 3b 7b 82 24 3e
       0.078109905 -0.04612933 0.00435626 0.160654
000180 9a 60 30 be 4e c8 7a 3d 84 74 f0 bc 98 4a 8c be
       -0.1722435 0.06122618 -0.029352434 -0.2740066
000190 0d 36 8b be b3 98 9f 3d 4b 65 4d bd 1b d1 51 be
       -0.27189675 0.07792797 -0.05014543 -0.20489924
0001a0 0b 27 ee bd 72 f4 e2 bc 60 3e 11 be ab 30 0a be
       -0.116285406 -0.027704451 -0.1418395 -0.13495128
0001b0 38 d9 22 be 5e c7 48 be d4 8d f5 bd b5 05 21 be
       -0.15903175 -0.19607303 -0.11989942 -0.15724833
0001c0 45 4e be bc 41 48 8f bb f4 88 a1 bd 25 01 8e be
       -0.023230681 -0.004372627 -0.0788745 -0.27735248
0001d0 38 1d 93 3d 52 0e 76 bd 02 a3 db bd 79 38 9b be
       0.071833074 -0.06007225 -0.10724451 -0.30316523
0001e0 eb b8 f6 3c d2 d0 81 bd 1e c6 04 be 1e b5 56 be
       0.030117473 -0.063386574 -0.129662 -0.20967528
0001f0 2c f0 81 be 8b 61 d7 bd 81 97 f4 bd 4b f5 4f be
       -0.2537855 -0.10516652 -0.119429596 -0.20308416

fc2.weight f4 [128, 128]
000000 34 a8 11 be 32 3b 1b be 3d 89 2c 3d d1 4f b7 bd
       -0.1422432 -0.151593 0.042123068 -0.08950771
000010 8d 60 7b bc d2 f2 1c bd ee 2e 04 3e 37 8d f2 bb
       -0.015342844 -0.03831751 0.12908527 -0.007402088
000020 a4 58 bb 3d b4 fa 8c 3c 0f 0a 93 3e e6 aa 82 3d
       0.09147766 0.017209388 0.28718612 0.063802525
000030 31 51 72 3c c8 32 63 3e 45 d1 ea be 55 bd 89 be
       0.014789865 0.2218734 -0.45862785 -0.2690226
000040 53 83 91 bd ca 65 9e 3e c7 87 c6 3d 47 65 4f bd
       -0.07105126 0.30937034 0.09693866 -0.050633695
000050 ce a0 62 be d7 be b2 bd 86 60 0c bf b5 60 17 3d
       -0.22131655 -0.08727806 -0.54834783 0.03695746
000060 b6 22 28 be 41 a5 38 3e 34 64 5c be 32 a3 33 3d
       -0.16419491 0.1803179 -0.215226 0.043856807
000070 b9 24 c3 3c 17 16 49 be 5b e0 a2 3d b0 0a c7 bd
       0.023821222 -0.19637333 0.07952949 -0.09718835
000080 92 44 f5 bd 34 00 df bc 7a 84 8e b9 da ea 2b ba
       -0.119759694 -0.027221777 -0.00027183053 -0.0006558128
000090 0f 11 4c be 1d 15 a1 3d d2 36 5d be c9 5e 47 3d
       -0.19928382 0.07865355 -0.21602944 0.04867438
0000a0 2d 2a 25 3d 7a 1a fe bd 66 0a b2 be 7f d7 c0 3d
       0.040323425 -0.12407394 -0.34773558 0.094161026
0000b0 8e e4 76 be 64 64 44 3d 16 23 1a bd 35 50 5b 3d
       -0.24110624 0.047947302 -0.037631117 0.05354329
0000c0 db df 41 3e 46 1b 8b bd f2 ec 0f be e3 79 03 bf
       0.1893305 -0.06792311 -0.14055231 -0.5135786
0000d0 26 d6 20 3c e0 5c a3 3d be fc 76 3d 63 38 9c 3c
       0.009816682 0.07976699 0.060299627 0.019069856
0000e0 c7 c1 68 3e b3 c5 4d bb 78 78 81 be d6 cc 53 3d
       0.2273017 -0.0031398355 -0.25287223 0.05170902
0000f0 cb 59 8b bd a6 38 51 3d 79 ff ae 3d 77 12 05 be
       -0.06804236 0.051079415 0.08544821 -0.12995325
000100 4e fb 30 3d 20 46 b4 3d 4e 02 46 3c 22 47 1c be
       0.043208413 0.08802438 0.01208551 -0.1526151
000110 6b 59 55 3c 02 0e 78 3d c2 ca a5 be 9a 90 c8 bd
       0.013021807 0.060560234 -0.32381254 -0.097932056
000120 d5 23 3a be b1 0e 9f be e8 4c c4 bc 56 f6 f1 bd
       -0.18177731 -0.31065896 -0.023962453 -0.11814563
000130 28 63 6b 3c a1 ec 84 3e 2e f5 95 bc 97 ba be bc
       0.014366902 0.25961784 -0.018305387 -0.023282332
000140 0e 96 1f bd 3b c0 44 be bc 32 f0 be 55 6a 5c 3d
       -0.038961463 -0.19213955 -0.46913707 0.053812344
000150 f8 82 89 3d 63 b0 2d bd 92 6f e1 be 05 e0 6f 3e
       0.067144334 -0.042404544 -0.44030434 0.234253
000160 b0 14 8f bd 89 bc 6c 3d 51 8c 30 3d 52 4b 98 bd
       -0.06986368 0.05779699 0.043102566 -0.07436241
000170 e5 43 45 be cb fd 1e 3e 94 4c 1f be a2 64 1f be
       -0.19264181 0.15526502 -0.15556556 -0.15565732
000180 6e dc e3 be f0 1d b9 be 43 c7 55 bb cd a0 71 3d
       -0.44504112 -0.36155653 -0.003261999 0.058991242
000190 76 db 04 3e 80 9e d3 be ca f0 81 3e f6 15 2a 3c
       0.12974343 -0.41331863 0.2537902 0.010381212
0001a0 38 4b 9e be 6a 96 23 3c 53 79 bd 3e af 26 be be
       -0.30916762 0.009984592 0.37006626 -0.37138888
0001b0 50 bf 39 be 0b 0a 5f be 83 ae 6e 3d 83 39 ac be
       -0.18139386 -0.21781175 0.058271896 -0.33637628
0001c0 81 d9 b2 be d5 44 74 3c b2 e5 17 bd 61 e8 79 be
       -0.34931567 0.014908989 -0.03708429 -0.24405052
0001d0 e8 a7 09 3d f0 22 1a bc ab 27 5e bd 45 37 a5 3d
       0.033607394 -0.009407744 -0.05423705 0.080671825
0001e0 33 d3 93 3c eb 9f 9b be a8 90 d0 bd 90 38 65 be
       0.018045044 -0.30395445 -0.10183841 -0.22384858
0001f0 20 64 df bd e7 27 8e be 68 ab ca 3d 65 88 f1 be
       -0.10907769 -0.27764818 0.098959744 -0.47174373
000200 be 9f c0 3d f9 49 f7 bd fa 36 74 bd 84 99 a7 be
       0.094054684 -0.12074656 -0.059622742 -0.3273431
000210 4b bb 09 bd 94 c2 45 3c c0 bf 5f 3e 4a 13 e8 bd
       -0.033625882 0.012070317 0.2185049 -0.11331804
000220 da 5d 9f be 24 64 27 be 92 9f 18 bf c5 5a 5e be
       -0.3112629 -0.16346794 -0.59618485 -0.21714313
000230 a1 3b 09 3a cf bf 95 3d 22 b9 02 3c 6c 6e c7 be
       0.00052350207 0.07311975 0.007978709 -0.38951433
000240 87 00 3a 3d 47 d4 f3 be a9 34 bf 3c 64 be 96 3d
       0.04541066 -0.47622892 0.02334054 0.07360533
000250 ff a2 6e bd 42 ce c9 be ed dd c3 bd 22 10 85 bd
       -0.058260914 -0.39415175 -0.09563813 -0.06497218
000260 9e 10 dc bc c8 d1 d3 be c8 e1 b6 bd 69 f3 57 bd
       -0.026863392 -0.41370988 -0.08929783 -0.05272237
000270 84 44 91 bd b4 64 3f bd 05 82 27 3d 5c 19 82 be
       -0.070931464 -0.046726897 0.04089548 -0.25409973
000280 b6 d2 d0 3c b9 c9 7b 3d 4b ff f9 3d d6 6e 1e be
       0.0254911 0.061471675 0.122068964 -0.15471968
000290 c2 da 03 bd 5f 0e 83 3d e0 d4 64 be bc c6 94 3c
       -0.032191046 0.063992254 -0.2234683 0.01816117
0002a0 b3 79 0a bf 2e ab 2e bf c5 16 47 3e 81 f8 50 bd
       -0.5409195 -0.6822995 0.1944228 -0.05101824
0002b0 b5 c7 e0 be de 27 eb be 35 ee c2 be af 3f ae bd
       -0.43902364 -0.45928854 -0.38072363 -0.085082404
0002c0 e5 a0 03 3e bc c6 fd bd 94 15 f6 bc 9f 0e 22 be
       0.12854345 -0.12391421 -0.030039586 -0.1582589
0002d0 bc 92 b3 be c7 e7 6d be 43 4d ce 3d 1f 1c b3 bd
       -0.35072887 -0.23232947 0.1007333 -0.08745598
0002e0 d6 f8 99 be 68 05 c0 3c 43 f7 76 be 47 94 c6 bb
       -0.3007266 0.023440078 -0.2411776 -0.0060601565
0002f0 20 ce 54 3d 2b 9c 74 be 31 76 29 bd 0c 0d 51 3e
       0.05195439 -0.23887698 -0.04137248 0.20415133
000300 05 06 9b 3d a2 55 ea bb 6d 92 17 3d fd 4b a1 3d
       0.075695075 -0.0071513215 0.037004877 0.07875822
000310 8c 24 20 bd 91 0c 58 3e b6 b4 51 bc bd 9f c7 bd
       -0.039097354 0.21098544 -0.0127994325 -0.097472645
000320 a2 a3 09 3e b8 62 2a bc 8d 76 7a bd 07 f2 80 3c
       0.13441327 -0.010399513 -0.061148215 0.015740408
000330 44 11 10 3e 9f b4 d5 be 77 e9 e3 bb 2a 55 47 bf
       0.14069086 -0.41739365 -0.0069553214 -0.77864325
000340 3c a8 cb 3d 08 35 65 be 02 d9 46 bc e5 77 0c bd
       0.099441975 -0.22383511 -0.0121367 -0.034294028
000350 6a 74 f5 bd ee 65 44 bf fc 39 50 3e 3f 43 c0 3d
       -0.11985095 -0.7671803 0.2033462 0.09387826
000360 b6 28 95 3d b9 41 7b bd 6c a8 49 bd d5 7c 11 be
       0.072831556 -0.061341975 -0.049232885 -0.14207776
000370 ff b1 a8 3c 37 68 e8 bd 7a 0d 09 3e 30 d8 a1 3d
       0.020592688 -0.113480024 0.13384047 0.079025626
000380 92 90 91 be 60 33 73 3d 76 8e 4c 3d 22 bd 2f be
       -0.2843061 0.059375167 0.04994055 -0.17161992
000390 53 81 cf be 20 1d 6e bf 62 7f bc 3e 1c f5 15 be
       -0.40528354 -0.9301319 0.36815935 -0.14644283
0003a0 6b 62 83 be 2f cc 0f bd eb 52 c7 be 6d 06 50 be
       -0.25661024 -0.035106834 -0.3893045 -0.20314951
0003b0 a9 20 db 3c 98 9b 8a be 90 ca 59 bd 7d 4f de 3c
       0.026748972 -0.27071834 -0.053171694 0.027137512
0003c0 9f 02 43 3e d8 92 13 be ff 2e 28 3d 9d ed 7b bd
       0.19043969 -0.14411485 0.041060444 -0.061505903
0003d0 8f 80 5f be 06 79 3b 3d 36 7e 62 bd 68 34 12 bd
       -0.21826385 0.045769714 -0.055296145 -0.03569451
0003e0 ec 57 c9 bd 5a 86 73 be ae 01 ad 3d c2 a9 b2 3e
       -0.09831223 -0.2378172 0.08447586 0.3489514
0003f0 5b e6 9a bd 50 ad d3 be ba 59 6a bd db c1 80 3c
       -0.07563468 -0.41343164 -0.057214476 0.015717437

fc2.bias f4 [128]
000000 08 fa 0a 3f 42 f4 b8 3d 81 1c 68 bd 19 dd 40 3e
       0.5428777 0.090309635 -0.05666781 0.18834342
000010 83 52 83 3e 8d fd ec 3e 38 5b 5b 3e 9e f1 55 be
       0.2564889 0.46287194 0.21421516 -0.20892951
000020 d0 da 6d 3d 09 89 cd 3e b1 90 c5 bd 7e 83 0f bd
       0.058070004 0.40143612 -0.09646738 -0.03503751
000030 f9 aa 28 bd e1 be 6c be 9f 8d 85 be 41 fd ae 3c
       -0.041178677 -0.2311969 -0.2608461 0.021360995
000040 c6 ff 96 be 60 44 83 3e 2b 13 2a bd 52 db 45 3e
       -0.29492015 0.25638103 -0.041522186 0.19321945
000050 a0 d9 92 bd 64 aa 3f be ae bf a5 3e ef ca ba bd
       -0.07170415 -0.18717343 0.32372802 -0.09120738
000060 94 f6 c4 be 18 f8 fb 3c e7 d5 8c 3e 0a 80 81 3e
       -0.38469374 0.030757949 0.27506945 0.25293
000070 7e 15 f7 bd 7c 84 1b be 1d 2f 1c 3e e4 f6 e4 bd
       -0.12064646 -0.15187258 0.15252347 -0.11179903
000080 d4 1a 06 be 00 67 f4 bd cc 4f 49 3d d4 ee 50 bd
       -0.13096172 -0.11933708 0.049148366 -0.051009014
000090 aa 7e 4a 3e 25 9b 15 3e c9 e8 30 3e 9f f8 15 be
       0.19774881 0.14609964 0.172763 -0.14645623
0000a0 93 0e b4 3d a0 6d de 3e 2f b9 32 be a0 7b 8c 3e
       0.08791842 0.43443012 -0.17453454 0.27438068
0000b0 a1 61 c9 bd f4 0e 1a 3d a6 5d 24 be 5f ce c1 bc
       -0.09833074 0.037611917 -0.16051349 -0.023657976
0000c0 fc d8 0b be 3b 12 df bd ce aa e9 bd 7f 6d 11 be
       -0.13656992 -0.10892149 -0.114095315 -0.14201926
0000d0 56 67 bc 3e e4 a7 bb 3d 93 3c ed bd 73 34 75 bd
       0.3679759 0.09162882 -0.11583819 -0.059864473
0000e0 d0 d2 1c 3d b4 32 b0 3e fa 9f 25 3e 28 fc 32 be
       0.038286984 0.34413683 0.16174307 -0.17479002
0000f0 0b df 11 be 94 97 70 bc 6c e3 23 3e 45 a0 35 3e
       -0.1424524 -0.014684577 0.16004723 0.17736919
000100 93 73 23 3e 66 e4 17 3e ab 36 55 be 26 3b 9c 3e
       0.15962057 0.14833221 -0.20821635 0.30513877
000110 d4 a7 bc bd dd 83 06 3a 42 0d bb bd 9b a9 6f bd
       -0.09211698 0.00051313435 -0.09133388 -0.058511358
000120 e4 89 c1 bd 14 96 3b be fd 22 4d 3d ab b7 9e 3e
       -0.09450129 -0.18318969 0.050082196 0.30999503
000130 0d 65 aa be 38 64 40 be 8c 38 a0 3e 5a 2c b5 bd
       -0.3328022 -0.1878823 0.31293142 -0.0884635
000140 09 6c 48 3e 82 80 0d 3e bc 32 d4 bd d3 15 e6 3e
       0.19572462 0.13818553 -0.10361239 0.44938526
000150 53 79 82 be 81 75 84 3c 4a d7 59 3e ca 03 df 3d
       -0.25483188 0.016169311 0.21273533 0.108893946
000160 80 ad 51 bd ed af 0d 3e fd 95 11 be d8 6a 19 bd
       -0.051190853 0.13836642 -0.14217372 -0.03745541
000170 4d 0f ba bd 07 40 39 3d 3c 6e 01 be f9 45 98 bd
       -0.0908495 0.045227077 -0.12639707 -0.07435221
000180 e9 9c 22 be 67 fe 72 3e d7 3b a5 be 87 3e 09 be
       -0.15880169 0.2372986 -0.32272217 -0.13402759
000190 3f 94 f8 bd 26 57 23 be 0b 12 f4 bd 27 42 61 bd
       -0.12137651 -0.15951213 -0.11917504 -0.05499473
0001a0 5a 00 d3 bd 72 0b 66 be 6b 62 06 be a7 02 3b 3e
       -0.103028014 -0.22465304 -0.13123481 0.1826273
0001b0 37 de c8 bd 22 9f 2a be 1d d4 2b be d8 eb b2 bd
       -0.09808009 -0.16662267 -0.16780134 -0.0873639
0001c0 dc 2d f9 3d 91 be a3 3e ce 42 e8 3d 03 f9 b4 bd
       0.1216695 0.31981328 0.11340867 -0.08836558
0001d0 17 8c 8b bd a9 4f 83 3d 0b 9c 8c bb e4 31 a9 bd
       -0.068138294 0.06411678 -0.0042910627 -0.08261469
0001e0 07 cb 65 bd 52 da d6 bd 94 8f 37 3e 69 22 80 be
       -0.056101825 -0.1049086 0.17925864 -0.25026253
0001f0 4d 32 f1 3e 9a 67 01 bf 89 43 04 be 45 02 82 bd
       0.4710869 -0.5054871 -0.12916388 -0.06348089

fc3.weight f4 [64, 128]
000000 93 5e 42 be 4b ab b5 be a3 8a b9 bd a0 ed 9f 3e
       -0.1898139 -0.3548225 -0.09059646 0.3123598
000010 77 d3 08 bd 7b 27 9c be e2 75 a8 be 9e 55 63 3b
       -0.033404794 -0.3049887 -0.32902437 0.0034688483
000020 32 23 28 be f0 56 2c bf 5e 22 96 bd 46 24 88 bd
       -0.16419676 -0.67320156 -0.07330774 -0.066475436
000030 f9 a2 4e bd 6d 7d 25 bf 61 db 70 3d 73 82 0a bf
       -0.05044839 -0.6464451 0.058802966 -0.541053
000040 af 35 6d 3c 0a fe c1 be 44 8c 4b 3d d1 e7 9c bd
       0.014478131 -0.3788913 0.049694315 -0.07661403
000050 8f 0b f0 bd af 8a 7f be 36 cf 9d bd a5 81 fc bc
       -0.117209546 -0.24955247 -0.07705538 -0.030823538
000060 64 a3 4e be 59 5e b1 bc b4 21 0d be df 07 13 bf
       -0.20179516 -0.021651434 -0.13782388 -0.57433885
000070 97 2d 46 be ea a4 53 be b4 94 62 bd 3e ec b0 bd
       -0.19353329 -0.20668378 -0.055317596 -0.086388096
000080 63 8d 99 bd 4a 9a fd bb b1 43 53 bd 55 d0 84 3e
       -0.074976705 -0.00773934 -0.051578227 0.25940195
000090 03 e1 b2 be 58 45 a0 be 8f 4f ee bd c8 e5 ae 3d
       -0.34937295 -0.31302905 -0.11636268 0.08539921
0000a0 3e 75 f7 bd fa ad c2 3d 68 b4 9b 3d e0 33 cc 3e
       -0.12082909 0.0950584 0.07602769 0.39883327
0000b0 37 0b a4 3d 6f 75 3b bd 98 29 73 bd 0b 08 3d be
       0.080099516 -0.04576629 -0.05936584 -0.184601
0000c0 e0 c8 91 3d 86 c2 d8 bd ec 6a e4 bc 42 e3 04 bd
       0.07118392 -0.105839774 -0.027883016 -0.032443292
0000d0 38 f0 d2 bd 64 a5 d6 3d 82 7d c2 3a 7c 02 3d 3d
       -0.10299724 0.104807645 0.001483843 0.046144947
0000e0 9a 05 0d 3d e7 80 1c 3d bb 4b 69 3e 34 09 fb bb
       0.03442917 0.03820887 0.22782795 -0.007661009
0000f0 9b 2a f4 bc 8b 12 8d bc 9d 1e 75 bd 0b d5 a6 be
       -0.029805472 -0.017220756 -0.05984365 -0.32584414
000100 a1 fd 40 be 38 9c d7 3e 0e 26 68 be 2e aa a7 be
       -0.18846752 0.42111373 -0.22670767 -0.32747024
000110 6d 10 8d 3b f5 6c 0b be a1 75 62 be 47 50 c5 bd
       0.0043049366 -0.13615783 -0.22115184 -0.09634452
000120 94 25 57 bc fa 25 03 3e ae 76 8c bd 3d 9a e4 be
       -0.013131518 0.12807456 -0.06858574 -0.44648924
000130 68 9e 21 3c cf 8c 18 bf b7 3c 96 3e 1a 15 e1 bd
       0.009864427 -0.59589857 0.29343197 -0.10990353
000140 22 7f a9 be a3 17 9e be 03 00 d2 bd 8f 6b bb be
       -0.33104807 -0.30877408 -0.102539085 -0.36605498
000150 03 a5 ba bc 68 79 64 be 28 37 03 3e cb f0 66 bd
       -0.022783762 -0.22311938 0.12814009 -0.05638198
000160 bc 8e a0 bd c8 c2 df bd a0 45 a2 3d 12 0c 4e bd
       -0.078397244 -0.109258235 0.07923436 -0.05030448
000170 bc 17 3c bb 7b f5 b3 be 6c d7 fa bd f8 73 db bd
       -0.002870067 -0.35148224 -0.1224812 -0.10715479
000180 93 10 8c 3e ac 0e e1 3e b0 4b 70 bd 71 85 75 bd
       0.27356395 0.43956506 -0.05866593 -0.059941713
000190 77 b7 0d bc 84 e0 b6 bd 3e d9 25 bd 7a 29 04 be
       -0.008649698 -0.08929542 -0.04049038 -0.12906447
0001a0 c2 86 e8 be 65 cc 8b be 3b fe 14 3d 12 12 70 be
       -0.45415312 -0.27304378 0.036375266 -0.23444393
0001b0 27 45 87 bd 55 e8 20 be c9 03 d1 bd 6c a3 db bd
       -0.06604987 -0.15713628 -0.102058 -0.107245296
0001c0 c2 80 75 be 4e ec b6 be ec 17 d1 be 46 4c ef bd
       -0.23974898 -0.3572716 -0.40838563 -0.1168447
0001d0 aa 76 3e 3c a9 00 a8 be c2 d9 8e bd 74 a2 38 3c
       0.011624971 -0.32813004 -0.06975128 0.011269201
0001e0 21 df a4 bd 9a 68 ae bd 29 3e 91 be b6 6a 8c 3d
       -0.08050371 -0.08516045 -0.28367737 0.06856291
0001f0 d3 4c 0c bf 98 6b 6f bd 9f 71 0c be 2f 64 86 be
       -0.54804724 -0.05845222 -0.13715218 -0.2624831
000200 95 ca ad bc ad 26 32 3d 51 59 28 3d cd fa 48 3d
       -0.021214763 0.043493915 0.041100804 0.049067307
000210 77 91 db bc 14 4a 2d bd 65 d1 32 39 f6 01 92 3c
       -0.026802761 -0.042306975 0.00017053408 0.0178232
000220 38 fb a6 bd ab 11 a2 bc ab 22 be bb 45 27 2a bc
       -0.08153385 -0.019783815 -0.0058024726 -0.010385339
000230 a7 f1 18 bd e9 ae 4d bd 02 11 9f 3d e7 ef 14 bd
       -0.037339833 -0.050215635 0.07766916 -0.0363616
000240 b6 87 28 bd 3a d9 ac bd f7 b8 5d 3d d0 a8 61 bd
       -0.04114505 -0.0843987 0.054131474 -0.055092633
000250 28 c8 28 3c b2 63 8a bb 13 4c e4 bd c6 35 6e bb
       0.010301627 -0.0042233104 -0.111473225 -0.003634797
000260 10 74 e8 bd 0b 1e d5 bd 3a d4 9e bc 99 c5 35 bd
       -0.11350262 -0.10406121 -0.019388307 -0.044377897
000270 37 93 fb bc 37 0e 13 3d 64 2e 0d be ad 0c 45 bd
       -0.030709846 0.03590223 -0.13787228 -0.04810779
000280 36 6a a6 3b 84 7d 08 bd 56 35 2e 3d be a5 c2 bd
       0.0050785793 -0.033322826 0.042531334 -0.09504269
000290 de b3 16 3d f2 6a 62 bd 72 a5 f3 3c 6a 2b b0 3d
       0.03679263 -0.055277772 0.029741976 0.086020306
0002a0 7e ea 5e 3d a7 d3 a3 bd d7 e6 a3 bd f9 d0 cc bd
       0.054422848 -0.07999354 -0.080030136 -0.10000796
0002b0 d4 5d 38 3c 36 17 9e bc 23 69 85 bd 17 81 2f bd
       0.011252839 -0.019298177 -0.06514194 -0.04284772
0002c0 e0 4c 05 bd f2 3e 15 bd 8a f1 a7 3d 7e e6 12 3d
       -0.032544017 -0.036436982 0.08200367 0.035864346
0002d0 27 5d ed bc 9f 9c 05 bd a2 14 4d bd 71 2d 89 3d
       -0.028975083 -0.03262007 -0.050068505 0.066981204
0002e0 72 3f 06 bd bc 5c d8 3b 7f a6 3e bd bc 95 7f bb
       -0.03277535 0.0066028517 -0.0465455 -0.003899916
0002f0 ba 4e 97 3c de 6e 7b bb 51 d5 80 3c 2c ea db bd
       0.018470157 -0.0038365643 0.015726717 -0.10738024
000300 1b 2b b6 b8 f3 cf 5e 3d ca 53 5d bc d7 fe d0 3c
       -8.686465e-05 0.054397535 -0.013508746 0.025512142
000310 e5 26 97 3c 36 85 01 be 06 7a 8a bc 61 50 a4 bd
       0.018451164 -0.12648472 -0.016903888 -0.080231436
000320 13 50 f2 bb cd 41 d1 3c 8f 9a d7 bd c3 78 ed bc
       -0.0073947995 0.025544072 -0.105275266 -0.028988248
000330 ba c2 b1 bd 65 f5 90 3d ef 9c 52 bd 03 4f 73 bd
       -0.08679719 0.07078055 -0.051419195 -0.059401523
000340 a0 7a 8b bd 0a a3 8c bd c5 5c a6 bd 77 69 e8 3b
       -0.06810498 -0.06867035 -0.08123163 0.0070926505
000350 08 d1 53 3d 74 cb 5e bc 28 96 12 3b 33 25 2d bd
       0.05171302 -0.013598312 0.0022367332 -0.042271804
000360 20 a2 35 bd a4 ed 03 be 42 24 b1 3b 36 2e a3 bc
       -0.044344068 -0.12883621 0.0054059336 -0.019919496
000370 21 b7 22 3b 52 fd 98 3c 04 13 47 3d 1c e0 42 3d
       0.0024828392 0.01867548 0.04860212 0.04757701
000380 b3 9f 9b 3c 1b 10 7b bd 8d 92 b7 3b f6 f3 8a 3c
       0.018997049 -0.061294656 0.005602187 0.016962033
000390 21 3d 83 bd 0e 9b 8c bd 6c 28 0a bd 57 39 ce bd
       -0.06408144 -0.06865512 -0.033729956 -0.100695305
0003a0 76 e9 c3 bd bb 49 d7 bd f7 88 98 bd ef ac 39 3d
       -0.095660135 -0.1051211 -0.07447999 0.045330938
0003b0 5b b0 2f bd c2 f0 24 3d 33 c8 61 bd 17 ec 1b bc
       -0.042892795 0.040268667 -0.055122565 -0.009516737
0003c0 26 60 09 be 0e fd 89 3d c1 7f 8e bd ba 6d a5 3c
       -0.13415584 0.067377195 -0.06957961 0.020193923
0003d0 c2 e4 9e bc a7 fb ec b9 d0 02 06 be 19 d8 80 bd
       -0.01939619 -0.00045200923 -0.1308701 -0.06291217
0003e0 3b 27 92 3d 33 4b 3f bd b3 1b 92 bd 37 f9 50 bd
       0.07136389 -0.046702575 -0.071341895 -0.05101892
0003f0 ef 6b 90 bd 7b 75 eb bd 44 3f a5 bd d5 6f 17 3d
       -0.07051837 -0.11497017 -0.080687076 0.036971886

fc3.bias f4 [64]
000000 35 30 cc 3d ce 2c 51 be 8d e6 60 3d 73 1f 54 3d
       0.09970132 -0.20427248 0.05490737 0.051787805
000010 ee 6b af be 71 bb 65 be d5 82 90 3e bc fe 8d be
       -0.3426203 -0.22434784 0.28224817 -0.2773341
000020 ec 78 44 3e de f8 0f be 47 e1 e2 bd 78 6c 07 be
       0.19186753 -0.14059779 -0.110781245 -0.13224971
000030 fd 05 1a be 96 ee 3c be af 42 1a bf 84 7c dc bc
       -0.15041347 -0.18450388 -0.60258 -0.026914842
000040 bd aa 47 3e 39 f3 37 be 3b 5a 5f be bb c9 e2 3e
       0.19498725 -0.17963876 -0.21811764 0.44294533
000050 db d4 82 be 24 ac f1 bd d3 0b 2d 3d ba 89 f6 bd
       -0.2555302 -0.11800411 0.042247605 -0.12037988
000060 84 6e 18 bc 80 6d b6 3d 2b 0a 23 be b4 96 36 3b
       -0.009303693 0.08907604 -0.15921848 0.0027860822
000070 f4 6b b4 be 7d 9b 11 3d 8f 85 2d be c0 f2 a3 be
       -0.35238612 0.035548676 -0.1694548 -0.3202114
000080 53 14 9d be 37 48 3d bc 65 1c 18 be c2 32 ae 3e
       -0.3067957 -0.011552862 -0.14854582 0.340231
000090 45 f3 b6 be 22 50 aa be 45 53 07 3e 56 16 cf 3d
       -0.35732475 -0.3326426 0.13215359 0.10111682
0000a0 5d 99 8c 3e 23 9f 1a bd 3e f8 23 bd 8d 58 e9 3e
       0.27460757 -0.03774942 -0.040031664 0.4557537
0000b0 07 7c e2 3d a8 de 6d bd 0d 28 be bc 9d a4 d7 be
       0.110588126 -0.05807367 -0.023212457 -0.42117777
0000c0 be 15 32 3e a5 18 8d 3d 45 6a 32 be 41 c9 eb be
       0.17391106 0.06889466 -0.17423351 -0.46051982
0000d0 ff 6a 77 3e b3 a8 aa be 35 1d ab be 35 86 78 bd
       0.2416191 -0.33331832 -0.3342072 -0.060674865
0000e0 19 73 6f be 8b ac a8 bd 7d f5 16 3e 73 dd 49 be
       -0.2338375 -0.08236035 0.14742084 -0.19713382
0000f0 70 01 be bd d8 fd 50 be a3 bd d2 3e 44 53 24 be
       -0.09277618 -0.20409334 0.41160306 -0.16047388

fc4.weight f4 [128, 64]
000000 36 e9 c4 be 87 0f a5 bc 17 25 31 3e 85 c1 9e 3e
       -0.38459176 -0.020149006 0.17299305 0.3100702
000010 84 86 9f bd 11 ad e2 bc 84 8e 78 3e ea 2f 8b be
       -0.07789329 -0.027670415 0.24273115 -0.27184993
000020 3b 5b 7d 3e a3 32 75 3b 8b e6 c4 bb f4 6d d3 be
       0.24741833 0.0037414215 -0.006008928 -0.41294825
000030 19 4b 65 be 54 65 cf bd 56 a9 7e 3e 34 51 69 be
       -0.22391929 -0.10126749 0.24869284 -0.22784883
000040 26 9b 2d be 15 15 0c 3e 4c 1f ab be d3 b4 45 3e
       -0.16953716 0.13679917 -0.33422315 0.1930726
000050 cb 97 aa 3d 92 6b 77 be d1 ff 59 be b1 70 28 be
       0.083297335 -0.24162129 -0.21288992 -0.16449238
000060 51 cc 9f 3d 5d e1 b6 be e3 92 42 bb 2c 5c df 3d
       0.07802642 -0.35718814 -0.0029689602 0.10906252
000070 bd 16 63 3d 01 26 b7 3e a0 77 46 be 5f 9b a1 3d
       0.055441607 0.35771182 -0.19381571 0.07890963
000080 31 25 47 3d ca 25 19 3e 4e 07 08 3d 5b 47 76 be
       0.048619453 0.14955822 0.03321009 -0.24050657
000090 46 ba c0 3d 2f 16 97 3e 30 f3 d7 be 7f 63 d3 be
       0.09410529 0.29509112 -0.42177725 -0.41286847
0000a0 93 54 4e 3e a7 26 38 3f d4 0c 85 be e0 dc 2b be
       0.2014945 0.7193398 -0.2598635 -0.16783476
0000b0 4b 08 5e be 26 a3 7a be 73 a1 43 be cf e4 b0 bd
       -0.21682851 -0.24476299 -0.19104557 -0.08637392
0000c0 6b 9c d4 3d bc c7 9e 3e 93 30 3d be d1 d3 3a be
       0.10381397 0.3101176 -0.18475561 -0.18244864
0000d0 90 20 15 3e c3 c7 49 3e 25 61 43 be ef e1 2e 3f
       0.14563203 0.1970511 -0.19080026 0.683135
0000e0 ae 8e 0a 3e b2 e2 17 3f d0 14 ca 3e d6 7f c8 3d
       0.1353099 0.59330285 0.39469004 0.09790008
0000f0 23 82 a5 bd 7c 83 69 be 48 ec 08 3e 58 14 54 3d
       -0.08081462 -0.22804064 0.13371384 0.051777214
000100 4a 33 cd 3d 6e 4d dd 3d b4 9b 6a bd 80 b5 b4 ba
       0.10019548 0.10805784 -0.057277396 -0.0013787001
000110 a6 0c 9e bd 9e 4e d0 bd d8 6f 90 3d 00 80 c0 3a
       -0.07717256 -0.10171245 0.070525825 0.0014686584
000120 c8 ac d0 bc ca a3 d5 3d 1c ea d9 bd 9e d1 da bd
       -0.025473014 0.10431631 -0.10640356 -0.106845126
000130 f0 a4 1c bd 00 22 a3 3d 40 9d a0 3c 3a e2 d7 bd
       -0.038243234 0.07965469 0.019606233 -0.10541196
000140 0a c3 8d bd 80 ca a7 bc e8 e4 fb bd 90 3d 8d bd
       -0.069219664 -0.020482302 -0.1229952 -0.06896508
000150 20 cc 1e bc 26 ac d4 3d f6 8b ef 3d c0 c5 09 3d
       -0.009692222 0.10384397 0.11696617 0.033635855
000160 50 26 57 3c 62 13 88 3d 72 a1 ed bd f4 1b e6 bd
       0.013131693 0.06644322 -0.11603059 -0.112358004
000170 4c 54 8b bd f8 26 a0 bc a0 e4 32 bd fa 4b f7 3d
       -0.06803188 -0.019549832 -0.043675065 0.12075038
000180 be d0 f8 3d 08 b4 eb bd f0 02 0d bd 9e 3f f8 3d
       0.121491894 -0.115089476 -0.03442663 0.12121509
000190 9a d3 d8 bd b0 1f f0 bc cc 4c f2 bd 80 0b bf 3b
       -0.10587235 -0.029311985 -0.11831054 0.0058302283
0001a0 ae 10 92 bd 60 bb d4 bd bc fd 9a 3d 7c 95 4c 3d
       -0.07132088 -0.103873014 0.07567927 0.049947247
0001b0 30 63 c5 3d 8e a7 c7 3d 00 96 e7 3a d0 4d ae bc
       0.09638059 0.097487554 0.0017668605 -0.021277338
0001c0 ea 19 e4 3d 10 cd 06 3d e6 bf c9 3d 1c 31 da 3d
       0.11137755 0.032910407 0.09851055 0.10653898
0001d0 38 75 ff bc 8c eb 63 3d a8 38 be bc 30 20 6a bc
       -0.031183824 0.055644557 -0.023220375 -0.014289901
0001e0 72 e6 cd bd d4 57 d1 bd f0 bd e3 bc 1a c6 a7 3d
       -0.100537196 -0.1022183 -0.02780053 0.08192082
0001f0 00 47 75 bb fc 62 c6 3d 40 d5 73 3b 30 90 35 3d
       -0.0037426353 0.096868485 0.0037205964 0.04432696
000200 8c 3f db 3d f4 fb 25 3d ea 0d dc 3d e8 e1 c2 bd
       0.1070548 0.040523484 0.107448414 -0.095157444
000210 fa 1c c8 3d 38 62 99 bd de e2 97 bd fa a5 d0 3d
       0.09771152 -0.07489437 -0.07416318 0.101879075
000220 f0 bd 16 bc ea cf e2 bd 40 97 1e bd 80 4f 23 bc
       -0.009200558 -0.11074813 -0.038718462 -0.009967685
000230 40 9f 20 bc b4 ee 26 3d d8 ae c0 bc d0 0c ed bc
       -0.009803593 0.04075499 -0.023520872 -0.028936774
000240 66 cf 9c bd d4 3b 71 3d 36 66 ac bd d0 fd c8 3c
       -0.076567456 0.058894947 -0.08417933 0.02453509
000250 aa 9f ee 3d fc f2 8c bd 58 91 3d bd 40 a0 39 bd
       0.11651547 -0.06882283 -0.04628119 -0.045318842
000260 52 6c ba 3d 30 17 27 3c ae 60 df 3d 30 14 72 3c
       0.09102692 0.010198399 0.10907112 0.014775321
000270 c4 e1 b0 bd 32 47 b4 bd 00 86 12 ba f8 5a 47 3d
       -0.086368114 -0.08802642 -0.00055894256 0.04867074
000280 50 42 96 bd 42 83 8b 3d f8 cc e2 bc 20 ed de bc
       -0.07336867 0.06812145 -0.027685627 -0.02721268
000290 00 cc 88 3c ec af b7 3d 62 eb 88 3d ac b1 2f 3d
       0.016698837 0.08969101 0.06685521 0.04289405
0002a0 a0 ab a2 bc 30 59 da 3d a8 3b 18 bd 1c 5c 6d 3d
       -0.019857228 0.106615424 -0.037166268 0.05794917
0002b0 6c fc 3c 3d 4c 97 9f bd c0 2e 5a bc 98 63 cb bd
       0.046139166 -0.077925295 -0.01331681 -0.099311054
0002c0 64 ef 2a bd 70 0a 19 bc 88 26 f9 bd a4 95 0a 3d
       -0.041732207 -0.009340867 -0.121655524 0.033834115
0002d0 be 7d e5 3d 68 bb 25 3d 1c c0 0c 3d 44 c2 2a bd
       0.11205624 0.040461928 0.034362897 -0.041689172
0002e0 18 17 91 bd 58 a7 b0 3c 48 b0 ab bd 50 ed 96 3d
       -0.07084483 0.02156417 -0.08383232 0.073694825
0002f0 5c 4f f0 3d 16 1c e0 bd d0 b5 1d bd 78 2c fd bc
       0.117338866 -0.10942857 -0.038503468 -0.030904993
000300 f2 32 c6 3d f2 f8 f6 3d 26 aa d9 bd 04 ca a5 3d
       0.09677686 0.12059201 -0.10628156 0.08095172
000310 d4 eb 0a bd 08 70 e6 3d 84 fc e6 3d aa e5 91 3d
       -0.03391631 0.11251837 0.11278632 0.07123883
000320 9c 9b a8 bd ee 54 d7 3d 06 c9 ed bd 98 5a a1 3c
       -0.08232805 0.10514246 -0.11610608 0.019696519
000330 94 ab a7 3d be 4c e1 bd 00 f5 c7 3c fc 30 d7 bd
       0.08187023 -0.110009655 0.024408817 -0.1050739
000340 ba 55 de bd 58 25 85 3c 80 7f 9e 3a b0 fa cf 3d
       -0.10856195 0.016253158 0.0012092441 0.10155237
000350 b0 5e a5 bc 16 d3 ae bd ac 35 48 bd 8a 88 b4 3d
       -0.020186752 -0.08536355 -0.04887931 0.08815105
000360 7e 94 98 bd ae 33 c7 3d 16 df 8f 3d c2 31 c4 3d
       -0.07450198 0.09726654 0.07024972 0.09579803
000370 22 e1 91 bd 5a 73 b7 bd 9e 7a b4 bd 1a 86 db 3d
       -0.07123019 -0.089575484 -0.0881245 0.10718937
000380 80 35 5f 3c cc 3b 9b 3d 9e 91 ef 3d 1a b4 d8 3d
       0.013623595 0.07579765 0.11697696 0.10581227
000390 98 38 2a bd 20 c4 a0 3d 76 0a fd bd 9e 2a a0 bd
       -0.04155788 0.07849908 -0.12355511 -0.078206286
0003a0 28 c2 9c bc c0 80 a9 bd c2 42 d3 bd b0 90 1d bd
       -0.01913555 -0.0827651 -0.103154674 -0.038468063
0003b0 0c 68 47 bd 16 b0 fa bd 86 b3 c9 3d 48 e7 b1 bd
       -0.04868321 -0.12240617 0.098486945 -0.086866915
0003c0 80 a6 c3 3c 44 aa b8 bd 96 3a ec 3d 40 67 da 3c
       0.023883104 -0.090168506 0.11534612 0.026660562
0003d0 8c 6e db bd 00 36 26 3c 34 ef cb 3d 08 74 dd bc
       -0.107144445 0.010144711 0.09957734 -0.027032867
0003e0 2a 20 fd 3d a0 93 5e bd cc a7 d6 bd 56 98 e7 3d
       0.123596504 -0.054340005 -0.104812235 0.11308353
0003f0 60 c7 22 3c 70 2e c6 bc 9a cb e9 bd c0 7f 91 3b
       0.00993523 -0.024192065 -0.11415787 0.004440278

fc4.bias f4 [128]
000000 08 c6 23 3e d8 25 22 3d ec f3 24 bd a4 d2 8e 3d
       0.15993512 0.03958687 -0.040271685 0.0697377
000010 10 f0 c8 bd 74 ce a6 bd 40 92 a5 bd 6a 77 87 bd
       -0.09811413 -0.081448466 -0.080845356 -0.06614573
000020 68 68 a8 3d 58 6a 34 3d 14 29 90 3d e0 6d cd bc
       0.08223039 0.04404673 0.07039085 -0.025076807
000030 82 ec fa 3d bc c9 81 bd 20 b1 17 3c 98 ef da 3c
       0.122521415 -0.06337306 0.0092585385 0.026725575
000040 68 5a d5 bd 00 4c b5 3b 1a 6d 85 3d 5c 0b 78 bd
       -0.10417634 0.0055327415 0.0651495 -0.06055771
000050 98 c2 5c 3d f6 a1 d0 bd ee 41 93 3d f2 a5 9d bd
       0.053896517 -0.101871416 0.071903095 -0.07697667
000060 98 27 7c bd e2 db d5 bd cc fb f0 3d 78 38 f0 bc
       -0.061561197 -0.1044233 0.117667764 -0.029323801
000070 f2 a6 e5 3d 64 db 52 3d 1a 2c f4 bd 54 13 91 3d
       0.11213483 0.05147876 -0.11922474 0.07083765
000080 78 ec a4 3d d4 e9 e8 3d e0 16 1c 3c dc 8d 58 bd
       0.08052915 0.11372724 0.009526938 -0.052869663
000090 60 db 24 bd 0e ec a2 3d 3c fa 01 bd 6c 74 77 3d
       -0.040248275 0.0795518 -0.031732783 0.060413763
0000a0 62 70 bb bd 54 ed b5 bd 70 74 15 bc 64 af 0c 3d
       -0.09152295 -0.08883157 -0.009121999 0.034346953
0000b0 8a 9f a4 3d 66 3c d3 3d 78 02 c6 bc 22 80 c7 3d
       0.08038242 0.103142545 -0.024171099 0.09741236
0000c0 82 a7 fa 3d 00 61 3f 3a 26 a2 a4 3d b8 60 e0 bd
       0.12238981 0.0007300526 0.0803874 -0.10955948
0000d0 d0 68 67 bc 44 8e 21 bd 82 c2 f8 3d b0 2a 59 3d
       -0.01412411 -0.039442316 0.121464744 0.053019226
0000e0 c0 e6 c0 bc 04 6f bd bd 28 48 31 bd 40 a1 69 3c
       -0.02354753 -0.0924969 -0.043281704 0.014259636
0000f0 98 ed e5 3c d0 4d a3 3d 40 c4 51 bc 76 08 c4 bd
       0.028067395 0.07973826 -0.012803137 -0.09571926
000100 e0 dc 1a bc 64 6c cd 3d e0 60 a2 3c 52 9c ce bd
       -0.009452075 0.100304395 0.019821584 -0.100884095
000110 00 4e ea bb c0 6a 35 bc 60 88 b2 bb f0 ea f3 3c
       -0.0071504116 -0.011072814 -0.005448386 0.029775113
000120 a4 37 a1 bd 2e e4 97 3d f4 d9 de bd 7c 7f 00 bd
       -0.07871941 0.07416569 -0.10881415 -0.03137158
000130 92 7c ad bd a8 49 a0 3d a0 26 49 bd 98 16 d8 3d
       -0.084710255 0.07826549 -0.0491091 0.105511844
000140 ae 68 e5 3d 00 87 4d 3b 4c 3d e1 bd 7a 3e f0 bd
       0.11201607 0.0031360984 -0.109980196 -0.117306665
000150 ee 53 e0 3d 08 45 03 bd 66 8d 9a bd 88 a9 3d 3d
       0.10953508 -0.032048255 -0.07546501 0.046304256
000160 68 72 25 bd 00 40 d3 3b ac 86 02 3d d8 72 b0 3c
       -0.04039231 0.0064468384 0.031866714 0.021539137
000170 b6 65 ce 3d e0 3d c8 bd e0 55 0b bc 40 bd 12 bb
       0.100779936 -0.09777427 -0.008504361 -0.0022390634
000180 0c c3 a4 bd 2e 22 c1 bd 00 93 78 bd d8 19 e8 3c
       -0.08045015 -0.094303474 -0.060687065 0.028332636
000190 ce 05 a0 3d 14 f0 7d bd ba a8 86 bd d0 d6 51 bd
       0.07813607 -0.061996534 -0.06575151 -0.05123025
0001a0 90 3e 94 bc 00 fb 18 ba 9e 01 f4 bd ae 18 b2 3d
       -0.018096238 -0.0005835742 -0.11914371 0.086961135
0001b0 7c 5c 36 bd 46 7c ca bd 40 66 ef bb 6c 03 36 bd
       -0.044521794 -0.098869845 -0.0073058903 -0.044436857
0001c0 40 f9 82 3b 76 27 da bd e4 76 1a 3d 14 98 7a 3d
       0.003996998 -0.10652058 0.03771104 0.06118019
0001d0 d0 d3 99 3d 4e c3 ad 3d 60 21 b8 3b f8 e6 1c 3d
       0.07511103 0.08484517 0.005619213 0.038306206
0001e0 fc 8e 5c bd 18 a4 0d bd 20 d1 95 3b 70 eb c9 bd
       -0.053847298 -0.03458032 0.004572049 -0.09859359
0001f0 e0 28 16 bd 94 01 89 bd 36 30 89 bd c0 48 05 3c
       -0.036660075 -0.06689754 -0.06698649 0.008135021
