models/comparison_apache@curator_1000ep_dqn/pairwise_dqn_apache@curator_1000ep_dqn.pt (torch, 193780 bytes, 8 tensors)

fc1.weight f4 [128, 112]
00000000: 9df2 b23d 8983 b83d 6a66 8c3d 7610 15bd
00000010: 82ce 403e df8d b0bb 529a a03d f0a7 213e
00000020: 0f20 f23d 0ad1 063e 35e0 1d3e c929 363e
00000030: bfa6 c63d beba f53d 51d9 813d 9aff 2b3d
00000040: 8a22 ed3d 1b33 b33c d27e 2c3e 6ca8 3d3e
00000050: d738 e73d 6e18 2e3d 7b94 0f3d 1665 323e
00000060: 728b 9f3d ddbe 143d 5b1f 133e bcc7 2b3d
00000070: 75ab 1b3e 5029 cc3d 7805 013e b965 2d3e
00000080: 9951 a03d b46e af3d 3ba4 393d 127f 153e
00000090: 959c a23c adf2 9d3c b7ce 213d 519b c03d
000000a0: dfe5 fb3e 296a b53e 2da7 4a3e 8a60 463d
000000b0: e87c 273e 2cd1 4a3e b5ad af3e cfa7 113e
000000c0: 2ab3 053e 7241 233e eacf 573d dd8b 463e
000000d0: 9de7 933d 6653 13bf a909 f43d 2663 563e
000000e0: fab2 533e 5e09 603d 333f 2d3e 0a02 6c3e
000000f0: 747b 383e 04bc 993d b00d 943d 6394 1d3e
00000100: 92ce 093e e2bc fd3d ea83 8a3d e8dc c23d
00000110: 9424 fa3d 7b8b a23d b3c9 5e3e ccb5 283e
00000120: e906 223e 5fff 203e 9ea9 1a3e c8b5 a13d
00000130: 83ac 493e 520f eb3d 8eff 393e 7995 243d
00000140: d485 393e d4a0 273e eac0 213e 372f fb3d
00000150: bbbc 383e e4e4 0f3e 8663 293e 47f6 8c3d
00000160: 3fff 773d eef0 433e 604e 023e b631 a03d
00000170: 685c 103e 050b 0b3e 01b3 3d3e b4c5 463e
00000180: e194 033e de2f 1d3e 9420 143e 6c48 1b3e
00000190: 1a63 ca3d 6807 823d 6ff7 853e f1bb ee3d
000001a0: ef1b 533e 3761 553e ba51 c63d 7f2b 153e
000001b0: 29c9 443e 6306 2fbf ea7f 483e bf22 4a3e
000001c0: 4b98 983c 312d 9a3d e51e 703d e25e 553d
000001d0: 7c77 1d3b d025 253e 945b 1a3e d2e0 b73d
000001e0: e70c 0e3e 192d 813d cca1 c53d 90ac c8bb
000001f0: 9059 013c bf66 ccbb 9f54 863d e620 6cbc
00000200: 12de 843c f871 143b 3c82 673c a72a 283d
00000210: 9777 0c3e f4e4 d53d 5b5e 133e 9466 623d
00000220: 57c2 593c 5d80 773d e83e 753b 0985 923d
00000230: 741c 1a3e 57c9 49bc 1a20 0e3c fd66 c3bc
00000240: 7f6f bb3d f121 ea3c 86d2 dbbc 0d2c bebc
00000250: bf6e 7e3b 97d9 88bc 2ad7 d73c 4b4e 0b3e
00000260: 9bd6 00bd c182 043d 9a51 063e 7d15 1e3d
00000270: 4f07 2d3d 1f42 093e 26a4 30be 074e 50be
00000280: 531d 123d 8ade 133e 7162 123e 1daa 8cbc
00000290: adab 9a3c e9fc 1d3e b94f b13d 37b6 34bc
000002a0: adcb 093e 96ed b1bc b256 873d cdf9 f13b
000002b0: 8e67 a93d a4a2 0dbd f061 ca3d b6c1 0f3e
000002c0: 483f 9f3d 611f e93d ad07 923c 5dae ce3d
000002d0: d7ff 1b3c 8ae1 773d 997a cd3d a33f 093e
000002e0: 068e 6e3c a6c3 103d cc4d f639 2b0d 0d3e
000002f0: d1ac 053d ecc8 bbbc bc44 6b3d dfbc 063d
00000300: 2f4a fb3d ea60 1d3e 9707 0d3e 735f 6c3d
00000310: afb3 963d 2256 da3d 0f25 0d3e 6a17 203c
00000320: 9240 063e fe9b 923c 29ff 073e c245 5ebc
00000330: 9193 c73d 74dd 9c3d 6f2d 453d 6b4b 033e
00000340: e0b2 103d 6448 1abe a4a5 ca3c b4af b1bc
00000350: 95cf a23d d94b 723d 5cb7 97bc 8784 843d
00000360: 71b3 793d bf27 043d 48df e73c 7a95 a93c
00000370: 15ee 9b3d fa72 04be d673 063e 98fb 35bc
00000380: ca47 6fbd 505e 983d 74f8 1dbd 70e9 36bc
00000390: f5c0 043d e3c3 c2bc 8fec 853d 3026 43bd
000003a0: ce1f 313d a821 1d3d cfba da3d fffc d2bc
000003b0: 1356 db3d aa00 063d be16 4a3d 04d7 89bc
000003c0: 2236 9a3d 8b36 46bd 0fe0 90bc 4a95 b93d
000003d0: 3589 44bc 0001 9b3d cb98 d23d 21e3 ff3b
000003e0: fb3e 473d 52dc 423d 9687 dfbc 34cf 4dbc
000003f0: daf0 69bd e144 783d b1e6 8c3d 1053 adbb
0.08737681 0.09009463 0.068554714 -0.03639265 0.18828776 -0.005388006 0.07841934 0.1578672
0.11822521 0.1316568 0.1541756 0.17789377 0.09699773 0.11998509 0.06340278 0.041991808
0.115788534 0.021874955 0.16845253 0.18521279 0.11290138 0.042503767 0.03505371 0.17421374
0.07790269 0.036314834 0.1436743 0.04193853 0.15202124 0.09968817 0.12599742 0.16933335
0.078280635 0.08566037 0.045322638 0.14599255 0.019850055 0.019280756 0.03950378 0.09404624
0.49198815 0.35432556 0.19790335 0.04843191 0.16356242 0.19806355 0.34312215 0.1422417
0.13056627 0.15942934 0.052688517 0.19389291 0.07221911 -0.5754913 0.11915905 0.2093626
0.20673743 0.054696433 0.1691864 0.23047653 0.18015844 0.07506564 0.07229173 0.15388636
0.13457707 0.12389542 0.06763442 0.09514791 0.12214008 0.0793676 0.2175663 0.164756
0.15822949 0.15722416 0.15103766 0.07896 0.19694714 0.114775315 0.18163893 0.04018161
0.18117458 0.16369945 0.15796247 0.12264865 0.18040745 0.14052159 0.16541871 0.06882911
0.060546156 0.19134876 0.1272521 0.078219816 0.1409775 0.13578422 0.18525316 0.19411355
0.12849762 0.15350291 0.14465553 0.15164346 0.098821834 0.06349069 0.2616534 0.11656941
0.20616125 0.20837866 0.09683557 0.14567374 0.19217362 -0.6836912 0.19580045 0.19739817
0.018627306 0.07528151 0.058623213 0.05209244 0.0024027517 0.16127706 0.15073997 0.08978428
0.1387211 0.0630743 0.09650001 -0.0061240867 0.0078948885 -0.006237834 0.06559109 -0.0144121405
0.016219173 0.0022650938 0.014130171 0.0410563 0.13717495 0.1044406 0.14391463 0.055273607
0.013290963 0.06042515 0.0037421528 0.07154281 0.15049917 -0.01231607 0.008674646 -0.02385282
0.091521256 0.028580638 -0.026833784 -0.023214364 0.0038823334 -0.016705317 0.026347715 0.13604085
-0.031454664 0.03235126 0.13117066 0.03859471 0.0422433 0.1340413 -0.17250118 -0.20342265
0.035672497 0.1444036 0.14295365 -0.01717096 0.01888069 0.15428509 0.08657784 -0.0110297715
0.13456602 -0.021719735 0.06608333 0.007384515 0.082717046 -0.034578934 0.09881961 0.14038739
0.07775742 0.11382938 0.017825926 0.10091851 0.009521446 0.060517825 0.10033149 0.13403182
0.014560228 0.035342835 0.0004697874 0.13774554 0.032635514 -0.022922955 0.057438597 0.032894965
0.12270009 0.15369001 0.13772427 0.057708215 0.07358491 0.1066096 0.13783668 0.009771207
0.13110569 0.017896648 0.1328093 -0.013566436 0.09744943 0.07659426 0.048139032 0.12821738
0.03532684 -0.15066677 0.024737187 -0.021690227 0.079497494 0.059154365 -0.01852005 0.0647059
0.060962144 0.032264467 0.028304711 0.020701159 0.0761377 -0.12934485 0.13130125 -0.011107348
-0.058418073 0.07439864 -0.03856702 -0.011164054 0.03241058 -0.023775047 0.065392606 -0.04764384
0.043243222 0.038362175 0.10680162 -0.025755404 0.10709777 0.032715477 0.049338095 -0.01682616
0.07529856 -0.04839186 -0.017684964 0.09061678 -0.011995603 0.0756855 0.10283049 0.0078090583
0.048644047 0.047573395 -0.027286332 -0.012561608 -0.05711446 0.060612563 0.068799384 -0.005289443

fc1.bias f4 [128]
00000000: 74b7 99bd 0f64 dfbc 976c d2bc 5cf3 05be
00000010: ef98 5ebd 2710 9fbc df8e 893d 556c 4abe
00000020: c272 0cbe bc52 49bd 57f7 0a3c 0c70 2abc
00000030: eb18 07bd 2b93 38bd b126 aebc 9fdf a23b
00000040: d83c abbd b5e4 53bd 8214 263d 7649 ec3c
00000050: 6088 98bd 8c04 c63d 061c 77be 2876 043d
00000060: 7655 03be d178 393d ce70 2bbe 09dd f83d
00000070: 803c a9bd 06ac 0f3e 277d 8b3d 19de eabd
00000080: af2b 23be d88b c7bd 8c77 4cbe ac3e 75be
00000090: 8bab 46be 6a02 0f3d 1d99 38be 9e02 c33d
000000a0: 9692 ccbe 5ee3 b3be c31c a7bd 816a a7bd
000000b0: a009 a2be dd41 b03d 27ac c2bd 74c8 30be
000000c0: 277d 90bd 71a8 903c 0ddf c9bd cc44 9fbd
000000d0: 71b9 50be badd 20be 0169 83be dd88 c0bd
000000e0: 8b1b a3bd 5588 15bf dc1b 01be a7c6 293d
000000f0: 4076 adbd a6e2 21be 3b08 73bd 9f3e 073d
00000100: 56a5 92bd 5c32 923c 523d 38be ba19 0fbe
00000110: d5e6 2fbd 96bc ddbd d262 d4bd 769a 053d
00000120: 0933 6fbb da96 98bd dc9c 6cbc f1a5 fdbc
00000130: 0def 01bc 935d c13c 991b 9abe 978b c53d
00000140: 07a9 8fbd f122 23be db30 8abe 816e 69be
00000150: 218a c3be 3724 613e e51c 0ebe 5100 163e
00000160: 4116 9fbc 3309 453c f497 c3be 2099 e7bd
00000170: d7ea bb3d 1b7f d9bd c085 88bc 4361 293e
00000180: 483c 71be 99f5 953d 8474 f0bc dd0d bcbe
00000190: 40b3 c9be 392c 5f3d f064 e1bc 1bd1 51be
000001a0: 732c 31be 72f4 e2bc abcd 1dbe 54f5 29be
000001b0: 7fdf bfbe 8b2f 95be d48d f5bd aa49 82be
000001c0: 04a9 c9bd 4148 8fbb f488 a1bd 1c13 a6be
000001d0: 381d 933d 520e 76bd 02a3 dbbd 2b40 c3be
000001e0: ebb8 f63c 1725 7dbd 1ec6 04be d116 7fbe
000001f0: 841e afbe bd5b 45be 0a81 63be b150 7fbe
-0.07505694 -0.027269391 -0.025686545 -0.13081115 -0.054345068 -0.019416882 0.067167036 -0.19767888
-0.13715652 -0.049151167 0.008481822 -0.010402691 -0.032982748 -0.045062225 -0.021258684 0.0049705054
-0.083612144 -0.051731784 0.0405469 0.028843623 -0.074478865 0.09668836 -0.24131784 0.032339245
-0.1282557 0.045281235 -0.1674225 0.12151534 -0.082634926 0.14030465 0.0681098 -0.11468143
-0.15934633 -0.0974347 -0.19967479 -0.23949689 -0.19401376 0.03491441 -0.18027158 0.095219836
-0.39955586 -0.35134405 -0.08159783 -0.08174611 -0.31647968 0.086063124 -0.09505492 -0.17263967
-0.07055121 0.017658444 -0.09856997 -0.07776794 -0.2038324 -0.15709582 -0.2566605 -0.094011046
-0.07964238 -0.5841115 -0.12608284 0.041449215 -0.0846982 -0.15809116 -0.05933402 0.033018705
-0.071604416 0.017846279 -0.17992142 -0.13974658 -0.042944748 -0.108269855 -0.10370411 0.03261801
-0.0036498925 -0.07450648 -0.014441695 -0.030962916 -0.007930529 0.02360419 -0.3009918 0.09645765
-0.07014661 -0.15931298 -0.269904 -0.2279606 -0.38191321 0.21986471 -0.1387821 0.14648558
-0.019419791 0.012026119 -0.3820187 -0.11308503 0.091756515 -0.106199466 -0.01666534 0.16541009
-0.23558152 0.07322235 -0.029352434 -0.36729327 -0.3939457 0.054485533 -0.027513951 -0.20489924
-0.17302112 -0.027704451 -0.15410487 -0.16597492 -0.374752 -0.29137835 -0.11989942 -0.25446826
-0.0984669 -0.004372627 -0.0788745 -0.32436454 0.071833074 -0.06007225 -0.10724451 -0.38134894
0.030117473 -0.06180295 -0.129662 -0.24911048 -0.3420297 -0.19273277 -0.22217193 -0.24933125

fc2.weight f4 [128, 128]
00000000: 33c4 66be 323b 1bbe 3d89 2c3d c18d 8a3d
00000010: 8d60 7bbc d2f2 1cbd f9bc c53e f2f3 3bbd
00000020: f3f8 19be 6f1f 74bd 515d 083d e6aa 823d
00000030: 3151 723c 048e 6d3d e509 a3be 1121 18bf
00000040: 5383 91bd 833b aa3e c787 c63d 4765 4fbd
00000050: 1544 d6be 03c9 a5be e081 4ebf b560 173d
00000060: b622 28be b7e5 3e3e b697 d8be 6651 9a3e
00000070: b924 c33c 81fe c2be 5be0 a23d b00a c7bd
00000080: 9244 f5bd 3400 dfbc 7a84 8eb9 daea 2bba
00000090: 875b 93be 1d15 a13d 5e77 a8be c21c 2e3e
000000a0: 2a74 603e e02f 01bf 4cd1 2bbf 7fd7 c03d
000000b0: af59 b8bd d2e8 b93d 43e2 ae3d 3550 5b3d
000000c0: 22f1 b43d 9d60 ddbd f2ec 0fbe 3681 91be
000000d0: ec1e e839 a3b1 cb3e 671b aa3e 6338 9c3c
000000e0: 3d57 f63c 95b6 74be 7730 e5be d395 d43d
000000f0: cb59 8bbd 4fad 933e 79ff ae3d 35ac babe
00000100: 4efb 303d 2046 b43d 4e02 463c fd62 01be
00000110: 6b59 553c b74f 25be c2ca a5be 9a90 c8bd
00000120: 737e 9cbe 75de 95be e84c c4bc 56f6 f1bd
00000130: 87cf 4bbe 5ed9 e43d 2ef5 95bc 5aec 80bd
00000140: 0e96 1fbd ada7 0bbe 4c51 44bf fb06 653e
00000150: a045 f03c 17e2 aebd e37c 20bf 8112 993e
00000160: 8a22 2ebe 89bc 6c3d 518c 303d 524b 98bd
00000170: da87 97bd 63d6 af3e e2af 9dbe b408 0bbe
00000180: 5489 2cbf 856b 48bf 43c7 55bb 9a6b 433e
00000190: b36a 4c3b f4b9 02be 561a 913e f615 2a3c
000001a0: 7ab2 c9be 6a96 233c 6ba4 a43e af26 bebe
000001b0: cef1 31be 51b4 28be 83ae 6e3d 066a c8be
000001c0: d544 f7be d544 743c b2e5 17bd 67a5 0dbd
000001d0: e8a7 093d f022 1abc ab27 5ebd 4537 a53d
000001e0: 33d3 933c 84ae 34bf a890 d0bd 54ac 80be
000001f0: 2064 dfbd a600 043e 68ab ca3d f675 73bf
00000200: aa82 813e f949 f7bd fa36 74bd 7355 c7be
00000210: 4bbb 09bd 94c2 453c f959 f63d e2a8 eebd
00000220: 5566 53be df33 c9bc 929f 18bf c55a 5ebe
00000230: a13b 093a 7204 60be 7142 493e b558 bbbe
00000240: 8700 3a3d 75da 3bbf a934 bf3c 64be 963d
00000250: f952 00bd cb81 20bf ec35 d0be 2210 85bd
00000260: 9e10 dcbc 244c e2be 670b 2ebe 00a5 bd3d
00000270: 8444 91bd 2483 8fbd 0582 273d 5c19 82be
00000280: b6d2 d03c b9c9 7b3d 4bff f93d d66e 1ebe
00000290: e759 18bd 5f0e 833d e5c5 cebe 6210 46be
000002a0: 73c1 8bbd 6472 2dbf db64 113e 81f8 50bd
000002b0: e46a dcbe d07a 0dbf c3c4 bcbe af3f aebd
000002c0: 2b6a e63d 1568 8cbe 9415 f6bc 44b0 543e
000002d0: 239f c7be 170c ddbe 9240 b23d 1f1c b3bd
000002e0: 7dde 03bf 6805 c03c 43f7 76be 3d67 26bc
000002f0: 20ce 543d 3fea ccbe 3176 29bd a5c5 fe3d
00000300: 0506 9b3d a255 eabb 6d92 173d fd4b a13d
00000310: 8c24 20bd a51b 203e b6b4 51bc bd9f c7bd
00000320: e0a5 1d3f a4f7 3bbe 8d76 7abd 07f2 803c
00000330: 8c58 d03e 9fb4 d5be 77e9 e3bb 2be5 afbf
00000340: 3ca8 cb3d 1968 c6be bcaf 223e 0136 b9be
00000350: 255d 6ebe 795d ecbe 9206 e13d 3bf1 27be
00000360: 9338 953e b941 7bbd 6ca8 49bd d57c 11be
00000370: df23 bebe 1c71 80be d835 0abd af37 12be
00000380: dab4 95be 5dcf 593d 768e 4c3d 19b6 5cbe
00000390: 4c7f 3fbe 254d 88bf f36a f13e 1cf5 15be
000003a0: be97 8dbe 2fcc 0fbd 69e5 c9be 6d06 50be
000003b0: a920 db3c ac7b 9abe 90ca 59bd 5e7b f0bd
000003c0: 3b7e 743e d892 13be ff2e 283d bb23 84be
000003d0: 8f80 5fbe 0679 3b3d 367e 62bd c016 c8bc
000003e0: ec57 c9bd 684c 0ebf ae01 ad3d ca38 b53e
000003f0: 5be6 9abd 178d ddbe ba59 6abd 574d 26be
-0.22535782 -0.151593 0.042123068 0.06765319 -0.015342844 -0.03831751 0.38620737 -0.04588694
-0.15036373 -0.05960029 0.03329212 0.063802525 0.014789865 0.057996765 -0.31843486 -0.59425455
-0.07105126 0.3324853 0.09693866 -0.050633695 -0.41848817 -0.32379922 -0.80666924 0.03695746
-0.16419491 0.18642317 -0.42303246 0.30140227 0.023821222 -0.38084796 0.07952949 -0.09718835
-0.119759694 -0.027221777 -0.00027183053 -0.0006558128 -0.28780767 0.07865355 -0.3290357 0.17003158
0.21919313 -0.50463676 -0.67116237 0.094161026 -0.09001481 0.0907761 0.0853925 0.05354329
0.08835055 -0.10809443 -0.14055231 -0.28418893 0.00044273527 0.39783964 0.3322403 0.019069856
0.030070895 -0.23897775 -0.44763538 0.10380139 -0.06804236 0.2884316 0.08544821 -0.3645951
0.043208413 0.08802438 0.01208551 -0.12635417 0.013021807 -0.1614369 -0.32381254 -0.097932056
-0.30565223 -0.29271284 -0.023962453 -0.11814563 -0.19903384 0.11174272 -0.018305387 -0.062950805
-0.038961463 -0.13638182 -0.7668655 0.22365944 0.029330075 -0.08539217 -0.6269056 0.2989693
-0.17005363 0.05779699 0.043102566 -0.07436241 -0.073989585 0.34343252 -0.3079825 -0.13577539
-0.67397046 -0.7828906 -0.003261999 0.19084015 0.0031191527 -0.12766248 0.28340405 0.010381212
-0.3939398 0.009984592 0.3215669 -0.37138888 -0.17377397 -0.16475035 0.058271896 -0.3914339
-0.48294702 0.014908989 -0.03708429 -0.034581568 0.033607394 -0.009407744 -0.05423705 0.080671825
0.018045044 -0.7057879 -0.10183841 -0.25131476 -0.10907769 0.12890872 0.098959744 -0.9510187
0.25295 -0.12074656 -0.059622742 -0.3893238 -0.033625882 0.012070317 0.1202888 -0.116533056
-0.20644505 -0.024560867 -0.59618485 -0.21714313 0.00052350207 -0.21876696 0.19654252 -0.36591116
0.04541066 -0.73380214 0.02334054 0.07360533 -0.03132913 -0.6269805 -0.4066614 -0.06497218
-0.026863392 -0.44198716 -0.16996537 0.09259987 -0.070931464 -0.07007435 0.04089548 -0.25409973
0.0254911 0.061471675 0.122068964 -0.15471968 -0.037195113 0.063992254 -0.40385357 -0.19342187
-0.06824007 -0.6775267 0.1419863 -0.05101824 -0.430503 -0.5526552 -0.36868867 -0.085082404
0.11250719 -0.27423158 -0.030039586 0.20770365 -0.389886 -0.43173286 0.08703722 -0.08745598
-0.51511365 0.023440078 -0.2411776 -0.01015645 0.05195439 -0.40022466 -0.04137248 0.124400415
0.075695075 -0.0071513215 0.037004877 0.07875822 -0.039097354 0.15635546 -0.0127994325 -0.097472645
0.6158123 -0.18356186 -0.061148215 0.015740408 0.40692556 -0.41739365 -0.0069553214 -1.3741812
0.099441975 -0.38751295 0.1588735 -0.36174014 -0.2327772 -0.46165064 0.10987581 -0.16400616
0.29144725 -0.061341975 -0.049232885 -0.14207776 -0.37136742 -0.25086296 -0.033742756 -0.14279054
-0.2923954 0.053176273 0.04994055 -0.2155384 -0.18700904 -1.0648543 0.47151908 -0.14644283
-0.27654833 -0.035106834 -0.3943284 -0.20314951 0.026748972 -0.3017248 -0.053171694 -0.117422804
0.23876278 -0.14411485 0.041060444 -0.2580851 -0.21826385 0.045769714 -0.055296145 -0.02442491
-0.09831223 -0.55585337 0.08447586 0.3539489 -0.07563468 -0.43271706 -0.057214476 -0.1624044

fc2.bias f4 [128]
00000000: 35ca 143f f9a2 7c3d 099e 3cbe a89e 403e
00000010: d7f6 4d3e d87b a73e 3d88 693e 9ef1 55be
00000020: 092e a13d c679 093f 151b 03be 1883 f5bd
00000030: a131 95bd 01dd 22be 4eab 15be 613d 91bd
00000040: a7c0 a6be b54b 623e 6d69 f73d 37dc 223e
00000050: 3185 3cbe 2f39 8fbd 38d0 cb3e 54eb f8bd
00000060: 993a 01bf 64d5 1cbc c988 063f 3d9f 153e
00000070: 8f6b 05be 67ee 07be 5935 603e af5a 97bd
00000080: d41a 06be 55b4 1abe 0ace 983e 218a e8bd
00000090: 38b0 1a3e 6dc0 0dbe 032a e33e 1e23 36be
000000a0: 0b48 393e aeb5 033f bda0 abbe 3196 de3e
000000b0: a161 c9bd 9737 30bd cbd7 44be b358 44be
000000c0: fcd8 0bbe 3b12 dfbd ceaa e9bd f603 243d
000000d0: 4316 d23e fe68 68bd 933c edbd d7f7 babd
000000e0: f0e0 2e3e 9c45 fa3e ac29 893e 28fc 32be
000000f0: 4973 53be a934 823d bd86 1ebd 6180 e93e
00000100: 0a74 323e c900 2c3d c427 90be 01f8 063f
00000110: cd09 fcbd 2953 46bb 32a2 e63c 9ba9 6fbd
00000120: 8a17 e2bd 1496 3bbe 39fe 333d 0304 a63e
00000130: 0d65 aabe f4ed 483b c8a2 893e e105 b3bc
00000140: 97cf 4f3e 0890 4f3e ff9d ba3e a6f8 203f
00000150: 5379 82be d013 b33c 2520 263e 137d a33c
00000160: e162 a9bd 462d 873e fd95 11be b1a1 29be
00000170: c272 d1bd c9d5 9f3d 866c 9abd d54b 203e
00000180: 09f4 e5be 0a8c 003f 4645 cabe dc61 68bd
00000190: 9c92 23be 2657 23be 0b12 f4bd 453f 11be
000001a0: e782 8bbe ef33 e8be 6b62 06be 415c a63e
000001b0: 322b eebd d310 4bbe 5a4d 49be d8eb b2bd
000001c0: b35e 90bd a5f4 b93e 58ec 013e 9927 00be
000001d0: 8684 9ebd 7084 f23d 4ecd 87bd 7808 00bd
000001e0: 07cb 65bd da40 0abe c471 ca3e 6922 80be
000001f0: 3c62 113f 0d84 6bbe a15a e63b 35da f5bb
0.58121043 0.06167886 -0.1841966 0.18810523 0.20113693 0.32711673 0.22805877 -0.20892951
0.07870109 0.53701437 -0.128033 -0.11987895 -0.072848566 -0.15904619 -0.14616129 -0.07091785
-0.32568857 0.22099192 0.12080655 0.15904318 -0.18410183 -0.06993329 0.39807296 -0.1215426
-0.5048004 -0.009572361 0.5255247 0.14611526 -0.13029312 -0.13274537 0.2189535 -0.073903434
-0.13096172 -0.15107854 0.29844695 -0.11354471 0.15106285 -0.13842936 0.4436799 -0.17786834
0.18093888 0.51449096 -0.3352107 0.43473962 -0.09833074 -0.043021765 -0.19222943 -0.19174461
-0.13656992 -0.10892149 -0.114095315 0.04004284 0.4103261 -0.056740753 -0.11583819 -0.09129303
0.17077994 0.48881233 0.26789606 -0.17479002 -0.20649447 0.063577004 -0.038702715 0.45605758
0.17427078 0.041992936 -0.2815534 0.52722174 -0.12306557 -0.003026197 0.028153513 -0.058511358
-0.11039646 -0.18318969 0.043943617 0.32424936 -0.3328022 0.003065941 0.26882005 -0.02185339
0.20294033 0.20269787 0.36448666 0.6287941 -0.25483188 0.021860033 0.162232 0.019957101
-0.08270813 0.26401728 -0.14217372 -0.16565587 -0.102269664 0.07804448 -0.075402305 0.15653928
-0.44912747 0.5021368 -0.39505976 -0.05673395 -0.15973896 -0.15951213 -0.11917504 -0.14184292
-0.27248308 -0.45352122 -0.13123481 0.3249226 -0.116293326 -0.19830637 -0.19658414 -0.0873639
-0.070493124 0.3631946 0.12687814 -0.12515105 -0.077401206 0.11841667 -0.06630956 -0.031258076
-0.056101825 -0.13501301 0.3953992 -0.25026253 0.5679052 -0.22999592 0.007029847 -0.007502819

fc3.weight f4 [64, 128]
00000000: a79a 02bf 4bab b5be f06c 53bc a0ed 9f3e
00000010: 81c3 3fbd 7b27 9cbe d303 0e3e 9e55 633b
00000020: 3223 28be 4087 97be 5e22 96bd 16de b83c
00000030: f9a2 4ebd b628 c8be 95bb 003d dbdc 22bf
00000040: af35 6d3c b6f6 36be 1d1f d73d dadd ddbd
00000050: 8f0b f0bd ad38 68be f310 36bd a581 fcbc
00000060: 136d c3be 5b9c 783d b421 0dbe 4f8b 10bf
00000070: 7a16 f1bd da33 94be 6b06 1f3e 3eec b0bd
00000080: 638d 99bd 4a9a fdbb 8948 9abe 55d0 843e
00000090: 4200 c2be 4068 62be 171d 48be c8e5 ae3d
000000a0: 3e75 f7bd fa59 813d e26b 3a3d 8cb6 d13e
000000b0: 370b a43d 6f75 3bbd 9829 73bd 844b 86be
000000c0: e0c8 913d 86c2 d8bd ec6a e4bc ecf4 01bf
000000d0: 38f0 d2bd b135 7f3d 827d c23a 7c02 3d3d
000000e0: 06a4 1f3d c6a4 fd3d 7738 6c3e 3409 fbbb
000000f0: 9b2a f4bc 01b0 33bd 03ef 77bd 252f 8abe
00000100: a1fd 40be 51d4 243f 64b0 92be 5d4e 94be
00000110: 6d10 8d3b 7059 eabd 6bee 88be 4750 c5bd
00000120: 9425 57bc fa25 033e 7431 83be 9634 8fbe
00000130: 689e 213c aacc 22bf a6ca a13e db48 fabd
00000140: 966a a8be e555 c0be d50c 9b3c 6f34 c3be
00000150: 03a5 babc f813 d3be a67a c1bd 2f55 30be
00000160: bc8e a0bd 6659 dfbd a045 a23d 344a a7bd
00000170: 172b 26be 7bf5 b3be 225e 03be 1fed ed3d
00000180: 84bf 3f3e 4aa2 c23d 532f 9a3d 4791 943c
00000190: 77b7 0dbc 84e0 b6bd 3ed9 25bd d69e 4dbe
000001a0: 7cd2 f8be b083 c8be 3bfe 143d 3053 f0be
000001b0: 84d0 edbd 55e8 20be 1b2b 35bd 6ca3 dbbd
000001c0: 4a4d b4be 33b4 643d dcde babe e462 61be
000001d0: 8db1 723d 9e57 7cbe c2d9 8ebd ca5d 003e
000001e0: 21df a4bd 9a68 aebd 05df 81be b66a 8c3d
000001f0: 7de3 70bf 3d4a 50be 7615 dabd 9b60 51be
00000200: 95ca adbc ad26 323d 5159 283d cdfa 483d
00000210: 7791 dbbc 144a 2dbd 65d1 3239 f601 923c
00000220: 38fb a6bd ab11 a2bc ab22 bebb 4527 2abc
00000230: a7f1 18bd e9ae 4dbd 0211 9f3d e7ef 14bd
00000240: b687 28bd 3ad9 acbd f7b8 5d3d d0a8 61bd
00000250: 28c8 283c b263 8abb 134c e4bd c635 6ebb
00000260: 1074 e8bd 0b1e d5bd 3ad4 9ebc 99c5 35bd
00000270: 3793 fbbc 370e 133d 642e 0dbe ad0c 45bd
00000280: 366a a63b 847d 08bd 5635 2e3d bea5 c2bd
00000290: deb3 163d f26a 62bd 72a5 f33c 6a2b b03d
000002a0: 7eea 5e3d a7d3 a3bd d7e6 a3bd f9d0 ccbd
000002b0: d45d 383c 3617 9ebc 2369 85bd 1781 2fbd
000002c0: e04c 05bd f23e 15bd 8af1 a73d 7ee6 123d
000002d0: 275d edbc 9f9c 05bd a214 4dbd 712d 893d
000002e0: 723f 06bd bc5c d83b 7fa6 3ebd bc95 7fbb
000002f0: ba4e 973c de6e 7bbb 51d5 803c 2cea dbbd
00000300: 1b2b b6b8 f3cf 5e3d ca53 5dbc d7fe d03c
00000310: e526 973c 3685 01be 067a 8abc 6150 a4bd
00000320: 1350 f2bb cd41 d13c 8f9a d7bd c378 edbc
00000330: bac2 b1bd 65f5 903d ef9c 52bd 034f 73bd
00000340: a07a 8bbd 0aa3 8cbd c55c a6bd 7769 e83b
00000350: 08d1 533d 74cb 5ebc 2896 123b 3325 2dbd
00000360: 20a2 35bd a4ed 03be 4224 b13b 362e a3bc
00000370: 21b7 223b 52fd 983c 0413 473d 1ce0 423d
00000380: b39f 9b3c 1b10 7bbd 8d92 b73b f6f3 8a3c
00000390: 213d 83bd 0e9b 8cbd 6c28 0abd 5739 cebd
000003a0: 76e9 c3bd bb49 d7bd f788 98bd efac 393d
000003b0: 5bb0 2fbd c2f0 243d 33c8 61bd 17ec 1bbc
000003c0: 2660 09be 0efd 893d c17f 8ebd ba6d a53c
000003d0: c2e4 9ebc a7fb ecb9 d002 06be 19d8 80bd
000003e0: 3b27 923d 334b 3fbd b31b 92bd 37f9 50bd
000003f0: ef6b 90bd 7b75 ebbd 443f a5bd d56f 173d
-0.5101723 -0.3548225 -0.012904391 0.3123598 -0.046817306 -0.3049887 0.13868646 0.0034688483
-0.16419676 -0.29595375 -0.07330774 0.022566836 -0.05044839 -0.3909356 0.031428892 -0.6361825
0.014478131 -0.1786755 0.10503981 -0.108333305 -0.117209546 -0.2267787 -0.044449758 -0.030823538
-0.38169155 0.060695987 -0.13782388 -0.5646257 -0.11771865 -0.2894581 0.15529792 -0.086388096
-0.074976705 -0.00773934 -0.30133465 0.25940195 -0.37890822 -0.2211008 -0.19542347 0.08539921
-0.12082909 0.0631599 0.04551304 0.40959585 0.080099516 -0.04576629 -0.05936584 -0.2622949
0.07118392 -0.105839774 -0.027883016 -0.50764346 -0.10299724 0.062307063 0.001483843 0.046144947
0.038974784 0.12384944 0.23068415 -0.007661009 -0.029805472 -0.043869022 -0.060530674 -0.26989093
-0.18846752 0.6438647 -0.286502 -0.28966036 0.0043049366 -0.1144284 -0.26744398 -0.09634452
-0.013131518 0.12807456 -0.25623667 -0.27969807 0.009864427 -0.6359354 0.3159992 -0.12220927
-0.3289382 -0.37565532 0.018927017 -0.3812594 -0.022783762 -0.41226172 -0.094472215 -0.17219995
-0.078397244 -0.10905723 0.07923436 -0.0816845 -0.16227375 -0.35148224 -0.12828878 0.11617493
0.18725401 0.095036104 0.07528558 0.01813568 -0.008649698 -0.08929542 -0.04049038 -0.20080122
-0.48598087 -0.3916297 0.036375266 -0.46938467 -0.11612037 -0.15713628 -0.04423056 -0.107245296
-0.35215217 0.055835914 -0.36498153 -0.2201038 0.059251357 -0.24642798 -0.06975128 0.12535778
-0.08050371 -0.08516045 -0.25365463 0.06856291 -0.9409712 -0.2034082 -0.106486246 -0.20447008
-0.021214763 0.043493915 0.041100804 0.049067307 -0.026802761 -0.042306975 0.00017053408 0.0178232
-0.08153385 -0.019783815 -0.0058024726 -0.010385339 -0.037339833 -0.050215635 0.07766916 -0.0363616
-0.04114505 -0.0843987 0.054131474 -0.055092633 0.010301627 -0.0042233104 -0.111473225 -0.003634797
-0.11350262 -0.10406121 -0.019388307 -0.044377897 -0.030709846 0.03590223 -0.13787228 -0.04810779
0.0050785793 -0.033322826 0.042531334 -0.09504269 0.03679263 -0.055277772 0.029741976 0.086020306
0.054422848 -0.07999354 -0.080030136 -0.10000796 0.011252839 -0.019298177 -0.06514194 -0.04284772
-0.032544017 -0.036436982 0.08200367 0.035864346 -0.028975083 -0.03262007 -0.050068505 0.066981204
-0.03277535 0.0066028517 -0.0465455 -0.003899916 0.018470157 -0.0038365643 0.015726717 -0.10738024
-8.686465e-05 0.054397535 -0.013508746 0.025512142 0.018451164 -0.12648472 -0.016903888 -0.080231436
-0.0073947995 0.025544072 -0.105275266 -0.028988248 -0.08679719 0.07078055 -0.051419195 -0.059401523
-0.06810498 -0.06867035 -0.08123163 0.0070926505 0.05171302 -0.013598312 0.0022367332 -0.042271804
-0.044344068 -0.12883621 0.0054059336 -0.019919496 0.0024828392 0.01867548 0.04860212 0.04757701
0.018997049 -0.061294656 0.005602187 0.016962033 -0.06408144 -0.06865512 -0.033729956 -0.100695305
-0.095660135 -0.1051211 -0.07447999 0.045330938 -0.042892795 0.040268667 -0.055122565 -0.009516737
-0.13415584 0.067377195 -0.06957961 0.020193923 -0.01939619 -0.00045200923 -0.1308701 -0.06291217
0.07136389 -0.046702575 -0.071341895 -0.05101892 -0.07051837 -0.11497017 -0.080687076 0.036971886

fc3.bias f4 [64]
00000000: be12 913e ce2c 51be d240 07bd c6ea d6bd
00000010: 4e2a e9be e9c9 7ebe 79eb 7c3e 0f90 a9be
00000020: 3404 a73e e805 31be a0f6 01be 2f2b 01be
00000030: d623 a9bd 96ee 3cbe ec3f 19bf 8006 0bbe
00000040: a8ec b0bd 44f9 78be 2e7b 95be 3cab 2b3f
00000050: ae5f 51be fab4 cabd c978 28be ea48 95be
00000060: 3f29 603d df93 aebd f42b 71be 3cdf 603e
00000070: a785 a1be 8ac0 353d bb6b 1bbe 72ad d4bd
00000080: a560 a9be 91e5 823e 5760 19be eabc 253e
00000090: 84c1 02bf 18ce 62be 0f22 933e 88b4 3e3e
000000a0: e7d5 b33e 5c3f 36be 4ac1 503c d900 933e
000000b0: 7338 b73d 92f0 48be 255d 14be 27b2 1fbf
000000c0: 1e53 153e ab0f a3bd 422d 98bd 81aa 11bf
000000d0: 7ef7 943d 1527 bdbe 1fb1 e1bd 5abc 503c
000000e0: 1973 6fbe b9fc 3fbe 350e 11bd 7522 9ebe
000000f0: 669b c7bd 3e10 65be ac87 1e3f a955 2fbe
0.28334612 -0.20427248 -0.0330208 -0.10493998 -0.45540088 -0.2488171 0.246992 -0.3311772
0.32620394 -0.1728741 -0.12691736 -0.1261413 -0.08258788 -0.18450388 -0.5986316 -0.13576698
-0.086388886 -0.24313837 -0.2919554 0.6705816 -0.20446655 -0.098978 -0.16452326 -0.29157192
0.054726835 -0.08524298 -0.23551923 0.21960157 -0.3154728 0.044373073 -0.15177815 -0.103846446
-0.33081546 0.2556577 -0.14978157 0.16185346 -0.5107653 -0.22148931 0.28736922 0.18623555
0.35124132 -0.17797607 0.012741396 0.28711584 0.08946314 -0.1962302 -0.14488657 -0.62381214
0.14582488 -0.07961973 -0.07430507 -0.56900793 0.07273768 -0.3694388 -0.11020111 0.012740219
-0.2338375 -0.1874875 -0.03541394 -0.30885664 -0.09746437 -0.22369477 0.6192577 -0.1712252

fc4.weight f4 [128, 64]
00000000: a586 cfbe 870f a5bc 4ad3 c23e 557f 723e
00000010: d690 5cbe 7fb8 d7bc a2ba dd3e 1490 54be
00000020: e2a1 ce3e 33bb ebbb 1327 c9bb 8047 c5be
00000030: bda7 bfbe 5465 cfbd d1ba 883e d347 8bbe
00000040: 3cb7 c4be c054 963d 75e2 43be 16f5 5a3e
00000050: 5ea5 183e 2a7d a0be c309 02bf cede 02be
00000060: 9d7d 5d3d ff40 adbe 5f6d 09ba 52c2 1d3e
00000070: cd7d af3e c3b8 343f 5adf 5ebe 4c6b fa3e
00000080: c71a 1d3d 98f5 2d3e 1c9d b83d 719f bebe
00000090: 3af3 6b3b 9eb0 fa3e ba3e ddbe ae89 f1be
000000a0: 7c62 383e b87e 143f f1b4 c3be a251 27be
000000b0: 8817 86be 4c35 2cbe fa9a 98be f347 1dbe
000000c0: 6de5 733e 9c4d 123e af2b 79be 57f0 66be
000000d0: 572a dc3e e1bd 8c3e 5731 3fbe acdd 0b3f
000000e0: ae8e 0a3e f233 063f ee2e e03d 4739 1ebe
000000f0: f074 98be e483 6dbe 9fda f93d c9e7 743a
00000100: 4a33 cd3d 6e4d dd3d b49b 6abd 80b5 b4ba
00000110: a60c 9ebd 9e4e d0bd d86f 903d 0080 c03a
00000120: c8ac d0bc caa3 d53d 1cea d9bd 9ed1 dabd
00000130: f0a4 1cbd 0022 a33d 409d a03c 3ae2 d7bd
00000140: 0ac3 8dbd 80ca a7bc e8e4 fbbd 903d 8dbd
00000150: 20cc 1ebc 26ac d43d f68b ef3d c0c5 093d
00000160: 5026 573c 6213 883d 72a1 edbd f41b e6bd
00000170: 4c54 8bbd f826 a0bc a0e4 32bd fa4b f73d
00000180: bed0 f83d 08b4 ebbd f002 0dbd 9e3f f83d
00000190: 9ad3 d8bd b01f f0bc cc4c f2bd 800b bf3b
000001a0: ae10 92bd 60bb d4bd bcfd 9a3d 7c95 4c3d
000001b0: 3063 c53d 8ea7 c73d 0096 e73a d04d aebc
000001c0: ea19 e43d 10cd 063d e6bf c93d 1c31 da3d
000001d0: 3875 ffbc 8ceb 633d a838 bebc 3020 6abc
000001e0: 72e6 cdbd d457 d1bd f0bd e3bc 1ac6 a73d
000001f0: 0047 75bb fc62 c63d 40d5 733b 3090 353d
00000200: 8c3f db3d f4fb 253d ea0d dc3d e8e1 c2bd
00000210: fa1c c83d 3862 99bd dee2 97bd faa5 d03d
00000220: f0bd 16bc eacf e2bd 4097 1ebd 804f 23bc
00000230: 409f 20bc b4ee 263d d8ae c0bc d00c edbc
00000240: 66cf 9cbd d43b 713d 3666 acbd d0fd c83c
00000250: aa9f ee3d fcf2 8cbd 5891 3dbd 40a0 39bd
00000260: 526c ba3d 3017 273c ae60 df3d 3014 723c
00000270: c4e1 b0bd 3247 b4bd 0086 12ba f85a 473d
00000280: 5042 96bd 4283 8b3d f8cc e2bc 20ed debc
00000290: 00cc 883c ecaf b73d 62eb 883d acb1 2f3d
000002a0: a0ab a2bc 3059 da3d a83b 18bd 1c5c 6d3d
000002b0: 6cfc 3c3d 4c97 9fbd c02e 5abc 9863 cbbd
000002c0: 64ef 2abd 700a 19bc 8826 f9bd a495 0a3d
000002d0: be7d e53d 68bb 253d 1cc0 0c3d 44c2 2abd
000002e0: 1817 91bd 58a7 b03c 48b0 abbd 50ed 963d
000002f0: 5c4f f03d 161c e0bd d0b5 1dbd 782c fdbc
00000300: f232 c63d f2f8 f63d 26aa d9bd 04ca a53d
00000310: d4eb 0abd 0870 e63d 84fc e63d aae5 913d
00000320: 9c9b a8bd ee54 d73d 06c9 edbd 985a a13c
00000330: 94ab a73d be4c e1bd 00f5 c73c fc30 d7bd
00000340: ba55 debd 5825 853c 807f 9e3a b0fa cf3d
00000350: b05e a5bc 16d3 aebd ac35 48bd 8a88 b43d
00000360: 7e94 98bd ae33 c73d 16df 8f3d c231 c43d
00000370: 22e1 91bd 5a73 b7bd 9e7a b4bd 1a86 db3d
00000380: 8035 5f3c cc3b 9b3d 9e91 ef3d 1ab4 d83d
00000390: 9838 2abd 20c4 a03d 760a fdbd 9e2a a0bd
000003a0: 28c2 9cbc c080 a9bd c242 d3bd b090 1dbd
000003b0: 0c68 47bd 16b0 fabd 86b3 c93d 48e7 b1bd
000003c0: 80a6 c33c 44aa b8bd 963a ec3d 4067 da3c
000003d0: 8c6e dbbd 0036 263c 34ef cb3d 0874 ddbc
000003e0: 2a20 fd3d a093 5ebd cca7 d6bd 5698 e73d
000003f0: 60c7 223c 702e c6bc 9acb e9bd c07f 913b
-0.40532413 -0.020149006 0.38051826 0.23681386 -0.21539626 -0.026333092 0.43306452 -0.20758086
0.40357882 -0.0071939467 -0.006138691 -0.38531113 -0.37432662 -0.10126749 0.2670503 -0.27203235
-0.38421047 0.073403835 -0.19129355 0.21382555 0.14906833 -0.31345493 -0.50796145 -0.12780306
0.054074872 -0.3383865 -0.0005242433 0.15406159 0.34275666 0.70594424 -0.2176489 0.48909986
0.038355615 0.16988218 0.09014341 -0.3723102 0.0036003129 0.48962873 -0.4321192 -0.47175354
0.18006319 0.5800586 -0.38223985 -0.16339734 -0.26189828 -0.16817206 -0.29805738 -0.15359478
0.23817988 0.14287418 -0.2433307 -0.2255262 0.43001053 0.27488616 -0.18671165 0.5463512
0.1353099 0.5242301 0.10946451 -0.15451537 -0.29776716 -0.23194844 0.12199902 0.00093424
0.10019548 0.10805784 -0.057277396 -0.0013787001 -0.07717256 -0.10171245 0.070525825 0.0014686584
-0.025473014 0.10431631 -0.10640356 -0.106845126 -0.038243234 0.07965469 0.019606233 -0.10541196
-0.069219664 -0.020482302 -0.1229952 -0.06896508 -0.009692222 0.10384397 0.11696617 0.033635855
0.013131693 0.06644322 -0.11603059 -0.112358004 -0.06803188 -0.019549832 -0.043675065 0.12075038
0.121491894 -0.115089476 -0.03442663 0.12121509 -0.10587235 -0.029311985 -0.11831054 0.0058302283
-0.07132088 -0.103873014 0.07567927 0.049947247 0.09638059 0.097487554 0.0017668605 -0.021277338
0.11137755 0.032910407 0.09851055 0.10653898 -0.031183824 0.055644557 -0.023220375 -0.014289901
-0.100537196 -0.1022183 -0.02780053 0.08192082 -0.0037426353 0.096868485 0.0037205964 0.04432696
0.1070548 0.040523484 0.107448414 -0.095157444 0.09771152 -0.07489437 -0.07416318 0.101879075
-0.009200558 -0.11074813 -0.038718462 -0.009967685 -0.009803593 0.04075499 -0.023520872 -0.028936774
-0.076567456 0.058894947 -0.08417933 0.02453509 0.11651547 -0.06882283 -0.04628119 -0.045318842
0.09102692 0.010198399 0.10907112 0.014775321 -0.086368114 -0.08802642 -0.00055894256 0.04867074
-0.07336867 0.06812145 -0.027685627 -0.02721268 0.016698837 0.08969101 0.06685521 0.04289405
-0.019857228 0.106615424 -0.037166268 0.05794917 0.046139166 -0.077925295 -0.01331681 -0.099311054
-0.041732207 -0.009340867 -0.121655524 0.033834115 0.11205624 0.040461928 0.034362897 -0.041689172
-0.07084483 0.02156417 -0.08383232 0.073694825 0.117338866 -0.10942857 -0.038503468 -0.030904993
0.09677686 0.12059201 -0.10628156 0.08095172 -0.03391631 0.11251837 0.11278632 0.07123883
-0.08232805 0.10514246 -0.11610608 0.019696519 0.08187023 -0.110009655 0.024408817 -0.1050739
-0.10856195 0.016253158 0.0012092441 0.10155237 -0.020186752 -0.08536355 -0.04887931 0.08815105
-0.07450198 0.09726654 0.07024972 0.09579803 -0.07123019 -0.089575484 -0.0881245 0.10718937
0.013623595 0.07579765 0.11697696 0.10581227 -0.04155788 0.07849908 -0.12355511 -0.078206286
-0.01913555 -0.0827651 -0.103154674 -0.038468063 -0.04868321 -0.12240617 0.098486945 -0.086866915
0.023883104 -0.090168506 0.11534612 0.026660562 -0.107144445 0.010144711 0.09957734 -0.027032867
0.123596504 -0.054340005 -0.104812235 0.11308353 0.00993523 -0.024192065 -0.11415787 0.004440278

fc4.bias f4 [128]
00000000: 75e3 d33d d825 223d ecf3 24bd a4d2 8e3d
00000010: 10f0 c8bd 74ce a6bd 4092 a5bd 6a77 87bd
00000020: 6868 a83d 586a 343d 1429 903d e06d cdbc
00000030: 82ec fa3d bcc9 81bd 20b1 173c 98ef da3c
00000040: 685a d5bd 004c b53b 1a6d 853d 5c0b 78bd
00000050: 98c2 5c3d f6a1 d0bd ee41 933d f2a5 9dbd
00000060: 9827 7cbd e2db d5bd ccfb f03d 7838 f0bc
00000070: f2a6 e53d 64db 523d 1a2c f4bd 5413 913d
00000080: 78ec a43d d4e9 e83d e016 1c3c dc8d 58bd
00000090: 60db 24bd 0eec a23d 3cfa 01bd 6c74 773d
000000a0: 6270 bbbd 54ed b5bd 7074 15bc 64af 0c3d
000000b0: 8a9f a43d 663c d33d 7802 c6bc 2280 c73d
000000c0: 82a7 fa3d 0061 3f3a 26a2 a43d b860 e0bd
000000d0: d068 67bc 448e 21bd 82c2 f83d b02a 593d
000000e0: c0e6 c0bc 046f bdbd 2848 31bd 40a1 693c
000000f0: 98ed e53c d04d a33d 40c4 51bc 7608 c4bd
00000100: e0dc 1abc 646c cd3d e060 a23c 529c cebd
00000110: 004e eabb c06a 35bc 6088 b2bb f0ea f33c
00000120: a437 a1bd 2ee4 973d f4d9 debd 7c7f 00bd
00000130: 927c adbd a849 a03d a026 49bd 9816 d83d
00000140: ae68 e53d 0087 4d3b 4c3d e1bd 7a3e f0bd
00000150: ee53 e03d 0845 03bd 668d 9abd 88a9 3d3d
00000160: 6872 25bd 0040 d33b ac86 023d d872 b03c
00000170: b665 ce3d e03d c8bd e055 0bbc 40bd 12bb
00000180: 0cc3 a4bd 2e22 c1bd 0093 78bd d819 e83c
00000190: ce05 a03d 14f0 7dbd baa8 86bd d0d6 51bd
000001a0: 903e 94bc 00fb 18ba 9e01 f4bd ae18 b23d
000001b0: 7c5c 36bd 467c cabd 4066 efbb 6c03 36bd
000001c0: 40f9 823b 7627 dabd e476 1a3d 1498 7a3d
000001d0: d0d3 993d 4ec3 ad3d 6021 b83b f8e6 1c3d
000001e0: fc8e 5cbd 18a4 0dbd 20d1 953b 70eb c9bd
000001f0: e028 16bd 9401 89bd 3630 89bd c048 053c
0.10346118 0.03958687 -0.040271685 0.0697377 -0.09811413 -0.081448466 -0.080845356 -0.06614573
0.08223039 0.04404673 0.07039085 -0.025076807 0.122521415 -0.06337306 0.0092585385 0.026725575
-0.10417634 0.0055327415 0.0651495 -0.06055771 0.053896517 -0.101871416 0.071903095 -0.07697667
-0.061561197 -0.1044233 0.117667764 -0.029323801 0.11213483 0.05147876 -0.11922474 0.07083765
0.08052915 0.11372724 0.009526938 -0.052869663 -0.040248275 0.0795518 -0.031732783 0.060413763
-0.09152295 -0.08883157 -0.009121999 0.034346953 0.08038242 0.103142545 -0.024171099 0.09741236
0.12238981 0.0007300526 0.0803874 -0.10955948 -0.01412411 -0.039442316 0.121464744 0.053019226
-0.02354753 -0.0924969 -0.043281704 0.014259636 0.028067395 0.07973826 -0.012803137 -0.09571926
-0.009452075 0.100304395 0.019821584 -0.100884095 -0.0071504116 -0.011072814 -0.005448386 0.029775113
-0.07871941 0.07416569 -0.10881415 -0.03137158 -0.084710255 0.07826549 -0.0491091 0.105511844
0.11201607 0.0031360984 -0.109980196 -0.117306665 0.10953508 -0.032048255 -0.07546501 0.046304256
-0.04039231 0.0064468384 0.031866714 0.021539137 0.100779936 -0.09777427 -0.008504361 -0.0022390634
-0.08045015 -0.094303474 -0.060687065 0.028332636 0.07813607 -0.061996534 -0.06575151 -0.05123025
-0.018096238 -0.0005835742 -0.11914371 0.086961135 -0.044521794 -0.098869845 -0.0073058903 -0.044436857
0.003996998 -0.10652058 0.03771104 0.06118019 0.07511103 0.08484517 0.005619213 0.038306206
-0.053847298 -0.03458032 0.004572049 -0.09859359 -0.036660075 -0.06689754 -0.06698649 0.008135021
