models/comparison_apache@curator_1000ep_dqn/pointwise_dqn_apache@curator_1000ep_dqn.pt (torch, 165120 bytes, 8 tensors)

fc1.weight f4 [128, 56]
000000 92 d2 88 3d 5f a9 ab 3b 65 c3 f1 3a 43 df 5e bd
       0.06680788 0.0052386965 0.0018445073 -0.054412138
000010 21 92 59 3d df 40 2e 3e c0 a6 6d 3d 9f 46 28 3e
       0.053117875 0.17016934 0.058020353 0.1643319
000020 05 a5 eb 3d da f8 34 bd cf 71 f9 3d 61 fa 82 3d
       0.11506084 -0.044182636 0.121799104 0.06395412
000030 65 d7 4f 3d 1c 06 84 bd fa 89 ca 3d 26 c8 44 bd
       0.050742526 -0.06446478 0.09889598 -0.04804244
000040 89 c9 b4 3d 4c 2b cd 3d 11 03 2d bb 44 73 c8 3d
       0.08827502 0.10018024 -0.0026399533 0.0978761
000050 33 ac bb bb 19 0c 84 3d 16 3d ae bd a2 19 d2 ba
       -0.005727315 0.0644762 -0.08507745 -0.0016029368
000060 5c 14 96 bd 09 3f b6 3d 5f 8b 91 3d b5 77 2f 3e
       -0.07328102 0.08898742 0.07106661 0.17135508
000070 a1 a5 48 bd c4 84 2e 3e 58 3c 95 bc a6 00 1f 3c
       -0.04898608 0.17042834 -0.01821725 0.009704744
000080 f3 35 ca 3d 9b 04 06 3e 8d 1a e1 3d f7 eb 28 3e
       0.09873571 0.13087694 0.10991392 0.16496263
000090 51 ad 0b 3e 00 a5 8e 3d 01 4a 0b 3e 52 51 e9 3d
       0.13640334 0.06965065 0.13602449 0.11392464
0000a0 c1 63 c0 bc 6a 4c 39 3d 5c 51 77 3d e1 30 83 3d
       -0.023485066 0.04523889 0.060380325 0.06405807
0000b0 2e d0 ae 3d b8 7e 1e 3e b8 2e 20 be 5a c1 62 bd
       0.08535801 0.15478027 -0.15642822 -0.055360176
0000c0 8a e0 ba 3d 2c 68 9f 3d 3e a5 76 bd 88 20 2f 3e
       0.09124859 0.07783541 -0.06021618 0.17102253
0000d0 a5 55 7e bd 13 22 14 3d 3c b4 b7 3d a7 92 a1 bc
       -0.062093396 0.03616531 0.08969924 -0.01972325
0000e0 21 43 38 3d a4 fe ec bc b9 05 b9 bd 3f 8a 6e 3d
       0.044985894 -0.028930016 -0.09034295 0.05823731
0000f0 4e e3 f4 3a c1 92 d0 3c ed 60 75 bc 4b f9 92 bc
       0.0018683465 0.025460603 -0.014976722 -0.017941138
000100 05 c5 69 bd 3d a0 bb bd a5 12 a5 3d 18 7a 4d 3d
       -0.057072658 -0.091614224 0.08060197 0.050165266
000110 80 71 05 3c 17 aa df 3c f8 93 95 bd eb 40 fc 3d
       0.008144736 0.027302785 -0.073036134 0.123170696
000120 59 9e 85 3d 7a 62 b1 3d 0a 26 83 bd 1c f2 e0 3d
       0.06524343 0.08661361 -0.0640374 0.10983679
000130 fc f9 5d bd 2d 33 29 3d d3 4b 1c bd 3e b4 03 3d
       -0.05419348 0.04130857 -0.03815825 0.032154314
000140 91 98 19 3e 70 79 c5 3d 12 0d 19 3e ab 95 20 bd
       0.14999606 0.09642303 0.14946392 -0.039205234
000150 5d fb 17 3e 27 9b ca 3c 15 26 b2 3d ed 9b ed 3d
       0.14841981 0.024732186 0.0869867 0.11602006
000160 ab ba 6a 3d 7a 1f 90 bd 4e 44 a8 bc 50 a8 38 3d
       0.057306927 -0.07037254 -0.020540383 0.04508239
000170 28 8b 12 3e 1c f3 0c 3d ed b1 c5 3c eb 3d 18 3e
       0.14310896 0.034411535 0.024132693 0.1486737
000180 85 4a 80 3c 60 41 07 3c de a4 c8 3c 96 58 02 3e
       0.015660534 0.008255333 0.024492677 0.12729105
000190 87 1a a1 3d 5d 4b 76 3d c0 07 3a bd 8c c6 fb bd
       0.07866388 0.060130466 -0.045417547 -0.12293729
0001a0 61 f9 1b bd 30 b5 fa 3a 03 91 88 bd 72 3d 85 bd
       -0.038079623 0.0019127484 -0.06668284 -0.065058604
0001b0 b3 c7 e3 3d d0 d6 b7 bd 58 a0 8a bd dd 46 da 3d
       0.11122074 -0.08976519 -0.067688644 0.10658047
0001c0 d7 59 31 3e 10 dc 37 3e c3 1f 9a bc 86 1f 48 3d
       0.17319427 0.17955041 -0.018813973 0.048858188
0001d0 bf 47 ac 3c 04 b5 fe 3d 02 75 46 bd 05 ea 9f 3e
       0.021030305 0.1243687 -0.04845143 0.3123323
0001e0 10 96 06 3e f9 34 1e 3e 86 0d 8f 3d 76 70 6e 3d
       0.13143182 0.15449895 0.06985001 0.05821272
0001f0 55 48 7d bc 8e 07 a5 bd 7a 4c 00 3e 93 07 00 3c
       -0.01545914 -0.080580816 0.12529173 0.007814306
000200 f5 0f ac 3b bf 2a a3 bc b0 c6 31 3e 63 ff cd bb
       0.0052509257 -0.019917844 0.1736095 -0.006286548
000210 be 74 21 3e 1c f1 6f bd 84 e8 b5 3c e5 31 f1 3d
       0.1576719 -0.05857955 0.022205599 0.11777095
000220 6f 92 89 3d a9 d4 a2 3c 02 62 06 3e bf 68 24 3d
       0.06717383 0.019876795 0.13123325 0.040138956
000230 40 95 af bc 60 38 ec 3d e3 28 a9 b9 f1 22 b6 bd
       -0.021433473 0.1153419 -0.00032264655 -0.08893383
000240 1e 1c 04 3e 0d ee a4 bd 7b f7 e9 3d 56 22 03 be
       0.12901351 -0.08053217 0.11424156 -0.12806067
000250 5d ce 88 bd c8 d8 38 be 83 35 3a 3c db dc 8f bd
       -0.06679986 -0.18051445 0.011365297 -0.07024547
000260 4b 18 00 3f b4 63 de be da 1a 26 bd a9 d0 28 3e
       0.5003707 -0.43435442 -0.04055295 0.16485848
000270 8c ce 17 3e 48 89 94 3b bd 90 ee be 95 31 56 3e
       0.14824885 0.0045329668 -0.46594802 0.20917352
000280 76 4f bf bd 70 f5 84 3d d6 bd cd bd 2d c2 ae bd
       -0.09341328 0.06492126 -0.10045974 -0.0853313
000290 ee 29 19 bd ab 32 53 bc 80 2c 3a bd d2 9e 0b bd
       -0.037393503 -0.012890498 -0.045452595 -0.03408701
0002a0 b7 1e b7 3d 09 8a 10 3c 0d 32 0a 3c 01 1b 88 3d
       0.08941405 0.008821973 0.008434785 0.066457756
0002b0 32 7a 23 bd 0e e0 ab bc 2a e8 96 3d a2 00 7c 3c
       -0.039911456 -0.020980861 0.073685005 0.01538101
0002c0 1c 11 64 bc 72 4f 77 3d ed d9 21 3e 75 f3 3e bd
       -0.013920095 0.0603785 0.15805788 -0.046618897
0002d0 14 9e 79 bd af 62 f6 3c 0b 61 23 3e f8 83 5a bd
       -0.06094177 0.030076353 0.15954988 -0.05334851
0002e0 39 c5 f9 3d 1d 31 97 bd 5b 98 c4 3d 46 2f a2 3d
       0.1219582 -0.073824145 0.09599372 0.07919173
0002f0 31 9a 7c bd ae 98 96 3c 9e 8d 9f bd 9d 2d 23 3e
       -0.061670486 0.01838335 -0.07790683 0.15935369
000300 b0 e6 42 bd 6f bb b5 3d a1 86 84 bd 71 22 8d bc
       -0.047583282 0.08873641 -0.06470991 -0.017228337
000310 cf 4d 90 bd 15 9a 96 3d bc 9e 26 bd c9 92 6f 3d
       -0.07046091 0.073536076 -0.040678725 0.058489595
000320 7e d9 10 3d bd c7 ef bc 86 ff 46 b9 4f 52 2f 3e
       0.035363667 -0.029270047 -0.00018977941 0.17121242
000330 3a 48 34 bd 0e 39 9f 3c 2d f3 26 3e 71 fb b0 3d
       -0.044014193 0.019436385 0.16303702 0.08641709
000340 24 df ec 3d ab 5a 1e 3c 19 a3 11 3e 17 a2 75 bd
       0.11565998 0.009665172 0.14222373 -0.059969034
000350 29 9a 4d 3d bd e8 01 3d ed 97 7c bc cc 3b c2 bd
       0.050195847 0.031716097 -0.015417081 -0.094840616
000360 ec b5 6b bd 3e 5f 15 bd be 03 29 3e b9 72 36 3c
       -0.05754654 -0.036467783 0.16505334 0.01113575
000370 41 a7 e2 3d 0e ad f9 bc 20 db 9b 3d 31 b6 24 3e
       0.110670574 -0.030478027 0.07610154 0.16085126
000380 e4 e5 4b 3e 56 50 96 3d 25 98 46 3e 6f be 2d 3e
       0.19911915 0.073395416 0.19393976 0.16967176
000390 9f 9c 9a 3c 3a 4b 40 3e 5e a7 03 3e 76 42 03 3e
       0.01887351 0.18778697 0.12856814 0.12818322
0003a0 01 c6 03 3e be 2f 2f 3d 17 e1 46 3c 13 36 0c 3d
       0.12868501 0.04277014 0.012138627 0.034231257
0003b0 49 0a 02 3e 41 9d f8 3d 2f 9a 12 3e 67 d9 51 3e
       0.12699236 0.12139369 0.14316629 0.20493089
0003c0 24 cf 3c bd dd 6e 05 3e 0f 89 cc bc 36 cf 43 ba
       -0.046095982 0.13030572 -0.024967698 -0.00074695365
0003d0 21 3b dd 3d 55 3c 4b bd 9c a8 49 bc a8 79 55 3d
       0.108022936 -0.049618084 -0.012308266 0.052117974
0003e0 7f e3 02 3e 64 24 92 3d ca 68 00 3e ad 1b bd bc
       0.12782095 0.07135847 0.12539974 -0.023084486
0003f0 7b 4b 27 3d 51 f2 c4 bc fb b2 e9 bc 32 2f e1 3d
       0.04084347 -0.024041327 -0.028527727 0.1099533

fc1.bias f4 [128]
000000 4a 7d e1 bd 80 30 87 bc f1 ac b2 3d b1 a6 34 be
       -0.11010225 -0.016502619 0.08724392 -0.17641713
000010 f9 5f 2b be d5 d4 b0 bc b8 d7 31 bc 6f 73 89 3d
       -0.1673583 -0.021585861 -0.010854654 0.0671147
000020 f9 7a 00 be 16 3f 10 bd 6b 6a 49 3d 2f e5 9f 3d
       -0.1254691 -0.035216413 0.049173754 0.07807385
000030 9e 87 a5 bd 82 13 cd bd 62 d6 4b 3d ad cf 10 3e
       -0.080825076 -0.100134864 0.049765 0.14141722
000040 77 d0 4c 3d 5e 37 29 be 18 9f 9b 3d fd 23 f3 bd
       0.050003495 -0.16525027 0.07598704 -0.118720986
000050 49 86 0f 3d 10 f5 67 3c e2 cb 33 bd c1 4e dc bd
       0.035040174 0.014157549 -0.04389561 -0.107572086
000060 c5 6a f8 bd f7 f6 c3 3d 72 1a af bd c2 cf b6 bd
       -0.1212974 0.09568589 -0.08549966 -0.089263454
000070 1a 9d dd 3b 0d 5a 7f be a1 6f fb bd 48 d6 84 3e
       0.0067631127 -0.24936695 -0.12277151 0.25944734
000080 cd 93 a3 3d 9b 51 64 be 3d de 87 bd 1b c4 13 3e
       0.07987175 -0.22296755 -0.066341855 0.14430277
000090 85 08 5c be 69 09 3b 3c 0b d1 2f 3d 70 54 00 be
       -0.21487625 0.011415818 0.04292397 -0.1253221
0000a0 29 9a 12 be 0d 04 ed bc b7 d4 49 3d ea 7c d6 3d
       -0.1431662 -0.028932596 0.049275126 0.10473044
0000b0 65 93 15 be e1 f1 85 3d 14 4c 9d bd c2 26 5c 3c
       -0.14607008 0.06540275 -0.076805264 0.013436975
0000c0 fb cb 8b 3d 83 26 87 bd c7 cf 35 be 29 02 53 bd
       0.068260156 -0.065991424 -0.17755042 -0.051515732
0000d0 8c 51 de bb c4 79 00 3c 2d 0a 2a bc 21 cb ed 3c
       -0.0067846235 0.007841531 -0.010378403 0.029027523
0000e0 b5 74 60 3c ce 54 fd bd e9 bc 88 bd d8 8d 7b bd
       0.0136997 -0.12369691 -0.06676657 -0.06141457
0000f0 d6 2c 5f bd 2a 0f 8d 3c 03 f5 c4 bd d3 72 03 3e
       -0.05448612 0.017219145 -0.09617045 0.1283677
000100 d7 85 bb bd 3e db a4 3c 2b 22 2c 3e 2b ab 0c 3d
       -0.09156387 0.020124074 0.16809909 0.034342926
000110 e0 e4 a2 bd 83 71 c5 bd d6 60 5d 3e eb d9 01 be
       -0.07953811 -0.09640791 0.21618971 -0.12680785
000120 23 3a 61 bc 90 3b 42 3d 52 52 91 bd 01 ba 90 bd
       -0.013746771 0.047420084 -0.070957795 -0.070667274
000130 09 36 3b 3d fc 96 83 bd 19 fd 19 3d b7 75 36 be
       0.04570583 -0.06425282 0.03759489 -0.17818342
000140 0c 12 61 bd 5b 2c 1b 3e 16 94 17 bd c7 99 0e be
       -0.05494885 0.15153639 -0.03700646 -0.13925849
000150 d9 62 a0 bd 02 43 13 be 64 83 08 3d 57 e1 2c bd
       -0.07831354 -0.1438103 0.03332843 -0.04220709
000160 3d 3e f3 be c3 ab 05 3c d8 3b 1c be dc fa 80 3d
       -0.47508422 0.008158627 -0.15257204 0.06297848
000170 23 d1 b8 3d ea 55 ee bd a9 4a 46 3d bc 24 c0 3c
       0.09024265 -0.116374806 0.048411045 0.023455016
000180 e0 95 83 3d 93 99 06 be d6 04 54 bb f9 a1 3b 3d
       0.06425071 -0.13144521 -0.0032351515 0.045808766
000190 c1 ae 48 be eb 6c 58 3d eb 9a 1a 3c b6 05 0f 3d
       -0.19597913 0.052838247 0.009436349 0.034917556
0001a0 64 66 a2 bd ba 5d 3e 3d 17 c3 d5 bc 1b 63 01 be
       -0.07929686 0.046476103 -0.026094003 -0.12635462
0001b0 63 d9 10 3e fd ab a7 bd 01 10 ae be eb 3b 76 bd
       0.14145426 -0.08187101 -0.33996585 -0.060115736
0001c0 b6 fb 01 be 0e 4c 50 bf 25 68 8a 3d e5 3f aa 3d
       -0.12693676 -0.8136605 0.06758145 0.08312968
0001d0 c4 dd 09 3d 9f 1d c9 3d 5b fa 9a bd 9a f7 d1 3c
       0.033658758 0.09820103 -0.07567283 0.025630761
0001e0 fe 6e 68 bd 50 7c 3f 3d af ef 73 bd db b3 f2 b8
       -0.056746475 0.046749413 -0.059554752 -0.0001157296
0001f0 e4 f7 0d be a8 46 ba bd cf 1b e6 bd dc ae 07 be
       -0.13864094 -0.09095508 -0.11235773 -0.13250297

fc2.weight f4 [128, 128]
000000 9d 75 6b 3d 23 95 99 bd 5b fa 06 be d1 b9 47 3d
       0.05748521 -0.07499149 -0.1318144 0.048761193
000010 eb dc b5 bc ee 6a 6e bd ae 57 85 3d 92 88 c2 bd
       -0.022200068 -0.058207445 0.06510864 -0.09498705
000020 b6 4a 74 3d 28 7e 4b 3d b6 35 7a bd 5a 51 54 3d
       0.059641562 0.04968086 -0.06108638 0.051835395
000030 fb 29 aa bc d4 36 13 bd 85 41 20 be 73 cd 48 3d
       -0.020771971 -0.03594096 -0.15649994 0.049024057
000040 df 81 8d 3d fa f2 87 3d 81 4a fa bc 1a 04 8b bd
       0.069095366 0.06638141 -0.030553104 -0.06787892
000050 d8 1b 4e bd 44 29 d1 bd 44 32 91 bd d9 ee 86 3d
       -0.050319523 -0.10212949 -0.070896655 0.06588525
000060 30 eb ae bd bb b0 37 bd c1 c1 81 bd b0 4a 9c bc
       -0.08540952 -0.044846278 -0.06335784 -0.019078583
000070 15 48 06 3d 93 e8 e2 bd b1 7d a8 3c 70 10 92 bd
       0.032783587 -0.11079516 0.020567747 -0.071320415
000080 ec 9a d1 bc b7 5f 2c bd fe 8c 12 3c 5d ba 87 bd
       -0.025586568 -0.04208347 0.008944748 -0.06627343
000090 73 ce 9e 3b 9f aa 57 bd 6f 8f 15 3d 14 0b 44 3b
       0.004846388 -0.05265295 0.036513742 0.002991383
0000a0 d7 ff 93 3c fe bc 63 bd 7e 37 48 bd 35 05 83 3d
       0.01806633 -0.05560016 -0.048881046 0.063974775
0000b0 26 0a ef bc aa f3 e5 bc d9 08 82 bd b7 21 9d bc
       -0.029179644 -0.02807029 -0.06349344 -0.019181116
0000c0 4b 16 20 bd da 3a 1f 3d 44 c7 4e bd 2b 81 d4 3a
       -0.03908376 0.038874485 -0.050483003 0.0016212811
0000d0 d7 ba 1c 3d 50 33 7e 3d 3d 0a 3a bd cb 35 a0 3b
       0.03826412 0.062060654 -0.04541992 0.004889225
0000e0 87 b6 e1 ba cd 35 a9 3d 0b 49 58 bd e4 03 a2 3d
       -0.0017220535 0.08262215 -0.052804034 0.07910898
0000f0 06 e6 e5 3c 53 d6 b4 bd 57 db ad 3d b8 28 c0 bd
       0.028063785 -0.088299416 0.084891014 -0.093827665
000100 9b 6b 04 3d 27 85 8e 3d 87 e4 ac bd 05 d5 8b bd
       0.032329183 0.069589905 -0.08442026 -0.068277396
000110 99 f6 28 bd 7c 3f 3f 3d 2f 53 94 bb 20 f1 9b ba
       -0.0412508 0.046691403 -0.004526518 -0.0011897422
000120 91 14 ba 3c 0f 4f f8 3c 1d d6 ae bd de 1a 28 3d
       0.022714885 0.030311136 -0.085369326 0.041041248
000130 45 24 9d bd d4 57 06 3d d6 18 5f 3c ea 16 25 3d
       -0.076729335 0.032798603 0.013616761 0.040305056
000140 04 f2 9a 3d b8 5d c3 bd fd 57 1b 3d d4 c3 9f bd
       0.07565692 -0.0953936 0.03792571 -0.07801023
000150 38 e0 b6 bc 42 00 97 bd 57 6b 28 3d 72 87 2f 3d
       -0.022323713 -0.07373096 0.041117992 0.04285378
000160 d5 56 ee bd f4 01 49 3d 3b 7d 9e bc 65 29 f4 3c
       -0.11637656 0.04907413 -0.019346824 0.029804895
000170 f0 97 7c bc ae c3 b2 3c 0d 91 a2 bd a0 dd 64 3d
       -0.015417084 0.021821823 -0.079378225 0.05587542
000180 1b 5e 82 bc 10 f0 89 3d e7 b2 7b 3c 9d e9 fc bd
       -0.015914014 0.067352414 0.015362478 -0.12349246
000190 d6 d6 1a bc b9 da 5c bd 85 98 a3 b9 22 a0 d0 bb
       -0.009450635 -0.053919528 -0.0003120342 -0.0063667456
0001a0 56 f5 c3 3c 84 f9 82 3d 86 bb 00 3d 3e 7a b1 bd
       0.023920696 0.063952476 0.031428836 -0.08665894
0001b0 59 fb 34 3d 72 dc 7c bd 64 61 8a 3d 8d 2f 0b bd
       0.044185016 -0.06173367 0.06756857 -0.033980895
0001c0 e9 df 5d bd 56 0a ac bd 36 f0 05 bc 8f f8 2f bc
       -0.054168615 -0.08400409 -0.0081749465 -0.010740413
0001d0 5a 17 62 bd 3c 85 ff 3b bc ba 99 b8 a7 3c 8c bc
       -0.05519805 0.007797865 -7.3303905e-05 -0.017118765
0001e0 20 a1 32 3b 35 04 ba bd d9 f8 91 bc c5 3b fe 3c
       0.0027256683 -0.09082834 -0.017818855 0.03103436
0001f0 b5 42 74 3d 1a 21 20 bd fa 50 4f 3d ae ab 41 3d
       0.05963393 -0.039094068 0.050614335 0.047282867
000200 15 23 81 bb 09 ba 28 bc 4e fc 3d bd 0b 53 d0 3d
       -0.0039409497 -0.0102982605 -0.046383195 0.10172089
000210 38 5f 89 3d d8 0f 0a be a9 21 e2 bd 18 86 71 bc
       0.06707615 -0.13482606 -0.110415764 -0.014741443
000220 f9 03 c7 bc b1 6d 8f 3d 5a 55 9f 3d 4b 9b 4d bd
       -0.024293886 0.07003344 0.077799514 -0.050196927
000230 e1 e0 37 bd 56 03 c9 3d 6b a8 7a 3e 0c ee c1 bc
       -0.044892196 0.098150894 0.24478309 -0.02367308
000240 cc cc 59 3d 72 6d 98 3b 12 15 c9 bb dc c5 8d 3d
       0.053173825 0.004651719 -0.006136545 0.06922504
000250 64 2b cb bd 40 ff 89 bb 7c 32 a3 3b ac b6 c1 3b
       -0.099203855 -0.0042113364 0.0049803834 0.0059116688
000260 e7 69 36 3d 23 5c bc bd 10 63 6b 3c a5 d7 42 bd
       0.04453459 -0.09197261 0.01436688 -0.047568936
000270 70 bb 33 bd 29 c6 08 bd f7 79 9d 3d c7 48 32 3d
       -0.043879926 -0.033392105 0.076892786 0.043526437
000280 00 17 94 3d f3 46 87 bd 9d e8 3b bd 53 35 18 be
       0.072309494 -0.06605329 -0.045876134 -0.14864092
000290 42 7e 42 bd 9c 9d 59 bb 08 75 03 3d 75 38 8f bd
       -0.04748369 -0.0033205515 0.03209403 -0.0699319
0002a0 8e 3d 43 3c 8e 79 63 bd 25 29 3c 3c d1 e0 3f 3d
       0.011916531 -0.055535845 0.011484419 0.04684526
0002b0 1c 4c bd bd db 05 91 bd 30 9e d2 3d fa d7 41 3d
       -0.09243032 -0.07081195 0.10284078 0.047325112
0002c0 fa d3 4e 3d d7 9a c3 3c 92 ce dc 3d d1 a9 8a bc
       0.050495125 0.023877544 0.10781588 -0.016926678
0002d0 1e d8 88 bd 5a 2a 67 bd 03 fc 81 bd 53 1f 94 3f
       -0.06681846 -0.056436874 -0.063468955 1.1572059
0002e0 e2 18 e1 bd 76 a0 94 3d 6c 5a b0 bd df f0 ae 3a
       -0.10991074 0.07257168 -0.086109966 0.0013346932
0002f0 a3 42 45 3c ef 59 ca bd b9 fa 81 3d 0d 3a f0 3c
       0.012039813 -0.09880435 0.0634665 0.029324556
000300 0b 12 cc bc 3b 35 9c 3e ad 02 04 3d c7 e4 95 bc
       -0.024910947 0.30509362 0.032229114 -0.018297566
000310 7f 86 a9 3c e1 30 23 3d ad 3d 11 3e c1 c7 a2 3d
       0.020694016 0.039841536 0.14183684 0.07948256
000320 74 5c c6 bc c9 05 32 bd 68 53 92 bd a7 a4 32 3c
       -0.024214007 -0.04346255 -0.07144815 0.010903514
000330 13 94 54 3d 04 5e d1 3b 16 26 19 bd e8 31 47 bb
       0.051899027 0.0063893814 -0.037389837 -0.0030394737
000340 08 ad bd 3c f0 f9 e9 3c 8a d5 a8 3b d1 44 28 3d
       0.023153797 0.028561562 0.005152409 0.041081253
000350 4d e0 f8 3d 45 1d 31 bd 72 a1 2c 3d 0d 64 82 bd
       0.12152157 -0.043240804 0.042146154 -0.063667394
000360 e9 34 ac 3b 0e a4 84 3e d1 f6 a7 3d 65 23 9e bd
       0.005255331 0.25906414 0.08201373 -0.07721595
000370 0a 81 b9 3c bc d6 be 3c ab f8 a1 3d 02 fc 27 3d
       0.022644538 0.023295753 0.07908758 0.041011818
000380 51 cb 7e 3d ba b9 bd bc 43 82 8a 3d 79 96 e2 bc
       0.062205616 -0.02315985 0.06763127 -0.027659642
000390 bf 63 56 bd 4d ad 4f bd 73 ce bf bc be b5 60 bd
       -0.05234122 -0.050702382 -0.023413872 -0.054860823
0003a0 08 29 93 3d a1 a2 71 3e 9f c5 0d bc 41 bf 7c bd
       0.071855605 0.23597194 -0.008653074 -0.06170583
0003b0 e3 e3 5b be 9a 5f 99 bd 91 f6 b9 bd 46 ee 4c 3d
       -0.2147365 -0.07488938 -0.09080232 0.050031923
0003c0 9d c7 1a bc 1c 93 1c 3e 52 5c 87 bd 45 7c e7 bc
       -0.009447006 0.15290493 -0.066094056 -0.028257499
0003d0 d3 c3 89 3d 96 04 ea bd 73 ec af 3c 63 6c cc bc
       0.06726804 -0.11426656 0.021475052 -0.024954027
0003e0 77 2a d8 bc 26 f5 8f bd c1 6a de bc bb ac 26 bb
       -0.026387436 -0.0702918 -0.027150514 -0.0025432545
0003f0 33 81 9d bb 06 31 0b bd f6 e8 09 be 41 18 d6 3e
       -0.0048066615 -0.0339823 -0.13467774 0.4181538

fc2.bias f4 [128]
000000 e6 3f f2 bc 4c fe 9e 3e 4b 8c cb bd d8 b3 95 bd
       -0.029571485 0.31053388 -0.09938868 -0.07309693
000010 37 fa af bd 6d 67 b0 bb f8 2e 9f bd d3 f0 92 bd
       -0.085926466 -0.005383423 -0.077726305 -0.0717484
000020 62 8e 52 bd 96 68 c2 b9 60 27 26 bd 42 8d 0b be
       -0.051405318 -0.00037080486 -0.040564895 -0.13628104
000030 63 75 b1 bd 35 4f a1 3e 83 2f eb 3e b7 6c 02 be
       -0.08664968 0.31505743 0.45934686 -0.12736784
000040 02 08 ce 3e 80 ff 4b bd 71 46 5a bc 00 07 44 bd
       0.40240484 -0.04980421 -0.013322459 -0.04785824
000050 a3 25 42 3d 14 8e eb bd 5d fe d8 bd 2d 84 50 3e
       0.047399174 -0.115017086 -0.10595391 0.20362921
000060 09 04 0d be cb 50 a6 bd 3e 61 c4 3e 26 d2 84 bd
       -0.1377107 -0.08120879 0.3835544 -0.06485395
000070 01 61 bc bd cf 55 1c bd 8a 6f 74 3d 2e 3f f7 bd
       -0.091981895 -0.03816777 0.059676684 -0.120725974
000080 44 68 bb 3e 9d 79 af bc 6a a3 8b bd 49 20 ee bd
       0.36602986 -0.021420294 -0.06818278 -0.11627252
000090 cf 01 c4 3e 00 e9 50 bd 6b 9d d6 3e f8 a7 2c bd
       0.3828263 -0.051003456 0.41916975 -0.042152375
0000a0 e5 94 82 bc 97 59 e1 3e 10 59 c1 bd 86 89 64 bd
       -0.01594014 0.44013664 -0.094408154 -0.055795215
0000b0 4b 1a 81 bd 08 af d3 3d 04 67 0f 3d 0d 3b 5e bb
       -0.06303843 0.10336119 0.035010353 -0.0033909709
0000c0 c7 b9 a8 bd 3f 84 a6 3c 2a c0 3d bc f9 a1 c7 3e
       -0.08238559 0.020326732 -0.01158146 0.38990763
0000d0 8f da 11 be d4 ea f0 bd 5c 87 39 bd 4f 87 71 bd
       -0.1424353 -0.1176354 -0.045295104 -0.05896693
0000e0 90 06 2b 3c 82 04 94 bd 82 29 87 3d a9 74 a7 3e
       0.010438576 -0.07227422 0.06599714 0.32706192
0000f0 b6 ad c6 3e d6 62 cf 3e e4 9a 35 be 6a 5a b6 bd
       0.38804406 0.40505093 -0.17734867 -0.08903964
000100 b1 56 97 3e 69 19 d4 bd 05 40 80 bd 72 0b 33 3d
       0.29558328 -0.10356409 -0.06262211 0.043712087
000110 16 c8 c2 3e d4 64 9b bc 4d a4 99 3e 33 30 6f bd
       0.38043278 -0.018968977 0.30008164 -0.058395576
000120 8a a5 c7 bc 2f 53 11 bc bc 05 23 bd a5 0a 05 be
       -0.024370927 -0.00886993 -0.03980039 -0.12992342
000130 df 2d 18 be de b7 c1 3e 65 c0 4c bd 01 80 d9 b9
       -0.14861248 0.37835592 -0.04998817 -0.00041484836
000140 cf 6f f3 bd 9f 34 db 3e e3 c3 59 bd 8d 63 47 3d
       -0.1188656 0.42813584 -0.053165328 0.048678923
000150 0c 77 1a 3d e9 8d 9b bd 3a 1a 0e be 7a e9 ed 3e
       0.03771119 -0.075954266 -0.13877192 0.4646719
000160 7b 0d c6 bd 48 d0 3a be 9e 71 1d 3e 0e 0b 0e bd
       -0.0967054 -0.18243515 0.15375373 -0.03467851
000170 fb 00 66 be d3 4a b3 3e f4 13 f0 bd 03 80 cd 3c
       -0.22461312 0.35018024 -0.11722556 0.025085455
000180 b9 69 d3 bd 8f 83 c5 bb 17 52 82 bd b3 10 cb 3e
       -0.10322899 -0.006027646 -0.06363314 0.39661178
000190 bc 9e f5 be a4 e1 96 3b 30 ef d8 3e ae 4c 02 bc
       -0.47972667 0.004604535 0.42369986 -0.007952852
0001a0 66 5e d3 bd cc 7a f3 bd 76 3a 85 3e b6 ba 3b 3c
       -0.103207394 -0.11888656 0.26021165 0.01145809
0001b0 49 f5 43 be 69 fe c2 bc ca de ab bd 4c b5 69 3d
       -0.19136538 -0.023802953 -0.08392103 0.057057664
0001c0 c0 3a e4 bd 1b 86 e6 3e 3e aa ea 3e be 51 d5 3e
       -0.11144018 0.4502419 0.4583301 0.41663927
0001d0 69 6f ad bd 26 57 a4 bc 52 fe e6 bd 73 4c 90 3e
       -0.084685154 -0.020061087 -0.112789765 0.28183326
0001e0 cf 52 06 be 43 b2 24 bd c5 e8 ce 3e 23 21 af 3e
       -0.13117526 -0.040209066 0.40411964 0.3420497
0001f0 2c fa b2 3e 0a 20 20 3d 31 9f 12 bd 94 1f 8f bd
       0.3495649 0.039093055 -0.035796348 -0.06988445

fc3.weight f4 [64, 128]
000000 f8 d8 4a bd 47 f0 3b bd b8 14 13 3d 29 9e 20 bc
       -0.049523324 -0.045883443 0.03590843 -0.009803333
000010 e6 2d 9b bd eb d2 bc bd cc 53 1b 3d 84 51 7a bd
       -0.07577114 -0.09219917 0.03792171 -0.061112896
000020 1b 2c b9 3c af 4a a0 3d ce 9d 2b bd 11 45 ae 3d
       0.022604039 0.07826745 -0.04189854 0.08509267
000030 e4 bb a3 bd 95 93 aa bd ec 75 83 bc c9 27 c4 bc
       -0.07994822 -0.0832893 -0.01604744 -0.023944752
000040 6f ea 04 be f7 2d 9c 3d fe 94 82 bd 84 f9 3e bd
       -0.12980054 0.076259546 -0.06376074 -0.046624675
000050 f9 c7 a3 bd 29 c0 9e 3d e8 e2 83 3c 66 c0 1b bd
       -0.07997126 0.077514954 0.016099408 -0.038025282
000060 26 d4 87 3d 08 50 e4 3c 0d c0 f8 bd 08 02 68 3d
       0.06632261 0.027870193 -0.12146006 0.056642562
000070 d9 7c f4 b9 94 dc 5c bd d6 1e 0f bd c8 23 a0 bd
       -0.00046632325 -0.053921297 -0.034941517 -0.07819325
000080 08 ef 31 bd f2 24 87 3d 51 02 57 3d b7 aa 91 bd
       -0.04344085 0.06598844 0.052492443 -0.071126394
000090 3f 0e 98 bd 57 0f 21 bd e5 cd 02 bc 3c 5a 24 3d
       -0.07424592 -0.03932127 -0.007983659 0.040125117
0000a0 08 35 35 ba 1e 14 6a bb 2a be 3e 3d 00 3d 60 3d
       -0.00069125043 -0.0035717557 0.046568073 0.054745674
0000b0 00 c9 5a 3d c1 35 82 bd f9 46 5c bd fd 6b 4e bd
       0.053414345 -0.06357909 -0.053778622 -0.050395954
0000c0 8a 4f a9 bd b7 5a b1 bd 1a f2 a6 3d d8 11 f0 bc
       -0.08267124 -0.086598806 0.08151646 -0.029305384
0000d0 9f c9 a0 3c 93 0b 2d bc 74 a3 df bc 06 36 91 3d
       0.01962739 -0.010561842 -0.02729962 0.07090382
0000e0 0b 10 b2 bd 2a 07 f7 bc b4 89 9f 3d 07 fe d9 bd
       -0.08694466 -0.030154783 0.07789937 -0.10644155
0000f0 2b fc 11 bb a5 58 95 bd 31 32 7f bd f2 ad 93 bd
       -0.0022275548 -0.07292298 -0.062303726 -0.07210912
000100 ae c6 3c bd 71 3e 01 bd 99 30 c0 bc 32 92 7c bd
       -0.046087913 -0.03155369 -0.023460673 -0.06166286
000110 9e 11 df ba 3e 95 22 bd b5 a7 87 3c 18 e6 96 bd
       -0.00170188 -0.03969311 0.016559461 -0.07368106
000120 32 64 23 bd 4e eb 19 bc ca da 5a 3d 8e 6f 98 bd
       -0.039890476 -0.00939448 0.05343131 -0.07443152
000130 6e e5 54 3d ea a7 5a bc 3d 63 9d bd 32 20 46 3c
       0.051976614 -0.013345698 -0.07684944 0.012092637
000140 5b e9 4c bd 90 d0 06 3b 3f d4 6f 3d c1 97 3d 3d
       -0.050027233 0.002057109 0.058552023 0.046287302
000150 ab 21 2c bd 6e 36 06 3d f5 55 87 3c 42 60 1f 3d
       -0.042024296 0.032766752 0.01652048 0.038910158
000160 0e 3b 79 bd b9 fc dc bc 24 0c 1c bd 80 31 59 bd
       -0.060847335 -0.026975976 -0.038097516 -0.053025723
000170 c0 e4 a8 3b c0 c0 05 bd fe db 73 bd cf e0 a2 3d
       0.0051542222 -0.032654524 -0.059535973 0.07953035
000180 cb 7d 91 3d a7 34 4b bc 1d 86 e5 ba b2 34 06 3d
       0.07104071 -0.01240269 -0.0017511282 0.032765098
000190 33 5d 88 bc b8 1d f0 bc d0 34 7d bb c6 21 85 3d
       -0.016646003 -0.029311046 -0.0038636215 0.065005824
0001a0 ae a5 94 3c 2d 21 c0 bc 78 07 17 3d bf 75 2e 3c
       0.018145408 -0.02345332 0.036872357 0.01064819
0001b0 55 82 80 3c 44 c9 41 bd 11 4c ab bc 2f 74 ab bd
       0.015687147 -0.047311082 -0.020910295 -0.0837177
0001c0 cc 7e 02 bd ae 1c da 3c ec df 15 bd 5a 78 e8 bd
       -0.031859204 0.026625004 -0.0365905 -0.1135108
0001d0 2d 1a c3 bc fa ac a2 bd 71 b9 9d bc b4 a4 a4 3d
       -0.023816193 -0.07943149 -0.019253464 0.08039227
0001e0 ac 8e 65 bc fb bb 8f bb 02 dc c7 3c bf d1 01 bd
       -0.014011066 -0.0043864227 0.0243969 -0.03169417
0001f0 12 1b ae bc 95 6c 6a bd f2 38 d9 3c 27 72 5c 3d
       -0.021253143 -0.05723246 0.026516411 0.0538198
000200 3d c7 e8 3d 2c cf 09 3e 80 d5 c0 be 20 b9 d8 3c
       0.11366127 0.13457936 -0.37662888 0.026455462
000210 e8 36 4f 39 cb 18 81 3d 8c b9 a0 bd 1f b3 95 bd
       0.00019761513 0.06303557 -0.0784789 -0.07309555
000220 b3 1a 4b 3c b8 00 e2 3c 2d af b7 bd 5c 6a 10 bd
       0.012396502 0.027588233 -0.08968959 -0.035257682
000230 f7 05 8a 3c 9a 65 4a 3e 1b a7 31 3e 52 a6 b9 bd
       0.016848547 0.1976532 0.17348902 -0.09064926
000240 1e 36 34 3e c7 ee f7 bc ec d1 65 3b 46 85 2d bd
       0.17598769 -0.030265225 0.003506775 -0.042363428
000250 9c 0e dc 3c d5 d0 87 3d 5c e7 b3 3d cd da 30 3f
       0.026862435 0.066316284 0.08784363 0.69083863
000260 7a f4 5e bd 84 3c 61 3d 77 0a 1d 3e 16 ef d1 3d
       -0.05443237 0.054989353 0.15336023 0.1025068
000270 2a fb 37 3d 33 c9 98 bd ce 02 92 3d 94 79 51 bd
       0.044917263 -0.07460251 0.07129441 -0.051141337
000280 5d 37 9e 3e 46 d5 ae bd c2 8a 64 3d 97 7e d7 bf
       0.30901614 -0.085367724 0.055796392 -1.6835507
000290 fc 65 02 3e 8b 2b b2 be c9 b3 2c 3e ba 64 fc 3c
       0.12734216 -0.34798846 0.16865458 0.030809749
0002a0 43 96 32 bd 06 19 b1 3f 3b 0e d2 bd 02 d8 db 3b
       -0.043600332 1.3835762 -0.102566205 0.0067090997
0002b0 8c 70 3c 3d 04 99 6b bb a0 5b d1 bd 9d 90 de bd
       0.04600577 -0.0035949359 -0.10222554 -0.108674265
0002c0 04 ab 83 bc 66 c8 55 bd 0a e1 fe bb 11 55 73 3e
       -0.016072758 -0.052193068 -0.0077782916 0.23762919
0002d0 17 bb 67 3b 98 e1 29 bb d8 6d 81 3d 17 5c 88 bd
       0.0035359317 -0.0025921818 0.06319779 -0.0665819
0002e0 3e d9 49 3d 61 65 db bc f4 01 93 3c 83 f8 25 3e
       0.049279444 -0.02678174 0.017945267 0.16208081
0002f0 68 54 b1 3d 8f 8a 64 3e 5e fe ac be 4b b9 bc 3c
       0.08658677 0.22318481 -0.33787817 0.023037573
000300 e1 b6 55 3e 80 cd 89 3d 6e d8 3e 3d e5 4d d7 bc
       0.20870544 0.06728649 0.046593122 -0.02628226
000310 2c 40 74 3e b8 ad ce 3c c8 b7 8d 3d d6 a2 77 bd
       0.23852605 0.02522932 0.06919819 -0.060458027
000320 14 bf 4e bd cd ed 47 bc c2 74 89 bd 14 c5 47 3d
       -0.050475195 -0.012202692 -0.06711723 0.048771933
000330 e9 b4 b5 3c 04 a9 06 3e 2e 5d ef 3d 6b 66 47 3d
       0.022180991 0.13150412 0.116876945 0.048681658
000340 0b 1f d8 3c ca ad 3b 3e dc c7 f9 bb 45 01 46 bd
       0.02638199 0.18328014 -0.007622702 -0.048341054
000350 a8 ce 03 bd e2 4e b8 3d 17 2c bf 3d b1 8c 21 3e
       -0.032179505 0.08999421 0.09334581 0.15776326
000360 a2 80 71 3d dd 73 4c 3d f3 62 05 3f fb b1 4a 3b
       0.058960564 0.049915183 0.5210411 0.0030928839
000370 d2 b1 c8 3a 04 a1 b6 3d 0b bf 39 bc 6c 17 80 3d
       0.0015311784 0.0891743 -0.011337052 0.06254467
000380 20 1b 57 bd ae 1b b9 3c 21 f1 b3 bd 62 a0 6a 3e
       -0.052516103 0.022596207 -0.08786226 0.22912744
000390 a2 47 bb be 64 97 6b bd 10 9e 56 3e 8c c1 9e bd
       -0.3657809 -0.057517424 0.20958734 -0.0775176
0003a0 d4 bf 00 bd 2f 71 7a 3d b7 37 25 3d 11 6c f0 3d
       -0.03143294 0.061143097 0.040336337 0.11739362
0003b0 f5 e4 dc 3e f0 ee bb 3c 12 4d a2 3d 33 2f dc bd
       0.4314343 0.022941083 0.07924856 -0.1075119
0003c0 e5 25 82 3d 0d 1c 2d 3e 3b 2b e9 3d f9 1a 67 3e
       0.06354884 0.16905232 0.11385199 0.22568883
0003d0 e0 0c d9 ba fe bb f9 3c 46 96 f6 3b d2 ac a0 3f
       -0.0016559623 0.03048515 0.007525238 1.255274
0003e0 6e 43 84 3b 78 f2 57 3d 43 c1 ee 3d 66 55 4a 3e
       0.0040363586 0.05272147 0.116579555 0.1975914
0003f0 e7 e0 ed 3d ba c5 1c bc ec 16 7e 3c 2d 4a ea 3d
       0.11615162 -0.009568626 0.015508395 0.11439929

fc3.bias f4 [64]
000000 c2 40 dd bd 27 c0 22 3f ea 6f d1 3e a8 20 24 3f
       -0.10803367 0.6357445 0.40905696 0.6411233
000010 cd 8d 54 bd b2 44 12 3f 06 2c 5d 3c 26 e5 05 bd
       -0.051893044 0.5713607 0.013499266 -0.032689236
000020 2d df 89 bd 8b 37 1a 3f 0c bd 3c bd 9c b2 54 bd
       -0.067320205 0.60241 -0.046078727 -0.051928148
000030 14 fe 22 bd 85 7a aa bd 44 97 54 3d 9a eb 0b 3f
       -0.03979309 -0.0832415 0.05190207 0.54656374
000040 73 57 bb bd 11 00 8e bd 7d 4b 7b bd 6e ff 13 3f
       -0.09147539 -0.069336064 -0.061351288 0.5781163
000050 9f 11 8a bd 02 00 1c 3f e4 a0 9a bd 84 c5 ef 3e
       -0.06741642 0.6093751 -0.07550219 0.4683038
000060 5c 1c 8a bd fc 06 3e 3d bd 88 a0 3d ab 8b 24 3f
       -0.0674369 0.04639338 0.07838581 0.64275616
000070 52 ad 9d 3c 06 e6 4e bd 03 43 0b 3d f1 53 a7 bd
       0.019247685 -0.050512336 0.033999454 -0.081703074
000080 7b 34 42 bd a3 8f 42 bd 9a ea 8b 3d 8a 7a 02 3c
       -0.04741333 -0.047500264 0.06831856 0.007963786
000090 79 95 b3 bc 14 a3 7c 3d 60 3e 14 3f b2 f5 17 3f
       -0.02192186 0.06167896 0.57907677 0.59359276
0000a0 79 8e 65 bc 1e fa 53 bd 4d b3 7a 3d de 14 29 3f
       -0.014011019 -0.051752202 0.06120615 0.66047466
0000b0 ce f5 07 3f b8 36 d1 3c 50 19 f8 bd 3c ea 50 bd
       0.53109443 0.025538787 -0.12114203 -0.051004633
0000c0 fa d8 e9 bd e9 08 11 3f 5a 0e f4 3e c1 a9 e6 3c
       -0.11418338 0.5665422 0.476672 0.028157117
0000d0 b6 db e8 bd 41 2c 66 3c a3 d7 84 bd d1 2b 0f 3f
       -0.113700315 0.014048637 -0.06486442 0.55926234
0000e0 8c 6d ab 3d b8 84 9f bd 1f 15 f1 bc 30 1a 53 bd
       0.08370504 -0.07788986 -0.029429017 -0.051538646
0000f0 27 fe f9 3e 47 0b 88 bd e2 8e 4d ba a7 15 e8 3e
       0.48826715 -0.06642776 -0.00078414206 0.4532902

fc4.weight f4 [128, 64]
000000 f6 4d 46 bd 26 2b f3 3e 6a 43 80 3f b9 71 ea 3e
       -0.048414193 0.47493857 1.0020573 0.45789889
000010 65 bc 93 bd 78 8f fb 3e d5 de 1c 3c 34 a5 bd bc
       -0.07213668 0.49132895 0.009574612 -0.023150064
000020 28 fd 62 bd e8 29 f1 3e 86 0e 85 bd ee d9 03 3c
       -0.05541721 0.47102284 -0.06496911 0.008047564
000030 82 82 5f 3c 35 10 0d bb db 18 7c bd c8 0f 0a 3f
       0.013641955 -0.0021524553 -0.06154714 0.5393033
000040 6d aa e3 bc 8f e7 f5 3c 67 c5 2a bd 5a 14 04 3f
       -0.027791226 0.030017642 -0.041692164 0.51593554
000050 5a 83 53 3d f2 6b 01 3f aa cd 04 3c 2c 94 0e 3f
       0.05163894 0.50555336 0.008105675 0.5569484
000060 1c d6 20 bc 64 e7 d6 39 94 ab 73 3c 28 21 e6 3e
       -0.009816673 0.0004098966 0.01487245 0.4494717
000070 d9 0d 22 3c 14 35 e4 bb 48 bf f3 3c a9 40 2e bd
       0.009890997 -0.006964335 0.029754296 -0.042542133
000080 b1 37 9b bd 1f 91 8a bd 02 66 6c bd 72 d8 d3 3c
       -0.07578982 -0.06765961 -0.05771447 0.025860045
000090 04 1e 6b bd e9 d4 21 3c 70 76 fb 3e b5 19 f4 3e
       -0.057401672 0.009877422 0.49113798 0.47675863
0000a0 53 82 90 3c 5b d4 b8 3c 52 b1 79 bb 5a 6d 01 3f
       0.017640268 0.022562196 -0.0038100076 0.5055748
0000b0 78 1b f0 3e 5c 1a 56 bd 7b 1e 37 3d 58 ef da 3d
       0.46895957 -0.052271232 0.044706803 0.106901824
0000c0 7b b7 c3 bc b2 df f8 3e 2d ba f9 3e 25 9d 84 bd
       -0.023891201 0.48608166 0.48774853 -0.064752854
0000d0 80 19 98 bc ea 3b 9c bd 0e 6c 5e 3d e6 9e ff 3e
       -0.018566847 -0.07628615 0.054302268 0.49925917
0000e0 d9 66 02 bb d8 af 94 3d 0d ca 95 3c d5 66 35 bc
       -0.0019897728 0.07260102 0.018284822 -0.01107188
0000f0 cc e0 0d 3f 3f 98 94 bd 92 a5 44 bb 2d 65 25 3f
       0.5542114 -0.07255601 -0.0030005914 0.64607507
000100 20 5c 96 bb 94 9c d5 bd 88 d5 30 bd a8 4f ba 3c
       -0.004588619 -0.104302555 -0.04317239 0.022743061
000110 8c 7a 8b 3d 32 13 f9 bd 12 21 ae 3d a6 02 d8 3d
       0.06810483 -0.12161864 0.085024014 0.1054738
000120 80 99 95 bd e6 ac dd bd 64 2e 6a 3d 72 1f a1 3d
       -0.073046684 -0.108239934 0.057173148 0.07867326
000130 5c ea 1e 3d 2e 3b a8 bd a4 81 37 3d 24 d5 e6 bd
       0.03879772 -0.08214413 0.04480137 -0.11271122
000140 60 1d db 3c ce ac e7 bd 74 ec 79 3d 2c ca bf 3d
       0.026747406 -0.11312257 0.061016515 0.09364733
000150 3e 8e cf 3d 8a 58 96 bd c4 8d 4f bd 40 fd 68 bb
       0.101345524 -0.07341106 -0.050672308 -0.003555134
000160 98 81 6f 3d 00 fc 18 3b 1a 48 92 3d f0 51 02 bc
       0.0584732 0.0023343563 0.071426585 -0.007954106
000170 e8 f4 9a 3c 7c 4e 91 3d 32 98 f0 bd 68 1f 63 bd
       0.018915609 0.07095048 -0.11747779 -0.055449873
000180 9a fa a4 bd 14 05 eb bd 4c d1 2a 3d fc bd 47 bd
       -0.08055611 -0.11475578 0.041703507 -0.048765168
000190 2c bb 58 bd da 5b f9 3d bc e2 a4 bd 3c 82 c4 bd
       -0.052912876 0.121757224 -0.08051059 -0.09595153
0001a0 f8 0b f2 3c 8c ff e7 3d ee 3d e4 bd 7c 62 15 3d
       0.029546723 0.113280386 -0.11144625 0.036470875
0001b0 96 33 fc 3d a4 61 4f bd 90 f0 9a 3c 7c 44 b0 bd
       0.12314527 -0.050630227 0.018913537 -0.08606812
0001c0 00 be c5 bb e6 df f1 bd ec b8 5b bd 36 48 d0 bd
       -0.0060346127 -0.11810283 -0.053643152 -0.10170023
0001d0 1c f7 bc 3d b2 ca e4 3d c0 b9 9c bc 58 de d7 bd
       0.0922682 0.111714736 -0.019131541 -0.105404556
0001e0 d4 07 7c bd 16 60 c0 3d 10 3a 2e bc f0 92 67 3c
       -0.061530903 0.09393327 -0.01063396 0.014134154
0001f0 68 7f 17 3d 62 dd ba bd 44 69 48 bd 84 80 c3 bd
       0.03698674 -0.09124257 -0.048928514 -0.09545997
000200 0c 10 2c 3d 80 55 13 bb 5c fd 8d 3d b2 e5 d4 bd
       0.04200749 -0.0022481382 0.0693309 -0.103953734
000210 00 7c 36 3a 2a 99 eb 3d 86 f5 c4 bd 44 44 2a bd
       0.00069612265 0.11503823 -0.096171424 -0.04156901
000220 88 da f8 bc 54 a8 3c bd 4c 4b 92 bd 5a 66 91 3d
       -0.030377641 -0.046058968 -0.07143268 0.070996
000230 e0 00 d0 bb 88 cf 22 bd 74 16 35 3d 34 ec ac bd
       -0.0063477606 -0.0397487 0.044210866 -0.0844349
000240 10 0c f3 bc ae 7f 94 3d a4 00 a0 3d 1c 15 11 bd
       -0.029668838 0.072509155 0.07812622 -0.035420522
000250 f8 3e 98 3d 64 80 09 bd b8 17 ba bc 3e 81 bf bd
       0.07433885 -0.03356971 -0.022716388 -0.09350823
000260 5c a1 dd bd c8 3d 17 3d a0 2e c8 3b 54 c6 42 3d
       -0.108217925 0.036924154 0.0061090738 0.04755242
000270 0a be 9f bd 50 7b ea 3d 18 0b fd bd b4 2a 5b 3d
       -0.07799919 0.11449301 -0.123556316 0.05350752
000280 08 a6 15 bd 60 5c 8f 3c 3e 87 e4 bd 26 75 91 bd
       -0.036535293 0.017500103 -0.11158608 -0.071024224
000290 80 6c aa 3d 1c de b6 3d 2c 95 ce bd 10 45 3b 3c
       0.08321476 0.08929083 -0.10087046 0.01143004
0002a0 f0 2b 94 bc 58 44 3f bd b8 d6 3b 3d 2e a5 ae bd
       -0.018087357 -0.046696037 0.04585907 -0.08527599
0002b0 10 1e 96 bc 8c b8 8a 3d 2e fa fe 3d 4c 4b da bd
       -0.018324882 0.06773481 0.12450062 -0.10658893
0002c0 e0 15 fb bb 00 85 33 ba b8 ec 90 bd c0 bf 4d 3c
       -0.00766252 -0.00068481266 -0.070764005 0.012557924
0002d0 6c ca 3e 3d 40 2b 68 bd e6 84 8e 3d 50 36 dc bc
       0.046579763 -0.05668187 0.06958942 -0.026881367
0002e0 18 2a 27 3d bc eb 8a bd 44 6d ab bd a0 38 5f bd
       0.040811628 -0.06783244 -0.0837045 -0.05449736
0002f0 48 0a 3b bd 9a 66 9b 3d a0 d4 38 3d c8 06 fb bd
       -0.0456641 0.07587929 0.04512465 -0.12257153
000300 28 35 c2 3c ac 4f 8a bd 02 06 dd 3d 00 12 58 3c
       0.023706988 -0.067534775 0.107921615 0.013187885
000310 b8 5b a1 bd c0 8f 8a 3b 3a 8d ba 3d 90 fb af 3d
       -0.07878822 0.004228562 0.09108968 0.085929036
000320 a4 85 a4 bd 96 43 9c bd 08 b5 e3 bd f0 30 2c bd
       -0.080333024 -0.076300785 -0.11118513 -0.042038858
000330 d4 32 60 3d e8 f5 2a bd 84 fb f0 bd 22 25 9f 3d
       0.054735973 -0.04173842 -0.11766723 0.077707544
000340 e8 02 e8 3c f8 95 82 3c 14 2a d1 bd 30 62 ac bd
       0.028321698 0.015940651 -0.10213104 -0.08417165
000350 d8 9e cf bc 54 c4 e6 bd a0 da c3 3b aa 47 a6 bd
       -0.025344297 -0.11267915 0.00597699 -0.081191376
000360 7c ee 7f 3d 38 00 18 bd f4 7b c4 3d 38 53 e0 3d
       0.062483296 -0.037109584 0.09593955 0.10953373
000370 06 e7 c9 bd fe 9e c8 bd 9c d2 e3 3d 04 7b 5a 3d
       -0.09858517 -0.0979595 0.11124155 0.053339973
000380 66 f6 da bd 00 3a 6c 3d 88 9c ca 3d 3c b2 d6 bd
       -0.10691528 0.0576725 0.09893137 -0.10483214
000390 e8 39 87 3d 00 c3 86 bc 7c ec 10 3d 50 c3 e3 bc
       0.066028416 -0.016450405 0.03538178 -0.027803093
0003a0 bc b1 52 3d 40 bc cc bd 56 a5 93 3d f0 07 c0 bc
       0.051439032 -0.09996843 0.0720927 -0.023441285
0003b0 f2 4b 91 3d 6c 11 ea 3d 5e 7c ef bd 68 34 eb bd
       0.070945635 0.11429104 -0.11693643 -0.11484605
0003c0 b6 ed a6 3d b8 3b 95 3d 0c 00 43 bd 90 29 0b 3d
       0.081508085 0.07286781 -0.047607467 0.033975184
0003d0 50 75 e6 3d e8 68 f4 3c 60 d3 24 bd 08 8f 95 3c
       0.11252844 0.02983518 -0.040240645 0.01825668
0003e0 52 17 e3 3d 74 e4 2f 3d 30 4b 6b 3c 7a 39 e9 3d
       0.11088432 0.04294248 0.014361188 0.11387916
0003f0 00 ea 43 bc b8 03 b2 bc bc 2a 64 bd 80 fb d8 ba
       -0.011957645 -0.021730289 -0.055704817 -0.0016554445

fc4.bias f4 [128]
000000 ac ed 42 3f 10 c1 96 3d 5e f7 82 bd 74 f7 c1 bd
       0.7614391 0.073610425 -0.06394838 -0.09471026
000010 64 c3 ef bd 88 08 b8 bd 00 70 1a 3b 44 30 77 bd
       -0.1170719 -0.08986002 0.0023565292 -0.060348764
000020 50 67 3e bd 00 b1 0c 3b ec d8 e5 3d c8 70 fa 3c
       -0.046485245 0.0021467805 0.11223015 0.030571356
000030 b6 c9 ea 3d 48 92 82 bd 1c d1 00 bd da 57 f0 bd
       0.114642546 -0.06375557 -0.031449422 -0.11735506
000040 4e 43 fb 3d fe ca a0 3d 5c a5 c6 3d 18 63 c9 bd
       0.12268697 0.07851218 0.096995085 -0.09833354
000050 e8 0a 94 bd b0 57 23 bc a0 b8 a0 3d 02 8e ee bd
       -0.07228643 -0.009969637 0.078477144 -0.116481796
000060 18 e3 db 3d b2 c2 af bd 74 f5 95 bd 28 43 f7 bd
       0.10736674 -0.08582057 -0.07322207 -0.12073356
000070 1e 14 c9 bd d4 50 6e bd 7e 22 ed bd cc 38 5a 3d
       -0.0981829 -0.058182552 -0.115788445 0.053276822
000080 c0 1b 14 bb 32 06 e7 bd e0 3a 96 3b f8 fd eb bc
       -0.0022599548 -0.112804785 0.004584655 -0.028807625
000090 02 29 f9 bd 3a 7e aa bd 7c 07 87 3d c0 f9 f0 bc
       -0.12166025 -0.08324857 0.065932244 -0.029415965
0000a0 c0 7f 1b 3b 58 c2 e1 3d d0 69 03 bc 30 be 10 bc
       0.0023727268 0.11023396 -0.008020833 -0.008834407
0000b0 8a 58 ab 3d 5e 6d 88 3d 1c e7 3c bd c2 02 ef bd
       0.08366497 0.06661485 -0.04611884 -0.11670448
0000c0 00 a0 44 38 e0 ae a5 3b e4 4a 24 bd ec 7c 16 3d
       4.6879053e-05 0.005056247 -0.040110484 0.03674023
0000d0 64 5e f2 3d 64 7f 07 3d 0e e5 cb bd fc 44 ae 3d
       0.1183441 0.033080474 -0.09955798 0.085092515
0000e0 a8 cd 72 bd 70 4c 90 bc d0 c9 9c 3c 80 38 fd 3b
       -0.05927816 -0.017614573 0.0191392 0.0077276826
0000f0 18 42 ca bc 64 76 3d bd d4 99 97 bd aa 3a c9 bd
       -0.02468972 -0.046255484 -0.07402387 -0.098256424
000100 d2 2d b1 3d ca 9e 9f 3d fc 4d 71 3d 5c 67 e9 bd
       0.08651318 0.077939585 0.058912262 -0.11396667
000110 64 5b cf bd 90 39 df bc 80 73 aa 3a 20 bb 01 bc
       -0.10124853 -0.027249128 0.0013004392 -0.007918149
000120 c8 51 97 bc c0 5d 9a bc 2e 76 80 bd 30 0e 66 3c
       -0.018471614 -0.018843532 -0.06272541 0.0140414685
000130 74 c4 9d bd 7e e1 d3 3d aa 56 a7 3d 10 3c 3a 3d
       -0.07703486 0.103457436 0.08170827 0.045467436
000140 e8 51 ee bc a0 91 5a 3c 00 b0 18 b9 54 37 a9 bd
       -0.02909179 0.013340384 -0.00014561415 -0.08262506
000150 2c 3f b9 3d 68 c0 21 3d 08 c3 c4 bc 48 c0 e3 bd
       0.09045252 0.039490134 -0.02401878 -0.11120659
000160 fe 20 f7 bd 80 62 99 3a ea 85 cf 3d f4 55 80 3d
       -0.1206684 0.0011702329 0.10132964 0.06266394
000170 f0 53 1f bd 68 e7 67 3d ee 10 af 3d e0 38 a7 3c
       -0.03889841 0.05661717 0.08548151 0.020412862
000180 d4 d6 d1 3d 18 d2 8e 3d 54 3a 86 3d d4 cb c5 bd
       0.10246053 0.06973666 0.06554094 -0.09658018
000190 b0 74 9c bc 74 f1 af bd 24 49 47 bd 60 7b 39 bc
       -0.01909861 -0.085909754 -0.048653737 -0.011320919
0001a0 80 7d 9d 3d d0 34 31 bc 00 1d d6 bb 5a 32 d2 bd
       0.07689953 -0.010815814 -0.006534219 -0.1026351
0001b0 40 2e c6 3d b8 61 a7 3c d8 87 da bc 92 9d 9e bd
       0.0967679 0.020432338 -0.026676103 -0.07744898
0001c0 10 dd 15 bd 80 85 99 bc f4 54 87 bd 20 c1 cc 3d
       -0.036587775 -0.018740416 -0.066080004 0.09997773
0001d0 20 76 c2 bd d0 b4 3a bc b0 44 b7 bd 50 46 c7 3d
       -0.09495187 -0.011395648 -0.08948648 0.09730208
0001e0 72 1a a3 bd a0 74 89 bd f0 82 16 3d a8 9b e9 3c
       -0.079640284 -0.067116976 0.036745965 0.028516605
0001f0 60 49 05 bc 78 e8 f9 bc e4 c2 18 bd 16 58 ae bd
       -0.00813517 -0.030506358 -0.037295237 -0.08512895
