models/comparison_5000ep_dqn/best_pointwise_dqn_5000ep.pt (torch, 131928 bytes, 7 tensors)

fc1.weight f4 [128, 56]
0	0xbdf0980e	-0.11747752
1	0xbe03d667	-0.12874757
2	0x3d7fbb87	0.0624347
3	0xbd1165e4	-0.03549756
4	0x3ddec7e7	0.10877972
5	0x3d801a95	0.0625507
6	0xbccc07cd	-0.024906063
7	0xbe03efe0	-0.12884474
8	0xbda30133	-0.07959213
9	0xbc8d5e94	-0.017257012
10	0xbd8fc297	-0.07019537
11	0xbd03ce91	-0.03217942
12	0xbdcbd7a2	-0.09953238
13	0x3c869d2a	0.016432364
14	0xbd27ffa5	-0.041015286
15	0xbcd85bd2	-0.02641097
16	0xbd67ae2e	-0.056562595
17	0xbd27b6b3	-0.04094572
18	0x3d35ff5a	0.044432975
19	0xbd6c84bc	-0.057743773
20	0x3dab13b1	0.08353365
21	0x3b89bba4	0.0042032767
22	0xbc907eba	-0.017638553
23	0xbdc754d5	-0.09732977
24	0xbd0766c8	-0.033057004
25	0xbac066a4	-0.0014679027
26	0x3db1ae96	0.08675878
27	0xbd548269	-0.05188218
28	0x3dbef3c2	0.09323837
29	0xbdf9427c	-0.12170884
30	0x3db0ae95	0.08627049
31	0xbb0009b8	-0.0019537043
32	0xbc13a93b	-0.009012516
33	0xbd882666	-0.06647949
34	0x3e042e20	0.1290822
35	0x3dae3cfb	0.08507725
36	0x3dffe39e	0.124945864
37	0xbdb8274e	-0.08991872
38	0xbdaea53b	-0.08527609
39	0xbdb566fd	-0.08857534
40	0x3cc7d309	0.024392622
41	0xbc7d8696	-0.015473982
42	0xbdba30b0	-0.09091318
43	0xbd964a00	-0.07338333
44	0xbd763250	-0.060106575
45	0xbd93c51e	-0.072153315
46	0x3cc69052	0.02423874
47	0x3bf4e68b	0.007473772
48	0xbde11fa5	-0.10992364
49	0xbcf3aa68	-0.029744342
50	0xbd38fefa	-0.04516504
51	0x3dd184f1	0.10230435
52	0x3d06898a	0.03284601
53	0x3dee35ac	0.11631331
54	0x3de3669a	0.11103554
55	0x3d232de2	0.03983868
56	0xbd9ef6e4	-0.077619344
57	0xbd810f65	-0.063017644
58	0x3de383ca	0.11109121
59	0x3c828276	0.01593135
60	0x3d87c106	0.06628613
61	0xbca40fd6	-0.020027082
62	0x3b3705d6	0.0027927062
63	0x3da071c5	0.078342
64	0x3db3b2da	0.087743476
65	0x3d8557f7	0.065109186
66	0xbd9a81ce	-0.075442895
67	0xbe07446f	-0.13209699
68	0xbe0048ca	-0.12527767
69	0xbda11f65	-0.07867316
70	0xbd21e283	-0.03952266
71	0x3db81c70	0.08989799
72	0xbdc6c585	-0.097056426
73	0xbcac07f1	-0.02099988
74	0xbde34998	-0.11098021
75	0xbdb33b78	-0.08751577
76	0xbe028560	-0.12746191
77	0x3dbb5459	0.091469474
78	0x3df83466	0.12119369
79	0xbd8c0011	-0.0683595
80	0xbd11f292	-0.035631724
81	0xbd0d29b6	-0.034463607
82	0xbdeddbe0	-0.116142035
83	0xbd896ece	-0.067105874
84	0xbd8c57c9	-0.06852681
85	0x3d9d9308	0.076940596
86	0x3dfbcba0	0.12294698
87	0x3e06c507	0.13161097
88	0x3d68b0f9	0.0568094
89	0xbdf569ab	-0.11983045
90	0xbdf148af	-0.117814414
91	0x3d9a5ce3	0.07537248
92	0xbd00aa65	-0.0314125
93	0x3d556d89	0.052106414
94	0x3dc9d917	0.0985586
95	0xbdd08539	-0.1018166
96	0x3dc5a06f	0.09649741
97	0xbded90fb	-0.115999185
98	0xbde42efd	-0.11141775
99	0x3c8cfac2	0.017209414
100	0x3d718b43	0.0589707
101	0x3c5a4ab9	0.013323479
102	0x3d35266b	0.04422609
103	0xbd76dc20	-0.06026852
104	0xbdeba11f	-0.11505341
105	0xbdfdbed4	-0.12389913
106	0xbccfd667	-0.02537079
107	0x3daa7e5c	0.083248824
108	0xbdda1bda	-0.106498435
109	0x3df9d486	0.12198739
110	0x3d9a9e5c	0.07549736
111	0xbccb3f16	-0.024810355
112	0xbd12b9cc	-0.03582172
113	0x3b78ef5f	0.0037984473
114	0xbc9dea56	-0.01927678
115	0xbe0332e9	-0.1281239
116	0x3dfd7f7d	0.12377832
117	0xbbe4c9a2	-0.0069820443
118	0xbdd6beab	-0.10485586
119	0x3d309218	0.043108076
120	0xbdb02dbf	-0.086024754
121	0xbde0a298	-0.10968512
122	0x3d528cae	0.051403694
123	0x3dfc5652	0.12321152
124	0x3ca78ea9	0.020453768
125	0x3d5104ce	0.051029973
126	0x3dbf79d5	0.093494095
127	0xbdc66bcc	-0.09688529
128	0x3d803453	0.0625998
129	0xbd91ba03	-0.07115557
130	0x3b3b1f1a	0.0028552474
131	0xbda022d8	-0.07819146
132	0xbd9f2fd8	-0.07772797
133	0xbbe64c5c	-0.0070281457
134	0x3bcccf71	0.006250315
135	0xbda1ca38	-0.07899898
136	0xbcda406e	-0.02664205
137	0x3c52ae30	0.012858912
138	0xbc78420e	-0.015152467
139	0xbe0852f4	-0.13312894
140	0x3d85da6f	0.065358035
141	0xbe05a3b3	-0.13050728
142	0xbd394ed2	-0.045241185
143	0x3bcf9707	0.0063351425
144	0x3cae916b	0.021309575
145	0xbcbafa30	-0.022824377
146	0x3d44def9	0.048064206
147	0xbdce6cdd	-0.10079358
148	0x3e07a412	0.13246182
149	0x3d1d4b3b	0.038401823
150	0xbd0091bd	-0.031388987
151	0xbddf4ae5	-0.10902957
152	0xba221a30	-0.0006183712
153	0x3d46d74f	0.048545178
154	0x3d48d5ff	0.049032208
155	0xbd87f430	-0.06638372
156	0xbda26bed	-0.079307415
157	0x3cf7070e	0.030154731
158	0xbd539842	-0.051658876
159	0x3c008a46	0.007845467
160	0x3db0ea68	0.086384594
161	0x3d669366	0.056292914
162	0x3ded7eb9	0.11596436
163	0xbb5b0187	-0.0033417658
164	0x3d742f1e	0.059615247
165	0xbda87899	-0.08226127
166	0x3d641c48	0.055691034
167	0x3d5b4e73	0.053541612
168	0xbdedd4a4	-0.116128236
169	0x3dbc11cb	0.09183081
170	0x3e0444d8	0.12916887
171	0x3d300957	0.042977657
172	0xbdf7f8d9	-0.12108011
173	0x3cb70fec	0.02234646
174	0x3da8ae2d	0.082363464
175	0xbc2f3942	-0.010694804
176	0xbc7d97d3	-0.015478092
177	0xbaab56ea	-0.0013072167
178	0x3d229c9c	0.039700136
179	0xbcf7b166	-0.030235957
180	0xbdb88eeb	-0.090116344
181	0x3d0e46ff	0.034735676
182	0xbd8fccac	-0.0702146
183	0x3db2c87a	0.08729644
184	0xbe07b961	-0.1325431
185	0x3e0150aa	0.12628427
186	0xbdab478a	-0.08363254
187	0x3d878c66	0.06618576
188	0xbdad5582	-0.08463575
189	0xbd2d296f	-0.042275842
190	0x3d6a6c13	0.057231974
191	0xbcb46219	-0.022019433
192	0x3da7b06d	0.081879474
193	0xbcece22d	-0.028916443
194	0x3d34c545	0.044133443
195	0x3d172968	0.036904722
196	0xbe023f36	-0.12719426
197	0x3ad6b79e	0.0016381626
198	0xbdcc0569	-0.099619694
199	0x3db542bd	0.0885062
200	0xbd9dc121	-0.07702852
201	0xbd8852ac	-0.066563934
202	0xbd2d5142	-0.04231382
203	0xbde6c943	-0.112688564
204	0x3cf7fdde	0.03027242
205	0xbde75571	-0.112955935
206	0x3e00267c	0.1251468
207	0x3d9fae68	0.07796937
208	0x3dd42c1a	0.10359974
209	0xbdf328b1	-0.11872996
210	0xbd629af5	-0.05532356
211	0x3d55940e	0.05214315
212	0x3db7d6b3	0.089764975
213	0x3ddb8cd6	0.10720222
214	0x3c9425d7	0.01808445
215	0x3d969151	0.07351936
216	0x3d4b241c	0.049594983
217	0x3c9a3126	0.018822264
218	0x3d951b78	0.0728063
219	0xbdac39a5	-0.08409432
220	0x3d9eefb8	0.077605665
221	0xbda6f9fb	-0.08153149
222	0x3c6f8fd6	0.0146216955
223	0xbd9ebbba	-0.0775065
224	0x3c97033d	0.018434161
225	0x3d2ea141	0.042634252
226	0x3e04715d	0.1293387
227	0xbc85482c	-0.016269766
228	0xbda2a644	-0.07941869
229	0x3b67d80a	0.0035376572
230	0x3da00eb5	0.07815305
231	0xbc816621	-0.01579577
232	0x3d806139	0.06268544
233	0x3c07e342	0.008293929
234	0x3dae2ac2	0.08504249
235	0x3ddca1c5	0.107730426
236	0xbd58e149	-0.052949224
237	0x3dc284a4	0.094979554
238	0xbc109625	-0.00882486
239	0x3dbe76b3	0.09299984
240	0x3a2defdc	0.0006635168
241	0x3df99ac3	0.121877216
242	0x3d5bd35c	0.053668365
243	0xbd9be64c	-0.07612285
244	0x3d943c79	0.07238097
245	0x3d9ba80a	0.0760041
246	0xbde2eecf	-0.110807054
247	0x3df975f0	0.12180698
248	0xbd1d82ca	-0.03845481
249	0xbd89cda2	-0.067286745
250	0x3dbddb3c	0.09270331
251	0x3b077056	0.0020666323
252	0x3dc07871	0.093979724
253	0x3dc3a0fd	0.095521905
254	0x3ca7e829	0.020496445
255	0x3d87f467	0.06638413

fc1.bias f4 [128]
0	0xbddadabe	-0.10686253
1	0xbb601069	-0.0034189469
2	0x39cb33ba	0.00038757717
3	0x3dbcaafe	0.09212302
4	0x3daeacc1	0.08529044
5	0xbdf3e529	-0.11908943
6	0xbd360856	-0.044441544
7	0x3da93e63	0.082638524
8	0x3e029481	0.12751962
9	0x3d988c0b	0.07448586
10	0xbbde610c	-0.006786471
11	0xbd9d36ff	-0.07676505
12	0x3d9ae419	0.075630374
13	0x3dbff897	0.093735866
14	0xbd1943c5	-0.037418146
15	0xbca97e4c	-0.020690106
16	0x3de4755f	0.11155199
17	0x3dd4625b	0.10370322
18	0x3da9d11b	0.08291837
19	0x3d90eb1c	0.070760936
20	0xbd3b313a	-0.045701243
21	0x3dbbb295	0.09164921
22	0x3a0586b6	0.0005093621
23	0x3d9dc2d0	0.07703173
24	0xbde440e9	-0.11145193
25	0x3c360af1	0.011111007
26	0x3da46328	0.08026725
27	0x3da9fbc6	0.08299975
28	0xbd9dc686	-0.07703881
29	0x3cbe1541	0.023203494
30	0x3df68a33	0.12038078
31	0x3d21883f	0.039436575
32	0xbd240045	-0.04003932
33	0x3d2a45fe	0.041570656
34	0x3d098ead	0.03358333
35	0xbd4507ee	-0.048103265
36	0x3d7d26e0	0.061804652
37	0xbd816f53	-0.063200615
38	0x3bdc8061	0.006729171
39	0xbde70c05	-0.112815894
40	0x3d6732df	0.056445
41	0x3dd3c0e4	0.10339525
42	0xbd39e814	-0.045387343
43	0xbd060558	-0.03271994
44	0xbd2fc8d0	-0.04291612
45	0x3dad318e	0.084567174
46	0x3cbc9298	0.02301912
47	0xbcf378dd	-0.029720718
48	0xbe076d3c	-0.13225263
49	0xbddbc313	-0.10730567
50	0xbde8f9a4	-0.1137574
51	0x3d3fda4c	0.046839043
52	0xbd87e719	-0.06635875
53	0xbd118c60	-0.035534263
54	0x3df932a4	0.12167862
55	0xbd9ab19c	-0.075534075
56	0x3db9b257	0.09067219
57	0x3a963ea2	0.0011462758
58	0x3ba91b3e	0.005160718
59	0x3d9a26af	0.075269096
60	0x3d78e585	0.060765762
61	0x3ceb515a	0.028725315
62	0xbd212c2d	-0.03934877
63	0x3dbcd2d0	0.09219897
64	0xbda05ede	-0.078305945
65	0x3da9d2fa	0.08292194
66	0xbdbf0984	-0.09327987
67	0xbc503483	-0.012707832
68	0xbe00869b	-0.12551348
69	0xbe027967	-0.12741624
70	0x3dee998c	0.116503805
71	0xbde54537	-0.11194842
72	0x3db0a476	0.086251184
73	0xbdc04d98	-0.093898
74	0xbdc006cc	-0.093762964
75	0x3d65f741	0.056144003
76	0xbd8f17f4	-0.069869906
77	0x3d9dd653	0.07706895
78	0x3e02fa15	0.12790711
79	0xbdb1fb97	-0.08690565
80	0xbbe74393	-0.007057616
81	0x3c37b2e3	0.0112120835
82	0x3c24078d	0.010011566
83	0xbd01b5df	-0.031667586
84	0xbd19d6e2	-0.037558444
85	0xbd92b6bb	-0.07163759
86	0xbd96b535	-0.07358781
87	0x3df9b2eb	0.12192329
88	0x3da3a564	0.0799053
89	0x3e021c59	0.12706126
90	0x3be0951b	0.0068537123
91	0xbdfc0e75	-0.12307445
92	0xbb38951f	-0.0028165055
93	0x3dd18e18	0.1023218
94	0xbd9cd444	-0.07657674
95	0x3c0b4182	0.008499505
96	0xbcc5feff	-0.024169443
97	0xbc474f61	-0.0121649215
98	0xbdc8e707	-0.0980969
99	0x3dccd7da	0.10002108
100	0xbd9a3513	-0.07529654
101	0xbc9dc362	-0.019258205
102	0xbde47afb	-0.11156269
103	0x3d9cb4d0	0.07651675
104	0x3d0aac65	0.033855814
105	0xbd37b100	-0.044846535
106	0x3dc67f71	0.09692276
107	0xbb37f770	-0.0028071068
108	0xbd9d4c80	-0.07680607
109	0xbdfbcdcf	-0.12295114
110	0x3dbbf3b8	0.09177345
111	0x3db670f8	0.08908266
112	0x39837366	0.00025072246
113	0xbc9903a5	-0.018678496
114	0xbd86a98b	-0.065753065
115	0x3e06d3b1	0.13166691
116	0xbd4791be	-0.048722975
117	0x3cdae72b	0.026721558
118	0xbdb96909	-0.09053237
119	0xbd94cfab	-0.07266172
120	0xbdb1c8d1	-0.08680881
121	0x3de4ed7a	0.111781076
122	0xbde0fb0c	-0.109853834
123	0xbd528892	-0.051399775
124	0xbe03b77d	-0.12862964
125	0x3daaa97d	0.083331086
126	0x39ba47f5	0.00035530297
127	0xbd22443b	-0.03961585

fc2.weight f4 [128, 128]
0	0x3c9c2df0	0.019064873
1	0xbd25b6d6	-0.04045757
2	0x3d9fdafd	0.078054406
3	0xbda18d28	-0.078882515
4	0x3cfe6e4d	0.031058455
5	0x3ca20dc7	0.01978196
6	0xbd7fadf2	-0.062421747
7	0xbccf280f	-0.025287656
8	0xbd827973	-0.06370821
9	0xbc87909a	-0.016548444
10	0x3d76348c	0.060108706
11	0xbcdaf4d1	-0.026728066
12	0x3c22210c	0.009895574
13	0x3da0b646	0.07847266
14	0x3d83290c	0.064043134
15	0x3cdfde0e	0.027327564
16	0xbd9c6ea1	-0.07638288
17	0xbd55b742	-0.05217672
18	0x3c8fbba0	0.017545521
19	0x3d8c8688	0.06861597
20	0x3d188d74	0.037244275
21	0x3d28e082	0.041229732
22	0x3d18c8b7	0.03730079
23	0x3d851545	0.064981975
24	0x3ca07649	0.019587653
25	0x3d61b27d	0.05510186
26	0xbd168ee3	-0.03675736
27	0xb9c6b543	-0.00037900553
28	0x3d165fc4	0.036712423
29	0x3d954ec0	0.07290411
30	0x3d92c750	0.07166922
31	0x3d8cdea3	0.06878402
32	0xbd3c8bb2	-0.04603166
33	0xbd4cbb4e	-0.049983315
34	0xbc957795	-0.018245498
35	0x3ba2fb03	0.0049737706
36	0x3d2ba173	0.041902017
37	0x3c45d51c	0.012074735
38	0xbd08c908	-0.033394843
39	0x3cb48195	0.022034446
40	0x3d764544	0.06012465
41	0xbd2aaa0a	-0.041666068
42	0xbd1db700	-0.0385046
43	0xbc5628a4	-0.013071213
44	0xbc11fa81	-0.008909822
45	0xbd92c8be	-0.07167195
46	0xbd683e0c	-0.056699798
47	0xbb5f740e	-0.0034096274
48	0xbd60bc5a	-0.054867126
49	0xbcbcee0f	-0.023062734
50	0x3cd83a10	0.026394874
51	0xbd8fc777	-0.07020467
52	0x3d9d0557	0.07667034
53	0x3cdf86c5	0.027285943
54	0x3d85ef19	0.06539745
55	0xbc773c55	-0.015090068
56	0xbd0e900e	-0.03480535
57	0xbd310a9e	-0.043223016
58	0x3d55d28d	0.05220275
59	0x3d6fc17a	0.058534123
60	0x3d8fc5bc	0.07020137
61	0x3d39a2a0	0.045321107
62	0x3a7cb533	0.0009640038
63	0x3d908034	0.07055703
64	0xbd7848d2	-0.06061632
65	0xbdb4539d	-0.088050105
66	0x3b8125ed	0.0039412887
67	0x3d7240b3	0.059143733
68	0x3d80485f	0.06263804
69	0xbc61c4e0	-0.013779849
70	0x3d24c579	0.040227387
71	0x3d6f5d17	0.058438387
72	0x3d1b1a2d	0.03786676
73	0x3d94b212	0.07260527
74	0x3d2d4ceb	0.042309683
75	0x3c5edbfb	0.013602252
76	0x3d147c9d	0.036251653
77	0xbda9dacc	-0.08293685
78	0xbd944439	-0.07239575
79	0x3b8ea1c2	0.004352779
80	0x3d149c14	0.03628166
81	0x3dae43da	0.085090354
82	0x3da292cc	0.079381555
83	0xbce04bec	-0.027379952
84	0x3c3ec6e4	0.011644099
85	0x3d873c7f	0.066033356
86	0xbc164214	-0.009171028
87	0x3d7d8c4d	0.06190138
88	0x3d67c998	0.05658874
89	0x3c9effb2	0.019409034
90	0xbd31d107	-0.043412235
91	0xbc08a0ba	-0.008339101
92	0x3c695ba6	0.014243042
93	0xbd0e025f	-0.03467023
94	0x3d946da4	0.07247475
95	0x3da73f0d	0.08166323
96	0xbb67af0e	-0.0035352143
97	0x3d08dec1	0.03341556
98	0xbb892bfc	-0.0041861515
99	0xbc000d34	-0.007815648
100	0xbd715b6e	-0.058925085
101	0xbd81c3f4	-0.06336203
102	0xbcfd3803	-0.030910498
103	0x3d4ce441	0.050022367
104	0xbcbce6e1	-0.02305931
105	0xbcaa22af	-0.020768492
106	0x3da8aa78	0.08235639
107	0xbd180d93	-0.03712232
108	0xbdb06f99	-0.086150356
109	0x3d99a754	0.075026184
110	0xbc80d13a	-0.015724767
111	0xbc4ac060	-0.012374967
112	0x3afda9db	0.0019352989
113	0xbc813b40	-0.015775323
114	0x3c3ab832	0.011396455
115	0x3d699d8b	0.05703501
116	0x3d77f455	0.060535748
117	0xbd635bf2	-0.055507608
118	0x3d660d52	0.056165047
119	0x3d962cbd	0.07332752
120	0x3be9c437	0.0071339863
121	0xbd971028	-0.073761284
122	0xbbbb0129	-0.0057069254
123	0x3d0d121f	0.03444111
124	0xbd8cb783	-0.068709396
125	0x3d30d201	0.043169025
126	0xbd974099	-0.07385368
127	0xbcc1b53e	-0.023645993
128	0x3d33f199	0.043931577
129	0x3d83ba6b	0.06432041
130	0x3b83f8c4	0.004027458
131	0xbd1e610d	-0.038666774
132	0xbd731efc	-0.05935572
133	0x3d9eeaf4	0.077596575
134	0xbd073187	-0.033006217
135	0x3a337d36	0.0006846966
136	0xbbbaeacd	-0.00570426
137	0x3d08a9d2	0.03336508
138	0x3d8707d3	0.06593289
139	0xbce43c7a	-0.027860869
140	0x3aa2ca66	0.0012419939
141	0x3cfd92cf	0.030953793
142	0x3d3cc34a	0.04608468
143	0xbd188935	-0.037240226
144	0xbd0c847d	-0.03430604
145	0xbce6b101	-0.028160574
146	0x3d0f86c0	0.035040617
147	0x3d7366d0	0.05942422
148	0xbc20d4b5	-0.009816338
149	0xbd689d7e	-0.05679082
150	0xbd3c070b	-0.045905154
151	0x3d3e631a	0.04648123
152	0x3d88a651	0.06672347
153	0xbda84660	-0.08216548
154	0xbc8d2358	-0.017228767
155	0x3c8b4995	0.01700286
156	0xbcd7dd2b	-0.026350578
157	0xbbcda228	-0.006275434
158	0xbd34226c	-0.04397814
159	0xbdadabe0	-0.08480048
160	0xbd79b805	-0.06096651
161	0x3d57b9ae	0.052667312
162	0x3cd1b39d	0.025598342
163	0x3dae5a6d	0.08513341
164	0xbd745e55	-0.059660275
165	0x3d0c2f83	0.034225
166	0xbcccec1e	-0.025014933
167	0x3c693813	0.014234561
168	0x3db4aa2d	0.08821521
169	0x3d27b47f	0.04094362
170	0x3d68a2d5	0.056795914
171	0x3d78b456	0.060718857
172	0xbd7a2bcc	-0.061076924
173	0x3d6ff307	0.05858138
174	0xbdacf707	-0.08445554
175	0x3d778a01	0.060434345
176	0xba478da3	-0.0007612353
177	0xbc8d11f4	-0.017220475
178	0xbc26b480	-0.0101748705
179	0x3d3cd251	0.04609901
180	0xbda19d53	-0.07891335
181	0xbd85ee2f	-0.065395705
182	0xbd9dd7db	-0.07707187
183	0xbc37e7ec	-0.011224728
184	0x3c938260	0.018006504
185	0xbd312500	-0.043248177
186	0xbd9c982b	-0.07646211
187	0x3c5feb61	0.013666959
188	0xbba55506	-0.005045536
189	0xbcc6a4b6	-0.024248462
190	0xbd8ea552	-0.06965126
191	0xbda59dd3	-0.08086743
192	0x3da45ec5	0.08025888
193	0xbdae595d	-0.085131384
194	0xbb5815ab	-0.00329719
195	0x3d482697	0.048864927
196	0x3d14ae90	0.03629929
197	0xbd93d7cf	-0.072188966
198	0x3caf954c	0.021433495
199	0xbd2f041c	-0.04272853
200	0x3d433210	0.047655165
201	0x3ce8144e	0.028329995
202	0xbd239cf0	-0.03994459
203	0x3db36fb9	0.08761544
204	0xbda70bf6	-0.08156578
205	0x3c5d1490	0.013493672
206	0xbb5afdb9	-0.003341539
207	0xbb81e39c	-0.0039639007
208	0x3d6363dc	0.055515155
209	0x3d3b0800	0.045661926
210	0xbda8f6a9	-0.08250172
211	0x3d303934	0.043023303
212	0x3d2dda4b	0.04244451
213	0x3da6417c	0.08117959
214	0xbd88efad	-0.066863395
215	0x3d2cd5b1	0.04219598
216	0x3cb03a08	0.021512046
217	0x3c83a181	0.016068222
218	0xbd71895f	-0.058968898
219	0x3d9d8da3	0.07693031
220	0x3c87d31d	0.016580159
221	0x3d69d009	0.057083163
222	0x3d8ceebb	0.06881472
223	0xbd86533b	-0.06558844
224	0xbc2f1856	-0.0106869545
225	0x3cc2da1e	0.023785647
226	0x3d7d5a76	0.06185385
227	0x3d8f595e	0.06999467
228	0x3d4c7eba	0.049925543
229	0xbb16fb57	-0.0023037994
230	0xbd50b9e5	-0.050958533
231	0xbd8bf766	-0.06834297
232	0xbc16ee2c	-0.009212058
233	0xbd183a9f	-0.03716528
234	0x3d3d7fa8	0.04626432
235	0x3d46f760	0.04857576
236	0x3cfb567f	0.030680893
237	0x3cffd4a6	0.031229328
238	0xbd977e04	-0.073970824
239	0xbd32edd3	-0.043683838
240	0x3d395828	0.045250088
241	0xbda0a36a	-0.07843669
242	0x3d541c27	0.05178466
243	0x3c01c97d	0.007921574
244	0x3d93a636	0.072094366
245	0xbd9abc0a	-0.07555397
246	0x3d8ceb8f	0.06880867
247	0x3d842cd1	0.064538606
248	0x3d81064a	0.06300028
249	0xbd2bc816	-0.041938864
250	0x3d386884	0.04502155
251	0x3db17828	0.08665496
252	0xbc2d9cd8	-0.0105964765
253	0x3d84c096	0.06482045
254	0xbd13bce3	-0.03606881
255	0x3ccd165e	0.02503508

fc2.bias f4 [128]
0	0xbcfed65b	-0.031108072
1	0xbd96297c	-0.07332131
2	0xbd3e5687	-0.046469238
3	0xbd1ad205	-0.037797946
4	0x3c4fc487	0.012681133
5	0xbcd4a974	-0.025959708
6	0xbd83bf85	-0.06433014
7	0x3d27c6e4	0.04096116
8	0xbcb0ac29	-0.021566467
9	0x3d09d337	0.033648696
10	0xbc7a5ee6	-0.015281415
11	0x3cdc09d4	0.026860155
12	0xbd11a0ec	-0.035553858
13	0x3d81c42e	0.063362464
14	0xbcb0c2a3	-0.021577185
15	0xbce1e446	-0.02757467
16	0xbb020247	-0.0019837783
17	0xbd95c157	-0.07312267
18	0x3bccc956	0.006249587
19	0x3d511275	0.051042993
20	0xbd8b3d9f	-0.06798863
21	0x3d38a8c0	0.045082808
22	0xbd68fc3f	-0.056881186
23	0xbd08af5e	-0.03337037
24	0xbd8513f1	-0.06497944
25	0x3c8b67b9	0.017017232
26	0x3cf1e267	0.029526902
27	0x3d3f35ad	0.04668205
28	0xbd1947bb	-0.037421923
29	0x3c85cb4d	0.016332293
30	0x3daabec7	0.08337169
31	0x3d5b1101	0.053483013
32	0x3cec6342	0.028855924
33	0x3d917f4c	0.07104358
34	0x3d99367c	0.07481095
35	0xbd9496a7	-0.07255297
36	0xbd3aaef9	-0.045577023
37	0xbd804a61	-0.06264187
38	0x3da39dae	0.079890594
39	0xbcbd539e	-0.02311116
40	0xbd0cd8e9	-0.03438655
41	0x3cdad149	0.026711123
42	0x3da78f79	0.08181662
43	0x3cebed04	0.028799541
44	0xbc66ad45	-0.014079397
45	0x3cf7649d	0.030199343
46	0xbd7493e0	-0.059711337
47	0xbd7daa44	-0.061929956
48	0x3d9b5b86	0.07585816
49	0x3ce8bf0c	0.02841141
50	0x3d69a202	0.05703927
51	0x3d966446	0.073433444
52	0xbab67b02	-0.0013922157
53	0x3cd48b56	0.025945347
54	0x3da44000	0.080200195
55	0xbccedff4	-0.025253274
56	0xbd6990b2	-0.057022758
57	0xbc427769	-0.01186929
58	0xbd8e6f00	-0.06954765
59	0x3d8324a1	0.06403471
60	0xbb84c042	-0.004051239
61	0xbd5c39cf	-0.053766068
62	0xbd13e09b	-0.036102872
63	0x3cbec25d	0.023286039
64	0x3cda9342	0.026681546
65	0x3d45aef5	0.048262555
66	0x3d80fb9e	0.06297992
67	0x3d99ed22	0.075159326
68	0xbda927cf	-0.08259546
69	0xbdb175bb	-0.086650334
70	0xba4f454b	-0.0007906749
71	0xbd9d853c	-0.07691428
72	0x3d621124	0.055192128
73	0xbd2b1aa0	-0.04177344
74	0x3d8e8a57	0.0695998
75	0xbc9755d4	-0.018473543
76	0xba2b1d44	-0.0006527493
77	0xbd7d0585	-0.061772842
78	0xbd291dce	-0.04128819
79	0xbc1cac6c	-0.009562593
80	0x3d43625b	0.04770122
81	0xbcff366f	-0.031153886
82	0x3cc02094	0.023453034
83	0x3c5d51a3	0.013508233
84	0x3bdcf66c	0.006743243
85	0x3d61d42a	0.055133976
86	0xbd9f66ae	-0.077832565
87	0xbc896d8b	-0.016775867
88	0x3c15dbfd	0.009146688
89	0xbcc9791e	-0.024593886
90	0x3cde1434	0.027109243
91	0xbd7c2967	-0.06156292
92	0x3cc6ea02	0.024281505
93	0xbd1b857e	-0.037969105
94	0xbd0f0014	-0.034912184
95	0xbb6db925	-0.0036273685
96	0xbd91ea8a	-0.07124813
97	0xbceeb5f5	-0.029139498
98	0xbcac1740	-0.02100718
99	0x3a12f0aa	0.000560532
100	0xbda31dac	-0.07964644
101	0x3d5c7cbe	0.0538299
102	0x3d6a4b6a	0.057200827
103	0x3d04120c	0.032243773
104	0xbd973b18	-0.07384318
105	0xbc80a174	-0.015701987
106	0xbcf79940	-0.030224442
107	0x3d54e9c2	0.05198074
108	0xbc2c00b0	-0.010498211
109	0x3bb53bed	0.0055308254
110	0x3d5078fe	0.050896637
111	0xbd06034c	-0.032717988
112	0xbd7b85ac	-0.061406776
113	0x3d5acfa1	0.053420667
114	0x3d841bd8	0.06450623
115	0xbd93bad5	-0.0721337
116	0x3c4fa0c6	0.012672609
117	0xbd8e4bec	-0.06948075
118	0x3d8d5e44	0.06902745
119	0xbc9ddeee	-0.01927134
120	0xbc62187d	-0.013799784
121	0xbd169c2b	-0.036770027
122	0x3c962d81	0.018332245
123	0xbd4ad02d	-0.04951494
124	0x3bb4b4b1	0.005514704
125	0xbd3ba4c5	-0.045811433
126	0x3d344bee	0.044017725
127	0xbbcaa188	-0.006183807

fc3.weight f4 [64, 128]
0	0xbda1a8cb	-0.07893523
1	0x3d1482cd	0.036257554
2	0xbd5699b9	-0.052392695
3	0x3d8c1488	0.068398535
4	0x3d7ff69d	0.062491048
5	0xbbf59c60	-0.007495448
6	0x3d0b4053	0.03399689
7	0x3d8167ae	0.063186035
8	0x3da41016	0.08010881
9	0x3db138fe	0.086534485
10	0x3d9e1719	0.07719249
11	0x3c806768	0.015674308
12	0xbd7ac64d	-0.06122427
13	0xbdac9190	-0.08426201
14	0xbd9d1d22	-0.07671572
15	0x3cfaf9aa	0.030636627
16	0xbd5dd624	-0.0541593
17	0xbd26f243	-0.040758383
18	0x3d106226	0.03524985
19	0x3d87b163	0.06625631
20	0x3d5155cd	0.051107217
21	0xbd981c5f	-0.07427286
22	0xbdb2311f	-0.08700775
23	0x3d21c643	0.039495718
24	0x3d7e8a63	0.062143695
25	0x3cb31413	0.021860158
26	0x3d5a698a	0.053323306
27	0xbcf2d1a5	-0.029640982
28	0x3da4befc	0.0804424
29	0x3be2a206	0.0069162874
30	0x3bbc8bba	0.0057539614
31	0xbcee4631	-0.029086204
32	0xbc098b93	-0.0083950935
33	0x3db4f28c	0.08835325
34	0xbc4a56cc	-0.012349796
35	0x3d6b5e12	0.05746276
36	0xbda8c880	-0.08241367
37	0x3ce3a94f	0.027790694
38	0x3cfdef38	0.030997857
39	0x3da41a4f	0.080128305
40	0xbd30022e	-0.04297083
41	0x3a7306ca	0.0009270726
42	0xbd268e84	-0.040663257
43	0x3c866848	0.016407147
44	0x3d6259b0	0.055261314
45	0x3dab8c1c	0.08376333
46	0xbceb88fc	-0.028751843
47	0xbc2acab6	-0.010424307
48	0xbc81d5e3	-0.01584906
49	0x3b173991	0.0023075084
50	0x3d5b1b85	0.05349304
51	0xbd6642e2	-0.05621613
52	0x3bc49ca8	0.00600012
53	0x3d159a9d	0.036524404
54	0x3d84a06c	0.064759105
55	0xbda5cedb	-0.08096095
56	0xbc92c511	-0.017916234
57	0xbd246f89	-0.04014543
58	0x3d2836c8	0.04106787
59	0x3c8aa7f1	0.016925784
60	0x3bbb5c77	0.00571781
61	0x3c4592dc	0.01205894
62	0xbc098d9c	-0.008395579
63	0x3d9d33ae	0.07675873
64	0xbcc81d28	-0.024427965
65	0xbd1ad550	-0.037801087
66	0xbd25a3d8	-0.040439457
67	0x3daae370	0.083441615
68	0xbd7b0c29	-0.061290894
69	0xbd84a287	-0.06476312
70	0x3c9300c1	0.017944695
71	0x3d6620cd	0.056183625
72	0xbd0bd649	-0.034139905
73	0x3daad1a7	0.08340769
74	0xbcd23f0b	-0.025664827
75	0xbd12622f	-0.035738166
76	0x3cbb4e64	0.022864528
77	0x3d47505f	0.048660632
78	0x3d215a7e	0.03939294
79	0x3d8668d9	0.06562967
80	0x3b34b019	0.0027570783
81	0x3d936d6a	0.071986035
82	0x3d385777	0.045005288
83	0x3cc21974	0.023693778
84	0xbdaba3bc	-0.08380839
85	0x3d8e325d	0.069432
86	0xbcf6d1e4	-0.03012938
87	0x3db361fe	0.08758925
88	0xbc7bb8d9	-0.015363895
89	0xbd940057	-0.07226627
90	0xbc887c39	-0.016660796
91	0x3cdc16f4	0.026866414
92	0x3cb2fb04	0.02184821
93	0x3c58e2d2	0.013237672
94	0xbac3552d	-0.0014902704
95	0x3cd4a63a	0.02595817
96	0x3c880781	0.01660514
97	0x3d944871	0.072403796
98	0xbd8c6c20	-0.06856561
99	0xbcb8f033	-0.022575473
100	0xbce2786f	-0.027645318
101	0x3bbdf295	0.0057967403
102	0xbd8c150b	-0.06839951
103	0xbd66bf15	-0.056334574
104	0xbc872371	-0.016496392
105	0x3d9fdf2a	0.07806237
106	0xbd8fd374	-0.07022753
107	0x3d41acd0	0.047283947
108	0x3c6a15c0	0.014287412
109	0x3da69fc3	0.08135941
110	0x3be4c4cb	0.0069814674
111	0xbda56adb	-0.08077022
112	0xbd8bcb74	-0.06825915
113	0x3d9ea6f5	0.07746688
114	0x3d370a82	0.044687755
115	0x3b8def36	0.0043314947
116	0x3cb8c5f9	0.022555338
117	0xbd86fc8e	-0.0659114
118	0xbd072c3f	-0.03300118
119	0x3c3fad25	0.011698996
120	0x3d7aba0c	0.061212584
121	0x3d9f6767	0.07783394
122	0x3da49874	0.080368906
123	0x3d863498	0.06553
124	0x3d45040c	0.048099563
125	0x3d2d2727	0.042273667
126	0xbc8c6ca0	-0.01714164
127	0x3d6662e4	0.056246653
128	0xbd463e2e	-0.048399143
129	0x3d84e719	0.06489391
130	0xbd9b32df	-0.07578062
131	0x3da001bd	0.078128316
132	0x3d56effd	0.052474964
133	0x3d814fce	0.0631405
134	0xbd88c1ab	-0.06677564
135	0xbd2ea9b0	-0.042642295
136	0x3d60e20c	0.054903075
137	0x3c386339	0.011254125
138	0x3d077495	0.033070166
139	0x3d7a81d0	0.061158955
140	0xbd302c5d	-0.043011058
141	0xbdb3f336	-0.08786623
142	0xbc329608	-0.010900028
143	0xbd7c7de1	-0.061643485
144	0xbc76575d	-0.0150354775
145	0xbd6051f1	-0.054765645
146	0xbbbfd36b	-0.0058540604
147	0x3da7be1e	0.08190559
148	0xbc2b96d8	-0.010472976
149	0x3cb6ac87	0.022299064
150	0x3ca247fb	0.019809714
151	0xbd1e27aa	-0.038612045
152	0xbd8b0874	-0.06788722
153	0xbc022ca9	-0.007945218
154	0x3d1e92b1	0.038714115
155	0xbda55b28	-0.08074027
156	0x3d274825	0.040840287
157	0x3d3dc98d	0.046334792
158	0xbd780890	-0.06055504
159	0x3b85a9f5	0.0040790983
160	0x3d813b4f	0.0631014
161	0xbd369ed7	-0.044585075
162	0x3c41a31a	0.011818672
163	0xbd1a84ae	-0.03772419
164	0x3d9f666b	0.077832066
165	0x3ca6fa9d	0.020383174
166	0xbd4af3a2	-0.049548753
167	0x3cf745a2	0.03018457
168	0xbd27314b	-0.040818494
169	0x3bc2a7d9	0.005940419
170	0x3c91507d	0.017738575
171	0xbd885f41	-0.06658793
172	0xbd3b3a97	-0.045710173
173	0x3da81ef1	0.082090266
174	0xbd63ac3d	-0.05558418
175	0xbd5ef5ab	-0.054433506
176	0x3d8d8ce7	0.069116406
177	0xbbdba2d5	-0.0067027607
178	0xbd1d76ee	-0.0384435
179	0xbcfbfeeb	-0.030761203
180	0xbc87b8d7	-0.01656763
181	0x3d9562d2	0.07294239
182	0x3d53cb4d	0.051707555
183	0xbd1d30fe	-0.0383768
184	0xbd8deb25	-0.06929616
185	0xbd400db0	-0.046888053
186	0x3c90493a	0.017613042
187	0x3cdc175f	0.026866613
188	0xbb309a76	-0.0026947535
189	0x3db41ea6	0.08794908
190	0x3d9eade6	0.07748012
191	0xbb16103a	-0.0022897855
192	0xbd2fb5bc	-0.042897925
193	0x3b543ef8	0.0032386165
194	0xbc4b8a09	-0.012423047
195	0xbbb53672	-0.005530172
196	0xbd9deb1a	-0.07710858
197	0x3d380cbf	0.04493403
198	0xbdab87ba	-0.08375497
199	0xbd930177	-0.07178014
200	0xbd15f917	-0.036614504
201	0x3c807778	0.015681967
202	0xbdb4eab8	-0.088338315
203	0xba2f5942	-0.00066890207
204	0xbd7ea00d	-0.062164355
205	0xbcec228f	-0.028825073
206	0xbd649ead	-0.055815388
207	0xbd100df3	-0.035169553
208	0xbd08c347	-0.033389356
209	0xbbc39734	-0.0059689526
210	0x3cb094da	0.021555353
211	0x3d4175cd	0.047231484
212	0xbd814d0a	-0.06313522
213	0xbd340cb0	-0.043957412
214	0xbcb07d5c	-0.021544151
215	0xbd0aad34	-0.033856586
216	0x3a99be45	0.0011729678
217	0x3d831ddb	0.06402179
218	0xbd8d4a5e	-0.0689895
219	0xbcb5501a	-0.022132922
220	0x3b7d48a1	0.0038648027
221	0xbca2e172	-0.019882891
222	0x3c0ea118	0.0087054
223	0xbabd4130	-0.0014438983
224	0xbdb36bb5	-0.08760778
225	0x3c9e1e81	0.019301655
226	0x3d298333	0.041384887
227	0xbd80e779	-0.0629415
228	0xbd8d9048	-0.06912285
229	0x3c8a921c	0.016915374
230	0xbd1cb6e5	-0.03826036
231	0xbd5f041c	-0.05444728
232	0x3d88ecd0	0.066857934
233	0x3db04e6d	0.086087085
234	0xbd9f09b6	-0.07765524
235	0x3d09c477	0.03363463
236	0x3db22719	0.086988635
237	0xbdb4d26e	-0.08829199
238	0xbdae07b3	-0.08497562
239	0x3aed3380	0.0018097013
240	0xbd3b1ff1	-0.04568476
241	0xbabf8d26	-0.0014614209
242	0xbd8c5e58	-0.06853932
243	0x3d8e870f	0.06959354
244	0x3c7bf176	0.015377393
245	0xbcf8f4d1	-0.030390175
246	0x3d7c586f	0.061607774
247	0x3d86fac8	0.065908015
248	0xbd87968c	-0.066205114
249	0x3da3e3d1	0.08002437
250	0x3b39ff82	0.0028381054
251	0x3d8f8440	0.070076466
252	0xbd8049f2	-0.06264104
253	0xbd9b526c	-0.0758408
254	0xbc7e672f	-0.015527531
255	0x3db120ec	0.086488575

fc3.bias f4 [64]
0	0x3c6dedc8	0.0145220235
1	0x3c9b7409	0.018976228
2	0x3da1a880	0.07893467
3	0x3da13119	0.07870693
4	0xbd7c779d	-0.06163751
5	0xbd50a0fd	-0.05093478
6	0x3c4cc79d	0.012498763
7	0xbd49112a	-0.049088635
8	0xbcbae32d	-0.022813404
9	0xbd83ccc1	-0.06435538
10	0xbcb22e27	-0.021750523
11	0x3cdc3496	0.026880544
12	0xbd5bc712	-0.053656645
13	0xbda3544d	-0.079750635
14	0xbdacdd3a	-0.08440633
15	0xbd53c56f	-0.05170196
16	0xbd905224	-0.07046917
17	0xbd7419c4	-0.059594885
18	0xbd90cebb	-0.07070681
19	0x3cb77e90	0.022399217
20	0x3d6c6895	0.057716925
21	0xbd2dc213	-0.04242141
22	0xbd10c435	-0.035343368
23	0xbd011ec7	-0.031523492
24	0xbda7f5a0	-0.08201146
25	0xbb220b20	-0.002472587
26	0x3cf3249f	0.029680548
27	0x3d73d41d	0.05952846
28	0x3da14fb3	0.078765295
29	0x3ca39b21	0.019971432
30	0xbd32287f	-0.04349565
31	0xbc7301e2	-0.014831992
32	0x3c681251	0.014164523
33	0xbc01276e	-0.007882936
34	0xbd01cba7	-0.03168836
35	0xbc163395	-0.009167572
36	0x3c87ff27	0.016601158
37	0x3b304870	0.0026898645
38	0x3cfc5e5b	0.030806711
39	0xbd862c49	-0.065514155
40	0xbd227f69	-0.03967229
41	0x3d8a43eb	0.067512356
42	0xbb526234	-0.003210199
43	0xbd167046	-0.036728166
44	0x3d0a4586	0.03375771
45	0xbd2ff11c	-0.04295455
46	0x3d9691ab	0.07352003
47	0xbd292551	-0.041295353
48	0xbb945129	-0.0045262766
49	0xbca1d2cd	-0.019753838
50	0x3d427c5c	0.04748188
51	0xbd8d952b	-0.06913217
52	0xbd80e6cb	-0.0629402
53	0x3ccfd109	0.02536823
54	0x3d40c4f8	0.047062844
55	0x3d8ed34c	0.069738954
56	0x3d152cf3	0.03641982
57	0xbda5694b	-0.08076724
58	0x3b774871	0.0037732387
59	0x3d3653fc	0.044513687
60	0x3da5452c	0.08069834
61	0xbd3d1d91	-0.046170775
62	0xba135b70	-0.000562123
63	0x3daff99b	0.0859253

fc4.weight f4 [1, 64]
0	0x3dc52972	0.09627046
1	0x3d301618	0.04298982
2	0x3d7e038c	0.0620151
3	0x3d1f9c4c	0.038967416
4	0xbdd23658	-0.102642715
5	0x3d1c8d48	0.038220674
6	0xbdb1b430	-0.08676946
7	0xbd2fbd40	-0.042905092
8	0xbddef9e6	-0.10887508
9	0x3da53792	0.0806724
10	0x3be7d760	0.0070752352
11	0x3d023758	0.03179106
12	0xbdecbe10	-0.11559689
13	0xbcc56f80	-0.024101019
14	0x3dac578e	0.08415137
15	0x3dfdc3f0	0.12390888
16	0xbd655190	-0.055985987
17	0xbd2b1514	-0.04176815
18	0x3dc22672	0.09479989
19	0xbcd2f628	-0.025752142
20	0xbdeae2a4	-0.114690095
21	0x3df00c22	0.11721064
22	0x3dde3862	0.10850598
23	0xba5fa700	-0.000853166
24	0x3d9ec7f4	0.07752982
25	0x3c2f8710	0.010713354
26	0x3d981616	0.074260876
27	0x3d038998	0.03211364
28	0x3d9cc304	0.07654384
29	0xbd2be980	-0.04197073
30	0x3d22a650	0.03970939
31	0xbcbe4d90	-0.023230344
32	0xbd90e024	-0.070740014
33	0xbdb9ba56	-0.09068744
34	0x3cb7adb0	0.022421688
35	0x3d6f22c4	0.058382764
36	0x3c2980f0	0.0103456825
37	0x3dfdd596	0.12394254
38	0xbd826cea	-0.0636843
39	0x3d4e0104	0.050293937
40	0x3dc14f46	0.09438948
41	0xbd2f1074	-0.0427403
42	0xbc084b90	-0.008318797
43	0x3da5b4c4	0.08091119
44	0xbdeb267e	-0.11481951
45	0x3dac46a2	0.0841191
46	0x3db57d88	0.08861834
47	0x3d310924	0.043221608
48	0xbdf9b5d4	-0.12192884
49	0xbdb8be0e	-0.09020625
50	0x3dfd7570	0.12375915
51	0xbdc80b70	-0.097678065
52	0x3da2aaf4	0.07942763
53	0x3d8c4638	0.06849331
54	0xbd5a91c8	-0.053361684
55	0xbd7932d4	-0.06083949
56	0xbdaafba6	-0.083487794
57	0x3d3f14b0	0.04665059
58	0x3c429710	0.011876836
59	0xbdceea80	-0.10103321
60	0x3dc4947a	0.09598632
61	0xbd43c404	-0.047794357
62	0x3de40ce6	0.11135273
63	0xbdc1674a	-0.09443529
