models/comparison_5000ep_dqn/best_pairwise_dqn_5000ep.pt (torch, 160844 bytes, 8 tensors)

fc1.weight f4 [128, 112]
000000 a4 c8 de bd c5 b6 62 bc 5a 25 e7 bd f6 90 80 3c
       -0.10878113 -0.013837521 -0.11286421 0.015694123
000010 08 a7 fb bd 48 6c aa bc 95 00 a2 bd 24 bc b8 bd
       -0.12287718 -0.020803586 -0.07910267 -0.0902026
000020 30 99 b3 bd 85 a5 8e bc d8 9b 76 bd 45 df ff bd
       -0.087694526 -0.01741291 -0.060207218 -0.12493757
000030 13 fd 45 3d 71 2b 27 bd 3f f6 e2 3c 3c f0 74 bd
       0.048337054 -0.040812913 0.02770531 -0.059799418
000040 4e b8 d3 bd f6 f2 77 bd da da c2 3b ca a5 a1 bd
       -0.10337888 -0.06053444 0.0059464993 -0.0789295
000050 d0 68 0a 3d 8b ba d7 3c 95 cd f1 bd 7d c5 fd bd
       0.033791363 0.026334068 -0.1180679 -0.123911835
000060 43 c4 08 bd 54 a2 86 3c 6e a3 00 be d0 ca a7 bd
       -0.033390295 0.016434826 -0.12562343 -0.0819298
000070 b8 2f 52 3d 18 de a9 bd e8 ff e3 bc 79 a6 86 3d
       0.05131504 -0.08294314 -0.027831987 0.06574721
000080 28 a1 49 3d 39 aa b9 bd 3d f6 f4 bd 49 ce e5 bc
       0.049225956 -0.090656705 -0.11961029 -0.028052466
000090 55 68 1f 3d d0 c7 16 3e 48 14 e4 bd 63 85 9f bd
       0.03891786 0.1472466 -0.11136681 -0.077891134
0000a0 eb b4 ef bc 8c d2 c3 bb 81 fa ff bd e5 9e c9 3c
       -0.029261073 -0.005976027 -0.12498952 0.0246119
0000b0 7c 2a ae 3c 3a 02 3d 3d ce 37 b3 3d 74 ec 40 bd
       0.021260493 0.0461447 0.08750878 -0.0471005
0000c0 41 9c 0c bd ab 17 7b bd 7e d0 c8 3c f2 32 f0 bd
       -0.034328703 -0.06130187 0.02451348 -0.11728467
0000d0 c3 d1 05 3d b6 73 ca 3d a4 35 39 3c 1e f7 24 3d
       0.032670747 0.09885351 0.011304293 0.04027473
0000e0 65 0d e1 3c c8 78 42 3f a7 99 87 3c 5c ec 2e 3f
       0.027472207 0.7596555 0.01655276 0.68329406
0000f0 ea bf 92 3e e6 36 11 3f d8 e0 29 be 2f ad 3d 3f
       0.28662044 0.56724393 -0.16589677 0.7409238
000100 dc d9 8c 3e 32 20 9e 3e f6 2d fe bd aa e7 bc bd
       0.27509964 0.30883938 -0.1241111 -0.09223874
000110 10 56 ed 3c 3e 2c 05 bd cd d3 ee bd e2 71 9a bc
       0.028971702 -0.032512896 -0.116614915 -0.018853132
000120 ad 74 df bb 29 c9 e0 bb 7c 96 43 bc 97 03 26 bd
       -0.0068193288 -0.0068599177 -0.011937734 -0.040530767
000130 81 9d 3a 3d 31 a3 a0 bd 47 15 3c bd 94 3e b9 bd
       0.045560364 -0.07843626 -0.04591873 -0.09045139
000140 2b f1 9c 3c 0c f4 ee 3c 08 98 0d 3d f4 44 2b bd
       0.019157967 0.029169105 0.034568816 -0.041813806
000150 25 35 94 3c dd 6e fc bd c0 eb cb bd 8e d0 5b bd
       0.018091748 -0.12325833 -0.09957075 -0.05366569
000160 e1 ec b6 bd 3d 64 9e bd 5b a5 d0 bd 78 d0 35 bd
       -0.089319 -0.07733963 -0.10187789 -0.044388264
000170 95 28 84 bc 3d 79 1a bc a0 98 94 bd 23 9c fa bd
       -0.016132632 -0.0094283195 -0.072556734 -0.12236812
000180 bc 6a 15 3f 16 5f 15 bf 4d 69 a1 bc d0 d8 e5 bd
       0.5836599 -0.58348215 -0.019703532 -0.11222994
000190 88 ec 75 bc 5c 33 4f bd a7 1d 7e be d7 d3 14 3d
       -0.015010007 -0.05058609 -0.24815999 0.03633484
0001a0 7b 3c c2 bb 11 99 db 3c 7d 5d 3d 3d 75 e2 59 bd
       -0.00592762 0.026806386 0.046231735 -0.053194482
0001b0 06 7f dd bc 0e 4b 06 3f b3 1d fd bd 8a fc 62 bc
       -0.027038109 0.52458274 -0.1235918 -0.013854155
0001c0 95 f5 76 3d 2e 1e 0f 3e fc 30 a3 bc aa 4c 16 3e
       0.0602928 0.13976356 -0.019920819 0.14677683
0001d0 50 5a 05 3e c8 ef 15 3e b7 a7 01 3e 18 f7 1a bc
       0.13022733 0.1464225 0.12661634 -0.009458326
0001e0 e6 12 af 3a 11 47 fc 3d 5b 7f 1a 3d af 16 98 3d
       0.0013357073 0.12318242 0.037719112 0.074262016
0001f0 75 f4 ab 3d 4f 35 bf 3d a9 46 0e 3e 66 53 68 bc
       0.08396236 0.0933634 0.13894142 -0.01418004
000200 e7 64 e4 3d 9b a5 1a 3e f9 3b 20 3e 50 9c 8d 3d
       0.11152058 0.15102236 0.15647878 0.0691458
000210 ac 24 08 3e aa 7f ab 3d da 24 e9 3d 0b 89 fe 3c
       0.13295239 0.08373959 0.11383982 0.031071207
000220 e7 46 cb 3d 0f e0 99 3d 1d 32 d8 3c 22 f3 d1 3d
       0.09925633 0.07513439 0.026391083 0.10251452
000230 b1 5f c6 3d 6c 23 c3 3d 55 93 9d 3d 26 ec 7a 3d
       0.096862204 0.095282406 0.07694117 0.061260365
000240 a9 4a e7 3d 42 19 3f 3d e6 d0 11 3e 6c c1 e2 3c
       0.11293537 0.046654947 0.14239845 0.027680121
000250 02 b7 b2 3d 6e 8b 12 3e 6c 37 c3 bc c4 41 08 3e
       0.08726312 0.14311 -0.023830138 0.13306338
000260 9c 60 d1 bd b0 db 5d 3b 10 0b 28 3d 1c 9c bd 3d
       -0.10223505 0.0033852868 0.041026175 0.09258291
000270 6d 60 ef 3d 1f 78 c0 bc d7 7d c8 bd 8c 02 9a bd
       0.11688314 -0.023494778 -0.09789627 -0.07520017
000280 75 76 39 3d 12 88 b0 3d 1b 2c dc 3c d7 9d 7e 3d
       0.045278985 0.08619703 0.0268765 0.062162247
000290 d5 ea 22 bc 4a 11 50 3d 62 31 09 3e d1 19 96 3d
       -0.009943684 0.050797738 0.13397744 0.07329143
0002a0 63 40 8f 3c cf 63 5a 3d 81 bb b0 3d 8c 0e 26 3e
       0.017486757 0.05331784 0.086295135 0.16216487
0002b0 d6 c1 93 3b 1c 54 02 3d de f1 8b 3d 54 76 83 3d
       0.004509191 0.031818494 0.06833242 0.06419054
0002c0 7f 0f cf 3c ab 29 ac 3d a0 f4 72 3c 79 e4 92 3d
       0.025275944 0.08406385 0.014828831 0.07172484
0002d0 54 23 5e 3d 36 8f 04 3e 6a 54 87 3d 93 f4 09 3e
       0.05423291 0.12945256 0.066078976 0.13472204
0002e0 17 ef 71 3d 6d 4e 51 3d 90 bf 2a 3d 4b 30 7c 39
       0.059065904 0.051100183 0.041686594 0.00024050583
0002f0 93 5a c3 3c 64 9d 38 bb 52 2d a0 3b 12 6c 41 3d
       0.0238469 -0.0028169984 0.004888215 0.047222205
000300 10 48 17 3e c9 71 8c 3c 17 fe 11 3e ea 98 a0 3d
       0.14773583 0.0171441 0.14257084 0.07841666
000310 b4 f3 8e bc 36 f5 dc 3d c0 6b df 3d 15 6b dd bc
       -0.017450191 0.10788958 0.109092236 -0.0270286
000320 ac d7 51 3c 02 4a 1e 3e 26 90 ba bb dc 3f cb 3c
       0.012807768 0.15457919 -0.0056934534 0.024810724
000330 04 51 0f 3e a0 e4 dd 3c 2e 01 9c bb e5 41 26 3c
       0.13995749 0.027086556 -0.004760883 0.010147546
000340 29 5a eb 3c 6a 1d 24 3d 1f 90 eb bc 18 a0 a6 3d
       0.028729515 0.040067114 -0.028755246 0.08136004
000350 96 36 10 3e b7 fb d6 ba c4 de 06 be e9 0a ce 3b
       0.14083323 -0.0016401921 -0.13170916 0.0062879217
000360 ee df 18 3e 34 09 9f 3b c0 4f c4 3d e3 bb 0a 3e
       0.14929172 0.004853392 0.095855236 0.13548236
000370 35 f5 2d 3b 59 d2 d2 bc fd 00 15 3c 04 ec d3 3c
       0.002654386 -0.025735067 0.009094474 0.025869377
000380 b7 e3 09 3f 86 1e 33 3f 7c 5d 16 3f 6e 85 18 3f
       0.5386309 0.6996845 0.58736396 0.595786
000390 ba 6a 16 3f 7c 0a 0d 3f 68 84 0e 3f cc 09 13 3f
       0.587566 0.5509412 0.55670786 0.57436824
0003a0 8e eb 04 3f 92 ba 0a 3f f0 08 ee 3e cc 35 00 3f
       0.5192193 0.54190934 0.46491194 0.5008209
0003b0 a0 84 16 3f c5 32 fb 3e ca b1 0c 3f 46 7b f4 3e
       0.5879612 0.49062172 0.54958785 0.477503
0003c0 7e 18 08 3f 93 cc fd 3e 07 30 14 3f 09 83 0d 3f
       0.5316237 0.4957014 0.57885784 0.5527807
0003d0 53 56 fc 3e aa 57 f3 3e df f4 fa 3e 4f 44 e6 3e
       0.4928461 0.4752782 0.49014947 0.4497399
0003e0 d4 1b 19 3f 9d b7 ea 3e 1f be 0a 3f 4f bb 0a 3f
       0.5980809 0.4584321 0.5419635 0.5419206
0003f0 39 71 14 3f 56 ec f5 3e ed 51 19 3f ff 50 01 3f
       0.57985264 0.48031873 0.59890634 0.50514215

fc1.bias f4 [128]
000000 5f e6 cb 3d 63 42 8b 3c af 51 0a bf 14 26 da bc
       0.09956049 0.01699943 -0.5403089 -0.026629485
000010 a1 a4 37 be c7 0b 06 bc 0b 69 c3 bc be 17 2c be
       -0.17933895 -0.008181519 -0.0238538 -0.16805932
000020 28 76 54 be 79 9c 93 bd b2 aa c2 bb 1d 9f 65 3d
       -0.20748198 -0.07207579 -0.0059407586 0.056059945
000030 27 7f c7 3c bb 40 af bb d8 f0 b0 bd 35 15 7f bd
       0.024352623 -0.0053482926 -0.08639687 -0.062276084
000040 3f 7d 2f 3d 26 43 7d bd b3 53 0c bd 4d 1a 15 3d
       0.042844053 -0.061831616 -0.03425951 0.036402036
000050 b1 f7 e0 bc 06 d1 1c 3b 9c 28 89 bd 66 62 ce bc
       -0.027461858 0.0023928299 -0.06697199 -0.025193404
000060 e6 2f b8 be a6 b4 2c 3c d0 a5 33 bc 46 a5 0e be
       -0.35974044 0.010541117 -0.010964826 -0.13930234
000070 42 a9 af bd 81 21 53 bd 28 7f a3 3c 61 c6 10 bd
       -0.08577205 -0.051545624 0.019958094 -0.03534544
000080 51 f2 34 3c f0 9f a5 3c 29 ee 8e 3d 17 f7 27 3c
       0.011044101 0.020217866 0.06979019 0.010251782
000090 8e 82 79 be 6c bd 88 bc 0e a0 5b bc 47 6b 2e 3d
       -0.24366209 -0.016691886 -0.013404859 0.042582776
0000a0 17 1f e1 bd 2f d9 1b be 4f 81 b8 3d d6 8c a0 bb
       -0.10992258 -0.15219568 0.09009039 -0.0048996015
0000b0 5a 80 9b 3d 16 97 4a 3d 8c 50 c7 bd c4 b3 ae bc
       0.075928405 0.049460493 -0.0973216 -0.021325953
0000c0 81 c9 80 bd 29 a3 78 3c 42 34 df bd 42 54 26 bd
       -0.06288434 0.015175619 -0.10898639 -0.0406077
0000d0 2f 11 18 3d 98 ae b2 bd 70 64 8a 3d 10 e6 de bd
       0.037125763 -0.08724707 0.06757438 -0.10883725
0000e0 fa 42 b7 bd 2a fe 67 bd 61 57 0e bd d8 8d d5 3b
       -0.08948322 -0.056638874 -0.0347513 0.0065171532
0000f0 ed 3f b6 bd d3 0c 83 be 79 2a 9c 3d 1e e6 72 bd
       -0.088989116 -0.25595722 0.076252885 -0.059301488
000100 56 7d 3f be 8e 90 06 3c 6c f2 fe 3b 8b ea ea 3c
       -0.18700156 0.008213175 0.007780364 0.028676292
000110 e6 c2 27 be ad 49 19 3e e2 c6 4f 3c 87 21 98 bd
       -0.16382942 0.14969511 0.012681695 -0.0742827
000120 aa 56 9a be 49 85 52 3d 44 d1 17 3d 11 58 a1 3d
       -0.30144244 0.051396642 0.037064806 0.078781255
000130 84 e4 fd 3d b8 17 b7 bb 92 c8 2b 3d 9e ee 75 3d
       0.123971015 -0.0055875443 0.041939326 0.060042016
000140 6d e1 04 be 40 77 e5 bc 68 ac 8e bc a7 3c f6 bd
       -0.12976618 -0.028010964 -0.017416194 -0.12023287
000150 18 5c 07 be da b2 0d bd f7 b1 2e 3d a6 33 d8 bd
       -0.13218725 -0.034594394 0.04265019 -0.10556726
000160 5f 79 f3 bd 65 7b 81 3d e8 e8 d0 3c 7f 3e cf bd
       -0.11888384 0.06322364 0.025501683 -0.10119342
000170 3c 6a 2f be fd dd 1b bd 7e a3 f8 3a b5 cb 28 3e
       -0.17130369 -0.0380535 0.0018969623 0.16483958
000180 9f eb 70 3d cd a4 33 3d cc d3 04 3d e6 3f 22 bd
       0.058818456 0.04385834 0.032428548 -0.03961172
000190 6f 4a 91 bd ba e0 8b be f1 fa 29 3d c6 28 f6 bd
       -0.07094275 -0.2731989 0.041499082 -0.12019496
0001a0 35 e9 81 3d be 87 03 be 36 7c 04 be aa e1 fb 3d
       0.06343309 -0.1284475 -0.12938008 0.122989014
0001b0 f7 fa 98 be 37 11 2d be 83 1e 99 be fe 12 fd be
       -0.2987897 -0.16901098 -0.2990609 -0.49428552
0001c0 0f a3 14 be fe 3f c0 bc 20 39 11 be ff df a9 3d
       -0.14515327 -0.023468014 -0.14181948 0.08294677
0001d0 e2 74 2d be 37 02 32 3d bc 60 0b bd cf 3a 9c bd
       -0.16939119 0.043459143 -0.0340278 -0.07628404
0001e0 d1 18 1a 3d d4 12 4a be 13 88 78 3d 53 16 94 bd
       0.037621323 -0.19733745 0.060676645 -0.072308205
0001f0 b5 92 15 3c dd 7e ac 3c 74 15 28 3a 7b d3 81 be
       0.009129216 0.021056587 0.0006411888 -0.2535666

fc2.weight f4 [128, 128]
000000 d7 68 d7 3c 14 2a 1e bd 04 c7 13 3e 6b f7 b0 3d
       0.026295109 -0.038614348 0.14431387 0.08640941
000010 0e 12 56 be e6 c9 1d 3e 39 25 a1 3e 27 f0 8c 3c
       -0.20905325 0.1540905 0.3147371 0.017204357
000020 c6 d7 28 3e d4 df 89 bd f3 0f bd bd 49 0e 0c be
       0.16488561 -0.06732145 -0.09231558 -0.13677324
000030 09 42 9a 3c 43 6e 47 3c f8 db 7c bd 79 c5 9b bd
       0.018830316 0.012172285 -0.061733216 -0.07606024
000040 6a 43 ac be 21 ca 1b be 80 db cb bc e5 ff b7 bd
       -0.33645183 -0.15213825 -0.02488494 -0.08984355
000050 6f c6 b2 be 04 f1 14 bd f8 1c f3 bc 7b e9 3a 3a
       -0.34917018 -0.036362663 -0.0296769 0.0007130128
000060 cd 56 32 3d 03 57 62 3d c3 e0 44 3e 98 17 6d ba
       0.04353981 0.055258762 0.19226365 -0.0009044348
000070 7b ff 69 3d 21 9d 6b 3c c2 03 a9 3e 67 40 82 3d
       0.05712841 0.014380724 0.3301068 0.0635994
000080 87 76 14 3e e1 7b 0d bc e2 e2 ba 3d 29 7e 7c be
       0.1449834 -0.008635492 0.09125306 -0.24657501
000090 0f fe 8e 3d 9e 3c 0d bd 7b 27 35 be 38 39 55 bc
       0.069820516 -0.034481637 -0.17690842 -0.01301413
0000a0 bb 54 17 3e ca 9e 22 3e c6 23 66 be e8 45 a0 3e
       0.14778416 0.15880886 -0.22474584 0.31303334
0000b0 5e b9 e4 bc 62 ba 8c 3e f7 20 86 3d 62 77 97 bd
       -0.027920421 0.2748595 0.06549256 -0.07395817
0000c0 23 d6 9d 3c b2 e9 3b 3e 95 77 93 3d dd 22 a3 3d
       0.019267147 0.18350866 0.07200543 0.07965634
0000d0 e3 3a ab be 65 8a ca be 84 dd 6b be d9 ec 8a 3d
       -0.33443365 -0.39558712 -0.2303372 0.06783456
0000e0 f7 d9 63 be f7 a1 32 bd 3c 68 61 3e ad 69 18 bd
       -0.22251116 -0.043611493 0.22012419 -0.037210155
0000f0 64 b4 8f bd 02 86 88 bd e4 14 87 3d a5 13 1c 3f
       -0.07016829 -0.06666185 0.065957814 0.60967475
000100 04 33 d8 3d 52 fb 2d bd cc e9 13 bd 42 1a 07 3e
       0.105566055 -0.042476006 -0.036111638 0.1319361
000110 d7 4d 1d be 5c 33 4d be cb ab 5d 3b 0f 47 06 bd
       -0.15361725 -0.20039123 0.003382432 -0.03278261
000120 c3 82 ff bd ba 8d d8 3d 99 c6 38 be c1 13 52 3e
       -0.12476113 0.10573907 -0.18044509 0.20515348
000130 99 e7 fd 3d 31 25 24 be 79 9b 75 bd c2 47 5a bd
       0.12397689 -0.16029812 -0.059962723 -0.05329109
000140 ae eb 2f ba 46 00 10 be 05 f6 88 bb cc 1e 41 3e
       -0.0006710839 -0.14062604 -0.0041797184 0.18859404
000150 2f 44 91 bd d6 d0 0b 3c 05 ff 0c be b4 eb 04 bd
       -0.07093083 0.008533677 -0.13769157 -0.032451347
000160 64 31 b7 bd 80 04 5f 3d f8 7b 25 3c 28 b8 87 bd
       -0.089449674 0.05444765 0.010100357 -0.06626922
000170 82 f9 4b be 9c c3 cb be 86 8c 51 3d f8 29 c3 be
       -0.19919398 -0.39797676 0.051159404 -0.38117957
000180 1d 94 22 be 29 cf 92 be a4 70 e4 bc 50 64 94 be
       -0.15876813 -0.28673676 -0.027885742 -0.28982782
000190 92 7d 81 be 44 52 a8 3d fc 10 b4 3d 98 89 d0 be
       -0.25291115 0.08218816 0.08792302 -0.40729976
0001a0 59 57 28 3e 37 c6 d2 be 37 23 1a 3d 02 18 78 bd
       0.1643957 -0.4116685 0.03763124 -0.06056977
0001b0 7b 29 db be ba 49 bd bd a6 70 a1 be 35 c1 a2 be
       -0.42805085 -0.09242578 -0.31531256 -0.3178803
0001c0 42 dc cf bd 48 93 7c ba 80 63 df bd 34 8b 05 3e
       -0.10149433 -0.0009634984 -0.1090765 0.13041383
0001d0 8f 5a e4 bb 80 23 c4 bd 0a 24 a0 3d 03 60 10 bd
       -0.0069688032 -0.095770836 0.07819374 -0.035247814
0001e0 ea 13 e8 bc c8 03 00 bf 8e 9a 02 bf db 22 35 3d
       -0.028329808 -0.5000577 -0.5101708 0.044222694
0001f0 fb 9f 3b 3c e5 f9 a0 bd 5b c9 17 be e0 48 1a 3d
       0.011451717 -0.078601636 -0.14822905 0.037667155
000200 f1 63 9d bd 56 96 56 bd 17 bd 93 bc 15 79 95 3c
       -0.07685078 -0.052389465 -0.018034501 0.018246213
000210 df fe 09 3d aa fd 05 bd 23 8b 06 bd d4 4d 99 bc
       0.03369033 -0.032712616 -0.032847535 -0.01871387
000220 f2 ae d0 bd 7b 8c 45 bd 25 0d 9d bd 93 fb b0 bd
       -0.10189618 -0.048229676 -0.07668523 -0.08641734
000230 2d b9 87 bd 31 64 b4 bd 1a a0 03 bd d8 c7 14 3c
       -0.06627116 -0.088081725 -0.032135107 0.00908085
000240 4f b0 ca bd 6f a4 7d bd e2 d2 83 bd 12 8d a6 bd
       -0.098969094 -0.061924394 -0.06436707 -0.08132376
000250 6d 39 10 3d 0a f9 02 3b b2 5c 3d 3d a1 74 e0 bd
       0.035211015 0.0019984865 0.04623098 -0.10959745
000260 52 39 79 3c aa 28 6d bd 6f 0f 28 bd 2f 15 29 3d
       0.01521142 -0.05790011 -0.041030344 0.041279968
000270 ef 1f 8c bd e5 21 a9 bc 4a ea be bd 92 5c 73 3c
       -0.06842028 -0.020646045 -0.09322031 0.014853613
000280 f8 65 68 3d 70 6a d4 3c a1 2c bb bd 8d 66 a6 bc
       0.05673787 0.02592966 -0.09139372 -0.020312572
000290 8e 81 3a 3c b7 f1 10 3d 83 15 f1 bc 9a bb 59 bd
       0.011383427 0.035386767 -0.029429203 -0.053157426
0002a0 25 99 8a bd c8 dc 1d bd e1 9f d0 3c a0 f6 b4 bd
       -0.06767491 -0.03854063 0.025466861 -0.088361025
0002b0 19 89 3a bd c2 68 da bd 9b 4c a5 bc db b4 3b bc
       -0.045540903 -0.10664512 -0.02017813 -0.0114566935
0002c0 16 73 81 bc ac 1d 67 bd d3 5f 1c bd f3 37 c8 bd
       -0.015801948 -0.05642478 -0.038177323 -0.097762965
0002d0 94 22 56 3d b2 0c aa bd e0 63 e6 3c d6 db b4 bd
       0.05227907 -0.08303203 0.028123796 -0.08830993
0002e0 0c d2 4e 3d 05 c3 e7 3c 11 3a 72 3d d4 3e bc bb
       0.050493285 0.028291235 0.059137408 -0.0057447944
0002f0 80 5a 70 3d 11 65 e2 bc 5c 55 3e bc b8 65 8e 3d
       0.058680058 -0.027636083 -0.011617031 0.06952995
000300 ba e3 9d bd bc 70 a7 bd 6a 6a 08 bb 6e 4d 94 bd
       -0.07709451 -0.08175799 -0.002081538 -0.07241331
000310 bb f2 57 bc 80 4c 45 3c 16 b2 2f 3d 9d 7c 87 bd
       -0.01318043 0.012042165 0.042894445 -0.06615565
000320 93 bd 69 3d 8f 22 60 bd 01 65 25 bd ca e8 21 3d
       0.057065558 -0.054720458 -0.040379528 0.039528646
000330 5b 2c 29 bc da 2d 77 bd 1f 0f c3 3c 77 d1 40 bd
       -0.010325517 -0.06034646 0.023810921 -0.04707476
000340 6b 98 2c bd 67 93 c4 bd 69 4e 6f bd 02 62 81 bd
       -0.042137545 -0.09598427 -0.058424387 -0.06317522
000350 44 1b a7 3c 83 01 ec bc 6b 9d f6 3a 51 f9 71 3c
       0.020398743 -0.028809315 0.0018815225 0.014768914
000360 e2 56 b5 bd 0a 1d 69 bd 25 9f ac bc f4 c3 cb 3c
       -0.08854462 -0.05691246 -0.02107198 0.024873711
000370 25 c2 06 bc 16 03 b8 bc 65 54 34 bd f8 f7 13 bd
       -0.008224999 -0.022462409 -0.044025797 -0.036125153
000380 e5 d4 b1 bc f2 f7 7f bd 56 6b 93 bd 91 84 72 bd
       -0.021707961 -0.06249232 -0.07198207 -0.059208456
000390 f8 8e 47 3d c0 69 0b 3c d7 5b 12 3d 0e 25 f8 bd
       0.04872033 0.0085090995 0.035732117 -0.121164426
0003a0 cb f8 4b 3d 6a fa cf bd 4a d9 4e 3c 0a ff ce bc
       0.049797814 -0.101551846 0.012625048 -0.025268096
0003b0 7a b3 37 3d 66 cd 3f 3c 6c 4a ed bd b5 e5 8e bd
       0.044848897 0.011706686 -0.115864605 -0.06977407
0003c0 0b 1b b4 bd 8f d0 bd 3c 2e fa 28 3d ee 9a 27 3c
       -0.087942205 0.023170738 0.041254215 0.010229809
0003d0 03 0b b9 3c 07 3b aa ba a8 69 0f bd ad ad 98 3c
       0.022588259 -0.0012987562 -0.03501287 0.018637503
0003e0 71 5b 94 bb b8 16 9e bd 65 86 75 3d e2 1f c6 bc
       -0.004527502 -0.07719177 0.05994262 -0.024185125
0003f0 0b 74 c4 bc c5 a1 ab 3c 62 95 ba bd 18 49 be bc
       -0.023981115 0.020951161 -0.09110524 -0.023228213

fc2.bias f4 [128]
000000 85 d0 be bc 27 b3 e6 bd 3c c0 54 bd 02 0e 3a be
       -0.02329279 -0.11264639 -0.05194114 -0.18169406
000010 ee e8 ed bd d3 ce d9 3d cb cd cd bd fe 64 98 be
       -0.116166934 0.10635152 -0.100490175 -0.2976455
000020 73 8f e6 3b c8 0a 33 bd 4d 64 53 bc a2 76 dc bc
       0.0070361434 -0.043711454 -0.012902332 -0.026912037
000030 86 ea 9e 3e 03 04 21 be 20 10 13 3e 77 09 a1 be
       0.31038302 -0.15724187 0.1436162 -0.31452534
000040 48 f8 92 bd 5c 00 72 bc fd 7f ea bd 37 da 6e 3e
       -0.07176262 -0.0147705935 -0.11450193 0.2332543
000050 ad 1b e5 bc f5 8b 3d be b7 9d be 3d 8c 3e 92 3e
       -0.027967298 -0.1851042 0.093074255 0.28563344
000060 45 b6 c8 3d 43 b2 55 be 93 1d 93 bc c6 74 c9 3c
       0.0980039 -0.20868783 -0.017958438 0.024591815
000070 3f f4 af 3e 70 33 ef 3d b9 85 8b bd f6 25 64 3d
       0.34366032 0.11679733 -0.06812615 0.055700265
000080 9d 45 3a 3d 72 4e 89 be 94 d6 08 bf f5 48 e6 3d
       0.045476545 -0.26817662 -0.5345242 0.11244384
000090 f0 e6 d6 be 46 7a 51 be 33 65 b2 bc fc cf dd 3d
       -0.41973066 -0.204568 -0.021776771 0.108306855
0000a0 8a a1 77 3e 64 3f 59 be 3b 0c 97 3e 1d 0e 23 be
       0.24182716 -0.21215588 0.2950152 -0.15923353
0000b0 4c d2 81 be 52 59 a9 bb 07 f2 20 3a 09 2d 27 3e
       -0.25355756 -0.0051681185 0.00061395805 0.16325773
0000c0 62 4c 5e be 52 e6 e3 bb e9 e4 12 3d fa 02 25 be
       -0.21708825 -0.0069549466 0.035862837 -0.16114417
0000d0 34 27 1d be 2d af cd bd eb 99 bc 3d 78 71 24 be
       -0.15346986 -0.10043178 0.09209045 -0.1605891
0000e0 54 97 0e 3e 6d 10 86 3e 65 a0 13 3d a3 cc fc 3d
       0.13924915 0.26184407 0.036041636 0.12343719
0000f0 9f 74 31 3c dc 88 92 bd 6c 36 3b 3c 3d 63 30 be
       0.010831027 -0.0715501 0.011426549 -0.17225356
000100 62 fa 4e 3e d3 a0 6d 3e 18 6c 10 be 89 2c 81 3e
       0.20212701 0.23205881 -0.14103734 0.2522929
000110 1c 58 39 be 37 9d 80 bd c1 33 99 3c 8c 8d e7 bd
       -0.18100017 -0.06279986 0.018701436 -0.11306295
000120 4e 19 a4 3d de 68 97 be 41 47 72 be 3d 93 1b 3e
       0.08012639 -0.29572195 -0.23659994 0.15192886
000130 36 7b 84 bd 70 9e cc bd c8 8a b2 be b0 12 68 3e
       -0.06468813 -0.09991157 -0.34871507 0.22663379
000140 c9 67 6d 3e 41 a0 4b 3d 66 69 b3 bd b1 c2 a3 bc
       0.23184122 0.049713377 -0.087603375 -0.019990297
000150 62 8b 0f be 8f cc 97 be d4 eb 27 be 0c 64 99 bd
       -0.14018014 -0.29648253 -0.16398555 -0.074897856
000160 8f 86 14 be 3b 85 11 3e d5 c6 09 be a2 33 37 be
       -0.14504455 0.1421098 -0.13454755 -0.1789079
000170 5f f1 d2 bc ff 22 9a be 38 ac 96 3d 62 e5 c2 3e
       -0.02574986 -0.30104825 0.07357067 0.3806563
000180 94 55 41 3e 58 1f f9 bd 91 fd 19 be a7 92 3a 3d
       0.18880302 -0.121641815 -0.15038134 0.045550015
000190 8a 25 bf bd bb 68 9b bd dc 4a 49 be 3e f6 81 be
       -0.09333332 -0.07588335 -0.19657463 -0.2538318
0001a0 69 e9 3e be 8b 48 d9 bd c9 08 bb be 75 39 e6 3d
       -0.18643726 -0.106095396 -0.3653014 0.11241428
0001b0 f3 45 b1 3e da f0 e1 3d fe a4 10 be ad 81 c7 be
       0.3462368 0.11032267 -0.1412544 -0.38966122
0001c0 2d 0d f6 3c 8f 6e 0d be 8e fb a8 be 9c 10 a9 3e
       0.03003558 -0.13811706 -0.3300442 0.33020484
0001d0 36 25 83 3d 19 5f c8 bd 6b 74 87 be 2a f3 87 3d
       0.06403582 -0.097837634 -0.26456007 0.06638177
0001e0 b6 b3 79 3e af e8 f5 be 67 d3 07 3e 03 eb 83 bd
       0.2438496 -0.48029086 0.13264237 -0.06441309
0001f0 98 3e cd bd c4 7a 05 be 4d 8a 5f bd 3c 3a 07 be
       -0.100217044 -0.13035113 -0.054575253 -0.13205808

fc3.weight f4 [64, 128]
000000 1b 01 30 bf 34 c3 e5 3c b0 59 59 3e e8 a7 eb bd
       -0.68751687 0.028047182 0.2122562 -0.11506635
000010 28 97 20 bf 94 1a b4 be bc 09 03 be 04 8a b0 bc
       -0.62730646 -0.35176528 -0.12796682 -0.021550186
000020 52 08 cc bd cf 1c 31 be 15 f9 32 bf 52 1b 91 be
       -0.099625245 -0.17296146 -0.6991132 -0.28341156
000030 68 73 21 bf 80 31 ba be 6a cd 24 bd aa 8d 0d be
       -0.6306672 -0.3636589 -0.04023496 -0.13823572
000040 96 bd b7 b9 26 69 a1 bd d0 b1 43 3c 35 86 3e 3e
       -0.00035045733 -0.078813836 0.011944249 0.18605883
000050 c0 fb a0 bd 41 28 b8 bd 74 26 77 3e 73 78 48 bf
       -0.078605175 -0.08992053 0.24135762 -0.7830879
000060 4c 2a 03 3e 6e b0 38 be 4c 21 52 3d fe 89 5d 3e
       0.12809104 -0.18036053 0.051301286 0.21634671
000070 96 1e 49 bc fb e3 02 bf ca a4 f1 be 09 87 c6 be
       -0.012275359 -0.5112912 -0.47196037 -0.387749
000080 d6 77 60 be 92 44 f1 be d2 dd 9d be fd bc 4f bd
       -0.21920714 -0.47122627 -0.30833298 -0.050717343
000090 c6 d4 6f bd 78 3b 50 be 01 c5 59 3d e3 a5 ea be
       -0.058552526 -0.20335186 0.053166393 -0.45829687
0000a0 c2 10 15 3e 47 16 d7 be 6b 49 11 3e 3e 1c 89 bd
       0.14557174 -0.42009184 0.14188163 -0.0669484
0000b0 ad d1 f4 bd e6 de 0b bf 8d d7 e8 3e 48 66 1f 3f
       -0.11954055 -0.5463699 0.45476952 0.62265444
0000c0 88 85 af be 83 b5 68 3a dc 9d e6 be 9b 6c d9 3e
       -0.34281564 0.0008877145 -0.45042312 0.42465672
0000d0 4b 06 f4 bc 0b c2 e6 bd a1 87 19 bd ea 6e 32 3e
       -0.029788157 -0.112674795 -0.03748286 0.17425123
0000e0 15 36 0e be 9e 13 c3 3c f2 b4 45 be 80 c9 80 be
       -0.13887818 0.023813065 -0.19307306 -0.25153732
0000f0 ff 15 a2 bc 04 d4 95 bd 1d 50 8e be e8 20 49 be
       -0.01978588 -0.073158294 -0.27795497 -0.19641459
000100 71 1f 81 be 89 13 46 bf ac 9f e0 be d0 f3 1f bf
       -0.252193 -0.7737356 -0.4387182 -0.62481403
000110 ec 40 c5 3c d4 db 5c 3d ca a5 43 3f d8 03 84 be
       0.024078809 0.053920582 0.7642485 -0.25784183
000120 67 7d 64 3e 06 69 8f be fb 8d 30 be 97 91 5c be
       0.22313462 -0.28009814 -0.17241661 -0.21539913
000130 85 b7 08 3e 5d c9 f2 bd 49 d4 88 bd cf ec 4c 3e
       0.13351257 -0.11854813 -0.06681115 0.2001221
000140 ee 33 f1 be 39 1b 05 be 24 60 3c 3c 43 de 16 bf
       -0.47109932 -0.12998666 0.011497531 -0.58932894
000150 5a c0 68 3b e7 99 f8 3c c2 9e b1 3d 56 c5 a5 3c
       0.003551504 0.030346824 0.08672859 0.020235699
000160 05 e2 f7 bd f7 23 59 bf 13 98 2b bf 70 ce 33 bf
       -0.12103657 -0.84820503 -0.6702892 -0.70236874
000170 96 42 dc bd 05 ca 7a be ab dd 2a be cc 9b 2e bf
       -0.10754888 -0.24491127 -0.16686122 -0.6820648
000180 77 01 c8 bd c8 62 c6 be 0b e0 93 3e ac 36 92 be
       -0.097659044 -0.3874724 0.2888187 -0.28557336
000190 e2 3c 01 bf de 8c b6 be 35 6f 90 bd 98 c8 45 be
       -0.50483525 -0.35654348 -0.07052461 -0.19314802
0001a0 08 dd 04 3f 9c 4f 36 3d 77 2d bb be 63 f5 77 be
       0.51899767 0.044509515 -0.36558124 -0.24214701
0001b0 45 03 3a bc e8 e0 90 3e ca 46 b1 be e7 2f aa be
       -0.011353319 0.2829659 -0.3462432 -0.33239672
0001c0 73 9c 81 be 2f 42 8c 3d fd 97 32 bd e9 81 04 be
       -0.25314674 0.06848561 -0.04360198 -0.12940182
0001d0 12 f7 9e 3d 39 c6 82 be a4 26 de be 64 00 0f bf
       0.07761969 -0.25541857 -0.43388855 -0.5585997
0001e0 3a a0 ef 3d 93 ad 0c 3e b0 a3 52 3e be 03 2a 3e
       0.11700483 0.13738088 0.20570254 0.1660299
0001f0 47 57 09 bf d4 c1 35 be bc f9 0e 3f d9 21 98 bc
       -0.536488 -0.17749721 0.55849814 -0.018570827
000200 1b cb 54 bf c3 1e 92 bd e2 65 eb 3e 13 d0 8a 3d
       -0.83122414 -0.071347736 0.45976168 0.06777968
000210 f9 17 2e 3e a5 a1 65 be 10 d5 1f 3c 24 37 5d bf
       0.17001332 -0.22424944 0.009755388 -0.8641226
000220 0d 91 bf bd dd 66 75 be 65 12 ad 3c fb cd e2 be
       -0.09353838 -0.2396502 0.021126935 -0.44297776
000230 58 1e 11 be 91 2b 0d bf 8f 37 b1 3e 4b d6 0c 3e
       -0.14171731 -0.551446 0.346127 0.13753621
000240 6d 83 c3 bd 43 1b f7 be 88 b5 ef 3c 8c 43 f6 3e
       -0.09546552 -0.48262987 0.029261366 0.4809841
000250 2b ff 93 be 60 44 83 be 0b 80 4b 3e cb a6 54 bd
       -0.28905615 -0.25638103 0.19873063 -0.05191688
000260 df 3b 7c bd 14 e2 e9 3c 03 45 4b bd 26 9b 64 3e
       -0.061580535 0.028550185 -0.04962636 0.2232481
000270 08 1d 3e 3d f8 6d 00 bf e3 a7 61 3d ac 17 d3 3d
       0.046414405 -0.501678 0.05509175 0.103072494
000280 78 92 a8 3d f6 0a c8 bc 0e 21 b5 be 42 17 9d 3d
       0.08231062 -0.02441929 -0.3537678 0.07670452
000290 57 05 15 be 03 1d 51 be e2 45 ec bb b2 d3 4f bf
       -0.14552818 -0.20421223 -0.007210479 -0.81182396
0002a0 1e e0 01 be 87 e0 1b be 72 7c 84 3e 3c 86 75 bd
       -0.1268315 -0.15222369 0.25876194 -0.05994247
0002b0 2e d5 9f 3e c8 83 9a 3c cb 23 b0 bd f4 39 46 3f
       0.3121733 0.018861666 -0.08600577 0.7743218
0002c0 d4 f3 32 3e 9a ee 4d 3e af ff 49 be 1a 37 7a bf
       0.17475826 0.2011055 -0.19726442 -0.9774033
0002d0 1a 8c ad be 7f 80 dc bc b1 2d f1 3e d5 53 8a 3c
       -0.33895952 -0.02691674 0.47105172 0.016885677
0002e0 b4 8e 57 3e 2f 23 f8 bc c3 b4 40 bc d7 62 a6 3d
       0.2105053 -0.030290214 -0.011761847 0.08124321
0002f0 1f 95 ec 3c d0 aa a8 be 38 d8 34 bd 6f d5 02 be
       0.0288797 -0.3294282 -0.044151515 -0.12776731
000300 02 21 23 3e d0 35 e6 bd 58 f1 81 3c cb e5 20 bf
       0.1593056 -0.11240733 0.015862152 -0.62850636
000310 2d f0 b4 3d a0 e7 ef bd a4 67 92 3e 63 f2 0c be
       0.088348724 -0.11714101 0.28594697 -0.13764338
000320 73 b0 c0 3c 66 4b ff 3c 29 82 12 3e 8d c2 ef bc
       0.023521638 0.031163882 0.14307465 -0.029267574
000330 f2 12 96 bd f6 67 2c bd 67 17 c6 3d 53 7c 14 bf
       -0.07327832 -0.042091332 0.096724324 -0.58002204
000340 32 1c 16 3c 39 6d a0 3e f0 cf c1 3c 14 2a c0 3e
       0.009161996 0.3133333 0.023658723 0.37532103
000350 00 79 35 bc 00 d2 5d be 29 b2 88 bd b8 48 5f 3d
       -0.011076212 -0.2166214 -0.06674606 0.05451271
000360 9c 1d 50 bf d1 61 10 be b6 1e 3f 3d be 0b d2 bd
       -0.8129518 -0.14099814 0.046660148 -0.10256146
000370 24 fb d1 3d 82 2c 67 3e 80 5f 38 3e cf 5d 1e bf
       0.102529794 0.22575572 0.1800518 -0.6186189
000380 b3 6f bd bd f9 de 54 bd 4a 4b 54 bc af 85 ac bd
       -0.092498206 -0.051970456 -0.012957403 -0.084239356
000390 db 48 2b bf af 7f bf be 8d b0 8b be 96 26 6f bf
       -0.66908044 -0.37402102 -0.27283135 -0.9341825
0003a0 44 2f 90 be 9b 9a 11 bd a7 8a 3d be e4 c9 61 be
       -0.2816106 -0.035547834 -0.18509923 -0.22049671
0003b0 07 34 36 3e 57 74 bc be 96 d6 85 3e 56 bf 3a be
       0.17793284 -0.3680751 0.2614028 -0.18237051
0003c0 24 df 38 3d 43 ad 9e bb 67 a0 36 be 43 95 e3 be
       0.04513468 -0.0048424318 -0.17834626 -0.44449815
0003d0 bd dc 58 3d 1d 6e 1f 3d bf c6 ea bc 1c 9b 2f 3e
       0.052944887 0.03892337 -0.028659223 0.17149013
0003e0 2c 26 cb 3d 69 2a 7b be a1 35 f5 be 50 f1 bd 3e
       0.0991939 -0.24527897 -0.47892478 0.3709817
0003f0 30 b1 ad be 22 e9 29 bd 88 b6 19 3f 99 8a 91 3d
       -0.33924246 -0.0414821 0.60044146 0.071065135

fc3.bias f4 [64]
000000 c7 57 27 3e a3 94 84 3e 02 3c 0e be ae d0 a8 3e
       0.16342078 0.2589465 -0.13890079 0.3297171
000010 be 0b 0a bd d6 99 0c 3e 36 cb ac 3e 2b b2 c0 be
       -0.033702604 0.13730559 0.33748788 -0.3763593
000020 fb df 8c 3e a7 68 b5 bd 5e f0 57 3e 9d 1f bd be
       0.27514634 -0.088578515 0.21087787 -0.36938182
000030 91 48 d4 3e 60 e3 96 3e 29 6b 76 3e 6f 4d d5 be
       0.41461614 0.29470348 0.24064316 -0.4166064
000040 11 47 e4 3d db 72 c0 3d 58 be 6c 3e fc 87 32 be
       0.11146367 0.09396907 0.23119485 -0.17434686
000050 23 a4 9c 3e bf d6 0f be 6b 8e 57 be cc 6c 22 3e
       0.30593976 -0.14046763 -0.21050422 0.15861815
000060 a4 90 ab bd cb 1a b9 be 10 9c 05 3e 66 75 fe bb
       -0.083771974 -0.36153254 0.13047814 -0.00776546
000070 fd d3 67 be d2 3c 31 be 94 27 11 bd 76 b7 87 3e
       -0.22639461 -0.17308357 -0.035438135 0.26507157
000080 d9 c9 7f be d8 b6 67 be cf 4f d9 bd ba 2d 3e 3e
       -0.24979343 -0.22628343 -0.106109254 0.18572131
000090 28 b8 7c 3e ef 6e 80 be 20 6f 87 be 85 9c b3 be
       0.24679625 -0.25084636 -0.2645197 -0.35080352
0000a0 59 1d ca 3e 50 4d a3 3e 27 56 1b bd 55 23 a9 3e
       0.39475515 0.31894922 -0.03792396 0.3303477
0000b0 8b 6e d6 bd fc f5 04 be b7 93 c3 3e 8b ca 37 be
       -0.10470303 -0.1298446 0.38198635 -0.17948358
0000c0 dc 03 45 bc 59 3b a8 3e bd 94 d8 3d 91 2b 7c be
       -0.012024846 0.3285778 0.105752446 -0.24625994
0000d0 b2 ba bc 3d 11 ff 03 3e dc 03 80 3e 66 38 64 be
       0.09215297 0.12890269 0.25002944 -0.2228714
0000e0 13 87 da be 78 3e 50 be 76 27 6f 3e 73 07 07 3e
       -0.42681178 -0.2033633 0.23354897 0.13186435
0000f0 f5 a4 d9 3e 6e 3e 9c 3d f3 37 43 3d 35 e1 7b 3e
       0.42508665 0.07629095 0.04766078 0.24597628

fc4.weight f4 [2, 64]
000000 57 e8 db 3e c5 08 84 3e d7 b9 b6 bc dd 11 06 bf
       0.429507 0.2578794 -0.022305412 -0.5237101
000010 38 62 e0 be 03 38 80 3e 46 c4 ac 3d 3a b8 8e 3e
       -0.43824935 0.25042734 0.08435874 0.2787493
000020 46 f6 96 3e 93 56 76 3e de de 8d 3d e6 27 5f be
       0.29484767 0.24056463 0.06927274 -0.21792564
000030 c1 de 17 3e 83 4e a6 be 30 62 66 3e 8f d3 81 3c
       0.14831068 -0.32481775 0.22498393 0.01584795
000040 2f d1 5a 3e ba 9f 2a be f6 98 54 3d c3 03 11 be
       0.2136886 -0.16662493 0.051903687 -0.14161591
000050 c4 80 2e 3e c4 13 bd bb a8 51 82 bd df b5 01 3f
       0.17041308 -0.0057701785 -0.06363231 0.5066814
000060 a8 50 75 be a5 67 73 be ae 71 ef 3c f4 81 c6 be
       -0.23956549 -0.23770006 0.029229011 -0.3877102
000070 19 bd 62 3e f0 3d 39 be b5 1f eb bd ab 40 e6 3d
       0.22142448 -0.18090034 -0.11480657 0.11242803
000080 2a f6 9f 3c d3 21 52 3d 4d 32 9a bd 2e 96 9a be
       0.01952656 0.05130179 -0.07529125 -0.30192703
000090 f3 15 8f 3d 97 76 46 be 82 8c f1 3c 19 2b 73 be
       0.06986608 -0.19381176 0.029485945 -0.23746909
0000a0 90 22 25 be 82 39 71 3e 90 37 aa 3e 99 93 3d 3e
       -0.16126466 0.23557094 0.33245516 0.18513335
0000b0 66 f8 01 be e7 15 2a be fc 89 e6 3e 53 9f b5 3c
       -0.12692413 -0.16609918 0.4502715 0.022170698
0000c0 c7 ef 25 3e fb 50 b4 3e 8f 76 20 3e 7b 6b 62 be
       0.16204749 0.35218033 0.15670227 -0.22111313
0000d0 e3 6a 07 3e f0 ee 99 be a0 90 8c be db 19 0d be
       0.13224368 -0.30065107 -0.2745409 -0.13779394
0000e0 15 9e 87 3d ea d4 5f bc 72 24 32 3e d1 7f cd 3e
       0.06621949 -0.0136616025 0.17396715 0.4013658
0000f0 ca e2 a0 3e f0 c7 39 3f 03 ef 12 3e 6e d4 20 3f
       0.31423026 0.72570705 0.14348988 0.6282414
000100 58 27 af 3d 70 a7 b4 bc 7a 57 96 bd 5e 0a 9c 3d
       0.08552426 -0.022052497 -0.073409036 0.07619165
000110 1c 10 ab 3d 10 d5 77 3d f6 78 b3 3d 90 f0 3d 3c
       0.08352682 0.060505927 0.08763306 0.011592999
000120 76 16 e4 3d 30 63 b4 bc d8 2d 8a bd 96 24 cd 3d
       0.111370966 -0.022019953 -0.06747025 0.10016744
000130 dc 23 31 3d e8 45 b9 bc 88 d5 6d bd e0 f1 ef 3b
       0.04324709 -0.022616342 -0.058064967 0.007322535
000140 20 d4 cf bb 9e 75 e0 3d ae 53 dd bd c0 1f e1 3b
       -0.006342426 0.10959934 -0.10806976 0.00687024
000150 84 0e 38 3d d4 be d8 3d ac 52 3c bd 88 3d b8 bc
       0.04493572 0.105832726 -0.04597728 -0.022490278
000160 f0 2a 48 3d 18 a2 fa 3d c8 9a e6 3d d4 13 40 bd
       0.048869073 0.12237948 0.11259991 -0.04689391
000170 be 79 ce 3d f8 e0 d8 3d 78 4d ba 3c 74 c7 68 bd
       0.10081814 0.105897844 0.022742018 -0.05683084
000180 fc 0f ec 3d 68 af 03 3d 4c bc 55 bd 02 4a ce 3d
       0.11526486 0.032149702 -0.052181527 0.100727096
000190 6e 4b b8 bd 32 6c b5 bd 8a d1 dd 3d d0 3c 73 3c
       -0.08998762 -0.08858527 0.10830982 0.014846042
0001a0 56 22 b2 3d 34 71 23 bd 94 c2 6b 3d 50 47 cf bc
       0.08697955 -0.03990288 0.05755861 -0.02530256
0001b0 a0 07 78 3c b6 7f 8e 3d 50 a9 b5 3c b8 5b 93 3d
       0.015138537 0.06957953 0.022175461 0.07195228
0001c0 e0 51 05 3d 24 ca c9 3d d8 8f c1 3d ee c9 88 3d
       0.032548785 0.098530084 0.09451264 0.0667914
0001d0 e4 52 78 3d e8 d9 65 3d 12 58 ac 3d a0 ac c7 bc
       0.060625926 0.056116015 0.084152356 -0.024374306
0001e0 f6 37 f7 bd 1a 36 a3 3d 84 ab 52 bd ec 61 79 3d
       -0.120712206 0.079693034 -0.0514331 0.0608844
0001f0 fe dc f3 bd 58 8e cc bd 20 fe 7a 3d 20 c0 c4 3c
       -0.11907385 -0.099880874 0.06127751 0.024017394

fc4.bias f4 [2]
000000 31 c8 c1 3e 88 6d db bd
       0.37848046 -0.10714251
