models/comparison_5000ep_dqn/pointwise_dqn_5000ep.pt (torch, 131804 bytes, 7 tensors)

fc1.weight f4 [128, 56]
00000000: f0d9 c43c 9256 ae3d d936 603e 8d76 223e
00000010: 9b27 893e 9f3d 7a3e 3925 eb3d b044 9a3d
00000020: 31dd b83d 25ae 1e3e da50 8e3d 8254 dd3d
00000030: 4cc8 263d 7d65 203e 4915 ca3d 0927 e83d
00000040: 6232 c43d 7a2e e43d 987d 493e 2f8c ab3d
00000050: e594 643e b849 133e 82c4 fd3d 81f3 343d
00000060: 9538 de3d 541a 0e3e 73be 693e 01d4 b33d
00000070: cd96 6e3e 9a4c 933c 212c 693e 2dcc 0c3e
00000080: d162 053e 0550 953d 7770 893e c900 673e
00000090: bca5 883e 0bec b63c a09b 6e3d 0eb2 5e3d
000000a0: 4aa0 93be eb5d e3be b826 473d 97c9 873d
000000b0: b6ac a23d fc45 8a3d 957e 4e3e 4776 393d
000000c0: 637f f33c bf29 e13d f580 c13d edcb 773e
000000d0: 3081 303e af13 8abd 7f45 803e 45b2 373e
000000e0: c704 0e3e 29b2 d53e 1497 cf3e c2e8 c33e
000000f0: d153 b53e 32ac ad3e 8dff 7e3e fd86 033f
00000100: 9846 d13e e719 c83e cbc5 143e eb5d b13d
00000110: 2155 bf3d fe06 0f3e 208a 393e 7c7a 9e3e
00000120: 0e95 ff3d 11ac 4d3e 707b e03d 95e2 033e
00000130: c7fa be3d ef96 9d3e 85dc c33e 3380 173e
00000140: 4c85 3d3e 6e17 523e df24 cd3d 034b 1d3e
00000150: ea17 173e e365 983e f913 b03e c705 a43e
00000160: 8d47 873e 3b50 593e c901 c93d 7280 973e
00000170: 683a 543e 403a a9bc 2d40 a63e cc79 f33d
00000180: bf28 853e 39e2 b4be 4747 df3d 678a 733e
00000190: 201e 8f3e 7e96 6f3e 8dc2 3a3e 17dd 80be
000001a0: 8772 d83d ea09 c63d e633 483e 2098 9b3e
000001b0: 8011 e93d 5a5a 733e 5941 973e e161 473e
000001c0: 5698 cfbc ac49 6e3c bc5e 11bc 9c3f f0bd
000001d0: af1e 0a3e 60e1 7d3b 7a56 c1bd ec1c 5c3d
000001e0: dedd 99bd 8bc3 cbbd 2a6d 7d3d efe0 083e
000001f0: cb3c fd3c 12d6 7b3d 17ea d43d 3afc b0bd
00000200: 8d72 953d 8af7 78bd b972 583c 0fac 8abd
00000210: 95bf 89bd 9747 613b 7bcd 883c 6f53 8cbd
00000220: f95f 84bc 6903 bf3c 1417 99bb af35 fbbd
00000230: 1451 9b3d 2ad7 f5bd 0c6e 0ebd 712b 8a3c
00000240: d33e 023d f9ed 4dbc cbc3 6f3d cdd9 b8bd
00000250: 4966 123e 0b6e 4b3d 4fa6 abbc 13e0 c9bd
00000260: d749 dbbc 0126 a53c 10b5 733d af07 65bd
00000270: 74fc 8cbd 4964 263d 9cfb 58bd 4af8 38bc
00000280: e659 c63d 1bba 883d 1077 013e 0e87 e93b
00000290: 2887 8f3d 0424 ccbd 5f7d 873d e917 833d
000002a0: 0713 e3bd 7b46 fc3e d722 e93d 9d2f fd3e
000002b0: e533 0f3f 2496 af3e 42a1 9e3c 30af a73e
000002c0: 5864 033f 7049 56be 7165 f23c e80c 92bc
000002d0: c424 9fbd b202 413d b536 a3bd ed18 a33d
000002e0: 84b5 13be 53a8 ea3d 7752 c4bd 034e 923d
000002f0: 07c0 c0bd 51af 47bd 9fcf 903d 115b 89bc
00000300: f645 ac3d c6f5 3dbd 0c49 4a3d 6ea9 e03c
00000310: 33b6 f4bd 7d79 00bc a17a e4bd 30a6 033e
00000320: 9203 9fbd 8a63 2dbe b01e 4ebd 68d4 4e3b
00000330: 55cf ca3d 4433 0540 40da e33d 920d ae3d
00000340: 8b10 a3bf 94ab adbf 91a4 8dbd 8cb1 2d3d
00000350: 6d7f 9b3d 4f8e c73d 6eb8 e7be 7803 063f
00000360: e15e 103d c8d9 143c bb71 6f3d e729 c0bd
00000370: 9486 823d 5c6c c9bf 86fe 5639 6adc b0bd
00000380: 755a 2ebd 846a 3e3f 5978 4f3e f059 013f
00000390: 07d1 ee3d 6d0c b83e a7f1 843c d216 143f
000003a0: 20d9 a33e 0c9b 7e3e 702a 853c abda 173d
000003b0: a524 fdbd 6ba1 bb3c 9ed9 9ebd b760 c73c
000003c0: f837 96bc d4b0 d23d 02eb f33c 4d6a 0cbe
000003d0: 38b8 6e3b 1ad7 f73a 5534 1fbe 5d10 793d
000003e0: 83a9 c0bd a24d d2bd d3d9 013d 5c8b 88bd
000003f0: e7af b63c d967 db3c d0d7 19bd 1691 0bbd
0.024029702 0.08512606 0.21895923 0.15865536 0.2678803 0.24437569 0.11481709 0.07532632
0.09026564 0.15496118 0.06949015 0.10807134 0.04071836 0.15663715 0.09867341 0.1133557
0.09579922 0.11141677 0.19676816 0.08376347 0.22322424 0.1438359 0.123909965 0.044177536
0.10850636 0.13877231 0.22826557 0.08780671 0.23299713 0.017980862 0.2277074 0.13749762
0.13025977 0.07290653 0.26843616 0.22558893 0.26688945 0.022329351 0.058253884 0.054369025
-0.28833228 -0.4440759 0.04862091 0.06630247 0.07943098 0.0675163 0.20165475 0.045278814
0.029723829 0.109942906 0.09448425 0.24198885 0.17236781 -0.067420356 0.2505302 0.17939098
0.1386901 0.41737488 0.4054495 0.38263518 0.3541551 0.33920437 0.24902172 0.5137785
0.4087417 0.39082262 0.14528577 0.086604916 0.09342409 0.13967511 0.18119097 0.30952823
0.12479602 0.2008517 0.10961044 0.12879403 0.09325176 0.30779216 0.3825418 0.14794998
0.1850788 0.2051675 0.10016798 0.15360646 0.14755216 0.29765233 0.34390238 0.32035658
0.26421776 0.21222012 0.098147936 0.29590183 0.20725405 -0.020657659 0.32470837 0.11888465
0.2600765 -0.35328844 0.10902267 0.23783265 0.2795267 0.23397252 0.18238278 -0.25168678
0.10568719 0.0966986 0.19551048 0.303895 0.11380291 0.23764935 0.29542044 0.19470932
-0.025341194 0.014543932 -0.008872684 -0.117308825 0.13488267 0.003873907 -0.09440322 0.05373852
-0.07513021 -0.09949406 0.061871685 0.13367055 0.030912777 0.06148345 0.103962116 -0.086418584
0.072972395 -0.060782947 0.013210946 -0.06771099 -0.067259945 0.0034374946 0.016699543 -0.06851851
-0.016159045 0.023317056 -0.0046719406 -0.12266099 0.07583824 -0.1200393 -0.034772918 0.016866418
0.031798195 -0.012568944 0.058536332 -0.09025917 0.14296831 0.049665492 -0.020953326 -0.09857192
-0.026768608 0.020159723 0.059498847 -0.05591553 -0.06884089 0.040622983 -0.05297433 -0.0112896655
0.096851155 0.06676122 0.12643075 0.0071266955 0.07008201 -0.09967807 0.066157095 0.06401045
-0.110876136 0.49272522 0.11383598 0.4945039 0.5593856 0.34294236 0.019364003 0.32750845
0.5132499 -0.20926452 0.029589387 -0.01782842 -0.07770684 0.04712171 -0.07969419 0.079637386
-0.14424711 0.114578865 -0.095860414 0.07143786 -0.09411626 -0.04875118 0.070708506 -0.016767057
0.084117815 -0.046376966 0.04938607 0.02742454 -0.11948814 -0.007841465 -0.11156202 0.12856364
-0.07764353 -0.16932502 -0.050322235 0.003155971 0.09902827 2.081254 0.11125612 0.08498682
-1.2739424 -1.3567986 -0.06916154 0.04240565 0.07592664 0.0974394 -0.45257896 0.5234904
0.035246734 0.009085126 0.05845807 -0.09382992 0.06373325 -1.5736194 0.00020503448 -0.08635791
-0.042566735 0.7438128 0.20260753 0.5052786 0.116609626 0.3594698 0.01622851 0.5784732
0.3200159 0.24863833 0.016255587 0.037073772 -0.12360505 0.022904119 -0.07756351 0.02433811
-0.018337235 0.102876335 0.029775146 -0.13712426 0.003642572 0.001890871 -0.15547307 0.06080662
-0.09407332 -0.102687135 0.031701874 -0.06667206 0.022300674 0.026782917 -0.03755933 -0.03407391

fc1.bias f4 [128]
00000000: 2f78 7cbe 6383 65be da2c 25bc d715 d03d
00000010: 53b9 1d3e 29e5 f3bd 4846 81bf fc5a 893d
00000020: 8bdf af3d b106 243e 74eb 82bc 5683 a9bd
00000030: f0ac abbe aec5 0a3e 3e34 71bd 6b64 c7be
00000040: 44f7 bc3d 3629 93be 3641 3a3d 9088 8fbc
00000050: 3a31 3bbd 8bde 60be 08e4 f2bc 2a61 693d
00000060: 0021 1abe 7f03 a1be 1d28 803d b4c1 ecbc
00000070: 68fd e4bd 39bb db3c 6078 b93d 1c55 903c
00000080: 73bf 2fbe 6018 a73e f2e7 7abc ec93 89bd
00000090: bb66 463d 791f 82bd b36e c13d b28d 35be
000000a0: 0f6c 943e 4895 21bd 300c c4bd 76fb 25be
000000b0: 1f39 69be d680 eeba f6da 49be f173 87bd
000000c0: 7451 38be af8a 98bf 6143 82bf b5fc 933c
000000d0: 67f8 bfbe 91f7 24bd 860c ab3d eb98 c5bd
000000e0: fff2 983d e5d6 0c3e 05ba a8bc d259 5fbf
000000f0: 4b62 c1bd c6db 9f3c 2d2c 21bd c84e ac3c
00000100: 871f 13bf dfab 3abe 8409 bfbd 8334 50bc
00000110: 7ab7 66be 9223 28be 13df 8e3d 7bbc 10be
00000120: 0ccc 6c3d 1dcb aabe 9e10 d9bd 421c 86be
00000130: d337 37be 9a54 8bbe cdcb d23d 2fe1 21be
00000140: af54 0d3d cab9 9ebe 0715 a73a 43fe 32bf
00000150: 1b97 f5be d40b 18be 864d a0be 2e7b ce3d
00000160: 4138 133d 3bce f7bd f769 33bd 750e fcbd
00000170: c5dc d5be a28b 183b 2750 b4bd df90 07bc
00000180: fffe c5bc 805c b2bc 3b4a fbbd a5c3 a13d
00000190: b691 00bf 48e6 29bd 8fdf afbe eafd 243d
000001a0: 62b1 cd3b 99c2 cbbd 0e13 993d 3498 2ebd
000001b0: 5c7e adbd cfcd fbbd de72 8e3d 7b9b 0e3e
000001c0: b143 d6bd a5ac 1cbd 8ba9 86bd 1a17 443d
000001d0: 71b0 55be ca9d b53c 0969 b9bd ba8c a2bd
000001e0: d1c8 b1bd bc2e 303e ea18 1bbe 2f70 d2be
000001f0: cf99 11be 3952 a7bc 2a70 d2bc 4226 14bd
-0.24655221 -0.22413401 -0.010081494 0.101604156 0.15402727 -0.11908943 -1.0099573 0.06706807
0.08587559 0.16018178 -0.015981413 -0.082770035 -0.33530378 0.13551971 -0.058887713 -0.389438
0.0922685 -0.2874238 0.045472346 -0.017521173 -0.045701243 -0.21959893 -0.02964975 0.05697743
-0.15051651 -0.3144798 0.06257651 -0.028900959 -0.11181146 0.026822673 0.09056163 0.017618708
-0.17162876 0.32635784 -0.015314089 -0.06717667 0.048437815 -0.06353659 0.09444942 -0.17729834
0.28988692 -0.039449006 -0.09572637 -0.16209206 -0.22775696 -0.0018196355 -0.19712433 -0.06613911
-0.17999822 -1.1917323 -1.0176812 0.018064836 -0.37494203 -0.04027516 0.08351998 -0.096483074
0.07468223 0.13753851 -0.020596514 -0.8724643 -0.09442576 0.019513976 -0.03934877 0.02103366
-0.5746998 -0.18229626 -0.09327987 -0.012707832 -0.22530928 -0.16419819 0.06976142 -0.141344
0.05781178 -0.33358088 -0.105988726 -0.26193434 -0.17892389 -0.27212983 0.10292778 -0.15808557
0.03450459 -0.3100112 0.0012747356 -0.6991922 -0.47966847 -0.14848262 -0.31309146 0.100820884
0.03594232 -0.12099882 -0.043802228 -0.12307445 -0.41769996 0.0023276587 -0.0880435 -0.008274286
-0.024169443 -0.021772623 -0.12270018 0.07898644 -0.5022234 -0.04147938 -0.3435025 0.040281214
0.006277249 -0.09949226 0.074743375 -0.04262562 -0.08471367 -0.12295114 0.06955503 0.13926499
-0.1046213 -0.038250584 -0.065753065 0.047873594 -0.20868088 0.022169966 -0.09053237 -0.07936998
-0.08680881 0.17205328 -0.15146223 -0.41101214 -0.1421883 -0.020424949 -0.02568825 -0.036169298

fc2.weight f4 [128, 128]
00000000: 1e6a 13be ddbf b3bd 86e4 a33d dbdd c3be
00000010: bff0 9f3d c70d a23c 39be d7be 72ff 85bd
00000020: 96fa 58be 5b74 8d3d e9ff bb3d d1f4 dabc
00000030: b050 2e3d bf7c c93c fbc3 3ebd 133f f3bd
00000040: 6a49 67bd 40d5 efbd f168 3cbc 2ccb 95bd
00000050: 748d 183d 5dd2 51be 52d2 373c 66dc 90bc
00000060: 52f1 323d 76a4 7c3d f270 cfbd df04 79bb
00000070: 664b 8c3d 7a15 203d ac2f 0fbd 7dcc 8e3d
00000080: cb8e 42be 6e77 80be 97a7 13bd ef55 1fbb
00000090: 38f4 e63c 2c9c 58bd fc78 6cbe 53ae 9abc
000000a0: dafa 8abe 9a26 1e3c a40d a2bd 996b 8dbe
000000b0: 8246 a7bd 8b65 5ebe 9a18 10be 86dc aebc
000000c0: e0d3 babd 2232 94be 1a81 febb 2437 c9bd
000000d0: 4d42 fdbc b51a c3ba f4a9 57bc a334 86bd
000000e0: 2199 a8bc 29b5 183e 65fc 363d 6561 9fbe
000000f0: 3cf0 f73d 51ee 783d 33b5 7c3a c4e3 f33d
00000100: 43f3 b1bd ee7a 49be ed25 813b b340 723d
00000110: ceff a7bd ceeb c1bc cf0d c6bc 095a 5a3d
00000120: 7792 803d 1591 523d 5da8 26bd d5cf c3bc
00000130: a04c 273d 1514 48bd 6d3f 10be 5893 73bc
00000140: d626 0dbe 1a1a 9c3d 99c6 6a3d c262 02bd
00000150: 89f3 713d 51e0 91bd e100 17bd 7cba ed3c
00000160: c2c8 65bd 6248 18be e655 03be baa0 08bc
00000170: 6ae0 75bd 2617 32bd 251c ad3d 89d0 86bc
00000180: 0eaf 67bb a386 d43c 0100 1f3d ad4f f03b
00000190: 2f45 39be b418 88bd e72d f0be 730f 7d3d
000001a0: c6d7 c13b a683 80bd 7234 5f3c 89db 8cbd
000001b0: 0fd4 1ebe 54a7 993d 5b7f e6bc f528 e93d
000001c0: 6a60 ecbc ed1a 28bf 32b8 3a3c ae91 073e
000001d0: bc10 9dbc 63a1 23bd 520d 663d 1d9d 883d
000001e0: 37c4 e93b 91f3 23be a105 2fbd 286a f03c
000001f0: 29e3 69bd e3e6 0fbe b9f6 16be 9da9 4abd
00000200: e47e b73c 7666 713d b703 783b 52aa 55bd
00000210: 3988 00bd f4ea 9e3d 501c 28be 06a3 73bc
00000220: 88e5 16be 9c08 433d 7778 c73d 7a3c e4bc
00000230: f1be 37bd 4ce3 fc3c 82f6 70bc fdf6 21be
00000240: c154 61bc f164 2ebe 6187 ee3d 1a54 a23b
00000250: b5d4 20bc 2091 54be 4618 9bbd b3ac c63b
00000260: 8949 b93d e890 f2bd c7fb cabc 9cd4 91bd
00000270: 2bf0 98bc 018d f8bb a78f 8abd dba6 a8bd
00000280: feb0 1bbe b47f d6bd 6f09 91ba 4601 9b3d
00000290: a6fe 94bd dcdf 8a3c 4bd2 69be 5adf 10bc
000002a0: 8efb 83be 1a9c e43d a8f9 063d e3a5 47be
000002b0: 90e2 e5bd 7154 7f3d a39e 0ebe 0769 1e3d
000002c0: 0a50 27bd 4da0 f2bd 2b14 4fbd 72bd 993c
000002d0: b193 29be b765 c8bd 2c34 cabd 0f4c 56bd
000002e0: efe5 f23c 2946 1d3e 36ca abbd 15ef 10be
000002f0: 5f0c 833d 9c01 71bc 52a5 8ebd c692 95bc
00000300: d358 da3c 3580 56be ab15 58bb 9726 483d
00000310: c657 e1bc 5024 b1bd 67f6 fcbc 9cb8 48bd
00000320: 523e 163d 4e87 b03c ced7 32be fdc7 a13b
00000330: 42ea c7bd 9807 7aba 0970 b3bc 2d1e 30bd
00000340: 05f5 353c 985e ad3b dd43 d0bd 37c1 193c
00000350: c307 fe3b bb58 15bd 0c52 01be 5522 1d3d
00000360: 12be 04bd 137b fdbc b50f c4bd a38d 9d3d
00000370: 3635 67bd 406b efbb 33db 943d 28e2 a1bd
00000380: 5618 2fbc 88df c03c 7d15 283c 0899 a83d
00000390: c447 a1bc 181e f1bb b6e3 0ebe ea55 a1bd
000003a0: d8be 223d 7601 95bd 6dc1 be3c 9dcb 8a3c
000003b0: b014 503c a6d4 ff3c 8e53 acbd 32d5 bf3b
000003c0: ce29 503c 8f51 79be 271c 543d c235 a83d
000003d0: b8d2 113d 4472 8abd 8feb 8c3d 7882 6d3d
000003e0: 4a06 813d 76de 99bd 6324 c03b 0efe 803d
000003f0: 00e0 1b3a a8c3 04be 043b afbd 371a 463c
-0.14395949 -0.087768294 0.08002572 -0.382552 0.078095905 0.01978196 -0.42137316 -0.06542863
-0.21189341 0.06906959 0.0917967 -0.026728066 0.04255742 0.024595616 -0.04657362 -0.11877265
-0.056466497 -0.11710596 -0.011499629 -0.073141426 0.037244275 -0.20490403 0.011219578 -0.01768322
0.043687172 0.06168028 -0.101289645 -0.0037997288 0.068503186 0.03908298 -0.034957573 0.06972597
-0.18999784 -0.25091118 -0.036048498 -0.0024312695 0.028192624 -0.052883312 -0.23093027 -0.018881952
-0.2714451 0.009652758 -0.07912758 -0.27621153 -0.08167745 -0.21718423 -0.14071885 -0.021345388
-0.09122443 -0.28944498 -0.007766855 -0.0982497 -0.030915404 -0.0014885279 -0.013163079 -0.065530084
-0.02058083 0.14912857 0.044674296 -0.31128994 0.12106368 0.06077415 0.0009640038 0.11908677
-0.086889766 -0.196758 0.0039412887 0.059143733 -0.08203088 -0.02367201 -0.024176506 0.05330852
0.06277936 0.051407892 -0.040687907 -0.023902813 0.04084456 -0.048847277 -0.14086695 -0.014866672
-0.13784346 0.07622166 0.057318304 -0.031832464 0.059070144 -0.07122863 -0.036866073 0.029019587
-0.05609966 -0.14871362 -0.12825736 -0.008339101 -0.06002847 -0.043479107 0.08452634 -0.01645686
-0.0035352143 0.025943106 0.038818363 0.007333717 -0.18092798 -0.06645337 -0.4691002 0.06178231
0.005915615 -0.0627511 0.013623344 -0.068778105 -0.15510581 0.075026184 -0.0281369 0.11384765
-0.028854568 -0.65666085 0.011396455 0.13239166 -0.019173019 -0.039948832 0.056165047 0.06670592
0.0071339863 -0.16010882 -0.042729978 0.029347494 -0.057101402 -0.1405292 -0.14742555 -0.049478162
0.022399373 0.058935605 0.003784401 -0.052164383 -0.031379912 0.077596575 -0.1641705 -0.014870411
-0.14735997 0.047615632 0.09739774 -0.027860869 -0.04485983 0.030870102 -0.01470721 -0.15816875
-0.013753117 -0.17030694 0.11646915 0.0049538733 -0.009816338 -0.20758486 -0.07572989 0.006063068
0.09047229 -0.11844045 -0.02477826 -0.0712063 -0.018669209 -0.0075851684 -0.06765681 -0.0823495
-0.15204236 -0.10473576 -0.0011065434 0.07568602 -0.07275133 0.016952448 -0.22834127 -0.008842314
-0.25777858 0.111625865 0.032952935 -0.19496875 -0.11224854 0.06233639 -0.13927703 0.03867438
-0.040847816 -0.11846981 -0.050556343 0.018767092 -0.16560246 -0.097850256 -0.09873232 -0.05231863
0.029650657 0.15358795 -0.08388178 -0.14153703 0.06398844 -0.014709856 -0.06965126 -0.018258464
0.026653683 -0.20947345 -0.00329719 0.048864927 -0.027507674 -0.08649504 -0.030879213 -0.049004182
0.036680527 0.021548893 -0.17465135 0.0049371705 -0.09761478 -0.0009537875 -0.021904008 -0.042997528
0.0111057805 0.0052908175 -0.10169194 0.009384445 0.00775239 -0.036461573 -0.12628955 0.03836282
-0.032407828 -0.030942475 -0.095733084 0.07693031 -0.05644723 -0.0073064864 0.072683714 -0.07904464
-0.0106869545 0.023544088 0.010259029 0.082323134 -0.01968754 -0.007358324 -0.13954052 -0.07877715
0.039732784 -0.07275669 0.023285592 0.016942794 0.012700245 0.031229328 -0.08414374 0.0058542723
0.0127052795 -0.24347518 0.05178466 0.082133785 0.035601348 -0.06760076 0.06880867 0.057985753
0.06300028 -0.07513134 0.0058637126 0.06298457 0.00059461594 -0.12965262 -0.08556178 0.012091211

fc2.bias f4 [128]
00000000: f914 1bbe a345 01be 2c86 d1bd a425 b73d
00000010: 478f 21bd 9264 883e 645d e0bd e493 c5bc
00000020: 8876 af3e acea fb3e cb76 84bd a43d 45ba
00000030: be52 f6bd 2432 b1bc 23a4 92bd 96c1 cfbd
00000040: b9b9 f1bd db13 16be c3f0 1ebd 326d 083d
00000050: b62c b6bd 5388 ae3d ca84 a2bd ce9c a3bd
00000060: ab32 e4bd ba0f a0bb f29f b53e cc8d ac3e
00000070: 9913 9cbd 04bd ddbc 6ddc 9bbb 85bf 97bd
00000080: bfed bfbd 80b2 29bc 48df c23d 4dc3 8cbd
00000090: 3fb2 f6bd 403c c1bd 3c16 fdbc 254d 27bd
000000a0: c678 aebd 8373 173e 8239 34bd 480f 19bd
000000b0: 023f 90bd cbb1 da3e 5bdb 8cbd 5582 14be
000000c0: 5690 87bd 69a0 9cbd 028d 823e 4910 0fbd
000000d0: 6ca6 9bbd f1da d3bc 9321 a13d ac9b c13e
000000e0: f7d8 c0bd e5e3 74bd 9f40 02be 1182 0cbd
000000f0: 1736 1ebd ec94 b8bd 4f7b d9bd 71ed 2c3e
00000100: 792f 41bd 7c66 743e b108 2ebd ef9e 8e3d
00000110: b727 d8bd 7532 31be e0fd 1cbd 5e74 2dbe
00000120: bfd4 61bd 8f0a aabd 7045 9e3e ce37 e6bd
00000130: 3c03 fcbd d8a7 f43c 12da cfbd 32b0 b6bd
00000140: e3c2 1d3d 5b8f 8fbd 26b7 1dbd c46d 82be
00000150: e6c4 37bd d2a6 1dbd c89b 10be 8642 b5bd
00000160: 7e6e afbd ae14 113e f541 b53d defb 06be
00000170: 434a 113e f28f b2be a78f 98bd ea26 5bbd
00000180: b683 96bd 7495 d1bd dbd1 c4bd 6c98 fa3d
00000190: 7151 01be 694d 82bd 234c bf3e 25f3 e7bc
000001a0: 4660 dbbd eb73 533e cfb6 7abd a803 603e
000001b0: ead3 acbd d626 c43e 8dfd 913e 1e5c 17be
000001c0: b278 f2bd 5438 a1be aba6 99bc de12 d1bd
000001d0: b379 8b3c a66f e5bd d509 473d 0758 dcbd
000001e0: d190 e3bd 0699 c7bd 753d b0be d91b 313e
000001f0: 6b1c 8bbd e6e6 93be 5c88 95be 4c18 b6bd
-0.15144719 -0.1262422 -0.102306694 0.08942726 -0.03944328 0.2663923 -0.10955313 -0.024118371
0.3427012 0.49202478 -0.064679705 -0.0007524139 -0.120275006 -0.021630354 -0.07160213 -0.101443455
-0.11803002 -0.14656012 -0.038803827 0.03330726 -0.08895247 0.085220955 -0.07935484 -0.079888925
-0.11142477 -0.0048846873 0.3547359 0.33701932 -0.076209255 -0.027067669 -0.0047565014 -0.07409576
-0.09371518 -0.010357499 0.09515244 -0.06873188 -0.120457165 -0.0943532 -0.030894391 -0.040845055
-0.085191295 0.14790158 -0.044000156 -0.03736809 -0.07043268 0.4271377 -0.06877776 -0.14502843
-0.06619327 -0.07647783 0.25498205 -0.03492764 -0.07600102 -0.025861235 0.07867732 0.3781408
-0.09416383 -0.05978765 -0.12719963 -0.03430373 -0.038625803 -0.090127796 -0.106192224 0.16887452
-0.047164414 0.2386722 -0.042488758 0.06963908 -0.1055445 -0.17304404 -0.03832805 -0.16938922
-0.05513453 -0.08302795 0.30912352 -0.11241113 -0.123053044 0.02986519 -0.101490155 -0.08920325
0.038515937 -0.07009765 -0.038504742 -0.2547437 -0.04486551 -0.03848917 -0.14121926 -0.08850579
-0.085659966 0.14168045 0.08850471 -0.13182017 0.14188485 -0.34875447 -0.074492745 -0.05350391
-0.073493406 -0.10233584 -0.09610339 0.122361034 -0.12628724 -0.06362421 0.37362775 -0.028314183
-0.10711722 0.20649688 -0.061209496 0.21876395 -0.08438857 0.3831088 0.28513756 -0.14781234
-0.11839427 -0.31488287 -0.018756231 -0.10208677 0.017025804 -0.11202936 0.04859336 -0.107589774
-0.11111606 -0.09745984 -0.34421888 0.1729578 -0.0679253 -0.288871 -0.29205596 -0.08891353

fc3.weight f4 [64, 128]
00000000: 3a47 b9bd e332 cd3c 89e4 c4bd eec7 72bf
00000010: 1149 b13d c6d4 033f 1808 85bd b999 1b3c
00000020: ec36 003f c852 d23e d20b d13d 36b2 17be
00000030: 6697 5dbd 354d b3bd 9a27 66bd 9c7f 3c3d
00000040: 9a5d 593f 33c5 99bc 64e9 e63d af67 eb3e
00000050: b1cb 8b3d 3ac6 293f ec3c adbd 0f90 f1ba
00000060: 4950 9c3d fe0c 853e aaf4 03c0 6be7 c93f
00000070: be69 35be 7126 1c3c 4807 adbc 6c44 87bd
00000080: a84e 11bd ee39 d33d 431b 593f 2c16 413d
00000090: 5b9b b7bd af38 68bb 8eb0 8a3d 54a7 303d
000000a0: aaea 22bd c5a6 bcbe a656 14bd 48b5 1e3d
000000b0: 1b6f a53d 2b5a 61be 8ae4 43bd 79b3 60bc
000000c0: 8edb 773c ffb9 1dbd 4b13 e83e 843d c4b9
000000d0: d8c5 863c 6c6d 143d 5a0b d43d 4e12 2fbf
000000e0: 4265 253b 52d4 4dbc 5cf1 8f3d 6281 ec3b
000000f0: 5a22 34bc c4b2 873c 757e 26bd 1a57 793f
00000100: 2254 f0bc dfa4 3c3f cccf 0d3c 6e2c 363e
00000110: 6383 5dbd bc80 22bd 54f9 1dbc 7f1a df3d
00000120: ad45 cfbc 8e43 8d3d 55bd c03f 6e6c 97bf
00000130: ac28 b23d 978a df3e aa8b 293d bc2d 883d
00000140: 4c9b 653e c531 5d3d ba6e 6d3d 7548 173f
00000150: ceec 45bd aa09 613d 9fed 01bd f7d3 a33d
00000160: 7532 dcbc da0b cd3c 7b89 293e 1c93 193d
00000170: 39dc 0c3f 477e 0cbf 7836 b83c 6998 3b3d
00000180: 2c58 523c 188b b53d 8b19 6cbd 1ea6 d7bd
00000190: 228a 05bd 4bd4 833d 5202 d53e e8f8 00bd
000001a0: 2364 15bd 96f7 fe3e 44a3 27bd eb47 d73f
000001b0: 05f9 963c ffb3 c73f 1fed 2e3c 5065 63bd
000001c0: f0f2 b0bd 340e 9c3e 2e72 063d f489 113d
000001d0: 4915 99bf 48ac 33bd 0402 3cbe ab21 93bc
000001e0: 4052 f03c f67a 733d ae28 debf 783c c5bf
000001f0: 42ab 743d 54c6 823e 3f39 a7bf 6dff 083d
00000200: 0f5d 9bbd 4841 233d f116 ebbd 28ee 72bf
00000210: 5480 903d db7e 113f 0dde 2abe 9ff3 fbbd
00000220: 9ac8 ea3e adf7 9f3e 8793 6b3d 99da 02be
00000230: 6e59 10bd d434 c1bd 2fcd 1a3c c8d3 3fbd
00000240: ae41 5f3f ff37 d2bc 5aec 6d3d 6687 e73e
00000250: 1bf8 8b3b 8f4c 3f3f 4673 553b dd19 96bd
00000260: 4598 5cbd 51df 4d3e d72a 06c0 a661 c33f
00000270: 6a11 75be 32af 523d a2bd c6bd 5f0c 2abd
00000280: a332 8d3c d805 02bd f322 5b3f f2dd 44bd
00000290: b94d 3f3d 02b6 31bc effd 48bc cb34 afbb
000002a0: 6475 24bd 33af b6be c6a2 9f3c c74b 58bd
000002b0: 2c25 02bd 3135 79be d577 96bd 4693 1bbd
000002c0: 94db cc3d b03b 1cbd 84d6 a93e b497 c23c
000002d0: ec97 3abc 6800 963d 60eb 8e3d 3626 23bf
000002e0: 6cca 5bbd ed4b a2bc c28a 5c3d 3847 b53b
000002f0: 2520 e1bc 8c74 ab3d e784 043d 66f2 5e3f
00000300: d2db 59bd cec0 443f 2148 0a3d 1212 893d
00000310: 5ba1 b0bd 83f4 a13d b0bb e4bd fe49 393b
00000320: 305c 06bd 9a1b b33a fb84 b83f b974 97bf
00000330: 4f5e 98bc e892 ae3e 1f3e 5bbd 2067 adbc
00000340: 2005 2d3e 2d6d 63bc 36b2 f83c a83e 2c3f
00000350: 0e6e cbbc f1f9 65bd 3734 c0bc 81cc 84bd
00000360: 7fe1 7abc f9b1 0f3e ee38 b43d fbb9 bcbc
00000370: d492 033f 95df 16bf 359d 253d 7820 85bb
00000380: 58cf c7bd 1c96 163d 2d7e 8c3d 7f11 2cbe
00000390: 1454 3dbd 073a 953d 2c46 d43e 1e1d 18bd
000003a0: feb3 f53c 6729 f63e fa8c 49bd 552a d53f
000003b0: 57b8 be3d 1d2e b13f 642b dbbd a118 253d
000003c0: ac8e 83bd 6005 693e b1c0 91bd 2a78 ce3d
000003d0: f85a 9dbf 5086 763a 5202 efbd e1d1 2f3d
000003e0: 69c7 c9bd da54 7c3d 1653 d6bf fca4 cabf
000003f0: 6ac6 03bd 3155 e33d f4cd abbf 8f04 823d
-0.090467885 0.025048679 -0.09613902 -0.9483632 0.086565144 0.5149654 -0.064956844 0.0094971
0.50083804 0.41078782 0.10207333 -0.14814076 -0.054099463 -0.087549604 -0.05619011 0.046020135
0.8490845 -0.01877079 0.112749845 0.45977542 0.068259604 0.66318095 -0.084588856 -0.0018429774
0.07632501 0.25986475 -2.061808 1.5773748 -0.17716119 0.0095306495 -0.021121636 -0.06604847
-0.035475403 0.103137836 0.84807223 0.047140285 -0.089651786 -0.0035434177 0.067719564 0.043128327
-0.039774574 -0.36845985 -0.036215447 0.038747102 0.08077832 -0.22007053 -0.047825374 -0.013714665
0.0151280295 -0.038507458 0.4532722 -0.00037429866 0.016451761 0.036237165 0.10353728 -0.68387306
0.0025237356 -0.012562828 0.070284575 0.007217572 -0.010994518 0.016564734 -0.040647943 0.9739853
-0.029336993 0.73689073 0.0086555 0.17790386 -0.05408038 -0.039673552 -0.009641964 0.108937256
-0.025301779 0.06897651 1.505778 -1.1829965 0.08699164 0.43660423 0.04139296 0.06649348
0.22422522 0.054002542 0.057966925 0.59094936 -0.048321538 0.054940857 -0.031720754 0.079994135
-0.026879529 0.025030065 0.16556351 0.03749381 0.55023533 -0.54880184 0.02248691 0.045799647
0.012838405 0.08864421 -0.057641547 -0.10529731 -0.032602437 0.06436976 0.41603333 -0.031487375
-0.03647245 0.49798268 -0.040927187 1.6818823 0.018429289 1.5601805 0.010676651 -0.05551654
-0.08640087 0.30479586 0.032823734 0.035531953 -1.1959621 -0.043865472 -0.18360144 -0.01796039
0.029336095 0.059443437 -1.7356164 -1.5409079 0.059733637 0.25541937 -1.3064345 0.033446718
-0.07586109 0.03985718 -0.11478985 -0.9489465 0.07055727 0.5683419 -0.16686268 -0.123023264
0.45856172 0.3124365 0.05751374 -0.12778701 -0.035241537 -0.09433904 0.009448334 -0.04683283
0.87209594 -0.025661467 0.05808673 0.45220488 0.00427152 0.74726194 0.003256993 -0.07329152
-0.053856153 0.2010472 -2.0963647 1.5264175 -0.23932424 0.05143661 -0.09704138 -0.041515704
0.01723606 -0.031743854 0.85600203 -0.048063226 0.04670498 -0.010846617 -0.012267574 -0.0053468696
-0.040151015 -0.3568054 0.019486796 -0.052806642 -0.03177373 -0.24336697 -0.07347075 -0.037982248
0.10002819 -0.03814286 0.33171475 0.023753978 -0.01138876 0.07324296 0.06978488 -0.6373018
-0.05365984 -0.019811595 0.053843267 0.0055321716 -0.027481148 0.08371839 0.032353308 0.8708862
-0.053188153 0.76856697 0.033760194 0.066929 -0.08624526 0.07907965 -0.11168611 0.0028272863
-0.03280276 0.0013664842 1.4415582 -1.1832496 -0.018599657 0.34096456 -0.05352604 -0.021167338
0.16896486 -0.01388101 0.030358415 0.67283106 -0.024832752 -0.056146566 -0.023462398 -0.064843185
-0.0153125515 0.14032735 0.08799921 -0.023037901 0.51395917 -0.5893491 0.040433127 -0.0040627085
-0.097563446 0.03676425 0.068600036 -0.16803549 -0.04622276 0.072864585 0.41459787 -0.037137143
0.029993054 0.48078462 -0.04920671 1.6653544 0.09312504 1.3842198 -0.107016355 0.04030669
-0.06423697 0.22755957 -0.07116831 0.10081513 -1.2293386 0.00094041694 -0.116703644 0.042924765
-0.098524876 0.06160436 -1.6744106 -1.5831599 -0.032171644 0.11100233 -1.3422227 0.06348526

fc3.bias f4 [64]
00000000: 1695 e83e a1b3 e03e 0eee 043f f442 fc3e
00000010: 357d 30be 9771 cfbd 0c51 f8bc c126 1bbe
00000020: c922 c4bd 81d9 f5bd 94ac c23e f858 e33e
00000030: 20f4 15be ea0b 0dbe 79c1 a53e 1bf4 ca3e
00000040: 1cb1 20be b89f 33be 162f d6bd 1638 97bd
00000050: 418c bb3d 67e7 ce3e 7283 96bd cfb0 ebbd
00000060: ce73 e0bb d9cb 39bd 39b0 ef3e f354 f83e
00000070: 36e5 053f 228e 54bd a74d 2ebd 7372 883c
00000080: 0d10 7abd ec89 19be a5b3 8f3e 52be eb3d
00000090: 2b46 b63e e77f eb3e 1ff1 2e3f ad50 c6bd
000000a0: 3853 a63e fe7d 393e 6c15 56bd d0ad 94bd
000000b0: 3798 2dbf 9c0d 01be 1b70 053f a3cf c23e
000000c0: 7cd2 103f 7f4e bebd be69 f9bc 63f8 01bf
000000d0: d9c9 bf3e 9aae f53e 2079 c3bb 35c5 d8bc
000000e0: 092a babd fcbc edbd 6c22 ae3e 2246 113d
000000f0: e5e7 093f b8c8 9bbe 9b3f 83bd 210e aebd
0.45426244 0.43887046 0.5192574 0.4926983 -0.17235263 -0.101290874 -0.030312084 -0.15151502
-0.09576947 -0.12004376 0.38022292 0.44403815 -0.14643908 -0.13774076 0.3237417 0.39639363
-0.15692562 -0.17541397 -0.104582 -0.073837444 0.09157611 0.4041092 -0.0734929 -0.11508333
-0.0068497425 -0.04536042 0.46814135 0.4850231 0.52302873 -0.05189336 -0.042554524 0.016656136
-0.061050463 -0.1499402 0.28066745 0.1151091 0.3560041 0.4599602 0.6833667 -0.096833564
0.32485366 0.18114468 -0.052266523 -0.072597146 -0.67810386 -0.12602848 0.52124184 0.3804904
0.56571174 -0.09292316 -0.03044593 -0.50769633 0.37458685 0.47984773 -0.005965367 -0.026461223
-0.09090049 -0.116083115 0.34010637 0.035467274 0.5386947 -0.30426574 -0.06408616 -0.084987886

fc4.weight f4 [1, 64]
00000000: 2826 dc3e 0451 c63e 5b2b db3e 1e7b c73e
00000010: 476f 02bc 6bf1 633c b1bb 11bd 67b1 093d
00000020: 0eb9 f7bc 9f2d ca3c 4aab 0d3f db2f e43e
00000030: 8cc3 9fbc ff3e 703b 029a b63e 1f00 e43e
00000040: bc1f 9b3b 7e21 633c 85db 593d c351 9bbc
00000050: c8bb 8dbf 9d38 e03e 48df 433d 37af 09bb
00000060: 3daa ab3e 7ea3 08bd 181a dd3e be0c d93e
00000070: 5cb4 dd3e 6812 843c b2cf 8b3d 230a b4bf
00000080: f88f 0e3b e051 783c 0ab7 e63e 9e5d 983f
00000090: 3b10 033f d640 853f 25f8 6fbf 62c1 413c
000000a0: 4728 d73e 0757 a93f 35d1 b73b 9592 1a3d
000000b0: f86c 57c0 ea78 973b 6f3a e63e ddc4 d63e
000000c0: ed23 89bf 602e 17bb 303d 3c3d c34f 3bc0
000000d0: d057 d53e 1a48 e33e b67c 0bbc 36f2 e5bb
000000e0: 5307 4e3c 6f02 92bc e40d 0e3f 478e e93c
000000f0: 9201 f03e 60ae 85bf 5814 473d 00c2 b03c
0.4299786 0.38733685 0.42806515 0.38961118 -0.007961101 0.013912539 -0.035579387 0.03361645
-0.030239608 0.024679957 0.5533949 0.4456776 -0.019502424 0.0036658642 0.35664374 0.44531342
0.0047340076 0.013862966 0.053187866 -0.018959885 -1.1072931 0.43793193 0.04782036 -0.0021008977
0.3352832 -0.033359043 0.4318397 0.42392534 0.43301666 0.016122058 0.06826724 -1.4065593
0.0021753293 0.015156239 0.45061523 1.190357 0.5119664 1.0410411 -0.93738014 0.011825891
0.42022917 1.3229684 0.005609656 0.037737448 -3.366026 0.0046225684 0.44966456 0.4194707
-1.0714089 -0.0023068413 0.04595679 -2.9267433 0.41668558 0.44390947 -0.00851362 -0.007017399
0.012574988 -0.017823426 0.55489945 0.028510226 0.46876198 -1.044384 0.048603386 0.021576881
