src/python/services/models/comparison_2500ep_dqn/best_pairwise_dqn_2500ep.pt (torch, 160844 bytes, 8 tensors)

fc1.weight f4 [128, 112]
00000000: 60cf 793d 021d 9abd 0f3b 08bc abb3 1f3d
00000010: 0a7f 5f3d 6274 1d3d 3335 ae3b b427 24bc
00000020: b96e a23c 5162 7cbc fb4f bf3d 9fe1 7ebd
00000030: 62d2 66bd 44a1 50bb ed47 7c3d b57d 9c3c
00000040: 664c 913d 0489 9f3d 5f91 433c 1b1e adbd
00000050: 8e60 d43d 8e77 1fbd aed3 753d 7f69 563d
00000060: 6588 10bd 7c1c 4fbd 4bf8 9cbd 0d70 96bd
00000070: 70e8 6cbd e91d a43d 7faa 2b3d b259 9c3d
00000080: 1b52 14bc a234 bf3b 35dd baba f38f 1cbd
00000090: 6fca 1cbd 9858 233e b437 583d 5f3f 6cbc
000000a0: f37d 2b3e fb90 e03c 3223 a43d f80a 49bd
000000b0: 8837 00bc 60d0 403c c050 7c3e 6329 d33b
000000c0: 4cee 8d3d b4c1 1ebd 25b7 883d d24d aa3a
000000d0: 8f7f 223d ae33 15be 33c6 51bc 133e 61bd
000000e0: 6d6a e43d cb24 073f aecd da3c 7a52 fe3e
000000f0: 0d90 143e d201 ae3e d3c6 bbbd 8de9 b63e
00000100: 9ceb ea3d 9c4d 503e e195 bd3d 4cac bf3d
00000110: 70a3 c73d e3a4 45bd 5677 9bbd db4e 8fbc
00000120: 2b22 f63d 4ade c73c ab93 eb3d 72b9 41bd
00000130: f417 03bb c70e 563d 8c89 a13d 49d8 d33d
00000140: f219 bf3d a248 9fbd 710d a03d 54d4 73bc
00000150: ded6 2abd 0811 f0bc bd3f aa3d 8a15 913d
00000160: 995a 693c b850 923d 5661 2c3d 52ae 2c3d
00000170: 70bb 48bd f80b 263d b90f 9cbd c1ab cf3c
00000180: 27d9 b5be fb0c 29bf 7fec bd3d 7701 14bd
00000190: 688c 24bb 8754 0abd 791c e4be e27d 2ebf
000001a0: 5647 863d 120c 203d dee1 a73d bce1 8f3d
000001b0: 06bd 16bd 6f96 3d3a f4a1 89bd 445f 8e3d
000001c0: d86a 97bd 2d57 87bd d635 9abd a65b bb3d
000001d0: 0d37 6f3d 93f9 94bc 5e9a 0bbd 4262 023d
000001e0: 2f6f 9f3c 8e46 913d 3ef3 babc 72fa 0e3c
000001f0: 3289 27bd bc47 51bd 109a fcbc 2bee 373d
00000200: fcc9 a5bd 7314 de3b a875 bf3d 9a47 12bd
00000210: ba3a 843d 5202 c73d 7b2b a23c 1b5f 6fbd
00000220: 1a4c b23d a0fa 24bd 1233 1dbd 4d87 56bc
00000230: 6763 7dbc 8b0b 12bc b670 8bbb 1158 383d
00000240: 4fd6 9fbd 6dd6 983d 6449 813d 8147 673d
00000250: e9fd 2abd aeb2 ba3b 0c3b bc3d 9f7b abbd
00000260: 44db 1d3d bf3a 20bd a8d3 df3c eb6d 823d
00000270: f417 993a e2bb e7bc 6549 433d 760e c1bc
00000280: e3f0 91bc 34cd 15b9 b828 13bd c60d 7f3d
00000290: 7a3b 003d 0cbd 2dbd 39c7 9c3d e63c d03d
000002a0: 34e4 8ebd c3ba bd3d 6000 a93d a3e4 89bd
000002b0: 4ca9 873d 8e84 313d 915d db3b a166 debc
000002c0: a8ab a4bd 21a4 c53b cb7e 3fba be17 38bd
000002d0: cd1a 0c3d 6812 efbc d453 ba3c 31ab 82bc
000002e0: 341c 0a3d 45d2 363d e8a6 05bd 7f79 cc3d
000002f0: c264 cd3c 3340 a53d 8c7b 8b3b d645 d1bb
00000300: c99a 253d e259 0dba 31d8 a5bd ec50 a13d
00000310: 9abe 983c 56a8 893c 4197 653d 5750 64bd
00000320: 02f4 56bd 8353 45bd 5bcf bc3c 17c6 4abd
00000330: 56cf 813d 9960 b03d 9a61 80bd 69bc 853d
00000340: 5299 42bc ac17 183c 8046 983d 6298 343c
00000350: 3f72 693c 12c0 8fbd b405 2abe 28be 83bd
00000360: 24f4 943d 664a 873d 7c7e 313c 94b0 18bc
00000370: 872e 28bd b41e 803d 556d f93c 166d 773b
00000380: 1376 6a3d 8e18 3c3e 6134 a0bd 8458 5a3e
00000390: 4afa 0b3e aade e63d f4ab 193c f04d 7d3e
000003a0: 0e19 5b3d 1837 81bb 3e0a 283d 8d6e 34bc
000003b0: becc c13b 66d5 443d be65 0dbe 7bca 8b3c
000003c0: 2d56 193d b0ac febc c2f7 063d 4532 dbbd
000003d0: 987f 4bbd 4973 11bd eb96 4cbd a9d1 b03c
000003e0: ec94 dabc 9e19 a3bd add7 113d 7caf 04be
000003f0: 50c0 4abc a6c6 39bd 9ae6 f4bd 2a89 2dbb
0.060988784 -0.07525064 -0.008314862 0.038989704 0.054564513 0.03844107 0.0053164004 -0.010019232
0.019828187 -0.0154043 0.09341427 -0.062226888 -0.05635298 -0.0031834403 0.06159203 0.01910291
0.0709465 0.077898055 0.011936515 -0.08453008 0.10369979 -0.038932376 0.060016327 0.052346703
-0.035286326 -0.050564274 -0.076645456 -0.07345591 -0.057838857 0.080135174 0.041910645 0.076342955
-0.009052779 0.0058351317 -0.0014256599 -0.03822322 -0.038278993 0.15951765 0.052787498 -0.014419406
0.16747265 0.027412882 0.080145255 -0.049082726 -0.00782574 0.0117684305 0.24640179 0.0064441427
0.06930217 -0.03875895 0.06675557 0.0012993163 0.03967243 -0.14570495 -0.012803602 -0.05499084
0.111531116 0.52790517 0.026709404 0.496723 0.14508076 0.33985764 -0.09168782 0.3572506
0.1147072 0.20342106 0.09257103 0.09359035 0.0974797 -0.04825295 -0.07591121 -0.017493656
0.12018236 0.024397988 0.11502775 -0.047295995 -0.002000329 0.052260187 0.07887563 0.103439875
0.093311206 -0.077775255 0.07815064 -0.014882166 -0.04170882 -0.029304996 0.08312938 0.070841864
0.014242792 0.07144302 0.042085014 0.042158432 -0.04900688 0.040538758 -0.07620186 0.025350453
-0.35517237 -0.6603543 0.09273624 -0.03613421 -0.0025108103 -0.033772018 -0.44552973 -0.6816083
0.06556575 0.03907401 0.081973776 0.07025477 -0.03680136 0.0007232194 -0.06720343 0.06951764
-0.07393426 -0.06608424 -0.075298 0.0914834 0.05840211 -0.018185413 -0.034082763 0.031831987
0.019462196 0.07093535 -0.022821065 0.008726703 -0.040902324 -0.0510938 -0.030835181 0.04490487
-0.08095166 0.00677734 0.09348613 -0.035712816 0.06456514 0.097172394 0.019796124 -0.05844031
0.087059215 -0.040278077 -0.038378783 -0.013093782 -0.015465594 -0.008913885 -0.0042553796 0.04500586
-0.07804548 0.074627735 0.06312826 0.056464676 -0.041746054 0.00569757 0.0919095 -0.08373188
0.038539186 -0.039118525 0.027322605 0.063686214 0.0011680112 -0.028287832 0.047677416 -0.023566466
-0.017815059 -0.00014286191 -0.035927504 0.062268995 0.03130672 -0.042416617 0.07655186 0.101678655
-0.0697712 0.092641376 0.08252025 -0.06733062 0.06624088 0.043339305 0.0066945036 -0.027148547
-0.08040553 0.0060315286 -0.00073049654 -0.044944517 0.034205247 -0.029183581 0.02274505 -0.015950771
0.033718303 0.044634122 -0.032629877 0.09984111 0.02507246 0.08068886 0.0042566713 -0.006386499
0.040430818 -0.0005392117 -0.08097876 0.07876763 0.018645573 0.016803902 0.05605245 -0.05574068
-0.052478798 -0.048175346 0.023048094 -0.04950532 0.06338374 0.086121745 -0.06268616 0.06530077
-0.011877375 0.009282988 0.07435322 0.011022659 0.01424843 -0.070190564 -0.16603738 -0.06432754
0.07273129 0.06605987 0.010833379 -0.009319443 -0.041059997 0.06255856 0.030447641 0.003775423
0.05724151 0.18368742 -0.078224905 0.21322829 0.13669696 0.112729385 0.009379376 0.24736762
0.05349069 -0.0039433353 0.041025393 -0.0110126855 0.0059142997 0.048055075 -0.13808343 0.017064324
0.0374357 -0.031088203 0.032951124 -0.107029475 -0.04968223 -0.035510335 -0.049948614 0.021584349
-0.02668234 -0.079638705 0.035606075 -0.12957567 -0.012374952 -0.04535546 -0.11958046 -0.0026479461

fc1.bias f4 [128]
00000000: 6cb5 2c3d 63e8 6ebd dd5f 0f3e ae8b ddbb
00000010: 0f29 9ebc d318 213c 3bdf f2bd 8761 e3bc
00000020: b541 b6bd 46f5 02bd 15bf 603a e873 39bd
00000030: 7a38 d2bd 4642 f13d 0189 2fbb dd5b 463d
00000040: ca52 2f3d 5cf6 b6bd 676b 5cbe e30d bebc
00000050: 9135 073d 3e92 5d3d db44 cabd 449c 0fbe
00000060: 70ff cdbd 4ebc 0bbe d583 b2bc f401 3b3d
00000070: 5615 2fbd a0ec e5bd fb73 103d 3473 e9bd
00000080: a0ba 59bd 593b 8bbd 9b83 80be 97cd 38be
00000090: 39c6 c0bd 210a c9bc f0fe 52bc 1f86 1dbc
000000a0: 51d2 d03d 101f ad3d 0ae3 4fbb bff4 9dbd
000000b0: fe18 78bd d622 07bd 3bfe 60bd 89bc 1ebe
000000c0: 346d 1dbe 45a3 bcbc 616f 0fbe 919f a6bd
000000d0: 99c0 1fbe a325 523b a067 98be cf78 94be
000000e0: 4e57 f33d f805 d4bc cbb4 cebc 0b45 b1be
000000f0: a1a8 8bbd ce4b b1bd a986 f5bc 5f56 b7bd
00000100: 17da aebe 50fa 54bd 2659 d4bd db9f 653c
00000110: ae56 373c 47e2 9abd 29cb 15be 15ad a23c
00000120: 078b 8e3d 2293 9e3d 5c11 2bbd a387 dfbd
00000130: a78c 5e3d 824b bfbd 6f79 9fbd afc9 0abd
00000140: d86a 84bd d77c 7d3d 9db4 05bd 49e1 1f3e
00000150: 539b b1bd 0a7c b73d 20e4 c1bd 0ab0 33bc
00000160: d2e0 99bd 2bc1 703d 4dde 3cbd 6b70 df3b
00000170: 0489 81bd e7a1 3a3c ed5c 89bc ed1c 60bd
00000180: 039f 413d 9580 eabe 0962 703b 8712 023d
00000190: 925d 67bd a8de 1bbe fc69 a8be 6b7c 59be
000001a0: 7a10 b6bb 611e f6bc 0a8c 3f3c 2926 373b
000001b0: 4be4 aabd 5035 73be 0250 113e fded 873c
000001c0: 20fe f4bd e992 813d 00b4 a53d 5320 f1bc
000001d0: 1536 0ebd cc4f 803d 7722 a1bd e418 d33d
000001e0: 1a56 2b3d 27d9 52bd 25d0 11be e962 3abe
000001f0: 6e50 c2bd 6172 27be 6881 1cbe 8586 8fbd
0.042165205 -0.05832709 0.14001413 -0.006761036 -0.019306688 0.009832579 -0.11858984 -0.027756466
-0.08899251 -0.031972192 0.00085733953 -0.045276552 -0.10264678 0.11780219 -0.0026784542 0.04842745
0.042803563 -0.08933708 -0.21525346 -0.023199981 0.03301007 0.054094546 -0.098764144 -0.14024454
-0.100584865 -0.13646051 -0.021791378 0.04565616 -0.042744957 -0.11226773 0.035266858 -0.113989264
-0.053156495 -0.06798429 -0.25100407 -0.18047176 -0.09412808 -0.024540963 -0.012878165 -0.0096144965
0.10196365 0.0845319 -0.003172102 -0.07712697 -0.06057071 -0.032992207 -0.054929953 -0.15501608
-0.15373689 -0.023027072 -0.14007331 -0.081359036 -0.15600814 0.003206589 -0.2976656 -0.2899842
0.118818864 -0.025881752 -0.025232693 -0.34622988 -0.06819273 -0.08657037 -0.029971438 -0.08952021
-0.34150764 -0.05199653 -0.10368566 0.014015163 0.0111901 -0.0756269 -0.1462828 0.019857923
0.06960111 0.07742907 -0.041764602 -0.109145425 0.054333355 -0.09340574 -0.077868335 -0.033883747
-0.06465691 0.061886635 -0.03264295 0.15613283 -0.08672204 0.089592054 -0.094673395 -0.010967264
-0.07513584 0.05877797 -0.04611044 0.006818821 -0.06324962 0.01139114 -0.016767943 -0.054715086
0.047270786 -0.45801225 0.0036679527 0.03175595 -0.05648572 -0.15221655 -0.3289336 -0.21238868
-0.0055561634 -0.030043783 0.011691103 0.002794633 -0.08344325 -0.23750806 0.14190677 0.016592974
-0.11962533 0.06326849 0.08090973 -0.029434359 -0.034719545 0.0626522 -0.07867902 0.10307482
0.04183016 -0.051476624 -0.14239557 -0.18201794 -0.09487997 -0.16352226 -0.1528374 -0.070080794

fc2.weight f4 [128, 128]
00000000: 78f4 5dbb 73f1 203d e8a7 1f3e 2e4a 383d
00000010: 4ea0 c03d 1ccf adbd 6cdf 45be 802c a33d
00000020: d34b 36be fb58 88bd fe55 6bbd c0e6 8ebd
00000030: 19b7 513e 7103 c8bd e216 3ebe 2668 023e
00000040: f082 c7be 31cc 21bd 5202 b6bd 66d7 16bc
00000050: b981 64be 57aa 8bbe 518a 18bd 5a3c 653e
00000060: cdbd fe3e 2bda 273d 157a 503d 6a45 573d
00000070: 008f eb3c deeb 08bd b068 143e 1ed9 90bb
00000080: 2539 573e fe59 87bb 0c41 9dbe 8d4e b33c
00000090: 6b46 acbe 230a 8fbc 27f1 873d 0908 91be
000000a0: 2950 ebbe 8167 28be 4ad2 13be fc96 11bc
000000b0: 5e36 d33d 5fcf 20be d091 75bc d0b5 7dbe
000000c0: 9b57 17be 3493 9a3d f30e 23bf 7a27 4bbd
000000d0: bcab ae3e f96a 923d 24e5 5ebe a452 a4bd
000000e0: f1af d7bd cc62 1e3d a86d 99be 7fba 92be
000000f0: 480a 253e 2a7a aebb 7775 933d a91c 0b3d
00000100: 7d59 9fbb 00f8 f9bd e77b 423e d5a7 923e
00000110: d396 033e 6d31 4e3e f516 a5be 4922 9cbe
00000120: c7dd 393e 90d2 153e 22fe 453e 49d3 2dbe
00000130: db9a fc3c b0f0 a8be f0b1 d6bd 1ad9 3fbe
00000140: 1711 c83d 4f6d a13d 835c 7dbe 8f3c e2bd
00000150: 1af6 fe3c f0c4 4bbf e8b5 9e3a 184f 30be
00000160: f248 dd3d 59a1 9c3d 699e 423f c5d7 433d
00000170: f64e 85be c618 5cbe c9b1 b2bd 7b33 9dbd
00000180: 8432 bfbe acb9 d5be af28 13bd 0b3e 743d
00000190: b72a 77bd 3c6c c9bd 4257 93bd bce5 133f
000001a0: a9e5 94bc e048 03bd 9e9e 2abd 1580 20bd
000001b0: 0d91 02be eb27 113e 53a2 183e 1704 a2bd
000001c0: cb15 d13d 93a0 6b3e dc78 c0bd 20e1 80bd
000001d0: e404 d1bb ffca bbbe 38a1 b2be f372 a3bd
000001e0: f766 8abe 44fe 2abd c504 b8be 95d5 abbe
000001f0: b5c0 9abe f523 96be c45f e43d 456e 673d
00000200: b9f2 bfbd 5bf1 623d ca78 97be 2892 a83e
00000210: 1617 b0be d9d4 e6bd b5da 1bbe 0e3d 923d
00000220: 1e82 353c b8ca 0d3d f675 a2be 48d1 c93d
00000230: 4207 043e bfb9 8d3e f898 77be 5ec7 693e
00000240: fb9e 2e3e ff78 dc3b d775 d8bd 111b b53c
00000250: a9b7 3b3e 7452 76be e987 82bd 308c 583e
00000260: 3217 7c3e 1b48 06be d78f 8d3c 1bde 6d3e
00000270: b70c 803e f0b4 833b 6704 b5bd 2622 bb3d
00000280: 04b7 0f3c d0cf 913e ab45 843e f3af dbbc
00000290: 673a 2c3d 337c b8bd e759 973c 8f18 7a3d
000002a0: e7d8 023c 8bdf dc3e 9c46 893d dc06 41bd
000002b0: b4ba b13d 5c98 a6be 57fc 863d 6cb2 f6be
000002c0: cf19 663b b608 6cbf a089 dfbe 60e3 903d
000002d0: 93f4 7ebd 1246 e93d 8b39 e6be 4de1 223e
000002e0: 0eb5 9ebd fd68 2fbd 6669 35be 66fc cf3d
000002f0: 27ce babe 1f59 5bbe 88d0 dcbc 2118 063d
00000300: cdc5 80be 2fc4 6dbe e1a3 2a3f ca2f 543d
00000310: cb0c e2be ff64 b6bc 25a6 aebe 03bd 90be
00000320: 5e9e 213e be7e e43c f818 72be d825 123e
00000330: 3748 b83d 5531 8cbc 1317 cf3e 6458 30be
00000340: 8b86 633d e5e1 653c e3bb e8be f780 2fbe
00000350: 06a3 663e 0068 eb3e 1d4b c2bd cfe9 d2bd
00000360: 0368 9d3e 3121 21be ee72 723e 0f0f 56bd
00000370: d570 03be a0f2 63be 1e4d c0bd d54b 633e
00000380: 96b0 7b3d 7014 bbbd 70ce 96be 9fac c23d
00000390: 4ed5 d2bc 8d40 633c 4d33 24be 42e7 ac3d
000003a0: fa83 263b a4c7 4ebd ef5a 8cbc 4b8e 23be
000003b0: 3bce 393c c5df a73d dbef 10bf 5f6a e0bd
000003c0: 75e0 4a3e 1355 c5bd af65 e4bc 6c29 64bc
000003d0: 5daf 8bbc c281 f3be fa52 41be ac1f 57bd
000003e0: 9176 963c fed9 c53d 893e fbbe df5f 69be
000003f0: 2c98 3d3e 3df8 ecbe 8d55 cb3d ddae 7dbe
-0.0033867639 0.039292764 0.15591395 0.04499262 0.09405576 -0.084867686 -0.1932351 0.07967472
-0.17802362 -0.06657597 -0.057455055 -0.06977606 0.20480002 -0.097662814 -0.18563417 0.12735042
-0.38967085 -0.039501373 -0.08887161 -0.009206628 -0.2231511 -0.27278396 -0.037241284 0.22386304
0.49754182 0.040979546 0.050897676 0.052556433 0.028754711 -0.033428065 0.1449306 -0.0044204136
0.21017893 -0.004130601 -0.3071369 0.021888042 -0.33647475 -0.017460888 0.06637793 -0.28326443
-0.45959595 -0.16445734 -0.14435688 -0.008886095 0.10313104 -0.15704106 -0.014988378 -0.24776387
-0.14779513 0.07547608 -0.63694686 -0.049598195 0.34115398 0.0714931 -0.21767098 -0.08023575
-0.10531605 0.03866844 -0.29966474 -0.2865791 0.16117203 -0.0053246217 0.07200139 0.03396288
-0.0048629628 -0.12205505 0.18992577 0.2864367 0.12850504 0.20136042 -0.32244077 -0.30494907
0.18151008 0.14631104 0.19335225 -0.1697513 0.03083556 -0.3299613 -0.10483158 -0.18735161
0.09768885 0.07882177 -0.24742322 -0.11046707 0.03112321 -0.7959738 0.0012108656 -0.17217672
0.10804929 0.07647962 0.76022965 0.047813196 -0.26036805 -0.21493825 -0.08725316 -0.07675835
-0.37343228 -0.4174322 -0.03592747 0.05962948 -0.06034347 -0.09835097 -0.071943775 0.5777242
-0.018175917 -0.03205192 -0.041655175 -0.03918465 -0.12750645 0.14175384 0.14905672 -0.07910936
0.10209235 0.23010473 -0.09398052 -0.06292939 -0.006378757 -0.3667831 -0.34888625 -0.07980909
-0.2703168 -0.041746393 -0.3594114 -0.33561388 -0.3022515 -0.29324308 0.11151078 0.056501646
-0.093724675 0.055405956 -0.29584342 0.32924008 -0.34392613 -0.11271066 -0.15220149 0.071405515
0.011078386 0.034617156 -0.31730622 0.0985437 0.12893394 0.27680776 -0.24179447 0.22829959
0.17052834 0.006728291 -0.10569351 0.022107633 0.1833178 -0.24054891 -0.06373579 0.21147227
0.24618223 -0.13113444 0.017280502 0.23229258 0.250097 0.004019372 -0.0883873 0.09137373
0.008771662 0.2847886 0.25834402 -0.026817298 0.042047884 -0.09008064 0.018475486 0.061058577
0.007986284 0.431393 0.06702921 -0.047125682 0.08678189 -0.32538116 0.06591099 -0.48183
0.0035110598 -0.9220079 -0.43659687 0.07074618 -0.062244963 0.11390318 -0.44965777 0.15906258
-0.07749377 -0.042824734 -0.17715988 0.10155563 -0.36485407 -0.21420716 -0.026954904 0.032737855
-0.2515091 -0.2321937 0.6665631 0.051803388 -0.44150385 -0.022264956 -0.34111133 -0.28269204
0.15783069 0.027892467 -0.23642337 0.14272249 0.08998149 -0.017113367 0.40447292 -0.17221218
0.055548232 0.014030908 -0.45455846 -0.1713904 0.22523126 0.45977783 -0.09486983 -0.10298502
0.30743417 -0.15735318 0.23676655 -0.052260455 -0.12836011 -0.22260523 -0.09389709 0.22196896
0.061447702 -0.091347575 -0.29454374 0.09505581 -0.025736477 0.013870371 -0.16035195 0.084425464
0.0025408254 -0.05048336 -0.017133204 -0.15972249 0.011340673 0.081969775 -0.5661599 -0.10957789
0.19812186 -0.09635367 -0.027880518 -0.013925891 -0.017051393 -0.47559935 -0.1887931 -0.05252044
0.018367084 0.09660719 -0.49071148 -0.22790478 0.1851508 -0.4628314 0.09928427 -0.24773736

fc2.bias f4 [128]
00000000: 3399 15bb 1e2b 91bd c12b bf3d 1ea9 bc3e
00000010: cb2f ccbd 3dc4 46bd ef4c d6bd cc33 b4bd
00000020: 39f6 05be 2833 0b3e b6ac 933d a792 bfbc
00000030: dace 063e 5bfd 0bbd dfa1 4fbd be9e 00bd
00000040: d2fc 82be 5f8c 1abe 2ac3 43be d86e 25bb
00000050: 6d59 0abe 1c12 7fbd 22aa 2e3d 0081 743d
00000060: 3f92 cb3d 7ad3 2cbe 8b60 8a3d 6430 7ebd
00000070: 1b43 2a3d 42a8 a63d d41d 35bd 6d5d 8c3c
00000080: d634 12bd 4cdd dc3c c7e1 ecbd c110 44bc
00000090: f54c 26be eb1e df3d 31da 833e b4d6 54be
000000a0: 45e0 d2be ef46 13be 27df aebd 9864 13be
000000b0: 8bf5 3ebe 285c c5bd aba6 57be 1e35 d53d
000000c0: 831e 07be 8f15 ddbd 9d07 c5bc b74f 0dbe
000000d0: 52d8 3fbe 466c c03d 67e7 3abe b69c 6cbe
000000e0: 241e 433e a9af 613e e5f0 3ebe b988 3d3c
000000f0: fe8c 153d 8d89 62bb 034d 343e f356 663e
00000100: a896 e3be 54ea 713d 23ce bbbe c4e0 a6be
00000110: e52f 4d3e 96c5 05be d677 cebd 6d52 2a3c
00000120: 8810 543e 96d4 e4bd 0c9e 873e 7fc2 493e
00000130: 4c3c 17be 042e 4cbe f98d 85bd 97a7 353e
00000140: 63d7 38bd 1eea bbbd fc8c dcbd af06 fbbd
00000150: ef3d cebe 601a f73d 7ae2 763e 96d9 4bbe
00000160: 3930 68be bbe5 ffbe d715 9a3c dcf8 653c
00000170: 4f59 f33c 4096 d7bd 153f 5d3c 7f37 5b3e
00000180: d915 763d f1fa 2c3e 8db1 32be 3922 02bd
00000190: 7c23 173d 31fe 10bd 557a 28be f1b3 5e3c
000001a0: 5098 9ebd 6d5c e93d 69a8 29bd d3cf cf3e
000001b0: d35f 48be f7e9 06bc 873b c0be c457 17bd
000001c0: 5a75 7c3d e338 c2bd be64 32be 335e cebd
000001d0: 7882 663e c3ed 07bf 86f7 fdbc 2933 e1bd
000001e0: b3d1 92bd 6a2f 1f3e fc9d d1be 1b48 e4bd
000001f0: 42c4 62bd 8043 2e3e 9f91 48be e894 ad3e
-0.002282691 -0.07088302 0.09334517 0.36847776 -0.09970053 -0.04852699 -0.10463893 -0.08798942
-0.13082208 0.13593733 0.07210676 -0.023385359 0.13164845 -0.034177165 -0.05069148 -0.03140139
-0.25583512 -0.1509261 -0.19117418 -0.002524307 -0.13510676 -0.06227313 0.04264272 0.059693336
0.099400036 -0.16877547 0.06756695 -0.062057868 0.041567903 0.081375614 -0.0442179 0.017134393
-0.03569492 0.026960991 -0.11566501 -0.011966885 -0.16240294 0.10894569 0.25752404 -0.20785028
-0.4118673 -0.14382528 -0.08538657 -0.14393842 -0.18648355 -0.09636718 -0.21059673 0.10410522
-0.13195233 -0.107951276 -0.024051482 -0.1379994 -0.18734863 0.093956515 -0.18252335 -0.23106655
0.19054466 0.22039665 -0.18646581 0.011568242 0.036511414 -0.003456685 0.17607503 0.22494106
-0.4445088 0.059061363 -0.36680707 -0.32593358 0.20037802 -0.13063654 -0.10081451 0.010395628
0.20709431 -0.1117336 0.26487768 0.197031 -0.14769095 -0.19939429 -0.0652122 0.17739712
-0.045127284 -0.09175514 -0.10769078 -0.12257134 -0.40281627 0.120655775 0.24109831 -0.19907221
-0.22674645 -0.49979958 0.018809242 0.0140363835 0.029705672 -0.10526705 0.013503809 0.21407889
0.06007943 0.16892602 -0.17450543 -0.03177092 0.036899075 -0.035398666 -0.16452916 0.013592706
-0.07743895 0.11394582 -0.041420374 0.40588245 -0.19567804 -0.0082344925 -0.37545416 -0.036948934
0.061635353 -0.094835065 -0.17421243 -0.10076561 0.22510707 -0.5309717 -0.031001817 -0.10996086
-0.07168903 0.15545431 -0.40940845 -0.111465655 -0.055362947 0.17017937 -0.195868 0.3390267

fc3.weight f4 [64, 128]
00000000: 4ac5 cabd 1cae 3a3e f3ba 99be a4f5 dbbd
00000010: e751 bc3e 8a99 303e 94fe d23d c05f 44be
00000020: 7b8f b03d 0f05 c3be 0d9a a1bd b35d 0a3d
00000030: e944 99be cd2f ccbd 353b 1fbc ffdb 37bd
00000040: 3086 b93d 3496 813e cd15 9bbd 514b 6d3d
00000050: ddd9 a5be b9d5 59be b039 09bc a9e4 0dbf
00000060: 738a 1fbe 16b9 7dbd 9ca1 f9bd a211 b4bd
00000070: 112a f43e 4c31 013e 46d2 30be 7f46 7b3d
00000080: a54a 5e3c 6bed 313e 9c03 c7be 6251 1ebe
00000090: 3efd 48bd abcd ac3c 0e02 0dbf e3ce 053e
000000a0: f096 4e3e d710 99bd 7f54 87be 2cca b03c
000000b0: 6a71 27bd e788 85bb 172a 57be b0d5 04be
000000c0: 5df7 e8bc d438 9fbc 5f55 21bf 8a6c f8bc
000000d0: 08b0 31be a1f4 4abe af95 5dbe 871e efbe
000000e0: f8e0 1cbf 9447 a1be c130 c9bd 2f0c 04bd
000000f0: cead f93e 79aa 973c acee 65bf ef07 4fbe
00000100: f725 d8bd 4a8b 32be 80be 42be e6a9 58be
00000110: 2d02 a83d 5b1b 103e 2c25 a93d 08c8 11be
00000120: 7a78 4ebd 1b71 e93d 3df8 85be 3683 3dbe
00000130: 876f f7be 755d 02bf 4a38 1f3c 1e99 9cbd
00000140: e17d 083e 50a3 643e bda9 cfbd f1f7 3f3e
00000150: 4c40 bf3e f39f 273e b775 2e3e ce26 73be
00000160: 075c 3e3e 68e5 c5bd 073f fa3d 3513 633e
00000170: b811 d4be 5983 563d 9dcf 87bd 600f 38be
00000180: 504a c03e e0c9 d9bd 8ddf 9a3c 4aa2 4abc
00000190: 8f08 9abe f58a cebe b9e4 983c c17d 533d
000001a0: 569a 603d ab77 a1be 32e8 8a3c 1be2 89bd
000001b0: 3683 383d a685 e53d 6140 76bd f0fa e33c
000001c0: a051 91be 6b68 94bd d128 9fbc 090d 5ebd
000001d0: bd19 cabd a2b5 cf3d f1fc 08be 5233 3c3e
000001e0: e694 583d d2d8 f73b fc74 f8be 8520 213d
000001f0: 1da5 d5bd 1309 173d 0756 9dbd 073f 72be
00000200: 365c 7cbe 05c1 2cbe 5cc2 c03d ed04 9abe
00000210: e666 44be 9958 f6bb bf2f 14bc 345e a7be
00000220: b150 323c 28b4 9b3d 35d0 e8be 1900 413e
00000230: 2a37 253e eb64 5d3b 2753 31bc f722 31bd
00000240: 04bb a2bd 2e9a 03be a454 fabb 2c3a 943d
00000250: 3857 b83d d235 9abe d519 bfbe 32a6 52bc
00000260: cf62 a43d dc0a 80bd 7ae3 3fbe bdc5 2e3d
00000270: 2505 3a3e 315e 8f3d 75ea 273d 6aa5 243d
00000280: acf7 46bd 59ef a83e 4345 38bf cf0b 453e
00000290: e227 b6bd 52dd ef3d 3c3e 21bf 6c71 99be
000002a0: 8132 24bc 878e 3f3d 2a51 a3be 8f98 6dbe
000002b0: e7cb 3abf 8b57 1bbf d862 b4be 1642 0cbe
000002c0: e698 9eba e289 7f3d a7c0 163d 817e 5ebd
000002d0: 5af6 8bbe a2d1 26be 2d19 95be 0331 7abf
000002e0: 4152 1bbe bd5e 7fbd fd06 babd fbb1 5bbd
000002f0: 6a58 debe 1c71 a2bc 3cea 4fbe 5192 a7bd
00000300: 4a17 8b3d ee44 87be 8428 33bd c1bb d6be
00000310: 401d 86be 9f77 4ebe 3b93 953e 2050 f33d
00000320: 5bab cd3d a730 e73c 7478 89bd debf 78be
00000330: b3f8 4bbf ddc4 093f c95d 903c 2608 123e
00000340: 1a0e 8cbe c664 0bbe b4d8 16bd 5c55 143f
00000350: 7d61 c6be 1602 d43e 7314 dbbd cc41 6b3d
00000360: 338e 09be d249 85be 93f0 a1be 255c 843e
00000370: 9009 c7bd 7f8a e93c be16 91be 2b48 253c
00000380: 6439 e33e e2d4 ddbe 3058 3bbd 1cf8 2dbd
00000390: f422 813e 7ec6 363e 8401 03bd e7c6 163e
000003a0: 4972 5abd 8115 2fbd d4a7 66be 58e1 093e
000003b0: bb71 13be 5fd0 fdbd 66a1 a6be c2aa c63c
000003c0: 9faa 2bbf 9361 87bd d36e b3be dd1c e8bc
000003d0: c9ec 8d3c 97ad 92bd 9bd5 2c3e da46 f83d
000003e0: efd7 66bd 0976 35be 3403 933c 41e7 9f3d
000003f0: 2a6d 8ebd e0bf 8a3e 290a cfbe 9e4f a83e
-0.09900911 0.1823048 -0.30025443 -0.107402116 0.36781237 0.1724607 0.10302463 -0.1917715
0.08621117 -0.38089797 -0.07890711 0.033780765 -0.29935387 -0.09970055 -0.009718706 -0.04488754
0.09058797 0.25309908 -0.075725175 0.057933155 -0.3239278 -0.21272935 -0.00837557 -0.5542703
-0.15580158 -0.06194409 -0.12189028 -0.08792426 0.47688344 0.12616462 -0.17267713 0.061346527
0.013567601 0.17375724 -0.3886994 -0.15460733 -0.049069636 0.021094164 -0.5508126 0.13067202
0.20174766 -0.07473915 -0.26431653 0.021580778 -0.040879644 -0.004075158 -0.2101215 -0.1297214
-0.028438265 -0.019436277 -0.6302089 -0.030325193 -0.17352307 -0.19819881 -0.21639131 -0.46702978
-0.61280775 -0.31499922 -0.09823752 -0.03223818 0.48765415 0.018513905 -0.8981731 -0.2021787
-0.10554116 -0.17435947 -0.19017982 -0.21158561 0.0820354 0.14072935 0.08259043 -0.14236462
-0.050407864 0.11398526 -0.26165953 -0.18507084 -0.48327276 -0.50923854 0.00971801 -0.07646392
0.13329269 0.22327924 -0.10139797 0.18746926 0.37353742 0.1636961 0.17037092 -0.23745272
0.18589793 -0.096628964 0.12219053 0.22175296 -0.41419768 0.052371357 -0.06631396 -0.17974615
0.37556696 -0.10634208 0.018905425 -0.012367794 -0.30084655 -0.4034039 0.018663751 0.0516336
0.054834686 -0.31536612 0.016956422 -0.06732579 0.045047008 0.11207132 -0.06011999 0.027829617
-0.28382587 -0.07246479 -0.019428642 -0.05421165 -0.098681904 0.101420656 -0.1337774 0.18378952
0.052876376 0.007563689 -0.48526752 0.039337654 -0.104318835 0.03687389 -0.07682424 -0.23656856
-0.2464455 -0.16870506 0.09412071 -0.30081883 -0.19179878 -0.007517886 -0.009044587 -0.3268906
0.010883496 0.076027215 -0.4547135 0.18847694 0.16134325 0.0033782076 -0.010823048 -0.043246236
-0.07945827 -0.12851784 -0.0076394845 0.07237658 0.09001011 -0.30119187 -0.37324396 -0.012857007
0.08026659 -0.06252071 -0.18739119 0.042669047 0.18166025 0.070003875 0.04099508 0.040196814
-0.048576042 0.32995108 -0.71980685 0.19242786 -0.08894326 0.117121354 -0.6298559 -0.29969347
-0.010021807 0.046766784 -0.3189786 -0.23202728 -0.7296738 -0.60680455 -0.35231662 -0.13697085
-0.0012100011 0.062387355 0.03680482 -0.054319862 -0.2733639 -0.16290906 -0.2912077 -0.97731036
-0.15168096 -0.06234621 -0.09083364 -0.053636532 -0.4342683 -0.019829325 -0.20304197 -0.081822045
0.067915514 -0.26419777 -0.04373981 -0.4194012 -0.2619419 -0.2016282 0.2921389 0.11880517
0.10042449 0.028221441 -0.06712428 -0.24291942 -0.7967636 0.53816015 0.017622845 0.14260921
-0.2735451 -0.13612661 -0.036827758 0.5794275 -0.38746253 0.4140784 -0.1069726 0.057435796
-0.13433151 -0.26032883 -0.31628856 0.2585155 -0.09718621 0.028508423 -0.28337663 0.010088007
0.44379723 -0.4332648 -0.0457384 -0.042472944 0.2522198 0.17849156 -0.031983867 0.14724313
-0.053331647 -0.042745117 -0.22524959 0.13464868 -0.14398853 -0.12393259 -0.32545012 0.024251346
-0.6705722 -0.06610408 -0.3504549 -0.028334076 0.017324822 -0.07162016 0.16878359 0.12122889
-0.056358274 -0.17720808 0.017945863 0.0780778 -0.06954415 0.27099514 -0.4043744 0.32873243

fc3.bias f4 [64]
00000000: 8451 11be db45 46be 2386 6bbe 7ca7 eb3e
00000010: a046 083e a085 d03e 001b d839 6497 553d
00000020: 727e 5e3e bfd4 f0bd 8555 c13e 4736 fe3e
00000030: 96a7 b53e 7ec5 3f3e 8968 a83d 5d71 7dbc
00000040: b844 eb3d 0454 9c3e ec70 3abe 84f8 8b3e
00000050: 6d71 823e a2ad 8f3e c8f7 51be e403 13be
00000060: 0a80 003d 0567 c0bd ff70 21be f620 ef3e
00000070: fdd0 a0bd 2344 72bb 3a84 893d 5f97 2ebe
00000080: 0015 b73e ad39 8bbe 47e6 223e 4098 35be
00000090: d351 d9bd 609e 89bd 33b7 8c3e e69e 2cbe
000000a0: fd07 a63d d8c7 ce3d 3b2d 363e de97 8fbe
000000b0: fb56 353e b1c5 513c b34a 223e 2c61 6b3d
000000c0: b539 32be a403 f03c 8b43 dabd 22e7 02bf
000000d0: 256d b7bc f921 03be 71ce 463e ede5 12be
000000e0: 4b98 5b3d e618 febc de0a 0ebe f2f7 c53c
000000f0: 2ed3 813e 39e4 263e 47da 173e 4205 823d
-0.14191252 -0.19362585 -0.23000388 0.46026218 0.13308191 0.40726948 0.00041218847 0.05214633
0.21727923 -0.11759328 0.3776056 0.49650785 0.3547942 0.18727681 0.082230635 -0.015468922
0.114877164 0.3053285 -0.18207139 0.2733804 0.25477162 0.2806216 -0.20504677 -0.14356953
0.031372108 -0.093946494 -0.15765761 0.46704835 -0.07852361 -0.0036966882 0.06714673 -0.17049931
0.3575821 -0.2719244 0.15908156 -0.1773386 -0.1061131 -0.06719661 0.2748352 -0.1685749
0.081069924 0.10096711 0.17790692 -0.28045553 0.17708962 0.012803481 0.15848808 0.057465717
-0.17404826 0.029298611 -0.10657414 -0.5113393 -0.022390911 -0.12805928 0.19414689 -0.14345522
0.053612035 -0.031017732 -0.13871333 0.024166081 0.2535643 0.16297998 0.1482936 0.06348659

fc4.weight f4 [2, 64]
00000000: 1c06 373e 8fc8 bebe 7319 08be 93c7 8e3e
00000010: 818e 053e 443d 883e 643b f0be 50ae f9be
00000020: 7967 12bf daf3 35be 4e81 d43e a531 233e
00000030: 4229 7d3e aa67 00be a357 643e 2759 343e
00000040: 3168 f6be 021b a23e 4f76 f8bc 4f8b a13d
00000050: e0bb af3e 6897 a83e 1112 a73c 0dc8 5dbb
00000060: 1463 dcbe d2da 83bc 6992 73bc 1d59 eb3d
00000070: c8da d1be 47f7 44be 1ab0 82be 8131 8abe
00000080: bf47 c13d cbd8 1cbe 19ca f7bd 1bb2 a83e
00000090: ccc4 b33b ba8d 1b3f b4f9 403e 6589 23be
000000a0: f83b 7abe 45de 45be a86a 65be f980 243e
000000b0: 9220 7cbe 1030 8fbe 29b9 3ebe ae2b 27be
000000c0: ed42 a33d 5b91 30bf 3e4e 2b3d 2148 bfbe
000000d0: bd42 e9bd d979 443c adb3 cebe 6294 193c
000000e0: 6345 f5bd b8e3 fa3e 8e3e 773c f7c2 0fbf
000000f0: 3c41 993e 1707 babe 4524 9abe 7f8a fcbe
00000100: f0ad 62bd d42c 62bd dc05 153d 804b d2bb
00000110: 04ed 893d 0286 f6bd 2434 203d 7866 dfbc
00000120: 4809 e5bc b0f0 823c ac4a b13d a0a7 8c3d
00000130: f064 b4bd aa48 90bd 4051 2f3b 04a4 db3d
00000140: ec60 be3d 902e 8cbc 783c b2bd 46dc 9ebd
00000150: 5c10 01bd 308f 24bd 0814 babc aaff fd3d
00000160: 0068 eb3a e0ab 733d d866 32bd 3877 433d
00000170: 40d8 763c ce8f e5bd 483d 60bd 281a e03d
00000180: 40bc df3c a09e f63b ac12 19bd 7417 4fbd
00000190: 7ae1 93bd 1239 d53d 40a1 16bb 1040 54bd
000001a0: 98f6 cd3d a06f 68bc e02f 98bc c668 d43d
000001b0: 3482 05bd 40d5 f2bc a08a 5d3c 5ab5 d83d
000001c0: 0c40 183d e47d ba3d 30f0 223d 9e32 a2bd
000001d0: 622b 8d3d a815 8fbd c0a2 68bc f8f9 85bc
000001e0: 3c9c a1bd 5437 e0bd 78d1 a43d b8f7 843d
000001f0: 304e 57bc a04c 1ebd 9cd1 06bd bcfc 78bd
0.17873424 -0.3726239 -0.13290958 0.27886638 0.13042642 0.26609242 -0.4692031 -0.48765802
-0.57189137 -0.17768803 0.41504902 0.15936907 0.2472277 -0.12539545 0.22299056 0.17612134
-0.48126367 0.3166123 -0.030329851 0.07887899 0.34323025 0.32928014 0.020394357 -0.0033841163
-0.4304434 -0.016095553 -0.01486645 0.114916064 -0.4098723 -0.19234954 -0.2552498 -0.26990893
0.094375126 -0.15317075 -0.12099094 0.32948384 0.0054861065 0.6076313 0.18845254 -0.1597038
-0.24436939 -0.1932307 -0.22403967 0.16064824 -0.246218 -0.27966356 -0.1862532 -0.16325256
0.079717495 -0.68971795 0.041822664 -0.37359717 -0.113896824 0.011991941 -0.40371457 0.009373756
-0.11976125 0.4900186 0.015090598 -0.5615687 0.29932582 -0.36333534 -0.30105796 -0.49324414
-0.05534166 -0.055218533 0.03638254 -0.0064176917 0.0673466 -0.12037279 0.039112225 -0.02727054
-0.027958527 0.01598391 0.08656821 0.068679094 -0.08808315 -0.070451096 0.002675131 0.10724643
0.0929583 -0.017112046 -0.0870294 -0.077568576 -0.031509742 -0.040175617 -0.02271463 0.1240228
0.0017960072 0.059490085 -0.04355511 0.047721118 0.015066206 -0.11209069 -0.054745942 0.10942489
0.027311444 0.007526234 -0.037371323 -0.050559476 -0.072207406 0.10411276 -0.0022984296 -0.051818907
0.100568 -0.01418677 -0.018577516 0.103715464 -0.032594875 -0.029642701 0.01352182 0.10581465
0.037170455 0.09106043 0.039779842 -0.07919811 0.0689304 -0.069865525 -0.014198959 -0.016354546
-0.078911275 -0.10948053 0.080477655 0.06492561 -0.0131412 -0.038647294 -0.032914743 -0.0607879

fc4.bias f4 [2]
00000000: 37c3 e93e b033 493d
0.4565675 0.04912156
