src/python/services/models/comparison_2500ep_dqn/best_pointwise_dqn_2500ep.pt (torch, 131928 bytes, 7 tensors)

fc1.weight f4 [128, 56]
00000000: 0b87 ca3c 0cf7 023e d90a c93d 3dbe b5bd
00000010: e4c4 9c3d 964e 5c3d 0790 07be cc98 1b3d
00000020: af4d 793d 19d5 c63d 019f d5bd 75b1 683d
00000030: d485 d5bd 6baa 78bd 8a1a e8bd 6d16 01be
00000040: c353 4abb cbf7 05be 1da0 ed3d 7ca2 07be
00000050: eb31 03bb 2b97 f23d 623e 84bc b5b3 bbbd
00000060: 6f95 c1bd 9d0b abbd 874c d53d a674 fdbd
00000070: 9cd2 dbbd 8973 11bd 75e9 77bd 11e6 653c
00000080: 99aa e5bd 0da7 16bd d1d9 dd3c 3573 ed3d
00000090: 9d5a 103c b7e6 ca3d d8b2 cbbc bd68 073e
000000a0: 9f7d dbbd 0bb5 1b3d a6c0 b73c 3ad9 733d
000000b0: cfb5 fd3d 74fc 89bb 3c0a 0b3d c577 08bd
000000c0: 4786 cb3d 8a72 f0ba cb48 51bc 1602 12ba
000000d0: 0d77 f73d feb5 14bd ce5a e8bd 9f84 b6bd
000000e0: 8f3f 90bd e9ce 89bd 3b90 05be 5ebe 0abd
000000f0: 054b 96bd f1c1 623d 88f4 54bd 6fcb 7a3d
00000100: c802 6dbd d2e0 07bd 1c76 83bd ef8e f83d
00000110: 0613 8e3d 2190 f8bd 8859 be3d 5fc2 253d
00000120: ba53 78bd 55d7 d6bd 62df 4dbd 08dd 203d
00000130: 5b64 fe3d 7b36 c4bd 4ab8 4b39 82b4 e13d
00000140: 59e6 dc3d 899f 85bc 0784 473c d84c 7739
00000150: afce 2cbc 48ab 953d 7a56 cdbd 0786 3f3d
00000160: 8151 9abd 5e0f c73c baf1 063e c24d 873c
00000170: a122 f1bc e57a 94bd 767a f43d 1e58 203b
00000180: a1a5 b6bd 4c01 443c a846 06be cb27 8e3c
00000190: 244e e13d fe6c 003d 58a9 8c3d 5532 c2bd
000001a0: c038 ba3d d698 683d d3f1 fdbb 5f00 02bc
000001b0: 4357 b0bc 3721 673d 4a9c 833d d55e 143c
000001c0: a8ba 6dbc 0daa afbd d899 a7bd 89f9 343c
000001d0: 0994 073e d946 5abd 1e5d 073e 6d10 b2bd
000001e0: 71b2 d6bd 1ba1 c6bd e9ec 3b3d 66e9 b9bd
000001f0: 323a b53d 534c 6bbd 7730 893c a7c7 213d
00000200: 841c ffbd 7aae d1bd 398f bcbd 6d72 1a3d
00000210: c2d1 a1bd 0ebf 34bd c91b e0bd 6576 e9bd
00000220: 587a b7bd b723 6b3d 8996 073d bd58 c6bd
00000230: 1918 6d39 d5e9 62bc f869 b2bd 494f ed3c
00000240: 54b8 c1bc 985a ff3d f570 b13d eec5 803d
00000250: ddaa 2a3c 6789 fd3d 55a5 b43d 4e6b 5e3d
00000260: 1e99 bfbd 4396 adbc 99cf 4dbd 31ea c8bd
00000270: 1f18 303d c23f f3bd 7548 9c3d 1be7 9b3d
00000280: 4881 2d3d 20f1 5abd dbfb 5d3d bb9a d63d
00000290: 00f3 033e 3016 ef3d 09fb ad3d 42f9 133d
000002a0: 802f 62bd 3313 bb3d ea88 61bd 4dd2 52bd
000002b0: d3d7 6e3c 93b3 b23d f86a 03be d620 8bba
000002c0: 7f31 063e f383 e3bd 9112 08be fc17 693d
000002d0: ae28 cfbd 9982 e0bd 8126 133d 83cd 313d
000002e0: dc23 113c 01ef 553d fc90 2e3d 55d0 3c3b
000002f0: a96d a9bc fd70 ae3d e4d7 ca3c 4ed8 983d
00000300: 7b53 cebd 7ee3 88bd 05f8 b5bd 9d38 823d
00000310: 40ca d93d ff11 8bbd c2df 033e a540 cabd
00000320: d2b1 a13d f366 abbb ac51 e63d 4f29 f63d
00000330: 1c3e 01be 069b 63bd 7916 91bd ff95 f7bd
00000340: 3af8 c1bd 99a8 f53d d0cf e43c faa6 c83c
00000350: 2caa a43d fb56 a53d 2cf3 c63c 1514 483d
00000360: 8f24 9ebd 492b ab3c 186e 1d3d 3e0f 1b3c
00000370: a13c ad3c 9092 b3bd 01b9 15bd b58b 043e
00000380: 1f79 08be be1a efbd 11e8 30bd 6a37 b8bd
00000390: f16d cc3d 9506 58bd 2133 1dbb 0775 dcbd
000003a0: 4cd8 cc3c 387f 9fbd 94bb f9bd 8dbe c23d
000003b0: 4a93 dcbd 0c72 043d 7c76 c3bc a2d8 183d
000003c0: fc0c fd3d f42c d73d de21 98bd 36d3 983d
000003d0: 8c8d dd3c c8be acbc 4c1f e83d 7544 f13d
000003e0: fdd0 e7bc 81ad b63b 2da0 81bd 267d ff3d
000003f0: 0e09 dcbd 6c28 35bd 114c 2e3b cba6 ae3d
0.024722597 0.12789553 0.09816522 -0.08874176 0.076547414 0.053785883 -0.13238536 0.037987515
0.0608651 0.09708614 -0.10430718 0.05680986 -0.10425916 -0.0607094 -0.11333187 -0.12606211
-0.003087268 -0.13082807 0.11602805 -0.13245577 -0.0020018767 0.11845239 -0.016143028 -0.09165136
-0.0945233 -0.083518244 0.10414987 -0.123757645 -0.1073353 -0.035510574 -0.060525376 0.014031903
-0.112141795 -0.036780406 0.027081402 0.115942396 0.008810666 0.099072866 -0.024865553 0.13223548
-0.1071732 0.038014453 0.02243073 0.059533335 0.12388193 -0.004211003 0.033945307 -0.033317346
0.09937721 -0.0018344682 -0.012773703 -0.0005569769 0.12083254 -0.036306374 -0.113454446 -0.08912014
-0.07043373 -0.06728918 -0.13043301 -0.033872955 -0.073385276 0.05536074 -0.051991016 0.061229166
-0.05786398 -0.03317339 -0.06419012 0.121366374 0.06937222 -0.121368654 0.092944205 0.04046857
-0.060626723 -0.1049029 -0.050261863 0.03927329 0.12421485 -0.09580704 0.00019428242 0.11020757
0.10786123 -0.016311424 0.012177474 0.00023584382 -0.010547324 0.0730806 -0.1002626 0.046758678
-0.07535077 0.02429932 0.13178149 0.01651657 -0.029435458 -0.07250003 0.1193742 0.0024466584
-0.0891831 0.0119632 -0.1311289 0.01735296 0.11001232 0.031353943 0.06868237 -0.09482256
0.090928555 0.05678638 -0.007749775 -0.007934659 -0.021525985 0.05642816 0.06426294 0.009055813
-0.014509834 -0.085773565 -0.0818364 0.011045822 0.13240065 -0.05329022 0.13219115 -0.08694539
-0.10483254 -0.09698697 0.045880232 -0.0907772 0.088489905 -0.057445835 0.016746743 0.039497044
-0.12456611 -0.10238357 -0.09207005 0.03770678 -0.07901336 -0.044127516 -0.109427996 -0.11399535
-0.08958882 0.057407107 0.033102546 -0.09684894 0.00022611058 -0.013849695 -0.08711618 0.02896847
-0.023647465 0.12468451 0.08664123 0.06287752 0.010416714 0.12379723 0.08820597 0.054301552
-0.09355377 -0.021189814 -0.05024681 -0.098102935 0.042991754 -0.11877395 0.076310076 0.07612439
0.04235962 -0.05345261 0.054195266 0.10478731 0.12885666 0.11674154 0.08495147 0.036126383
-0.05522108 0.09134521 -0.055062212 -0.05147009 0.014577824 0.08725657 -0.12833774 -0.0010614644
0.13104819 -0.11109152 -0.13288333 0.05690764 -0.10115181 -0.109624095 0.035925392 0.043408882
0.008858647 0.052229885 0.042618737 0.00288107 -0.020682173 0.085176446 0.024761148 0.07463132
-0.100745164 -0.06684016 -0.088851966 0.063584544 0.10634279 -0.06790542 0.12878326 -0.09875611
0.07895245 -0.0052307784 0.112460464 0.12019598 -0.12621349 -0.055567764 -0.070843644 -0.12089156
-0.094711736 0.11995048 0.027931124 0.024493683 0.0804027 0.08073231 0.024285875 0.048847277
-0.07721817 0.020894663 0.03843507 0.009464083 0.021147074 -0.08768189 -0.036553387 0.12943919
-0.13327454 -0.116750225 -0.043190066 -0.089949444 0.09981907 -0.052740652 -0.0023986774 -0.10764509
0.025005482 -0.07787937 -0.12193981 0.09509001 -0.10770281 0.032335326 -0.023860209 0.037315972
0.12355992 0.10506621 -0.07428335 0.0746216 0.027045034 -0.021087065 0.113340944 0.11780635
-0.028297896 0.0055748825 -0.06329379 0.12475042 -0.107439145 -0.044228002 0.0026595632 0.08527907

fc1.bias f4 [128]
00000000: 6acc a13b a293 043e 3d77 c9bc 00f0 8c3c
00000010: 8ce1 0a3d 18cf cabd e8b6 8f3d e5d9 b93d
00000020: e29e 853d 055c 343d de9b abbb 0c10 04bd
00000030: d65f 54bd e108 733c 3b80 063e a84a 06be
00000040: c23e f3bd 2315 0e3d 0793 b5bd 4c72 b2bb
00000050: 32b6 a0bb 2ac4 cd3d 6b75 d23d db3f f53d
00000060: 9e84 ecbd 9d86 dd3d 6fc8 933a 0d8f f53a
00000070: fe3d dabd a56b e33d e494 503d 020e bf3c
00000080: 1238 fdbd 2f15 13bd 031c c6bd 6db3 933d
00000090: b505 50bd f64d 00be 69d2 6dbd 841f 2ebd
000000a0: 2570 dcbd cf92 c03d 1832 a43d 0a64 fcbd
000000b0: d849 683d aca0 da3d 15b2 d1bd c61b b43d
000000c0: 2ac9 06bd a535 9e3d adc6 d03d b4bc b0bd
000000d0: 62be ed3d 0b1b d5bd 1532 8b3d a5f3 883d
000000e0: dcb6 aabc 48d4 10bc 6f32 37bd 72e7 4b3d
000000f0: e5c4 4fbd 7933 023e 0931 dbbd 60e1 ba3d
00000100: 29c7 953d abb2 e53d 654d 033e 1ec8 ee3d
00000110: 3fa5 0b3d 8236 533d ed0f 2cbc 645e c63d
00000120: 7894 d43d db1a 9f3d cf1a 1dbc 05e9 0d3d
00000130: cf07 c93d bb23 02be 1e36 f8bd ed08 06be
00000140: fce9 17bd 55b9 da3c 4cd5 b7bd fba6 50bd
00000150: 40aa bd3d c517 e4bc dd23 d6bd 4150 db3d
00000160: 1bf3 a3bd 2ae7 c9bd 5ee3 f33d d82f e2bd
00000170: bb1f d0bd 1ba6 65bd 8094 90bd 6367 ba3d
00000180: 3809 da3d e10c f5bd 02b8 403d 077d f83d
00000190: fdd5 39bd 8da7 02be c6ae 6a3d dd26 67bd
000001a0: 2f98 1cbd c07b 8c3d 06d8 9c3d 9fa7 03be
000001b0: 407e a5b9 0e69 c23c 59d2 28bd aceb 043e
000001c0: 1296 363d 13c0 85bd 08ee 0dbc 0e6b 7bbd
000001d0: 782a 0f3d 6458 eabd a70b ffbd 5ea9 9b3d
000001e0: 9ad4 5d3d 9d62 b93d 0010 de3d a479 253d
000001f0: 1a51 c63d d497 923d 70d2 d93d 16b3 e53d
0.004937698 0.12946942 -0.02459299 0.017204285 0.033906505 -0.09902781 0.070173085 0.09074763
0.06524445 0.04403307 -0.0052370867 -0.032241866 -0.05184921 0.01483366 0.13134854 -0.13114417
-0.118772045 0.034688126 -0.08865934 -0.005445754 -0.004904532 0.10047181 0.10276302 0.1197507
-0.11548732 0.10816691 0.0011274944 0.0018734649 -0.10656355 0.11104516 0.050923243 0.02332211
-0.1236421 -0.035908874 -0.096733116 0.07211957 -0.050786693 -0.1252974 -0.05806199 -0.042510524
-0.10763577 0.094030015 0.08017367 -0.123237684 0.056711048 0.10675177 -0.102390446 0.0879436
-0.03290669 0.07725076 0.101941444 -0.08629742 0.11608578 -0.10405549 0.06796662 0.066870965
-0.020839147 -0.008839674 -0.04472583 0.04978127 -0.050724883 0.12714948 -0.10702712 0.09125018
0.073133774 0.11215719 0.12822492 0.11659263 0.034093138 0.051565655 -0.010501844 0.09685972
0.10379881 0.07768794 -0.009588911 0.034646053 0.098159425 -0.12708943 -0.12119697 -0.13089342
-0.03708838 0.026699701 -0.0897623 -0.050940495 0.09260988 -0.027843365 -0.10456059 0.107086666
-0.08005353 -0.09858544 0.11908601 -0.11044282 -0.10162302 -0.056066614 -0.07059574 0.09101751
0.106462896 -0.11965347 0.047050484 0.12133222 -0.04537009 -0.12759228 0.057295583 -0.056433547
-0.03823107 0.06859541 0.07658391 -0.12856911 -0.00031565316 0.023731735 -0.04121623 0.12980527
0.044576712 -0.06530776 -0.008662708 -0.061381392 0.03495261 -0.114426404 -0.124533944 0.076006636
0.05415783 0.09052012 0.108428955 0.04039921 0.09683438 0.07157865 0.10635841 0.112157986

fc2.weight f4 [128, 128]
00000000: 3923 9fbd 2ec4 50bd e47a aa3d 00be 093d
00000010: ebf6 c93c 70ef 6bbd 8e06 88bc 62b0 673c
00000020: 35d4 44bc 88cf a7bd cdec 2b3d af0e a23c
00000030: 7826 143c d28a a73d e7cf 6d3c f268 f33c
00000040: 3a8e 763d 8992 8ebd dd38 9abb d419 96bd
00000050: abb8 453d e0f7 523d 821f 1e3d 186e 23bb
00000060: 113d ad3d 96e2 5abd 6207 c1bc 92e9 ae3d
00000070: 4ac6 3f3c 9ed9 6f3a e826 8ebd 3023 35bd
00000080: f343 a9bd 7bad 293d 5c66 8c3d f2a9 ac3d
00000090: 7386 4a3d bde6 673d da38 40bd 8aa8 f3bc
000000a0: 60c4 acbd 75bf e2bc 6eff 89bc a9af b43d
000000b0: 38f2 0fbd 5f54 a33d 5d3b 093b 5e28 b63b
000000c0: f1fd 7e3d 9bbf af3d 1d33 9b3d ea3e 58bd
000000d0: 9b55 43bd 6c1b 39bd f135 b03d 5d01 cbbc
000000e0: 7e1a a93b 73d1 a6bc 7962 93bd 6c5e 693d
000000f0: 6760 b4bd bcb1 913d 779b 8b3d 9192 8f3d
00000100: 889d 00bd f094 56bd 3b1d ad3c ff63 03bd
00000110: a380 443d 67cc 34bd aaae d53c e760 d5bc
00000120: 0638 0e3d c468 9737 588f b13c 7dba 4ebd
00000130: cd00 a33d fc26 713d 9421 8fbd 3319 bc3c
00000140: 59c2 1fba 9087 463c 9b22 26bd debb aabd
00000150: 0060 89bd 45f8 3e3d aeb4 b03d ff9d b9bc
00000160: 329b 42bd effe d7bc ebbc 6e3c 0b4e f93b
00000170: 9a3e 613d 66c8 b13c 8603 0fbd 1c99 9b3d
00000180: cb26 263d b545 523d 03c8 c83c 38e6 67bd
00000190: d84d cb3c c7b7 9abd 3232 9a3d 536a 21bd
000001a0: 0192 923b 5be4 063d faf1 65bc 40f0 13bd
000001b0: 92c8 7bbd bb96 f33c 0aac 2a3d 46e0 993d
000001c0: 78a9 a73c 7621 4d3c 354c 8abd 8992 85bc
000001d0: 38a5 83bc 3026 4bbd d89e 5d3d c92e b43c
000001e0: b85b 3abd c28b 9d3d 9075 0cbd 2f86 5d3d
000001f0: 0d2e a0bc 7b68 93bd 631b 44bc 9b19 3e3c
00000200: 9c82 2e3d 114d 1dbc 973e 803d fe40 ebba
00000210: 66c9 0abd 28f5 093a 7e98 963d b2c2 b5bc
00000220: 10a9 14bc 0cef b33d d4a5 3b3d 32e0 d33c
00000230: 82ed 7b3d 6ea4 12bc 12e3 2abd 84ba 923d
00000240: 51c3 0dbd f2cd 3d3c 2ffa 8a3d 41b4 9abd
00000250: 4104 95bc 977c a5bd 0ca6 96bb 6027 313d
00000260: bde7 4fbd acde e33c c9b0 7bbd 7fb1 e9bc
00000270: 23e2 79bd 3b73 903d 9621 9f3d bb4b c1bc
00000280: 0b04 9ebd 1e3e 02bd fba7 42bc 3c41 8fbd
00000290: 5a64 6c3d d555 6abc 6710 71bd f695 61bd
000002a0: 5645 8fbd 1eec 2fbd 57a1 9b3d a1fd ca3c
000002b0: b4ba b0bd 884a d3bc 81c0 4fbb 4f32 a1bb
000002c0: bd8d 2f3d b686 ab3b a3ab 01bd 0bd6 eebc
000002d0: 8010 193d e59d 8fbd 7dee 77bd 6414 0a3d
000002e0: b4da 8abd bc56 2c3c 0227 7bbd b3a6 8bbb
000002f0: 2304 9b3c a1c5 cbbc 83a0 b13c 26fc 033d
00000300: 4813 91bc 6da5 803d b6fc 53bd 9939 a2bd
00000310: 50b1 47bd 937d 683c d2a3 feba ee36 4f3c
00000320: b840 fd3c 7f54 9c3c ace1 a3bd aa63 1fbd
00000330: 971d acbc 3ef1 d13c 8e40 2fbd ed6e 57bd
00000340: 2463 4c3d e5fd 5f3d ab92 abbc 512e 503d
00000350: d484 65bd dc78 ccbc 1b32 9e3c 743f 2abc
00000360: f6c1 97bd 72d1 33bc 073c 33bd 9255 a1bd
00000370: a9ba 8f3d c081 8ebd 4307 d03c 4743 04bb
00000380: 78fb 6fbd 7294 80bd 6f97 2c3c fc8b 8e3d
00000390: 615d 403d 578a 0dbd a0fc 72bc 05c2 1a3d
000003a0: dd50 22bc 853c 7d3c f969 a0bd 1ffc 383d
000003b0: b111 91bb a483 bc3c d481 053b ad4d 86bd
000003c0: 79a3 6c3d 1654 d13b 539a 5b3d de35 933d
000003d0: dfd0 333c e42f 013d d5ec 143d eace 18bd
000003e0: 343b dabc 43b2 c9bb ba35 0b3d 5751 7a3d
000003f0: cc14 0e3d cd13 7e3d 398f c8bc 553c 8fbd
-0.0777039 -0.05096834 0.08324221 0.033628464 0.024653872 -0.057601392 -0.016604688 0.014141174
-0.012013485 -0.0819388 0.041973878 0.019782392 0.009042375 0.08180775 0.0145149 0.029713128
0.06019423 -0.06961543 -0.0047064857 -0.07329145 0.048271816 0.051505923 0.038604267 -0.0024937447
0.08458913 -0.053438745 -0.02356309 0.08540644 0.011704991 0.0009149554 -0.069410145 -0.04422301
-0.082649134 0.04142521 0.06855461 0.08430852 0.049444627 0.056616534 -0.046929218 -0.029743452
-0.08435893 -0.027679184 -0.016845431 0.08822567 -0.035143107 0.07975077 0.0020939924 0.0055590114
0.062253896 0.08581468 0.075781085 -0.052794375 -0.04768906 -0.045192167 0.086040385 -0.024780924
0.005160629 -0.020363545 -0.071965165 0.056974813 -0.0880745 0.07113978 0.06816762 0.07010377
-0.031400234 -0.05238813 0.021132102 -0.032077786 0.04797424 -0.044140246 0.026084263 -0.026047183
0.034721397 1.8049388e-05 0.021674797 -0.050470818 0.07959137 0.05887507 -0.069888264 0.022961235
-0.0006094329 0.012117282 -0.040560346 -0.08336614 -0.06707764 0.046623487 0.08628212 -0.022658346
-0.047511287 -0.026366679 0.014571409 0.0076081804 0.054991342 0.021702003 -0.03491547 0.07597563
0.04056434 0.05133601 0.024509436 -0.056616038 0.024817392 -0.07554584 0.07529105 -0.03940804
0.0044729714 0.03293262 -0.0140347425 -0.036117792 -0.061470576 0.02973496 0.041667975 0.0751348
0.020466551 0.012520185 -0.067528166 -0.016305225 -0.016069993 -0.049596965 0.054106563 0.021994965
-0.045497626 0.07692672 -0.034291804 0.054083046 -0.019553209 -0.071976624 -0.01196942 0.0116027845
0.042605028 -0.009600894 0.06261938 -0.0017948446 -0.033883475 0.00052626664 0.07353304 -0.022187565
-0.009073511 0.08785829 0.045812443 0.02586374 0.061505802 -0.008950336 -0.041720457 0.07164481
-0.034610096 0.011584746 0.06786 -0.07553912 -0.018190505 -0.08080404 -0.004597431 0.04325044
-0.050758112 0.02781614 -0.061447892 -0.02852702 -0.061006676 0.070532285 0.07770078 -0.023595681
-0.07715615 -0.03179752 -0.01188087 -0.06994864 0.05771289 -0.0143026905 -0.058853533 -0.055074655
-0.06995647 -0.04294979 0.075991325 0.024779143 -0.08629361 -0.025792375 -0.0031700435 -0.0049193273
0.04285978 0.0052345647 -0.031657826 -0.029154798 0.03736925 -0.07012538 -0.060530175 0.033710852
-0.067799956 0.010518726 -0.061316498 -0.0042618155 0.018922871 -0.02487451 0.021682983 0.03222289
-0.01770939 0.062815525 -0.051754676 -0.07921142 -0.048753083 0.0141900955 -0.0019427484 0.012647374
0.03091465 0.01908326 -0.08002028 -0.038913406 -0.021010203 0.025627729 -0.042786174 -0.05259602
0.049899235 0.054685492 -0.02094396 0.05082542 -0.056034878 -0.024959974 0.019311002 -0.010391105
-0.07410042 -0.010975229 -0.04375842 -0.07877649 0.070180245 -0.069583416 0.025394088 -0.0020181702
-0.05858943 -0.06278314 0.010534151 0.06960294 0.046964053 -0.03455576 -0.014830738 0.037782688
-0.009906975 0.0154563235 -0.07832713 0.045162316 -0.004427158 0.02301199 0.0020371573 -0.06557784
0.057773087 0.0063881977 0.053613972 0.07188009 0.010975092 0.031539813 0.036358673 -0.037306704
-0.026639558 -0.0061552837 0.033986785 0.061112728 0.034687802 0.062030602 -0.024482356 -0.06993929

fc2.bias f4 [128]
00000000: 7b4d 333d 9a92 8d3d 81df 1d3d e0e0 a3bd
00000010: d930 43bc 3a7e 913d ef7d cebc 7ed7 a4bd
00000020: 23a3 cfbc 1e32 193d 703b a83d 146b 5e3d
00000030: fdc7 d93c b621 fabc 2aea 78bb 252b 1ebd
00000040: 6151 b43d 2e9e 96bb 80ae 923d 7580 a5bd
00000050: aa06 a63c e9a3 8b3d 5cd8 833d 81b0 ac3d
00000060: f365 903c e62c 4f3c 3335 26bd 0991 843d
00000070: e4db 413c 58ad a1bc a645 afbd 6834 fabc
00000080: 36bb 913d 9c3c 83bd 4d63 6cbc 685b a6bc
00000090: aac7 0abd 8ffa 393d abc2 a1bd 8d6b c5bc
000000a0: f0a7 5b3d 4d85 353d c3de acbc 5753 a33d
000000b0: bbf5 91bc d009 a93d 926a 85bd 04f4 203d
000000c0: d1ed 4d3b 452a 1cbc 410d a3bd 7c38 cdbc
000000d0: 0344 79bc 05a1 703b 7ff7 d93c 3ec6 0d3d
000000e0: 743f e93c ca9b a3bd c3f4 283d d528 3a3c
000000f0: bc70 b4bd 20bd 013d cdd4 93bd e180 68bd
00000100: 5915 ac3c 9169 c0bc 47b8 ab3c aa6a a7bd
00000110: c019 92bd a7ca 523d a717 fb3c bfcd 2a3d
00000120: 7fcf 4dbd 81d2 ac3d cab3 a7bc 104f a2bd
00000130: 4a2c 623c b61a e8bc 145f a1bc 49b6 983d
00000140: 4ad0 453d 506a 6f3d 16bb 003d 6a3b 403d
00000150: 72a4 883d a51a b43d a76e 0d3d d195 9b3d
00000160: 1bb0 323c 181b 043d e7ad 983d 01bc 99bd
00000170: 006f d13c 74db 95bd c923 9e3c 32bd 46bd
00000180: f328 2a3d 5a42 643d fb00 9c3d 9bcc 9f3d
00000190: e974 79bd 5d5a aabd afec 3fbd 2280 d0bc
000001a0: 8826 21bd 37d6 bcbc ae4f e43c cb3c 34bd
000001b0: 8793 38bd c2cc 34bd a80e abbd 5b69 293d
000001c0: 0182 adbd 5851 8fbd dbb0 ae3d fc0e 11bd
000001d0: ee36 6cbc daef 8f3d 1715 dd3c 9e15 f7bb
000001e0: 0883 2d3b 4b24 82bd 55b7 303d a99a 563b
000001f0: f1d5 ec3c 5e3d 9dbd 62dc 313d af95 a13d
0.043775063 0.06912728 0.038543228 -0.08001876 -0.011913502 0.07104154 -0.025206534 -0.080489144
-0.025346344 0.03740131 0.08214462 0.054301336 0.02658462 -0.030533653 -0.003798137 -0.038615365
0.08804584 -0.004596493 0.071621895 -0.08081142 0.02026685 0.06818373 0.06437752 0.08432103
0.017626738 0.012644982 -0.04057808 0.06472976 0.011832211 -0.019735977 -0.08558206 -0.030542567
0.07115786 -0.06408045 -0.014427972 -0.020307258 -0.03388182 0.045404967 -0.07898458 -0.024099136
0.053626955 0.04431658 -0.021102315 0.0797488 -0.017817369 0.08253825 -0.06514467 0.03929521
0.0031422267 -0.009531562 -0.07961512 -0.025051348 -0.015213969 0.003671707 0.026607273 0.034612887
0.02847264 -0.07988699 0.041249048 0.011362274 -0.08810565 0.031674504 -0.07218323 -0.056763534
0.021006273 -0.023487838 0.020961894 -0.081746414 -0.07133818 0.051462796 0.030650927 0.04170012
-0.05024671 0.08438588 -0.020471472 -0.07925236 0.013804505 -0.02833305 -0.019698657 0.07456643
0.048294343 0.058450997 0.03142842 0.04693166 0.066719905 0.087941445 0.034529354 0.075969346
0.010906245 0.0322524 0.07455044 -0.07506562 0.025565624 -0.07317248 0.019304173 -0.048520274
0.04154296 0.05572734 0.076173745 0.07802697 -0.06090251 -0.08318017 -0.04685658 -0.025451723
-0.039343387 -0.023051364 0.027870025 -0.04400329 -0.045062568 -0.044140585 -0.08352405 0.04136024
-0.08472062 -0.06997937 0.08529826 -0.03541468 -0.014417393 0.0702817 0.026987595 -0.0075404188
0.0026475806 -0.063545786 0.04314359 0.0032745993 0.028910609 -0.076777205 0.043423064 0.07889878

fc3.weight f4 [64, 128]
00000000: b286 a6bc 4a2c 123d 8f79 91bd 4717 70bd
00000010: 2d1c 7c3d b212 dfbc 9a9b 0e3d 5de3 b3bd
00000020: c157 4d3d 712e 6fbd b526 88bd 93c7 583d
00000030: d8df f43b 5b02 56bd fa60 73bd bfda 053d
00000040: ce93 03bd 4955 953d 5cce 8c3c c8a6 00bd
00000050: 4a03 2f3d ba40 543d 3daf 79bd ee50 923d
00000060: 67af 7d3d 00d7 2d3b d237 2abd 8ec3 643c
00000070: a30e 843d d65f 7c3d c534 843d 2302 73bd
00000080: 12d1 55bd b21e 32bd 98c9 82bb 46f1 733d
00000090: 7f58 2dbd f3b4 253d cb5f 0f3d 1853 99bd
000000a0: 5512 06bd 4670 68bc 1497 e7bc 9b22 3fbd
000000b0: 566f a8bd c412 5c3d 35a8 19bd e4df ebbc
000000c0: 16b9 a03c ce21 973d 3031 f8bc 5386 7dbc
000000d0: 7727 f43b facc 6d3d 11bf abbd 3d00 923d
000000e0: 361e d6ba 92df 13bd 4020 59bc 84d9 41bd
000000f0: 7bf8 ac3d 94c5 7fbd 7843 3a3d 7f49 833d
00000100: a863 973d a264 b03b 72f0 4f3d 8b29 a03d
00000110: f2b2 41bd 0367 a1bd e833 a9bd f300 1cbd
00000120: 1a95 2a3d 0507 52bd c83f 9abd 4aa4 5bbc
00000130: 1f89 bc3c d3c1 0dbd 603b 593d f6eb 9dbd
00000140: cc75 bebc 325b 24bd 2ef0 25bd cfef 90bd
00000150: 152b 47bc 7059 b3bc 29bf 81bd f601 94bb
00000160: c518 d7bc aa6d 77bd 4ce3 f3bc e2ee 41bd
00000170: b8ae 96bd dd44 96bd d180 a63c f56f b1bd
00000180: bd90 a53d 7887 6d3d 69d2 8fbc e19b efbc
00000190: 25c1 d83b 15fa 573d 5c7d 9c3d 521d ad3d
000001a0: 19a1 48bd f448 8ebd 6ab1 833c 6ee4 693d
000001b0: 06e5 b3bd b141 a53c 1355 a53d ba11 363d
000001c0: 95c8 853c 1fa8 bc3c 5449 55bd a5e0 0c3d
000001d0: 4b3b a8bd 7a08 3b3d eb44 9b3d 7cbd aa3d
000001e0: 9d90 8d3c 08b6 90bc cdf5 233d 2abc 7f3d
000001f0: 548e 353d 4aab 8ebd 4314 a13d 2d3d c83c
00000200: d27e 21bd 56d8 6fbc d9ac b23d 134e 713d
00000210: 7ba4 a73d a5c7 cfbc a776 bf3c 3cad e9bb
00000220: 560b 1cbd 8a6c 98bb 9473 86bd fdd8 6fbd
00000230: c322 0cbd fb17 a73b 0227 d1bc 408c a43c
00000240: bfc9 a83d 8ba4 9b3d 11bd 6b3d 7f66 183d
00000250: 8570 a53d 8197 c9bc e99a 09bc 5cf7 323d
00000260: 45a6 0dbd 2775 87bd 8cfa 873d 8496 febc
00000270: 5560 ccbc 5009 0dbd dd92 5c3d 8cf7 7ebd
00000280: 1517 13bd 0f85 95bd a8f0 463c 360f c43c
00000290: 8ec9 803d 2639 debc c227 b13d f7a7 253d
000002a0: 2ead 86bd ca28 7b3d b843 913d ef5c 9bbd
000002b0: cb6a a9bc 6c6f 1abd 3d0e 7bbd 080f 3abd
000002c0: 314f 6abd a714 86bd df18 15bd 6f6f 5f3d
000002d0: 7c77 473d 7897 ed3c 4f96 86bd 7a81 76bc
000002e0: 49bf 393d e88c 363c 77e8 9fbc 4cb0 96bb
000002f0: c93a ac3d 31d8 a1bd b16d adbd 3d01 b4bd
00000300: f2f8 283c 67d6 903c 8396 12bc 3d3c 4e3d
00000310: 3a0b 0dbd 74a1 28bd a008 eabc c136 9ebd
00000320: 7cf7 6abd 2be7 a6bc 7284 983d c366 8bbd
00000330: 95c9 bf3c 8280 1d3d b9bd 86bd 7e4c 7e3a
00000340: 5f89 773d c969 383d 0d7f 8cbc 7fc8 2dbd
00000350: 702c b13d 5acf 1d3d 3261 003d 43f5 753d
00000360: a94d dd3c 6cf2 aa3d fd5c fc3b 2495 e6bc
00000370: e6a5 73bd f531 213c b60e 8c3c b7e1 363d
00000380: 103c ef3c 2e9b 8b3d a159 2e3d a140 51bd
00000390: c415 a0bc 7907 acbd d09b 8b3d 5b93 e5bb
000003a0: dee8 81bd 6c1c 1f3d a051 6c3c d39e 503d
000003b0: 2f4c bf3b ec08 7b3d 44e9 1eb9 e093 fcbc
000003c0: 0d66 5cbd 3385 a0bd d640 343d 216e 7dbd
000003d0: 3b88 02bd fbca a7bd 027f 0ebd e8b9 86bd
000003e0: 919e 86bd 03eb 37bd 2315 043a ab43 e23c
000003f0: 9272 ecbc 4e48 fcbb 9409 0dbb 5b05 89bd
-0.0203279 0.03568677 -0.071032636 -0.05861595 0.061550308 -0.027230594 0.034816362 -0.087836005
0.050132517 -0.0583939 -0.06648008 0.052924704 0.0074729733 -0.05224834 -0.059418656 0.032679316
-0.03212338 0.072916575 0.017188244 -0.031409055 0.042727746 0.05181954 -0.060958136 0.07144342
0.061934855 0.0026525855 -0.04155714 0.0139626395 0.06448104 0.061614834 0.064553775 -0.05932821
-0.052201338 -0.043486305 -0.003991317 0.05955627 -0.042320725 0.04045577 0.035003465 -0.07486552
-0.032732327 -0.014186924 -0.028270282 -0.04666386 -0.08224361 0.053728834 -0.03751393 -0.028793283
0.019619506 0.073794946 -0.030296892 -0.01547392 0.0074509936 0.05805681 -0.083860524 0.07128952
-0.0016335908 -0.036101885 -0.013252318 -0.04732658 0.084458314 -0.062444285 0.0454745 0.06410503
0.07392055 0.00538309 0.050766416 0.07820424 -0.047289796 -0.07880976 -0.082618535 -0.038086843
0.0416461 -0.051276226 -0.075316966 -0.013405869 0.023014603 -0.034608673 0.05303514 -0.077110216
-0.02324953 -0.040126033 -0.040512256 -0.0707699 -0.012156268 -0.021893233 -0.06335289 -0.0045168353
-0.026256928 -0.06040732 -0.02977147 -0.047346957 -0.07357544 -0.073373534 0.020325096 -0.08663932
0.08084247 0.05799052 -0.017556386 -0.029249134 0.0066148215 0.05272873 0.07641098 0.08452858
-0.04898176 -0.069475085 0.016075809 0.057102613 -0.08783917 0.020172926 0.08072867 0.0444505
0.016330997 0.023029385 -0.052071884 0.034393925 -0.08214434 0.04566238 0.075815044 0.083369225
0.017280871 -0.017664924 0.040029336 0.062435307 0.044325188 -0.069662645 0.07865193 0.024443233
-0.039427586 -0.014638981 0.08724374 0.058912348 0.08185669 -0.025363753 0.023372008 -0.007131247
-0.03809675 -0.0046516107 -0.065650135 -0.058556546 -0.03421284 0.0050992942 -0.025531296 0.020086408
0.08241605 0.075997435 0.057553355 0.037207123 0.08078102 -0.024608376 -0.00839875 0.04369293
-0.034582395 -0.06614142 0.06639585 -0.03107763 -0.024948278 -0.03443271 0.053850997 -0.062247798
-0.035910685 -0.073007695 0.012142338 0.023933034 0.062884435 -0.02712686 0.08650161 0.040443387
-0.06576 0.061318196 0.070929945 -0.07586085 -0.020680806 -0.037703916 -0.061292876 -0.04542449
-0.05720443 -0.06546908 -0.036400672 0.05454963 0.048697934 0.02900289 -0.06571638 -0.015045518
0.04534844 0.011141993 -0.019520028 -0.004598653 0.0840965 -0.07902563 -0.084681876 -0.08789299
0.010313259 0.01768036 -0.008947018 0.050350416 -0.034434535 -0.0411696 -0.028568566 -0.07725287
-0.057364926 -0.020373901 0.07447137 -0.068067096 0.023411551 0.038452633 -0.065791555 0.0009700729
0.06043374 0.04502276 -0.017150426 -0.042427536 0.08651054 0.038527824 0.031342693 0.060048353
0.02701457 0.083470196 0.0077015148 -0.028147288 -0.059484385 0.009838571 0.017096858 0.044648852
0.029203445 0.068167076 0.042565946 -0.051087026 -0.019541629 -0.08399863 0.06816828 -0.0070060915
-0.06343244 0.038845465 0.014423758 0.050932717 0.005837939 0.061287805 -0.00015154952 -0.030832231
-0.05380826 -0.07837906 0.044007145 -0.061872605 -0.0318682 -0.08193012 -0.034789093 -0.065784276
-0.06573213 -0.04490186 0.000503855 0.027620157 -0.028863225 -0.007699049 -0.0021520602 -0.066904746

fc3.bias f4 [64]
00000000: 9f44 55bd df1e 963d 9342 5ebd 9966 13bd
00000010: 18f2 5f3d bfd5 2cbd c31f abbd 9864 a53d
00000020: 1ba4 78bd db0f a6bd 75d3 0f3d c1a4 2f3d
00000030: 77a9 92bd 8fc2 f1bc d8df bd3c 089e aabd
00000040: 69ad fe3c 1014 85bd 7b70 273d 3e83 663c
00000050: b041 4bbb b024 0cbd d118 023d d1a8 253d
00000060: 9221 9fbb 3c5d ab3d 04b7 313d c393 31bc
00000070: 8e9d 93bd 190f a0bd d63f 703d 0aa9 93bd
00000080: daf5 8e3d 78ad a6bd 770e 24bd 7b04 933d
00000090: b1cc 95bd cde9 133d 7d8c 2bbd be29 8c3d
000000a0: 7409 23bd 347b 76bb ad41 473d 048b 56bc
000000b0: 3c7c 8dbd 6c0f 20b9 694b afbd 949a 053d
000000c0: 5f9f 38bc bc8e 0dbc ceaa 8cbc 1f94 a33c
000000d0: 92d7 653d 7848 a63d dfcc ab3d 9ee7 a0bd
000000e0: f8fb 0c3c 161e 963d 3213 733d ec82 a7bd
000000f0: c850 643d acf2 bdbb a643 6e3d 5f3f 4dbd
-0.052067395 0.07330107 -0.05426271 -0.035986517 0.054674238 -0.04219603 -0.083556674 0.08075827
-0.06070338 -0.08108493 0.03511377 0.04288173 -0.07161229 -0.029511718 0.023178026 -0.08330923
0.031088548 -0.06497967 0.040878754 0.0140693765 -0.0031014495 -0.034214675 0.031761948 0.0404442
-0.004856297 0.083673924 0.043387428 -0.010838452 -0.072077855 -0.0781538 0.05865463 -0.07209976
0.06980486 -0.08138555 -0.040052857 0.07178589 -0.073144324 0.03611164 -0.041882027 0.06843899
-0.039803937 -0.0037610056 0.048646618 -0.013094667 -0.069084615 -0.00015264534 -0.08559305 0.03261812
-0.011268466 -0.008639988 -0.01717129 0.01996809 0.056113787 0.08119291 0.083886854 -0.078566775
0.008604996 0.07329957 0.059344478 -0.08179268 0.0557411 -0.005796751 0.058169983 -0.050109264

fc4.weight f4 [1, 64]
00000000: 0072 bd3b dc75 34bd f8f2 acbd 8810 c1bd
00000010: 907f 703d 162b a7bd facf d33d 5204 a1bd
00000020: 60ce 34bc 0069 cfbb 1e18 fa3d 0018 223c
00000030: 30de 8d3c 0008 97bd 40e6 96bc 7492 73bd
00000040: 585d b73d 0aee bcbd a004 dbbc 1206 ac3d
00000050: 50ae 04bd ced9 82bd 401b 393d c074 32bc
00000060: fccb 293d da34 abbd 4ecd a4bd 5024 2abd
00000070: b0c2 cb3d 1c1e 5e3d d028 2fbc 3e9e efbd
00000080: 804c 4ebb 101a cbbd e830 b8bd cc1a 75bd
00000090: 1443 233d 2832 8abd c44c a0bd 8496 283d
000000a0: 1c7a 8ebd b8bd 403d fc42 12bd 265c f2bd
000000b0: de83 e23d be99 adbd 10df 3f3c 6099 ff3c
000000c0: 600c a73c cceb be3d 02b5 debd 60f2 eebd
000000d0: 8895 023d 9c87 833d 002e c2ba e0eb e4bb
000000e0: e088 b03c 402f a2bc 6c69 c63d c0a8 9b3c
000000f0: 308b 613c c4b2 d93d 4a08 abbd b065 55bd
0.005781412 -0.044057712 -0.0844478 -0.09426981 0.058715403 -0.08162515 0.10342403 -0.07862152
-0.011035532 -0.0063296556 0.12211631 0.009893417 0.017317861 -0.07374573 -0.018420339 -0.05946584
0.08953351 -0.0922509 -0.026735604 0.08399595 -0.0323928 -0.06389199 0.045192003 -0.010892093
0.0414543 -0.0835969 -0.08046971 -0.041538537 0.09949243 0.054227933 -0.010690883 -0.11700104
-0.0031478703 -0.099170804 -0.08993703 -0.05984001 0.039858893 -0.06747848 -0.07827142 0.041159168
-0.06956884 0.04705593 -0.035708413 -0.11833982 0.11060308 -0.084765896 0.011710897 0.031201065
0.020391643 0.093223184 -0.10874368 -0.11667323 0.031880885 0.0642235 -0.0014814734 -0.0069861263
0.021549642 -0.019797921 0.096880764 0.019001365 0.013766095 0.106298 -0.083511904 -0.05209893
