src/python/services/models/comparison_2500ep_dqn/pairwise_dqn_2500ep.pt (torch, 160720 bytes, 8 tensors)

fc1.weight f4 [128, 112]
000000 f5 3b 02 3e e8 d8 8a bb 17 96 6c 3d 23 d8 e0 3d
       0.12718184 -0.004237283 0.057760324 0.10978725
000010 ba e1 f6 3d fb 6f df 3d d6 2f 93 3d 2d f4 79 3d
       0.12054773 0.109100305 0.07186858 0.06102388
000020 a6 42 b0 3d 1f 37 63 3d 4a 8e 23 3e a6 1b 87 3b
       0.08606462 0.05547249 0.15972248 0.004123169
000030 06 cb 23 3c f4 5e 81 3d 72 f6 02 3e cf f6 ae 3d
       0.009997135 0.06316939 0.12789324 0.08543169
000040 27 a8 0c 3e 68 c6 13 3e ff 6e a0 3d 20 38 96 bc
       0.1373602 0.14431155 0.07833671 -0.01833731
000050 a1 14 2e 3e d9 0d e0 3c 0e 3b 01 3e f0 c4 f2 3d
       0.17000057 0.027350353 0.12620184 0.11853969
000060 99 56 fd 3c 0d 52 7f 3c 37 41 2b bc 67 72 ea bb
       0.030925082 0.015583527 -0.01045256 -0.007154751
000070 1b 5c 0b 3c 54 f3 15 3e 90 4e dd 3d a4 4b 12 3e
       0.008505846 0.14643604 0.10806 0.14286667
000080 f9 29 6a 3d 57 46 95 3d 0c cd 84 3d 34 36 e3 3c
       0.057168934 0.07288807 0.06484422 0.027735807
000090 5c 32 e5 3c a4 ff 6f 3e e0 54 f3 3d 93 14 54 3d
       0.027978115 0.23437363 0.11881423 0.051777434
0000a0 06 34 df 3d bc db 85 bd 60 f5 15 3e 66 0f 8d 3c
       0.108985946 -0.06536052 0.14644384 0.017219257
0000b0 6b 80 6f 3d 8d df 9f 3d c6 97 24 3e d0 a2 6b bd
       0.05847208 0.07806311 0.16073522 -0.057528317
0000c0 99 dd 0a 3e d5 a3 e1 3c 75 41 08 3e 7e 73 8a 3d
       0.13561095 0.027543942 0.1330622 0.0676031
0000d0 e0 07 d9 3d 49 3e 99 bd 16 44 5b 3d e8 e4 39 3c
       0.10597205 -0.07482583 0.05353173 0.011346079
0000e0 be 68 37 3e 65 aa 25 3f 78 26 ce 3d 21 2c 1c 3f
       0.1791105 0.64713126 0.10065931 0.61004835
0000f0 d6 89 6d 3e 00 1d e3 3e 74 cb e6 bc 5e 7d ef 3e
       0.23197111 0.44358063 -0.028173186 0.46775335
000100 32 09 50 3e c9 04 95 3e 4a a6 22 3e 79 a8 24 3e
       0.20316008 0.29105213 0.15883747 0.16079892
000110 1b a4 28 3e 77 52 9b 3c ff 72 1d bc 88 24 48 3d
       0.16468851 0.01896022 -0.009609937 0.048862964
000120 45 9a 44 3e ea 09 c5 3d c8 54 3f 3e 93 2a a6 3c
       0.19199474 0.096210316 0.18684685 0.020283973
000130 fe af 83 3d f1 2d f3 3d d1 4b 16 3e a8 1f 2f 3e
       0.06430052 0.11873997 0.14677359 0.1710192
000140 a2 91 24 3e 4c 56 39 bc 4a 3a 15 3e 55 9c 52 3d
       0.1607118 -0.011312079 0.14573017 0.05141862
000150 96 43 cc 3c f1 88 17 3d 80 f9 19 3e 83 de 0c 3e
       0.024934571 0.036995832 0.15036583 0.13756756
000160 76 1c a5 3d a1 02 0b 3e 5b de dd 3d 87 06 e8 3d
       0.08062069 0.13575222 0.108334266 0.1132937
000170 48 f8 a9 3c e5 d2 de 3d f1 7c 26 bc e9 3c ba 3d
       0.020748273 0.10880069 -0.010161624 0.09093649
000180 fb e0 e1 be a5 a8 46 bf 1e 97 22 3e 16 28 f7 3c
       -0.4411696 -0.7760108 0.15877959 0.030170482
000190 63 1d 82 3d 23 3c 05 3d ac 2b 08 bf 62 03 4f bf
       0.06353261 0.032528054 -0.5319164 -0.80864537
0001a0 a5 d2 06 3e c3 d0 d7 3d 09 a0 17 3e ef d5 0b 3e
       0.13166292 0.10537865 0.14807142 0.13655828
0001b0 4d 88 ef 3c f7 c9 90 bd 22 0b 9d ba 44 01 0b 3e
       0.029239798 -0.07069772 -0.0011981467 0.13574702
0001c0 d8 6a 97 bd 2d 57 87 bd d6 35 9a bd a6 5b bb 3d
       -0.07393426 -0.06608424 -0.075298 0.0914834
0001d0 0d 37 6f 3d 93 f9 94 bc 5e 9a 0b bd 42 62 02 3d
       0.05840211 -0.018185413 -0.034082763 0.031831987
0001e0 2f 6f 9f 3c 8e 46 91 3d 3e f3 ba bc 72 fa 0e 3c
       0.019462196 0.07093535 -0.022821065 0.008726703
0001f0 32 89 27 bd bc 47 51 bd 10 9a fc bc 2b ee 37 3d
       -0.040902324 -0.0510938 -0.030835181 0.04490487
000200 fc c9 a5 bd 73 14 de 3b a8 75 bf 3d 9a 47 12 bd
       -0.08095166 0.00677734 0.09348613 -0.035712816
000210 ba 3a 84 3d 52 02 c7 3d 7b 2b a2 3c 1b 5f 6f bd
       0.06456514 0.097172394 0.019796124 -0.05844031
000220 1a 4c b2 3d a0 fa 24 bd 12 33 1d bd 4d 87 56 bc
       0.087059215 -0.040278077 -0.038378783 -0.013093782
000230 67 63 7d bc 8b 0b 12 bc b6 70 8b bb 11 58 38 3d
       -0.015465594 -0.008913885 -0.0042553796 0.04500586
000240 4f d6 9f bd 6d d6 98 3d 64 49 81 3d 81 47 67 3d
       -0.07804548 0.074627735 0.06312826 0.056464676
000250 e9 fd 2a bd ae b2 ba 3b 0c 3b bc 3d 9f 7b ab bd
       -0.041746054 0.00569757 0.0919095 -0.08373188
000260 44 db 1d 3d bf 3a 20 bd a8 d3 df 3c eb 6d 82 3d
       0.038539186 -0.039118525 0.027322605 0.063686214
000270 f4 17 99 3a e2 bb e7 bc 65 49 43 3d 76 0e c1 bc
       0.0011680112 -0.028287832 0.047677416 -0.023566466
000280 e3 f0 91 bc 34 cd 15 b9 b8 28 13 bd c6 0d 7f 3d
       -0.017815059 -0.00014286191 -0.035927504 0.062268995
000290 7a 3b 00 3d 0c bd 2d bd 39 c7 9c 3d e6 3c d0 3d
       0.03130672 -0.042416617 0.07655186 0.101678655
0002a0 34 e4 8e bd c3 ba bd 3d 60 00 a9 3d a3 e4 89 bd
       -0.0697712 0.092641376 0.08252025 -0.06733062
0002b0 4c a9 87 3d 8e 84 31 3d 91 5d db 3b a1 66 de bc
       0.06624088 0.043339305 0.0066945036 -0.027148547
0002c0 a8 ab a4 bd 21 a4 c5 3b cb 7e 3f ba be 17 38 bd
       -0.08040553 0.0060315286 -0.00073049654 -0.044944517
0002d0 cd 1a 0c 3d 68 12 ef bc d4 53 ba 3c 31 ab 82 bc
       0.034205247 -0.029183581 0.02274505 -0.015950771
0002e0 34 1c 0a 3d 45 d2 36 3d e8 a6 05 bd 7f 79 cc 3d
       0.033718303 0.044634122 -0.032629877 0.09984111
0002f0 c2 64 cd 3c 33 40 a5 3d 8c 7b 8b 3b d6 45 d1 bb
       0.02507246 0.08068886 0.0042566713 -0.006386499
000300 c9 9a 25 3d e2 59 0d ba 31 d8 a5 bd ec 50 a1 3d
       0.040430818 -0.0005392117 -0.08097876 0.07876763
000310 9a be 98 3c 56 a8 89 3c 41 97 65 3d 57 50 64 bd
       0.018645573 0.016803902 0.05605245 -0.05574068
000320 02 f4 56 bd 83 53 45 bd 5b cf bc 3c 17 c6 4a bd
       -0.052478798 -0.048175346 0.023048094 -0.04950532
000330 56 cf 81 3d 99 60 b0 3d 9a 61 80 bd 69 bc 85 3d
       0.06338374 0.086121745 -0.06268616 0.06530077
000340 52 99 42 bc ac 17 18 3c 80 46 98 3d 62 98 34 3c
       -0.011877375 0.009282988 0.07435322 0.011022659
000350 3f 72 69 3c 12 c0 8f bd b4 05 2a be 28 be 83 bd
       0.01424843 -0.070190564 -0.16603738 -0.06432754
000360 24 f4 94 3d 66 4a 87 3d 7c 7e 31 3c 94 b0 18 bc
       0.07273129 0.06605987 0.010833379 -0.009319443
000370 87 2e 28 bd b4 1e 80 3d 55 6d f9 3c 16 6d 77 3b
       -0.041059997 0.06255856 0.030447641 0.003775423
000380 a1 7f 81 3d 2b de 9e 3e d4 42 7d bd 96 47 a7 3e
       0.063231714 0.31028876 -0.06183131 0.32671803
000390 50 83 4d 3e 95 34 53 3e a0 63 eb 3b 33 aa ae 3e
       0.20069623 0.20625527 0.007183507 0.34114227
0003a0 8d e3 df 3d 30 4b 07 3d 72 21 33 3d f2 48 b4 bb
       0.10932074 0.03303069 0.043733068 -0.00550186
0003b0 b9 30 3b 3c c7 41 5b 3d c5 7e 0a be 7e d6 a6 3c
       0.011425191 0.053529527 -0.13524921 0.02036595
0003c0 70 1b 38 3d 1a 22 c1 bc fe 62 25 3d 74 ed ce bd
       0.04494804 -0.023575831 0.04037761 -0.10103884
0003d0 6b e3 3f bd ec 79 03 bd e7 51 34 bd 5d e4 e1 3c
       -0.046847742 -0.032098696 -0.04402342 0.027574712
0003e0 45 42 ae bc 51 41 9f bd ea 60 2a 3d 92 c8 01 be
       -0.021271834 -0.0777613 0.04159633 -0.12674168
0003f0 1b 94 02 bc b4 2a 2e bd a8 db eb bd dc fd e1 3a
       -0.007969881 -0.042521194 -0.115165055 0.0017241794

fc1.bias f4 [128]
000000 0e bd c5 bc 63 e8 6e bd 03 79 0c 3e b3 4d 54 3c
       -0.024138 -0.05832709 0.13718037 0.012957978
000010 58 09 82 bd d3 18 21 3c 3b df f2 bd 87 61 e3 bc
       -0.063494384 0.009832579 -0.11858984 -0.027756466
000020 20 39 b5 bd 46 f5 02 bd 26 5d 4d 3b e8 73 39 bd
       -0.08848786 -0.031972192 0.0031336038 -0.045276552
000030 61 08 01 be c5 6e 03 3e 49 48 bc bc e2 be d6 3c
       -0.12600853 0.12835224 -0.022983687 0.026214067
000040 a4 2b 8c bc 5c f6 b6 bd 28 57 83 be e3 0d be bc
       -0.017110653 -0.08933708 -0.25652432 -0.023199981
000050 9b 29 08 3d 3a 2c 24 3d db 44 ca bd e8 7d 21 be
       0.033242803 0.04008124 -0.098764144 -0.15770686
000060 44 7f 07 be 4e bc 0b be 07 1f 88 bd 37 31 b4 3c
       -0.13232142 -0.13646051 -0.06646543 0.021996124
000070 e8 6a 10 be a0 ec e5 bd fb 73 10 3d 1e 39 15 be
       -0.14103281 -0.11226773 0.035266858 -0.1457257
000080 da 00 03 be 23 fa b4 bd c6 2a 70 be eb 26 6a be
       -0.12793294 -0.08836772 -0.23453817 -0.22866409
000090 9e 0e db bd 21 0a c9 bc f0 fe 52 bc 1f 86 1d bc
       -0.106961474 -0.024540963 -0.012878165 -0.0096144965
0000a0 f9 ca 09 3e cc 8d b1 3d 5f 44 7d bd bf f4 9d bd
       0.13456334 0.08669624 -0.061832782 -0.07712697
0000b0 0b 02 97 bd c8 a0 f9 bd 3b fe 60 bd ce 61 4e be
       -0.073734365 -0.1218887 -0.054929953 -0.20154497
0000c0 34 6d 1d be 07 55 97 bc 48 32 3d be 91 9f a6 bd
       -0.15373689 -0.018473161 -0.18476212 -0.081359036
0000d0 77 2e 40 be a3 25 52 3b 24 5c b6 be 8a e6 b9 be
       -0.18767725 0.003206589 -0.35617173 -0.363087
0000e0 80 b7 0f 3e f8 05 d4 bc cb b4 ce bc 0a 39 e4 be
       0.14034843 -0.025881752 -0.025232693 -0.44574767
0000f0 b1 d2 14 be e0 53 23 be da 5f 9b bd d0 53 48 be
       -0.14533497 -0.15949965 -0.075866416 -0.19563222
000100 b6 04 af be a2 a4 78 bd 50 2b 0c be 71 27 b2 3c
       -0.34183282 -0.06070388 -0.13688397 0.021747323
000110 e5 03 f1 3c 29 fe 82 bd 55 e7 37 be 82 7e 97 3b
       0.029420802 -0.063961335 -0.1795934 0.004623235
000120 e4 c7 b8 3d ec 26 b3 3d a0 d3 54 bc 90 fe 0e be
       0.09022501 0.08747658 -0.012989908 -0.13964295
000130 a7 8c 5e 3d 0a d4 00 be fc fd 9c bd af c9 0a bd
       0.054333355 -0.12580886 -0.07665631 -0.033883747
000140 d8 6a 84 bd d7 7c 7d 3d e3 cd d7 bd 26 8d 33 3e
       -0.06465691 0.061886635 -0.10537317 0.17534313
000150 12 17 14 be 54 87 06 3e 20 e4 c1 bd 66 c5 0c bd
       -0.14461926 0.13137561 -0.094673395 -0.03436794
000160 d2 e0 99 bd 91 2d 6c 3d ba 28 a9 bd 6b 70 df 3b
       -0.07513584 0.057660643 -0.08259721 0.006818821
000170 b8 2a b9 bc 20 1b c2 3c ed 5c 89 bc 70 3d b2 bc
       -0.022603378 0.023694575 -0.016767943 -0.021757811
000180 c5 9d ec 3c 53 ce 08 bf 7f 36 4a bd ef 56 ee 3c
       0.028883824 -0.53439826 -0.049368378 0.029094188
000190 92 5d 67 bd 4c c1 52 be bd b7 af be 2f de 76 be
       -0.05648572 -0.2058155 -0.3431987 -0.24108194
0001a0 7a 10 b6 bb 61 1e f6 bc 0a 8c 3f 3c 29 26 37 3b
       -0.0055561634 -0.030043783 0.011691103 0.002794633
0001b0 4b e4 aa bd fe 80 8c be 6d 75 28 3e f6 f0 48 bc
       -0.08344325 -0.27442163 0.16451044 -0.012264481
0001c0 4d a8 eb bd ff 0b 9e 3d 27 35 4d 3d 53 20 f1 bc
       -0.1150671 0.07717132 0.05009952 -0.029434359
0001d0 15 36 0e bd c0 d2 b2 3d 4a 60 a6 bd 47 dc cf 3d
       -0.034719545 0.087316036 -0.081238344 0.101494364
0001e0 ed 98 f2 3b 27 d9 52 bd 6d ef 10 be 34 a6 55 be
       0.007403484 -0.051476624 -0.14153834 -0.20864183
0001f0 ab 01 16 be 61 72 27 be e7 0d 90 be 13 81 83 bd
       -0.14649074 -0.16352226 -0.28135607 -0.06421103

fc2.weight f4 [128, 128]
000000 ce 0a f8 3b 73 f1 20 3d 01 15 d5 3d e5 e2 cc 3d
       0.0075696474 0.039292764 0.10404397 0.10004214
000010 7f 5e 5b 3e 1c cf ad bd 6c df 45 be 80 2c a3 3d
       0.21422766 -0.084867686 -0.1932351 0.07967472
000020 82 94 c8 be fb 58 88 bd 2a 1c d2 bd c0 e6 8e bd
       -0.39175802 -0.06657597 -0.10259278 -0.06977606
000030 5c b0 55 3e 4f bc 1b be 23 03 a8 be cd 37 63 bd
       0.20868057 -0.15208553 -0.32814893 -0.055473138
000040 4f 93 35 bf 31 cc 21 bd 52 02 b6 bd 66 d7 16 bc
       -0.709279 -0.039501373 -0.08887161 -0.009206628
000050 60 3b 28 be e2 f3 8c be 51 8a 18 bd 66 93 0d 3e
       -0.164289 -0.27529818 -0.037241284 0.1382576
000060 cd bd fe 3e 2b da 27 3d 00 0f 43 3d 59 4c 3c bd
       0.49754182 0.040979546 0.047621727 -0.04597125
000070 77 d8 f2 3c de eb 08 bd b0 68 14 3e 1e d9 90 bb
       0.029644234 -0.033428065 0.1449306 -0.0044204136
000080 42 ab 32 3e fe 59 87 bb 0c 41 9d be 8d 4e b3 3c
       0.17448142 -0.004130601 -0.3071369 0.021888042
000090 bf e3 04 bf 23 0a 8f bc 27 f1 87 3d 09 08 91 be
       -0.5191001 -0.017460888 0.06637793 -0.28326443
0000a0 d8 47 39 bf 94 73 26 be 70 ed ae bd fc 96 11 bc
       -0.7237525 -0.16255027 -0.08541381 -0.008886095
0000b0 5f 67 73 bd 5f cf 20 be d0 91 75 bc 9a f1 ea bd
       -0.059424754 -0.15704106 -0.014988378 -0.11471863
0000c0 9b 57 17 be 37 aa 0f be bd 57 67 bf 7a 27 4b bd
       -0.14779513 -0.14029776 -0.90368253 -0.049598195
0000d0 bc ab ae 3e f9 6a 92 3d dc b7 b3 be f5 06 e0 bd
       0.34115398 0.0714931 -0.3510121 -0.10938827
0000e0 56 d8 14 be cc 62 1e 3d a8 6d 99 be 92 71 91 be
       -0.1453565 0.03866844 -0.29966474 -0.2840696
0000f0 00 9b 25 bd 9a fb 93 bd 3e 75 14 be a9 1c 0b 3d
       -0.040431023 -0.072257236 -0.1449785 0.03396288
000100 40 b2 2d bd bc 7a 12 be 5f 78 a4 3e 69 2a 65 3e
       -0.04240632 -0.14304632 0.32123086 0.2237946
000110 37 47 7a 3e b1 76 04 3e f5 16 a5 be b0 6e d5 be
       0.24441229 0.12935902 -0.32244077 -0.4168601
000120 32 bf 09 be 9e 94 50 3e 21 14 bc 3d a2 5c 1c bf
       -0.13451841 0.20369193 0.09183527 -0.61078846
000130 db 9a fc 3c c4 7f ff be f0 b1 d6 bd 1a d9 3f be
       0.03083556 -0.49902165 -0.10483158 -0.18735161
000140 17 11 c8 3d 4f 6d a1 3d 0a 14 38 bf 20 da a9 be
       0.09768885 0.07882177 -0.7190558 -0.3317423
000150 21 13 03 bd 31 ad 8d bf e8 b5 9e 3a 66 84 f1 be
       -0.032000665 -1.1068479 0.0012108656 -0.47171324
000160 f2 48 dd 3d dd b9 4c bd e4 ed 18 3f c5 d7 43 3d
       0.10804929 -0.04998194 0.5973799 0.047813196
000170 f6 4e 85 be a3 a0 fd be c9 b1 b2 bd 64 25 7b be
       -0.26036805 -0.4953662 -0.08725316 -0.24525982
000180 e5 c1 0e be cd b7 de be 66 c2 a7 bd 82 29 eb bb
       -0.13941152 -0.43499604 -0.081913754 -0.007176579
000190 b7 2a 77 bd 80 2a c7 bd 42 57 93 bd c7 a1 64 3f
       -0.06034347 -0.09724903 -0.071943775 0.8930935
0001a0 a9 e5 94 bc e0 48 03 bd 9e 9e 2a bd 15 80 20 bd
       -0.018175917 -0.03205192 -0.041655175 -0.03918465
0001b0 0d 91 02 be eb 27 11 3e c1 31 c4 3d 6d f6 95 be
       -0.12750645 0.14175384 0.09579802 -0.2928957
0001c0 cc 8d 8b 3c 2b 10 1a 3e dc 78 c0 bd 20 e1 80 bd
       0.017035387 0.1504523 -0.09398052 -0.06292939
0001d0 e4 04 d1 bb a8 92 c7 be 38 a1 b2 be 03 d3 67 bd
       -0.006378757 -0.38979077 -0.34888625 -0.05659772
0001e0 66 b8 b3 be 44 fe 2a bd 27 59 0e bf 0d cb ac be
       -0.35101622 -0.041746393 -0.55604786 -0.33748665
0001f0 16 0b b5 be f5 23 96 be 1f 91 80 3d 45 6e 67 3d
       -0.3536002 -0.29324308 0.0627768 0.056501646
000200 43 fb 3d be 5b f1 62 3d bc 14 be be ce 49 9d 3d
       -0.1855288 0.055405956 -0.37125194 0.07680093
000210 50 c4 fc be d9 d4 e6 bd b5 da 1b be 0e 3d 92 3d
       -0.49368525 -0.11271066 -0.15220149 0.071405515
000220 32 b2 23 be b8 ca 0d 3d 20 14 04 bf 48 d1 c9 3d
       -0.15985945 0.034617156 -0.5159321 0.0985437
000230 42 07 04 3e 0b f8 c6 3e 9c e3 15 bf e4 e2 b9 3e
       0.12893394 0.38861117 -0.5855043 0.36305916
000240 08 0c 69 3d ff 78 dc 3b e6 eb 15 be 11 1b b5 3c
       0.05689624 0.006728291 -0.1464077 0.022107633
000250 d0 52 50 3e d7 e5 7f be e9 87 82 bd d3 a7 59 3e
       0.2034409 -0.2499002 -0.06373579 0.21255426
000260 32 17 7c 3e 1b 48 06 be 1c ac e3 3b c5 a9 59 3e
       0.24618223 -0.13113444 0.0069480073 0.21256168
000270 5e 1d 97 3e f0 b4 83 3b 67 04 b5 bd 49 72 55 3e
       0.29514593 0.004019372 -0.0883873 0.20844378
000280 80 aa db bd a1 61 82 3d 63 8b 03 3e f3 af db bc
       -0.1072588 0.063662775 0.1284614 -0.026817298
000290 00 6c 3f 3e 33 7c b8 bd e7 59 97 3c 8f 18 7a 3d
       0.18693542 -0.09008064 0.018475486 0.061058577
0002a0 00 f0 93 3e a0 6d b1 3e ea 3e 20 be dc 06 41 bd
       0.28894043 0.3465395 -0.15649 -0.047125682
0002b0 de ef 82 bd a9 a8 b5 be 57 fc 86 3d 69 c6 39 bf
       -0.06393407 -0.3548024 0.06591099 -0.72568375
0002c0 cf 19 66 3b 40 07 6e bf b5 08 00 bf 60 e3 90 3d
       0.0035110598 -0.9297981 -0.50013286 0.07074618
0002d0 93 f4 7e bd 12 46 e9 3d c4 3b ee be c7 4b 8d 3e
       -0.062244963 0.11390318 -0.46529973 0.27596876
0002e0 03 ca d6 3b fd 68 2f bd 66 69 35 be 10 75 08 3e
       0.0065548434 -0.042824734 -0.17715988 0.13325906
0002f0 12 2b 0c be 5d 6d 6b be d5 e1 bd bd ab 91 1e bd
       -0.13688305 -0.22990938 -0.0927159 -0.03871314
000300 c9 d6 86 be 31 76 b5 be 9d c5 46 3f 84 29 16 be
       -0.26335743 -0.35441735 0.77645284 -0.14664274
000310 8e 3a 27 bf 69 4d 4d be e0 3c 69 bf a9 0c f8 be
       -0.6532372 -0.20049061 -0.9110851 -0.4844716
000320 38 92 61 3d 01 95 d0 bd ee 1f 8f be 2d 33 43 3e
       0.055071086 -0.1018467 -0.27954048 0.19062491
000330 37 48 b8 3d 1d e4 19 bd 19 10 ad 3e 64 58 30 be
       0.08998149 -0.03757106 0.33801344 -0.17221218
000340 8b 86 63 3d e5 e1 65 3c 4b 86 de be 59 e0 56 be
       0.055548232 0.014030908 -0.43461832 -0.2098402
000350 b7 b2 90 3e 57 9d df 3e 1d 4b c2 bd 37 a0 f7 be
       0.2826135 0.43674728 -0.09486983 -0.48364422
000360 03 68 9d 3e 17 5e 65 bd 16 a9 03 3f 0f 0f 56 bd
       0.30743417 -0.055997934 0.5142988 -0.052260455
000370 6a c6 4f be f7 23 33 be 1e 4d c0 bd 43 59 a3 bc
       -0.20290533 -0.17494188 -0.09389709 -0.019940024
000380 d6 b5 7b 3e e2 05 af bd a9 75 a8 be e5 b2 a2 3b
       0.24581084 -0.08546044 -0.32902268 0.0049651735
000390 4e d5 d2 bc fe e3 9b bd 0d 57 e6 bd f8 03 bf bd
       -0.025736477 -0.076118454 -0.11247072 -0.09326929
0003a0 fa 83 26 3b a4 c7 4e bd ef 5a 8c bc 4b 8e 23 be
       0.0025408254 -0.05048336 -0.017133204 -0.15972249
0003b0 3b ce 39 3c 30 ce e8 3d 93 68 3e bf cc 7a 83 be
       0.011340673 0.11367452 -0.7437832 -0.25679624
0003c0 d4 1a 70 3e 80 8b 1d be 63 08 0a be 6c 29 64 bc
       0.23447734 -0.15385246 -0.13479762 -0.013925891
0003d0 5d af 8b bc 63 70 9f be 79 f0 29 bd 31 e1 fd bd
       -0.017051393 -0.31140432 -0.0414891 -0.123964675
0003e0 9c 89 61 bd fe d9 c5 3d d2 9b 19 bf 56 e9 17 be
       -0.055062875 0.09660719 -0.6000339 -0.14835104
0003f0 11 b9 80 bc 3d f8 ec be 16 91 99 3e 5a b6 54 be
       -0.015713247 -0.4628314 0.29993504 -0.20772687

fc2.bias f4 [128]
000000 12 89 af bd 23 73 1b 3c 14 22 8a 3d 52 d5 dc 3e
       -0.08571066 0.0094879 0.06744781 0.431315
000010 8f 42 19 be 8c 32 80 bd fb ce 55 3c 07 6f a5 bd
       -0.14966796 -0.06259641 0.013049836 -0.080778174
000020 56 14 26 be 76 08 24 3e 9a 01 26 3d 69 d2 9d 3b
       -0.16218695 0.16018853 0.04052887 0.0048163426
000030 38 29 29 3e 32 a4 e2 bc d5 e8 c7 bd 4a ff ba 3c
       0.1651963 -0.027666185 -0.09761206 0.02282681
000040 71 39 08 be 62 29 a0 be 2a c3 43 be d8 6e 25 bb
       -0.13303162 -0.31281573 -0.19117418 -0.002524307
000050 1d 98 53 be c1 eb 5a bd 2a bb cf bc 7b ec 6b 3d
       -0.20663495 -0.05344749 -0.025357801 0.057598572
000060 2e 41 1e 3e 93 05 63 be b1 61 b5 3d d7 83 b5 bd
       0.15454552 -0.22170095 0.08856524 -0.08863037
000070 87 b7 c4 3d 31 4f ae 3d 2a 34 b7 bc 05 ef 9a bd
       0.096053176 0.08511198 -0.022363741 -0.075651206
000080 d6 34 12 bd 1d e6 15 bd b9 59 bc bd 5a 63 56 3d
       -0.03569492 -0.036596406 -0.09196801 0.052340843
000090 f5 4c 26 be 5b 2e f7 3d 49 07 8d 3e 8f f9 9c be
       -0.16240294 0.120693885 0.2754462 -0.30659148
0000a0 2a 70 e2 be ef 46 13 be c5 f2 d5 bd 8d 31 59 be
       -0.442262 -0.14382528 -0.10446695 -0.21210308
0000b0 29 5f 83 be d9 1d 43 bc d7 b9 5f be 90 73 74 3d
       -0.2565854 -0.011908972 -0.21848236 0.05968052
0000c0 83 1e 07 be 8f 15 dd bd 2f 0b 08 be e5 b5 2d be
       -0.13195233 -0.107951276 -0.13285516 -0.16963919
0000d0 d9 da 39 be b6 62 14 3e cb 1c 00 be 4a 58 89 be
       -0.1814989 0.1449078 -0.12510984 -0.26825172
0000e0 72 9c 93 3e 55 66 1c 3e 9f d2 94 be d7 b0 1f be
       0.28830296 0.15273412 -0.2906694 -0.15594803
0000f0 6a 9c 86 3d 1f 2d c7 bc 4f 05 78 3e 40 a8 34 3e
       0.06572802 -0.024313508 0.24220775 0.17642307
000100 84 76 12 bf 51 3d 90 bc 51 7e b7 be 07 6b c0 be
       -0.5721209 -0.017607363 -0.3583856 -0.37581655
000110 f5 c2 a7 3e ba 3b ee bd 44 5e 7e bc 4a 8f a9 bd
       0.32765928 -0.11632486 -0.015525404 -0.08279283
000120 bd 65 0e 3e 96 d4 e4 bd 55 d8 a7 3e 9e de e6 3d
       0.13905998 -0.1117336 0.32782236 0.112729296
000130 f6 21 6c be 5e 10 4b be f9 8d 85 bd 10 c6 8a 3e
       -0.2305983 -0.19830462 -0.0652122 0.27104235
000140 55 ad 72 bd 95 2a cc bd fc 8c dc bd 02 09 1e be
       -0.059247334 -0.099690594 -0.10769078 -0.15433124
000150 80 41 f0 be f6 dc d5 3c 1a 45 d2 3e 82 fe 4e be
       -0.46924973 0.026106339 0.41068345 -0.20214275
000160 68 54 4d be 52 95 15 bf 49 6d dc 3d 8d 02 f4 bd
       -0.2005173 -0.5843097 0.10763032 -0.11914549
000170 c2 1f 11 3e fd 3e 0c be a9 2f 10 bd 9b e1 15 3d
       0.14172271 -0.13695903 -0.035201702 0.036592107
000180 4a 74 1b 3e bf d4 20 3e 55 f9 81 be 39 22 02 bd
       0.1518108 0.15706156 -0.25385538 -0.03177092
000190 9c ef 44 3d de 1d 65 be 69 4a 1c be 21 37 d5 3c
       0.04808007 -0.22374675 -0.1526276 0.026027264
0001a0 50 98 9e bd b2 91 22 3e 5c 35 1e be 77 9d c5 3e
       -0.07743895 0.15875891 -0.15450042 0.385967
0001b0 b6 56 4a be 11 51 c4 3d 3c a1 fb be 95 25 a8 3d
       -0.1975964 0.09585775 -0.4914645 0.08210293
0001c0 1f 83 bf 3d 1e 9f 01 be 71 93 af bd 8c 66 07 be
       0.09351181 -0.12658355 -0.08573044 -0.13222712
0001d0 dd 32 f7 3d 6f 00 23 bf bb 1e 67 be 29 33 e1 bd
       0.12070248 -0.63672537 -0.22570316 -0.10996086
0001e0 54 3d b4 bd 2e 40 68 3e 95 60 eb be f7 6e 1a be
       -0.0880076 0.22680733 -0.45972124 -0.15081392
0001f0 f0 86 9a bd 00 bb 3d 3e 32 51 f7 bd 7f 0a 5b 3e
       -0.075452685 0.18528366 -0.12076034 0.21390723

fc3.weight f4 [64, 128]
000000 09 9c 07 be 88 be c6 bc f8 d0 7a be 4e 62 7f be
       -0.13243116 -0.024260774 -0.24493778 -0.24939844
000010 da 32 f9 3e 3d e5 44 3d da 81 92 3d be e0 bb bc
       0.4867161 0.04807018 0.071536735 -0.022934314
000020 7b 8f b0 3d b1 ad 39 be 1c f0 84 be 5e 1a 81 3d
       0.08621117 -0.18132664 -0.2596444 0.06303857
000030 68 e2 d2 3b b8 bd d7 bd 21 d7 12 3c 86 b4 73 bd
       0.006435681 -0.10534233 0.008962424 -0.059498332
000040 07 a5 0c 3b 34 96 81 3e cd 15 9b bd 51 4b 6d 3d
       0.0021460669 0.25309908 -0.075725175 0.057933155
000050 f7 a6 ae be 57 18 4c be f2 ac 51 bc 16 d5 15 bf
       -0.3411176 -0.1993116 -0.012797581 -0.5852827
000060 f3 0e b7 3d fd 75 5e 3e 59 0d 2a 3d a2 11 b4 bd
       0.08938398 0.21724696 0.041516636 -0.08792426
000070 69 00 e4 3e 4c 31 01 3e ad 50 79 be bb ee f7 3c
       0.44531563 0.12616462 -0.24347182 0.030265203
000080 a5 4a 5e 3c 6b ed 31 3e 97 61 cf be 0a 79 2f be
       0.013567601 0.17375724 -0.40504143 -0.17136016
000090 3e fd 48 bd a1 5e 5e 3d 06 0b 62 bf 10 1d 0e be
       -0.049069636 0.054289464 -0.8829807 -0.13878274
0000a0 ca 43 96 3e d7 10 99 bd c8 e0 6b be 08 69 ae bc
       0.29348594 -0.07473915 -0.23034966 -0.021290317
0000b0 93 67 4a be 40 cf 41 bd 13 11 a2 be ec 10 06 be
       -0.19766073 -0.04731679 -0.31653652 -0.13092393
0000c0 5d f7 e8 bc d4 38 9f bc 8d 0a 44 bf 8a 6c f8 bc
       -0.028438265 -0.019436277 -0.765786 -0.030325193
0000d0 08 b0 31 be f0 39 95 3c 6d d5 f4 be 3b 31 14 bf
       -0.17352307 0.018216103 -0.4781908 -0.5788762
0000e0 2a 84 49 bf f3 e2 34 be 35 b6 2c 3e 2f 0c 04 bd
       -0.7871729 -0.176647 0.16866381 -0.03223818
0000f0 34 63 4d 3f 79 aa 97 3c 99 b7 a4 bf 19 2d c2 bd
       0.80229497 0.018513905 -1.286853 -0.09481258
000100 d6 e0 19 3c 62 54 62 3d 0e 16 f3 be 1e b6 8f bd
       0.009391984 0.055256255 -0.47477764 -0.07017158
000110 b9 6f 34 3e e1 b4 a4 3e e1 b4 07 3e 08 c8 11 be
       0.17620744 0.3216925 0.13252594 -0.14236462
000120 d1 1f 7f be 1b 71 e9 3d a3 70 8d bd 26 23 98 be
       -0.24914481 0.11398526 -0.069062494 -0.29714316
000130 75 a2 1d bf 2d 26 7a bf 4a 38 1f 3c e6 72 b5 3d
       -0.61576015 -0.977145 0.00971801 0.08859806
000140 89 8f c2 3d 50 a3 64 3e bd a9 cf bd f1 f7 3f 3e
       0.095000334 0.22327924 -0.10139797 0.18746926
000150 c8 a5 be 3e 42 c7 9e 3e ad e8 ad 3e 57 a5 90 be
       0.37235856 0.31011397 0.3396658 -0.28251144
000160 2f 76 4a 3d 57 da 80 be 89 65 89 bb 8a 31 e7 3e
       0.049429115 -0.2516658 -0.004193012 0.45154983
000170 da 35 01 bf 59 83 56 3d 78 d9 ed be 26 9a d6 bd
       -0.50472796 0.052371357 -0.46454978 -0.1047862
000180 ed c9 f1 3e 91 32 f0 bd 8d df 9a 3c 4a a2 4a bc
       0.4722437 -0.11728395 0.018905425 -0.012367794
000190 a1 f0 23 bf b8 d3 7c be c7 2a 39 bc 8d bd f3 bd
       -0.64039046 -0.2469014 -0.011301703 -0.11901388
0001a0 56 9a 60 3d a7 07 6a be 4a 9a 89 3c bb b5 94 bd
       0.054834686 -0.22854482 0.016797204 -0.07261225
0001b0 e1 4b e3 bd 68 11 2d 3e 4b e4 9f be 94 cd 5c be
       -0.11098457 0.16901171 -0.3122886 -0.21562797
0001c0 b3 4c 73 be 6b 68 94 bd 06 8f 73 3d 09 0d 5e bd
       -0.23759727 -0.07246479 0.05946257 -0.05421165
0001d0 4f c6 12 3e 68 81 94 3c 69 82 ba bd 52 33 3c 3e
       0.14333461 0.018128112 -0.09106905 0.18378952
0001e0 19 c5 14 3e 3b 3a 08 3e 0a 71 64 bf 85 20 21 3d
       0.14528312 0.13303463 -0.89234984 0.039337654
0001f0 08 59 0b be 13 09 17 3d 44 7b 0f be af 1c eb bd
       -0.13608181 0.03687389 -0.14011866 -0.1148008
000200 3b d3 80 be fb 2f 8b be 89 11 6c 3d 81 f3 2c be
       -0.25161156 -0.27185044 0.05763391 -0.16889764
000210 0b c3 97 3d e1 1e ea bd bf 2f 14 bc 8c 0f f1 bd
       0.07410248 -0.11431671 -0.009044587 -0.117705435
000220 b1 50 32 3c 89 18 56 3e 97 ff 0a bf f8 9c 60 3e
       0.010883496 0.20907797 -0.5429625 0.21934879
000230 46 9b 15 3e b5 bb e5 be de 86 ab 3c cf a1 6f bd
       0.14610013 -0.44869772 0.020938333 -0.058503922
000240 8c 8d 69 3c 0b df e3 bd a4 54 fa bb 2c 3a 94 3d
       0.014254939 -0.111265264 -0.0076394845 0.07237658
000250 7e 72 3b bd d3 9b 7b be 9d 16 f1 be ac 6e 15 bd
       -0.045763485 -0.24571161 -0.47087565 -0.036482498
000260 a6 61 a2 be f1 59 f3 3d 6a 70 59 be bd c5 2e 3d
       -0.31715125 0.11882389 -0.21234289 0.042669047
000270 9e 16 57 3e 98 ea 80 3d 84 14 30 be 03 47 41 bd
       0.21004722 0.06294745 -0.17195326 -0.047186863
000280 ac f7 46 bd 06 7e 74 3e b6 dd 62 bf 89 43 4d be
       -0.048576042 0.23876199 -0.88619554 -0.20045294
000290 e2 27 b6 bd 01 f8 1f 3e 16 f9 23 bf 64 f5 84 be
       -0.08894326 0.1562195 -0.6405195 -0.25968468
0002a0 f0 0d e2 bc 87 8e 3f 3d 2a 51 a3 be 3b ac 2a 3d
       -0.027594537 0.046766784 -0.3189786 0.041668158
0002b0 f3 f9 32 bf 5e 6d 18 bf 6e 48 d4 3d 3d 73 f3 bd
       -0.6991264 -0.5954188 0.10365377 -0.11887214
0002c0 e6 98 9e ba e2 89 7f 3d ed 0f b8 3d 81 7e 5e bd
       -0.0012100011 0.062387355 0.089874126 -0.054319862
0002d0 86 f6 99 be cc f6 2a 3e 3d e3 ca bc d4 72 5d bf
       -0.30070895 0.16695708 -0.024766559 -0.8650334
0002e0 4b 54 a8 be f4 00 85 bc 98 f8 71 be 30 87 ad bd
       -0.3287681 -0.016235806 -0.23629987 -0.084730506
0002f0 3a f1 cf be 1c 71 a2 bc c2 93 eb be 57 7b 53 be
       -0.4061373 -0.019829325 -0.46011168 -0.20652519
000300 d3 80 eb 3d 67 fa ab be e9 3e 4a be aa 8e c7 be
       0.11499181 -0.3358948 -0.19750561 -0.38976032
000310 e5 78 b3 be 4f b4 12 bf 77 c8 8c 3e 20 50 f3 3d
       -0.35053173 -0.5730638 0.27496693 0.11880517
000320 21 68 8a 3e a7 30 e7 3c 24 bb 00 3e 64 02 cf 3e
       0.2703257 0.028221441 0.12571388 0.4043151
000330 bc 25 61 bf 3d 7c d7 3e c9 5d 90 3c ef 41 d2 be
       -0.87948203 0.42086974 0.017622845 -0.41065928
000340 3d 3d d9 be c6 64 0b be b4 d8 16 bd 5c 55 14 3f
       -0.42429534 -0.13612661 -0.036827758 0.5794275
000350 6a 87 dc be 29 51 a2 3e 36 ee 06 bf 53 31 12 3e
       -0.43072063 0.31702545 -0.5270723 0.14276628
000360 9a a7 1c be fb 89 10 be 25 7e 2e be 5e 50 fe 3e
       -0.1529831 -0.14115135 -0.17040308 0.4967069
000370 fb f6 46 bd 7f 8a e9 3c 03 05 c4 bc b1 6a 18 3f
       -0.048575383 0.028508423 -0.023928171 0.595378
000380 39 70 d7 3e ca 6d f7 be f5 d8 21 bd 1c f8 2d bd
       0.42077807 -0.4832595 -0.039513547 -0.042472944
000390 05 63 e7 3e 99 89 04 3f 66 0d 3f 3e 86 51 80 bd
       0.45192733 0.5177246 0.18657455 -0.06265549
0003a0 49 72 5a bd 85 a0 39 3e c0 0f 80 bd 93 5d 70 3e
       -0.053331647 0.1812764 -0.06253004 0.23473196
0003b0 c5 78 6c be d8 1f 14 3e a3 4b ed be 78 22 cd 3c
       -0.23092945 0.14465272 -0.4634677 0.02504085
0003c0 07 22 6e bf 93 61 87 bd 09 9f 28 bf dd 1c e8 bc
       -0.9302067 -0.06610408 -0.6586767 -0.028334076
0003d0 c3 f9 52 3e 88 5f 59 3e 66 ae 25 3e da 46 f8 3d
       0.20603089 0.21227849 0.16179809 0.12122889
0003e0 25 12 00 bc f2 53 f2 be 86 c1 8a be 41 e7 9f 3d
       -0.007816826 -0.4732967 -0.27100772 0.0780778
0003f0 ef bd 1a bd 96 fc dd 3c 2f 4a f6 be 95 b2 26 3e
       -0.03777879 0.027097981 -0.48103473 0.16279061

fc3.bias f4 [64]
000000 8f 44 15 be 8f de 80 be 57 a8 36 be 76 b4 03 3f
       -0.14576934 -0.251698 -0.17837654 0.51447237
000010 00 d0 7f 3e ac 39 d9 3e 7b bf 09 be 98 e0 6a 3d
       0.2498169 0.42426813 -0.1345195 0.057343096
000020 01 c2 65 3e 9a df bf bd 5b ad df 3e 1e 60 ea 3e
       0.22437288 -0.093688205 0.43686947 0.45776457
000030 d9 3d e4 3e a3 39 64 3e 3b aa 42 bd 67 18 b5 3d
       0.44578436 0.22287612 -0.047525626 0.08842545
000040 e4 c1 3c bd 75 23 8b 3e ec 70 3a be 53 00 c9 3e
       -0.046083346 0.2717549 -0.18207139 0.3925806
000050 9b 60 b2 3e 1f b4 96 3e b4 d9 32 be b6 c2 25 be
       0.3483933 0.29434296 -0.1746586 -0.16187558
000060 8e e6 39 3e 6f b2 00 be 95 54 34 be 19 f4 cd 3e
       0.18154356 -0.12568067 -0.1761039 0.40225294
000070 e2 ba b8 bd 5d de 23 3c 0f 7d 23 3e 4c 11 48 be
       -0.0902002 0.010001746 0.15965675 -0.19537848
000080 fa c2 9f 3e d5 2a d4 be 40 d8 dc 3d 22 c1 d6 bc
       0.31203443 -0.41438928 0.10783434 -0.02621514
000090 e6 cd 0c be cc 21 b1 bd 9a c5 ab 3e f9 1f 0d be
       -0.13750419 -0.08649024 0.33549196 -0.13781728
0000a0 f6 ac fa 3d d5 84 07 3e a5 f4 25 3c 35 4d c0 bd
       0.12240021 0.13234265 0.010129129 -0.09389726
0000b0 2b 99 70 3e 7d 21 6b 3d 11 a7 2b 3e 08 5a 94 3e
       0.23495929 0.057404984 0.1676295 0.28974938
0000c0 7b 1f 1c be 0a 6f 43 bb 57 14 c8 3d ce a8 15 bf
       -0.15246384 -0.0029820823 0.097695045 -0.584607
0000d0 91 4b ab bb d6 5b 22 be f6 36 42 3e ed e5 12 be
       -0.005227514 -0.15855345 0.18966278 -0.14345522
0000e0 49 ca f7 3d 94 cd 1d 3e 6f 6c 2e be 18 df bd bc
       0.1209913 0.15410453 -0.17033552 -0.023177668
0000f0 9a f1 c4 3e ed 99 0f 3e d5 14 23 3e d7 58 ff 3d
       0.38465577 0.14023562 0.15925916 0.12468117

fc4.weight f4 [2, 64]
000000 8f a3 dc 3e 4b cf e6 be 73 13 cf be 8e 69 46 3e
       0.43093535 -0.45080027 -0.40444526 0.19376203
000010 7d 84 b5 3d 97 3f 79 3e bf 31 03 bf 7b 72 13 bf
       0.08863161 0.24340664 -0.5124778 -0.5759656
000020 89 cd 02 bf 97 01 6d be 8d fb c2 3e a2 30 43 3e
       -0.5109487 -0.23145138 0.38082543 0.1906152
000030 7a 9c 90 3e 6c ed 57 be 46 03 04 3e ac f1 42 3e
       0.28244382 -0.21086663 0.12891874 0.19037503
000040 97 e2 9a be 0d af 95 3e 4f 76 f8 bc 1d 12 1a 3e
       -0.30251 0.29235116 -0.030329851 0.15045972
000050 8a 89 52 3e 80 c9 8d 3e 8c 57 e7 3d e8 e6 79 ba
       0.2056028 0.27692795 0.11295995 -0.0009533004
000060 22 16 09 bf ae 53 78 3c 60 3e 54 bc e5 b1 d0 3d
       -0.53549397 0.01515667 -0.0129543245 0.10190181
000070 55 50 14 bf ca bb 08 be 57 9e 8e be a0 94 03 be
       -0.57935077 -0.13352886 -0.2785518 -0.12849665
000080 3d 25 1a 3e 7f be 0f be ac ab 13 be 98 95 a8 3e
       0.15053268 -0.14037512 -0.14420956 0.3292663
000090 f2 d8 d5 bc c7 65 18 3f 06 49 0e 3e 2c 3a 6c be
       -0.026104424 0.595303 0.13895044 -0.23069066
0000a0 37 ea 4f be d4 33 49 be 42 9d 21 be ea e4 ed 3d
       -0.2030419 -0.19648677 -0.15782645 0.116159275
0000b0 64 79 8b be fd a7 bb be 44 74 07 be 16 d7 6d be
       -0.2724105 -0.36651602 -0.13227946 -0.2322658
0000c0 b9 ad 4d 3e 2d 8d ea be dc b9 1b 3e f6 d5 4a be
       0.20085801 -0.45810834 0.15207618 -0.19808182
0000d0 7f 07 0f be 07 38 95 bc 8a 5f 9a be 62 94 19 3c
       -0.13967703 -0.018215192 -0.30151016 0.009373756
0000e0 22 3e ff bc e0 b6 1d 3f 3c 05 88 bc a5 9d e1 be
       -0.031157557 0.6160717 -0.016604058 -0.44065586
0000f0 74 ce f5 3e a3 df a7 be 1e 06 8a be a0 c4 e4 be
       0.48009074 -0.3278781 -0.26957792 -0.44681263
000100 f0 ad 62 bd d4 2c 62 bd dc 05 15 3d 80 4b d2 bb
       -0.05534166 -0.055218533 0.03638254 -0.0064176917
000110 04 ed 89 3d 02 86 f6 bd 24 34 20 3d 78 66 df bc
       0.0673466 -0.12037279 0.039112225 -0.02727054
000120 48 09 e5 bc b0 f0 82 3c ac 4a b1 3d a0 a7 8c 3d
       -0.027958527 0.01598391 0.08656821 0.068679094
000130 f0 64 b4 bd aa 48 90 bd 40 51 2f 3b 04 a4 db 3d
       -0.08808315 -0.070451096 0.002675131 0.10724643
000140 ec 60 be 3d 90 2e 8c bc 78 3c b2 bd 46 dc 9e bd
       0.0929583 -0.017112046 -0.0870294 -0.077568576
000150 5c 10 01 bd 30 8f 24 bd 08 14 ba bc aa ff fd 3d
       -0.031509742 -0.040175617 -0.02271463 0.1240228
000160 00 68 eb 3a e0 ab 73 3d d8 66 32 bd 38 77 43 3d
       0.0017960072 0.059490085 -0.04355511 0.047721118
000170 40 d8 76 3c ce 8f e5 bd 48 3d 60 bd 28 1a e0 3d
       0.015066206 -0.11209069 -0.054745942 0.10942489
000180 40 bc df 3c a0 9e f6 3b ac 12 19 bd 74 17 4f bd
       0.027311444 0.007526234 -0.037371323 -0.050559476
000190 7a e1 93 bd 12 39 d5 3d 40 a1 16 bb 10 40 54 bd
       -0.072207406 0.10411276 -0.0022984296 -0.051818907
0001a0 98 f6 cd 3d a0 6f 68 bc e0 2f 98 bc c6 68 d4 3d
       0.100568 -0.01418677 -0.018577516 0.103715464
0001b0 34 82 05 bd 40 d5 f2 bc a0 8a 5d 3c 5a b5 d8 3d
       -0.032594875 -0.029642701 0.01352182 0.10581465
0001c0 0c 40 18 3d e4 7d ba 3d 30 f0 22 3d 9e 32 a2 bd
       0.037170455 0.09106043 0.039779842 -0.07919811
0001d0 62 2b 8d 3d a8 15 8f bd c0 a2 68 bc f8 f9 85 bc
       0.0689304 -0.069865525 -0.014198959 -0.016354546
0001e0 3c 9c a1 bd 54 37 e0 bd 78 d1 a4 3d b8 f7 84 3d
       -0.078911275 -0.10948053 0.080477655 0.06492561
0001f0 30 4e 57 bc a0 4c 1e bd 9c d1 06 bd bc fc 78 bd
       -0.0131412 -0.038647294 -0.032914743 -0.0607879

fc4.bias f4 [2]
000000 5c a3 01 3f b0 33 49 3d
       0.5063989 0.04912156
