src/python/services/models/comparison_2500ep_dqn/pointwise_dqn_2500ep.pt (torch, 131804 bytes, 7 tensors)

fc1.weight f4 [128, 56]
0	0xbe217d03	-0.15770344
1	0x3e6ec11d	0.23315854
2	0x3cb1fcfa	0.021727074
3	0xbdc4e21b	-0.09613439
4	0xbdd6fdf5	-0.10497657
5	0x3d4edb86	0.050502323
6	0xbe901396	-0.28139943
7	0x3e2586e8	0.16164744
8	0xbd38c1ae	-0.045106582
9	0x3e1cd5ec	0.1531598
10	0xbe88c334	-0.26711428
11	0xbde8099c	-0.11329958
12	0xbe8c7a1d	-0.27436915
13	0xbe6e2642	-0.23256782
14	0xbe8d7c13	-0.27633724
15	0xbe94f59c	-0.29093635
16	0xbe422ee1	-0.18963195
17	0xbea27ed3	-0.31737384
18	0xbd9b0b31	-0.07570494
19	0xbea137cc	-0.31487882
20	0xbe28f822	-0.16500905
21	0xbd636f8b	-0.055526298
22	0xbdf2dccc	-0.1185852
23	0xbe8c534a	-0.27407295
24	0xbe882a41	-0.26594737
25	0xbe4e9129	-0.20172562
26	0xbda04da1	-0.078273065
27	0xbe92d29d	-0.2867631
28	0xbe910c91	-0.283299
29	0xbe4b4819	-0.19851722
30	0xbe6b7aa9	-0.2299601
31	0xbe63e6b5	-0.22255976
32	0xbe999b4e	-0.300013
33	0x3db45a71	0.08806313
34	0xbe11a5bb	-0.14223377
35	0xbdae8ca3	-0.08522918
36	0xbe0fc581	-0.14040186
37	0xbefa47b7	-0.4888284
38	0xbe424985	-0.18973358
39	0xbd0f9dd9	-0.035062645
40	0xbeaee058	-0.34155536
41	0xbd8fc644	-0.07020238
42	0xbe0f3f6b	-0.13989036
43	0xbdd3b32a	-0.10336907
44	0xbd1d7cf1	-0.03844923
45	0xbe2b2216	-0.16712222
46	0xbdec81cb	-0.115481935
47	0xbe1373ce	-0.14399645
48	0xbd80b396	-0.06284253
49	0xbe28a312	-0.16468456
50	0xbe33419d	-0.17505498
51	0xbe2750ff	-0.16339491
52	0xbd29c4a1	-0.041447286
53	0xbe76e6fd	-0.24111553
54	0xbe8d5093	-0.27600536
55	0xbe81490d	-0.25251046
56	0xbca9022a	-0.020630915
57	0x3e8294d6	0.25504178
58	0xbcf3dd90	-0.029768735
59	0x3e54e9d9	0.20792331
60	0x3d447e64	0.047972098
61	0x3e8875e9	0.26652458
62	0x3c1df9d1	0.00964208
63	0x3ea1c404	0.3159486
64	0x3d9d6d90	0.07686913
65	0x3e006f09	0.12542357
66	0xbc852c20	-0.016256392
67	0x3e2e0c0c	0.16996783
68	0x3df19c5c	0.11797401
69	0xbd94dd69	-0.07268793
70	0x3e104b83	0.14091305
71	0x3db52498	0.0884487
72	0xb98ffbea	-0.00027462776
73	0xbd367acf	-0.044550713
74	0x3c278684	0.010224942
75	0x3db66d80	0.08907604
76	0x3e30511d	0.17218442
77	0xbd47c9de	-0.0487765
78	0x3d719ab0	0.058985412
79	0x3e23d9a1	0.16000988
80	0x3e2268fa	0.15860358
81	0x3d150b5e	0.036387794
82	0x3d7ddef7	0.061980214
83	0x3d457210	0.04820448
84	0x3d138de3	0.036023986
85	0x3df7e89d	0.12104914
86	0xbd48f35c	-0.04906021
87	0x3db1bcf0	0.08678615
88	0xbcf3404f	-0.02969375
89	0x3dc98aa0	0.09840894
90	0x3e3756a1	0.1790414
91	0x3d85802b	0.06518587
92	0x3cc550a4	0.024086304
93	0xbd7e5b92	-0.062099047
94	0x3e325c3b	0.17417996
95	0x3d62e89f	0.055397626
96	0xbcdbdc0c	-0.026838325
97	0x3dd5ab2c	0.10433039
98	0xbdaad252	-0.08340897
99	0x3d85cc54	0.06533113
100	0x3e218404	0.15773016
101	0x3da267c1	0.07929946
102	0x3d3fe71b	0.04685126
103	0xbe42c2ea	-0.19019666
104	0x3e0e1f84	0.1387921
105	0x3dd69089	0.10476787
106	0x3d244778	0.04010722
107	0x3d24006c	0.040039465
108	0x3cd6bf5b	0.026214292
109	0x3da04c00	0.07826996
110	0x3de5530b	0.1119748
111	0x3d68e48c	0.056858584
112	0x3be2e83f	0.0069246585
113	0x3e3bddcc	0.18346328
114	0xbc57854c	-0.013154339
115	0x3e551fdf	0.20812939
116	0x3e63548c	0.22200221
117	0x3dfe82c3	0.124272846
118	0x3e2ce7fa	0.16885367
119	0x3e19a66c	0.15004891
120	0x3c0ed4b0	0.008717701
121	0x3d1de954	0.038552597
122	0x3d8d3244	0.06894353
123	0xbd8bc722	-0.06825091
124	0x3de35c83	0.111016296
125	0xbd10c242	-0.03534151
126	0x3d23357e	0.039845936
127	0x3d7d3edc	0.061827525
128	0xbdbf41a1	-0.093386896
129	0xbd91d392	-0.07120432
130	0xbd7d8641	-0.061895613
131	0x3d723e74	0.05914159
132	0xbd650628	-0.055914074
133	0xbcbe19b7	-0.023205621
134	0xbd7f66fa	-0.062354065
135	0xbdbd8fab	-0.09255918
136	0xbd871bb1	-0.065970786
137	0x3db64e23	0.08901622
138	0x3d5f626c	0.05453722
139	0xbd970a51	-0.073750146
140	0x3cae7ab5	0.021298746
141	0x3c178aa8	0.009249367
142	0xbd825adc	-0.06364986
143	0x3d239ca3	0.039944302
144	0xbbefb264	-0.007314967
145	0x3e4a9606	0.19783792
146	0x3dda97e4	0.10673502
147	0x3db6f30d	0.08933077
148	0x3d20977f	0.039206978
149	0x3d803894	0.062607914
150	0x3de27ade	0.11058591
151	0x3d978a24	0.07399395
152	0xbdef926c	-0.1169785
153	0xbedc880b	-0.43072543
154	0xbcdf643d	-0.027269477
155	0xbd99cb80	-0.07509518
156	0x3d874bd7	0.06606262
157	0xbdc40ec6	-0.0957313
158	0x3f473f1a	0.7783066
159	0xbccafbb9	-0.024778234
160	0x3d85cf0c	0.06533632
161	0xbcf97f1f	-0.030456124
162	0x3d9e42dd	0.07727597
163	0x3e02e423	0.1278234
164	0x3e1b6178	0.151739
165	0x3df48f14	0.119413525
166	0x3ddc908c	0.10769758
167	0x3d7051b2	0.05867166
168	0x3e0d4ea9	0.13799538
169	0x3e39cd02	0.1814461
170	0x3defdce0	0.117120504
171	0x3d887056	0.066620514
172	0x3e3c7e3f	0.18407534
173	0x3e653f8d	0.22387524
174	0x3d895089	0.06704814
175	0x3e00aa33	0.12564926
176	0x3e98116a	0.29700786
177	0x3d443372	0.047900625
178	0x3d816033	0.06317177
179	0x3e813669	0.25236824
180	0x3dc124e3	0.09430864
181	0x3daf906d	0.08572469
182	0x3e6d7bb1	0.23191716
183	0x3e7523a7	0.23939382
184	0x3e483183	0.19550137
185	0x3e749af3	0.23887233
186	0x3e6ab9f2	0.22922495
187	0x3e48cda7	0.196097
188	0x3e33848d	0.17531033
189	0x3e8fbc0b	0.28073153
190	0x3e620406	0.22071847
191	0x3e89232b	0.26784644
192	0x3dbe4750	0.092909455
193	0x3e04d546	0.12971982
194	0x3dd5bcbf	0.10436391
195	0x3e84e6bf	0.25957295
196	0x3e9a8d74	0.30186045
197	0x3e0328e5	0.12808569
198	0x3ea51b3a	0.32247335
199	0x3d8e88a8	0.06959659
200	0x3e8a8192	0.2705198
201	0x3e745924	0.2386213
202	0x3e9d99ff	0.30781552
203	0x3ea8e44a	0.3298667
204	0x3da6c30a	0.081426695
205	0x3e62eaef	0.22159933
206	0x3dd25d4a	0.102717
207	0x3d5890d2	0.052872486
208	0xbbf62f51	-0.007512965
209	0x3ec6d657	0.38835403
210	0x3e655868	0.22397006
211	0x3e61c90f	0.22049354
212	0x3e8d8ab6	0.2764489
213	0x3e8dbda6	0.27683753
214	0x3ee67656	0.45012158
215	0x3f0c21c0	0.54739
216	0x3df3d840	0.11906481
217	0x3e5e1795	0.21688683
218	0x3e705e74	0.23473531
219	0x3e5281ed	0.20557375
220	0x3e5e47e5	0.21707113
221	0xbe9983e9	-0.29983452
222	0x3e2338a2	0.15939572
223	0x3ea673a2	0.32510096
224	0xbde43ae7	-0.11144047
225	0x3dfc8989	0.1233092
226	0x3cb37696	0.021907132
227	0x3da7544c	0.08170375
228	0x3e3254a4	0.174151
229	0x3dbd312a	0.09237893
230	0x3ce7455a	0.028231312
231	0x3db1cbf9	0.08681483
232	0x3df1fbec	0.118156284
233	0x3d0fcc0c	0.035106704
234	0xbdd2123a	-0.10257383
235	0x3deb7df7	0.11498635
236	0xbdb3d3b5	-0.08780614
237	0x3d567a9c	0.052363023
238	0xbb934694	-0.0044944976
239	0x3d684cfa	0.056714036
240	0x3e24f34b	0.16108434
241	0x3e120339	0.14259042
242	0xbd159aa3	-0.036524426
243	0x3dc58aab	0.096455894
244	0x3d3e1947	0.046410825
245	0xbb10ccb1	-0.0022094662
246	0x3e10fe77	0.1415957
247	0x3e0efdee	0.13964054
248	0xbbc3c7df	-0.005974754
249	0x3ce4d498	0.027933404
250	0xbd29d0e4	-0.04145898
251	0x3e13930b	0.14411561
252	0xbdb7177a	-0.08940025
253	0xbccbabf2	-0.024862263
254	0x3cd38959	0.025822328
255	0x3dc8f471	0.098122485

fc1.bias f4 [128]
0	0x3e2bf9e8	0.1679455
1	0x3da6e9cb	0.08150061
2	0xbd43589d	-0.04769193
3	0xbe3713ee	-0.17878696
4	0x3c6e3e08	0.014541157
5	0xbe9d0676	-0.30668992
6	0x3d346915	0.044045527
7	0x3db4ef03	0.0883465
8	0x3d54efd3	0.051986527
9	0x3d042edc	0.03227125
10	0xbd160c87	-0.03663304
11	0xbee32add	-0.4436864
12	0xbdb4a81d	-0.088211276
13	0x3c233973	0.009962427
14	0x3d0ee735	0.034888465
15	0xbf43d726	-0.76500165
16	0xbe56bba4	-0.20970017
17	0xbcd54e53	-0.026038324
18	0xbdb59307	-0.08865934
19	0xbf531650	-0.8245592
20	0xbebfc229	-0.3745282
21	0x3d570f86	0.05250504
22	0x3ca389b5	0.019963125
23	0x3d69bc0e	0.05706411
24	0xbec128fc	-0.3772658
25	0x3d9bffab	0.07617124
26	0x3a93c86f	0.0011274944
27	0xbc98a814	-0.018634833
28	0xbeab5ea8	-0.33470654
29	0x3de8899a	0.113543704
30	0x3ca27788	0.019832388
31	0x3c820eb7	0.015876157
32	0xbd9405d7	-0.07227676
33	0x3cb787c3	0.022403603
34	0xbeaa37bd	-0.3324565
35	0x3e621c69	0.2208115
36	0xbf3d4ce0	-0.73945427
37	0xbe29c5f1	-0.16579415
38	0xbe3f765f	-0.18697499
39	0xbd2e1f84	-0.042510524
40	0xbddc7025	-0.10763577
41	0x3da52c1f	0.08065056
42	0x3d8231a3	0.06357124
43	0xbe00c21a	-0.12574044
44	0x3d7a2fe8	0.061080843
45	0x3dccd374	0.10001269
46	0xbcc45a55	-0.023968855
47	0x3db32f77	0.087492876
48	0xbd209161	-0.039201144
49	0x3d51b2f3	0.05119605
50	0x3d5d8639	0.054083083
51	0x3c41d063	0.011829468
52	0x3e2131c4	0.1574164
53	0xbdd51b0b	-0.10405549
54	0x3d90d00d	0.070709325
55	0x3d6ed83f	0.058311697
56	0xbcaab6dc	-0.020839147
57	0xbc10d448	-0.008839674
58	0xbd6bf661	-0.057608012
59	0xbe154b97	-0.14579616
60	0xbd4fc4e5	-0.050724883
61	0x3e35701f	0.17718552
62	0xbe46c4aa	-0.19410959
63	0x3d8a6f0b	0.06759461
64	0x3d4b87e9	0.04969016
65	0x3e64c05e	0.22339007
66	0xbde6d1d2	-0.11270489
67	0x3d6de19d	0.05807649
68	0x3ce48ad4	0.02789823
69	0xbdbbf75b	-0.09178039
70	0xbd02d5c3	-0.03194214
71	0x3d96d3f6	0.07364647
72	0x3dd82236	0.105534
73	0x3d914c85	0.07094673
74	0xbe9ad409	-0.30239895
75	0x3d0627d5	0.03275283
76	0x3dbce6dc	0.092237204
77	0xbee86fd7	-0.45397827
78	0xbdbba416	-0.09162156
79	0xbef3e93d	-0.47638884
80	0xbd3a39fd	-0.04546546
81	0x3c3213f5	0.010869016
82	0xbda48ba9	-0.080344506
83	0xbe75cd6c	-0.24004143
84	0x3d4f5d10	0.05062586
85	0xbd7ae2cf	-0.061251458
86	0xbe00db58	-0.12583673
87	0x3dbec459	0.09314794
88	0xbe83c756	-0.2573802
89	0xbd87d5f0	-0.06632602
90	0x3de53efd	0.11193655
91	0xbf467d42	-0.7753488
92	0xbdd01fbb	-0.10162302
93	0xbea11e68	-0.3146851
94	0xbd909480	-0.07059574
95	0xbcd14c37	-0.025549037
96	0xbc0180b1	-0.007904218
97	0xbf7c0b24	-0.984545
98	0x3e29a067	0.16565095
99	0x3dcff474	0.101540476
100	0xbd850637	-0.06495326
101	0xbe02a78d	-0.12759228
102	0x3d383f89	0.044982467
103	0xbd75537c	-0.05989407
104	0xbd8e8fd9	-0.069610305
105	0x3d841e90	0.06451142
106	0x3cc2ae14	0.023764648
107	0xbe03a79f	-0.12856911
108	0xbbba7ed7	-0.00569139
109	0x3cc2690e	0.023731735
110	0xbf1e0821	-0.61731154
111	0x3d59bd96	0.05315932
112	0x3d051369	0.032489214
113	0xbdbc2a03	-0.091877006
114	0xbe8b475b	-0.27202877
115	0xbd8ddf0b	-0.06927308
116	0xbe527968	-0.20554125
117	0xbdea5864	-0.114426404
118	0xbe182d00	-0.14860916
119	0x3da8672a	0.08222802
120	0x3d2b6428	0.041843563
121	0x3dab64da	0.08368845
122	0x3d794f1e	0.060866468
123	0x3cb09609	0.021555917
124	0x3e2f641f	0.17128037
125	0x3d8f52e0	0.06998229
126	0x3dc0e1f0	0.09418094
127	0x3db169f3	0.08662786

fc2.weight f4 [128, 128]
0	0x3d9b9df4	0.075984865
1	0xbddd5388	-0.10806948
2	0x3e1a81d5	0.1508859
3	0x3f7d6fb5	0.98998576
4	0xbcbdf1b8	-0.02318655
5	0xbe2abbaf	-0.16673158
6	0xbcf6cb7e	-0.03012633
7	0xbcfc008a	-0.030761976
8	0xbb62214a	-0.0034504705
9	0xbdb8e135	-0.0902733
10	0x3d588c01	0.052867893
11	0xbdf0ef36	-0.11764376
12	0xbcdb98d6	-0.026806276
13	0x3d96facf	0.07372057
14	0x3c40aa41	0.011759342
15	0xbdbd16e4	-0.09232882
16	0xbdc621cf	-0.09674417
17	0x3c271b8e	0.010199441
18	0xbb9a38dd	-0.0047064857
19	0xbdd6b07e	-0.10482882
20	0xba3e0e08	-0.00072500156
21	0x3d851062	0.064972654
22	0x3d8e03cb	0.06934317
23	0x3cdef828	0.02721794
24	0xbe97b91c	-0.29633415
25	0xbdb173cf	-0.08664667
26	0xbcc10762	-0.02356309
27	0x3e1e01c4	0.15430361
28	0xbfd51413	-1.6646751
29	0xbd0fbce9	-0.03509227
30	0x3f0ed5ef	0.55795187
31	0xbd4a674d	-0.04941492
32	0xbf99ab78	-1.2005453
33	0x402869b8	2.6314526
34	0xbfac6eb2	-1.3471282
35	0xbf8d9dea	-1.1063817
36	0xbd47bc14	-0.04876335
37	0x3d779fc7	0.06045511
38	0xbcedb78c	-0.029018186
39	0xbcf3a88a	-0.029743452
40	0xbdacc460	-0.08435893
41	0xbce76922	-0.028248373
42	0x3ca9cafd	0.020726675
43	0x3d7ce496	0.061741434
44	0x3f757207	0.95877117
45	0x3d767e74	0.06017919
46	0xbed87b93	-0.4228178
47	0x3fbd6c8e	1.4798753
48	0x3d439c3d	0.047756422
49	0x3e43012d	0.19043417
50	0xbe6640ac	-0.22485608
51	0xbf76b4b5	-0.9636949
52	0x3d5ea421	0.054355744
53	0xbd391b6c	-0.045192167
54	0x3fbc13fa	1.4693596
55	0xbdbc55b0	-0.09196031
56	0x3ba91a7e	0.005160629
57	0xbca6d173	-0.020363545
58	0xbd952017	-0.07281511
59	0x3efccb34	0.49373782
60	0xbdb46067	-0.0880745
61	0x408ef09c	4.4668713
62	0x3da1f8bc	0.079087704
63	0x3dae96f3	0.08524885
64	0xbcb6dc4f	-0.022321848
65	0xbed0ef3a	-0.40807515
66	0xbd0df738	-0.034659594
67	0xbd20423a	-0.03912566
68	0xbbcc118c	-0.0062276777
69	0xbdff3474	-0.124611765
70	0xbc6856ae	-0.014180822
71	0xbda253b2	-0.0792612
72	0xbf7ea2b4	-0.99467015
73	0xbb7a0a6f	-0.0038153192
74	0xbea76b18	-0.32698894
75	0xbdb7f292	-0.089818135
76	0x3d2d1bf7	0.042262997
77	0xbf2fd9da	-0.6869179
78	0xbf5a5a84	-0.85294366
79	0x3f8ffb91	1.1248647
80	0xbc0a7d25	-0.008452688
81	0x3d5f2c62	0.054485686
82	0xbd8177a2	-0.06321646
83	0x3d0cdfcb	0.034393113
84	0xbcbd1f64	-0.023086257
85	0xbddc75c9	-0.10764653
86	0x3dda5896	0.10661428
87	0xbcf0d5a8	-0.029398754
88	0xbffb4808	-1.9631357
89	0xbf235a69	-0.6380983
90	0xbcd4aba2	-0.025960747
91	0xbdbb24ff	-0.09137916
92	0x3d613e9a	0.054991342
93	0xbd8b45a8	-0.06800395
94	0xbd0f0386	-0.03491547
95	0xbd1d3c9e	-0.038387887
96	0x3e1f0a91	0.15531375
97	0xbeab57c5	-0.334654
98	0x3e7e1fa4	0.24816757
99	0x3cf4c0d9	0.029877113
100	0x3d200d29	0.03907505
101	0xbd9ab7c7	-0.07554584
102	0x3da7f392	0.08200754
103	0xbe33af53	-0.1754735
104	0xbca5c525	-0.020235607
105	0x3d0fb0e2	0.035080798
106	0xbd50be4d	-0.050962735
107	0xbd13f040	-0.036117792
108	0xbfa6cdbd	-1.3031536
109	0x3cf396bb	0.02973496
110	0xbe34a2d5	-0.1764024
111	0x3e29aafb	0.1656913
112	0xbc83457f	-0.01602435
113	0x3c53909a	0.012912894
114	0xbd079c3b	-0.033107977
115	0xbccb6754	-0.024829544
116	0xbd83a5ab	-0.06428083
117	0xbd4b2630	-0.049596965
118	0x3d5dfcff	0.054196354
119	0x3f53d59f	0.82747835
120	0xbd46c3ce	-0.048526578
121	0x3d812e3b	0.06307646
122	0xbd22460b	-0.03961758
123	0x3d8283b8	0.063727796
124	0x3e947600	0.28996277
125	0xbcc3518d	-0.023842597
126	0xbc6372d5	-0.013882359
127	0x3a5f43ab	0.0008516858
128	0xbd0ee9f4	-0.034891084
129	0xbca24c87	-0.019811882
130	0x3d4659fb	0.048425656
131	0xbc9984f6	-0.018740159
132	0xbd571eff	-0.052519795
133	0xbd1310f5	-0.035904843
134	0x3d7bf34e	0.06151133
135	0xbd5d31dc	-0.054002628
136	0x3c486a9e	0.012232451
137	0x3dbcc53f	0.09217309
138	0x3d784319	0.060610864
139	0x3ba7d919	0.0051223156
140	0x3d7bed82	0.061505802
141	0x3b4ae228	0.0030957554
142	0xbd4ec78c	-0.05048327
143	0x3d2cf468	0.04222527
144	0xbc80ffcd	-0.015746975
145	0xbb63a72f	-0.00347371
146	0x3d8afa2f	0.06786
147	0xbd8dd35c	-0.06925079
148	0xbce1b274	-0.027550913
149	0xbdd584cc	-0.104257196
150	0xbd76ca5f	-0.06025159
151	0x3d3b5c3c	0.04574226
152	0xbd8853da	-0.066566184
153	0x3cfb173f	0.030650733
154	0xbd7bb0c9	-0.061447892
155	0xbdf36d13	-0.11886039
156	0xbdbdc5e0	-0.09266257
157	0x3d383b34	0.044978335
158	0x3ce095b5	0.027415136
159	0xbc4d4997	-0.012529752
160	0xbd71f8ef	-0.059075292
161	0xbda4191e	-0.08012603
162	0xbd10eb9a	-0.035380937
163	0xbe11d128	-0.14239943
164	0x3cd9adfb	0.026572218
165	0xbcbbfb68	-0.022947028
166	0xbdad4e1d	-0.084621646
167	0xbd6195f6	-0.055074655
168	0xbd8f4556	-0.06995647
169	0xbdcb720a	-0.099338606
170	0x3cc64e54	0.024207272
171	0xba98f0e0	-0.0011668466
172	0xbe099261	-0.13434745
173	0xbd2f5bea	-0.042812265
174	0xbd2b418d	-0.04181056
175	0xbb9de674	-0.004818732
176	0x3d0e8549	0.03479508
177	0xbd94b082	-0.07260229
178	0xbd8c21fe	-0.06842421
179	0xbd3d99ed	-0.046289373
180	0xbd5b3c04	-0.053524032
181	0xbd8f9de5	-0.07012538
182	0xbd954a67	-0.07289582
183	0x3c70bda2	0.0146936495
184	0xbd8adab4	-0.067799956
185	0x3c2c56bc	0.010518726
186	0xbd2acf0c	-0.04170136
187	0xbd415152	-0.047196694
188	0x3c9b0423	0.018922871
189	0xbd0e8e0e	-0.034803443
190	0x3bdff996	0.006835173
191	0x3d256960	0.040383697
192	0xbcb11444	-0.021616109
193	0x3c5f0c70	0.013613805
194	0xbd806c8b	-0.06270703
195	0xbdade9d6	-0.08491866
196	0xbd752d2c	-0.059857532
197	0x3c88de8b	0.01670768
198	0xbc8ea99f	-0.017414866
199	0x3bc4cdc2	0.0060059736
200	0xbb0793e8	-0.0020687524
201	0xbd297f11	-0.041380946
202	0xbdb7f267	-0.089817815
203	0xbd954297	-0.07288092
204	0xbda270b2	-0.07931651
205	0xbc1802c4	-0.009278003
206	0xbdbf0430	-0.093269706
207	0xbd864164	-0.06555441
208	0x3d6d7dfa	0.05798147
209	0x3c82dffa	0.015975941
210	0xbd1d9df9	-0.038480733
211	0x3cd640cc	0.026153944
212	0xbdd60714	-0.10450569
213	0xbcffeab9	-0.031239854
214	0x3c1397a5	0.009008323
215	0x3b932c2a	0.0044913488
216	0xbde72996	-0.11287229
217	0xbd2e310f	-0.042527255
218	0xbd762ab6	-0.060099326
219	0xbdb7b873	-0.08970728
220	0x3d8fbaa9	0.070180245
221	0xbda1c437	-0.07898753
222	0x3cd00743	0.025394088
223	0xbd26be40	-0.04070878
224	0xbd9d97d9	-0.07694978
225	0xbd9ed782	-0.077559486
226	0xbd25cda3	-0.040479314
227	0x3b14d5e6	0.0022710501
228	0x3d1751fb	0.036943417
229	0xbd0d8a57	-0.03455576
230	0x39cbd0aa	0.00038874644
231	0x3d0bc574	0.034123853
232	0xbcd59be3	-0.02607531
233	0x3c218eb8	0.009860687
234	0xbe05acfe	-0.13054273
235	0x3d38fc1f	0.045162316
236	0xbbb07296	-0.0053847535
237	0x3cbc83a4	0.02301199
238	0x3bcb68be	0.0062075546
239	0xbdeda23e	-0.11603211
240	0x3d31faca	0.04345206
241	0x3ce1a7b8	0.027545795
242	0x3cc4feb9	0.024047242
243	0x3da5c394	0.08093944
244	0x3b191e13	0.0023363873
245	0x3d012fe4	0.031539813
246	0x3cc15542	0.023600224
247	0xbd8ca08f	-0.068665616
248	0xbc2b0840	-0.010438979
249	0x3b3cda69	0.0028816706
250	0x3d3b8327	0.045779373
251	0x3d9e6744	0.0773454
252	0xbc812c6e	-0.015768256
253	0xbc9c87b8	-0.019107684
254	0xbb7cb411	-0.0038559476
255	0xbd5efa6d	-0.054438043

fc2.bias f4 [128]
0	0x3ea3f888	0.32025552
1	0xbb90441c	-0.0044026505
2	0xbd30dfa1	-0.04318202
3	0xbe1291e1	-0.14313461
4	0xbd279028	-0.040908962
5	0x3dafdbe7	0.08586865
6	0x3e7ecc1c	0.24882549
7	0xbe1d08fc	-0.15335459
8	0x3ef2c380	0.4741478
9	0x3ce07e56	0.027403992
10	0x3f15bd95	0.58492404
11	0x3db5a783	0.08869841
12	0x3ea04514	0.31302702
13	0xbcfa21b6	-0.030533653
14	0xbd11aa53	-0.035562824
15	0xbdabdcf0	-0.0839175
16	0x3e6441ad	0.22290678
17	0x3e9bb452	0.3041101
18	0x3e2932ac	0.16523236
19	0xbe0b5a94	-0.13608772
20	0x3e9fa818	0.31182933
21	0xbc6a258c	-0.014291178
22	0x3e7d5d08	0.2474252
23	0x3e010922	0.1260114
24	0x3d649b16	0.055811964
25	0x3d8b5b0c	0.06804475
26	0xbd5a2638	-0.053259104
27	0x3cbe88dc	0.023258619
28	0xbd441b23	-0.047877442
29	0xbdac6b86	-0.08418946
30	0xbde15093	-0.110016964
31	0xbd82d740	-0.06388712
32	0x3b54c7e9	0.0032467789
33	0xbdcc695a	-0.09981032
34	0xbcf45e94	-0.029830255
35	0xbd8cc02c	-0.068725914
36	0xbe538f76	-0.20660195
37	0x3e90fd35	0.28318182
38	0xbe1c29c6	-0.1525031
39	0xbde4863a	-0.11158414
40	0x3d26add3	0.040693115
41	0x3bf0a372	0.007343703
42	0x3b9d1dc9	0.0047948104
43	0xbd425bee	-0.047450952
44	0xbc4000ea	-0.011718968
45	0x3d1c59ea	0.038171686
46	0xbdb99541	-0.09061671
47	0xbcc30e01	-0.023810389
48	0xbce47e67	-0.027892305
49	0xbdb27fb0	-0.08715761
50	0xbdf909ca	-0.1216007
51	0xbd8d930b	-0.06912812
52	0x3ef2e160	0.47437572
53	0x3f26e6a8	0.65195704
54	0xbdaaf66a	-0.08347781
55	0x3ed38b34	0.4131714
56	0xbd11f46e	-0.035633497
57	0xbdf2cdbe	-0.118556485
58	0x3f0c0c5b	0.5470635
59	0x3ec2d3fb	0.38052353
60	0xbe0cf4c7	-0.1376525
61	0x3ecc2cee	0.3987803
62	0xbdd9e54e	-0.106394395
63	0xbdcd4d93	-0.10024562
64	0xbbfeb65c	-0.007773204
65	0x3e2f3975	0.17111762
66	0xbcfbe9a7	-0.030751063
67	0xbe0aec06	-0.13566598
68	0xbe2b3c60	-0.1672225
69	0x3d90f141	0.070772655
70	0xbd8d9f6a	-0.069151714
71	0xbc5c9dd6	-0.013465365
72	0xbdee4161	-0.11633564
73	0x3c1f1ebc	0.0097119175
74	0xbdb58399	-0.08862991
75	0xbe025c0f	-0.1273043
76	0xbd67046f	-0.056400713
77	0xbd921158	-0.07132214
78	0x3ddd2022	0.107971445
79	0x3f1d0e87	0.6135029
80	0xbc11e72a	-0.008905211
81	0x3e87843c	0.26468074
82	0xbca25b94	-0.019819058
83	0x3c5a181e	0.013311414
84	0x3c99c4a3	0.018770522
85	0x3e2c395f	0.1681876
86	0x3ea3cb95	0.31991258
87	0x397214f5	0.00023086726
88	0xbcc7052c	-0.024294458
89	0xbc4a21db	-0.012337173
90	0x3c24a72f	0.010049625
91	0xbde8dbea	-0.1137007
92	0x3eb47f80	0.35253525
93	0xbdf9c45e	-0.12195657
94	0xbd265bc4	-0.04061486
95	0xbdd4f882	-0.103989616
96	0x3d88df94	0.06683269
97	0x3ed9e03b	0.42553887
98	0x3c541144	0.01294357
99	0x3ee7769f	0.45207688
100	0xbdbdc0c7	-0.09265285
101	0xbe336ca7	-0.17521916
102	0x3e5ffa25	0.21872766
103	0x3f10c897	0.56556076
104	0xbd8c52a1	-0.06851698
105	0xbd8e3d9c	-0.06945345
106	0xbe4db714	-0.2008937
107	0xbe00e64a	-0.12587848
108	0x3e00fd7a	0.12596694
109	0xbda7314d	-0.081637
110	0xbdfc7c08	-0.123283446
111	0xbd3a015d	-0.045411456
112	0xbe0ac427	-0.13551389
113	0xbe17fb63	-0.1484199
114	0x3d238545	0.039922018
115	0xbc9ec87b	-0.019382706
116	0xbd765ac2	-0.060145147
117	0x3ec2965b	0.38005337
118	0x3c6af794	0.014341254
119	0xbd14d7c8	-0.036338598
120	0xbd2e5e96	-0.042570673
121	0xbdee9ac0	-0.1165061
122	0x3a9f5589	0.0012156229
123	0x3e8b59ce	0.27216953
124	0x3c4219d7	0.011846981
125	0xbdc4a435	-0.096016325
126	0xbc177620	-0.009244472
127	0x3bdfb851	0.006827392

fc3.weight f4 [64, 128]
0	0xbd6ebd18	-0.058285803
1	0x3cb1f858	0.021724865
2	0xbd91798f	-0.071032636
3	0xbd909ecd	-0.07061539
4	0x3d631aee	0.055445604
5	0xbd602f4e	-0.054732613
6	0x3bd7235a	0.0065654935
7	0xbdcb5193	-0.099276684
8	0x3c818875	0.015812138
9	0xbd4411d2	-0.047868557
10	0xbe1596ea	-0.1460835
11	0xbcc41236	-0.023934465
12	0xbd29cf80	-0.041457653
13	0xbd56025b	-0.05224834
14	0xbd7360fa	-0.059418656
15	0x3d05dabf	0.032679316
16	0xbd888b88	-0.066672385
17	0x3d1c61bc	0.038179144
18	0xbcdf9296	-0.027291577
19	0xbc92a2ae	-0.017899837
20	0xbc5320f3	-0.012886274
21	0x3d8d00e9	0.06884939
22	0xbdb4d37c	-0.088294
23	0x3c886f4c	0.016654633
24	0x3c86f557	0.016474409
25	0xbcc80960	-0.024418533
26	0xbd29678e	-0.041358523
27	0x3c8995a8	0.016794994
28	0x3d8af4d8	0.067849815
29	0x3d65fc14	0.056148604
30	0x3d8434c5	0.064553775
31	0xbd96a299	-0.07355232
32	0xbd2cdf08	-0.042204887
33	0xbd09d6cf	-0.033652123
34	0xbb82c998	-0.003991317
35	0x3d893153	0.06698861
36	0xbd42a172	-0.047517247
37	0xbc201b8a	-0.009772191
38	0x3d3308ea	0.043709673
39	0xbd995318	-0.07486552
40	0xbd703a0b	-0.058649104
41	0xbc0c5345	-0.008564775
42	0xbd832d97	-0.0640518
43	0xbda57e27	-0.08080702
44	0xbd94e536	-0.07270281
45	0x3d684593	0.056706976
46	0xbd19a835	-0.03751393
47	0xbc90baec	-0.017667256
48	0x3c2ca598	0.0105375275
49	0x3d7747f8	0.06037137
50	0xbd617deb	-0.055051725
51	0xbb64d934	-0.0034919502
52	0xbd3c7adb	-0.0460156
53	0x3d0d4444	0.03448893
54	0xbdae634d	-0.08515034
55	0x3ccad09b	0.024757674
56	0xbbe259d0	-0.006907679
57	0xbd3f3c76	-0.04668852
58	0xbd355beb	-0.044277113
59	0xbd927cbf	-0.071527
60	0x3dbed159	0.09317274
61	0xbd953fbd	-0.07287548
62	0x3d3aa890	0.04557091
63	0x3d372a10	0.04471785
64	0x3da9b4f0	0.08286464
65	0xbc445bf2	-0.011984812
66	0xbc1d2d8b	-0.009593378
67	0x3d72bbbc	0.05926107
68	0xbcb8ff88	-0.022582784
69	0xbe0cda8b	-0.13755243
70	0xbdd38642	-0.10328342
71	0xbd386185	-0.045014877
72	0x3cef713a	0.029228795
73	0xbd242f22	-0.04008401
74	0xbd9a3fc8	-0.075316966
75	0xbc5ba44a	-0.013405869
76	0x3d0af228	0.033922344
77	0xbcea67bc	-0.028613918
78	0x3d80570c	0.06266603
79	0xbdd79dd0	-0.10528147
80	0xbcfdbd71	-0.030974122
81	0xbd4d7338	-0.05015871
82	0xbd11bf86	-0.03558304
83	0xbdc767b6	-0.09736578
84	0xbc022d52	-0.0079453755
85	0xbd7bab98	-0.06144294
86	0xbdc61e41	-0.09673739
87	0x3c299d53	0.01035245
88	0xbb9a607c	-0.004711209
89	0xbdbeb69f	-0.09312176
90	0xbcf3e34c	-0.02977147
91	0xbd20a3be	-0.039218657
92	0xbdb7f8db	-0.08983012
93	0xbd94361a	-0.072368816
94	0x3c5fc5ba	0.0136579815
95	0xbde33f02	-0.11096002
96	0x3d26773b	0.04064105
97	0x3c1298b9	0.008947545
98	0xbd8727c3	-0.06599381
99	0xbd59e8c2	-0.05320049
100	0x3bd8c125	0.0066148215
101	0x3da6abff	0.081382744
102	0x3c502ee0	0.012706488
103	0x3d2700eb	0.04077236
104	0xbd48a119	-0.04898176
105	0xbd897f76	-0.06713764
106	0xbd16e12b	-0.03683583
107	0x3d09cdd6	0.033643566
108	0xbdb3e506	-0.08783917
109	0xbbfaa5bb	-0.007649151
110	0x3d520f23	0.051283967
111	0x3d50d310	0.050982535
112	0x3d352259	0.04422221
113	0xbc525658	-0.012837969
114	0xbd2274fb	-0.039662343
115	0x3cd40296	0.02588014
116	0xbda83b4b	-0.08214434
117	0x3bc7d5f0	0.0060985014
118	0x3d4445e9	0.047918234
119	0x3d822def	0.063564174
120	0x3d1282a5	0.035769124
121	0xbd1275bc	-0.03575681
122	0x3d1c1a86	0.038111232
123	0x3bcb25cc	0.006199574
124	0x3be4df53	0.00698463
125	0xbd888557	-0.066660576
126	0x3db31667	0.08744507
127	0x3d099684	0.03359081
128	0xbd5de983	-0.054177772
129	0xbd02e360	-0.031955123
130	0x3db2acd9	0.08724374
131	0x3d714e13	0.058912348
132	0x3d8392eb	0.06424507
133	0xbd2b63b2	-0.041843124
134	0x3bcb79b7	0.006209578
135	0xbc92460f	-0.017855672
136	0xbd611d47	-0.05495956
137	0xbc617379	-0.013760441
138	0xbda75b8d	-0.08171759
139	0xbd98546d	-0.07437978
140	0xbd527e28	-0.051389843
141	0x3ba717fb	0.0050992942
142	0xbcd12702	-0.025531296
143	0x3ca48c40	0.020086408
144	0x3d8835fc	0.06650922
145	0x3d6eebad	0.058330227
146	0x3d22cf36	0.039748393
147	0x3d18667f	0.037207123
148	0x3d86f710	0.06590092
149	0xbd1b3d0b	-0.037900012
150	0xbcda6453	-0.026659166
151	0x3ce7e348	0.028306618
152	0xbd4b9f99	-0.04971275
153	0xbda2b304	-0.07944301
154	0x3d66c1bc	0.056337103
155	0xbd3761fb	-0.044771176
156	0xbccc6055	-0.024948278
157	0xbd4eed20	-0.05051911
158	0x3d5c92dd	0.053850997
159	0xbda00d89	-0.078150816
160	0xbd3f69ad	-0.04673164
161	0xbda5ee6f	-0.08102118
162	0x3c46f0a8	0.012142338
163	0x3c522a29	0.012827435
164	0x3d367e47	0.04455402
165	0xbd32edfa	-0.043683983
166	0x3da196af	0.07890069
167	0x3d25a7f7	0.040443387
168	0xbda5f8b2	-0.081040755
169	0x3d581431	0.05275363
170	0x3d5a1f70	0.053252637
171	0xbdbf3372	-0.09335984
172	0xbce611d1	-0.028084667
173	0xbd66c3bd	-0.056339014
174	0xbd7b0e3d	-0.061292876
175	0xbd6bcd95	-0.057569105
176	0xbd860dd7	-0.065456085
177	0xbda1dcd3	-0.07903447
178	0xbd480aa5	-0.048838276
179	0x3d24cc12	0.04023368
180	0x3cfebf89	0.03109719
181	0x3c3e782d	0.011625332
182	0xbd9f9e32	-0.07793845
183	0xbcee77b1	-0.029109808
184	0x3d1ca1d1	0.038240258
185	0x3b1beeb2	0.0023793397
186	0xbd15d7ab	-0.03658263
187	0xbcbad1da	-0.022805143
188	0x3d9eb0a2	0.07748534
189	0xbdbbe446	-0.09174399
190	0xbdbc0081	-0.091797836
191	0xbdccc5a6	-0.09998636
192	0xbb78a986	-0.003794284
193	0xba24534c	-0.0006268516
194	0xbcd03dcb	-0.02542009
195	0x3d182386	0.037143253
196	0xbd298b96	-0.041392885
197	0xbd6e0685	-0.058111686
198	0xbd2c43e3	-0.04205693
199	0xbdc2680b	-0.09492501
200	0xbd82aa82	-0.06380178
201	0xbd0628d2	-0.032753773
202	0x3d988472	0.07447137
203	0xbd8b66c3	-0.068067096
204	0x3c289b64	0.010290954
205	0x3ceaffac	0.028686367
206	0xbd9b109f	-0.075715296
207	0xbc800d3b	-0.015631309
208	0x3d56fbce	0.052486233
209	0x3cf65bf3	0.030073142
210	0xbceabfdb	-0.028655937
211	0xbd638d49	-0.055554662
212	0x3d9990f2	0.07498349
213	0x3ccee8d5	0.025257507
214	0x3c675959	0.014120423
215	0x3d3b3737	0.045706954
216	0x3cdd4da9	0.02701457
217	0x3d8aecef	0.06783473
218	0x3ae1f655	0.001723955
219	0xbd0be33f	-0.034152266
220	0xbd9fe33a	-0.07807012
221	0x3b06e13b	0.0020581025
222	0x3bfb159a	0.007662487
223	0x3d1e49bc	0.038644537
224	0x3c6862d1	0.014183716
225	0x3d56b13c	0.052415118
226	0x3cdee37a	0.027208079
227	0xbd8cdf4c	-0.06878528
228	0xbca015c4	-0.019541629
229	0xbdac0779	-0.08399863
230	0x3d5af308	0.05345443
231	0xbcc434dc	-0.023950987
232	0xbd81e8de	-0.06343244
233	0x3cfa33b6	0.030542236
234	0xbb87ebc2	-0.0041479776
235	0x3d28a052	0.04116852
236	0x3bbf4c2f	0.005837939
237	0x3d416802	0.04721833
238	0xbc353d0b	-0.011061917
239	0xbd305099	-0.043045614
240	0xbd5c660d	-0.05380826
241	0xbdb1bdbd	-0.08678768
242	0x3d083c58	0.033260673
243	0xbd9ef0f4	-0.07760802
244	0xbd2b7da7	-0.04186788
245	0xbdc9a7b0	-0.09846437
246	0xbd55ef8b	-0.0522304
247	0xbda29075	-0.07937709
248	0xbd965369	-0.07340128
249	0xbd37eb03	-0.04490186
250	0xbc01a6c8	-0.007913299
251	0x3c43c81d	0.011949566
252	0xbd2c9486	-0.04213383
253	0xbccc5a97	-0.02494554
254	0xbc3e3779	-0.011609905
255	0xbd97bc80	-0.074090004

fc3.bias f4 [64]
0	0xbd8b544f	-0.0680319
1	0x3d6cdec8	0.05782965
2	0xbe18dd1f	-0.14928101
3	0xbd8c9311	-0.06863988
4	0x3f1bfcc8	0.6093259
5	0xbd9ab343	-0.07553723
6	0x3ef535ac	0.4789251
7	0x3ca5d95f	0.020245252
8	0xbe563e2a	-0.20922151
9	0xbde6889d	-0.11256526
10	0x3f1d202b	0.6137721
11	0x3f12ee51	0.5739489
12	0xbdbfead7	-0.09370964
13	0xbf672757	-0.902944
14	0x368d034b	4.202511e-06
15	0xbf96c2b2	-1.1778166
16	0x3f18c3eb	0.5967395
17	0xbe193f52	-0.14965561
18	0xbb2974bb	-0.002585693
19	0xbd1d59d7	-0.038415756
20	0xbd9d01a7	-0.07666331
21	0xbd9bd29b	-0.07608529
22	0x3f103727	0.56334156
23	0xbccf6599	-0.025317
24	0xbde06d1d	-0.10958312
25	0x3d1cc5b9	0.0382745
26	0x3d0167f0	0.031593263
27	0xbd2c0947	-0.042001035
28	0x3ef604a9	0.4805043
29	0xbe0da5d3	-0.13832788
30	0xbcf1c407	-0.029512418
31	0xbe0ae687	-0.13564502
32	0xbbdf79a4	-0.0068199206
33	0xbe1d7d5e	-0.15379855
34	0xbe5441f2	-0.20728281
35	0xbf5cb9a3	-0.8622076
36	0xbd1181f5	-0.035524327
37	0xbccd7c13	-0.025083577
38	0xbd8c4156	-0.06848399
39	0x3f1e0374	0.6172402
40	0xbd915316	-0.070959255
41	0xbcb53de2	-0.022124235
42	0xbd380a04	-0.044931427
43	0xbd6c7667	-0.057730105
44	0x3ef89c04	0.4855653
45	0xbd1f1164	-0.038834944
46	0xbdce952c	-0.10087046
47	0x3f14803a	0.5800816
48	0x3f02b045	0.51050216
49	0x3f0cf607	0.5506291
50	0xbd610815	-0.05493935
51	0xbe5829af	-0.21109651
52	0x3f19ed8a	0.6012808
53	0x3f236b94	0.63836026
54	0x3d570ee2	0.052504428
55	0xbde1bf6e	-0.110228404
56	0x3f0a8565	0.54109794
57	0x3cdec431	0.02719316
58	0x3f2189b4	0.63100743
59	0xbe14afd5	-0.145202
60	0x3f136c40	0.5758705
61	0x3f0fdce5	0.56196433
62	0x3c920048	0.0178224
63	0xbf7864b9	-0.9702869

fc4.weight f4 [1, 64]
0	0xbcda900f	-0.02668002
1	0xbcfabacc	-0.03060665
2	0xbcd3e154	-0.02586428
3	0xbdd7c4d7	-0.10535591
4	0x3eaf6d99	0.34263304
5	0xbd5aa629	-0.05338112
6	0x3eb29367	0.34878084
7	0xbd2506c3	-0.04028965
8	0x3ca5bc2b	0.020231327
9	0x3cc6d448	0.024271145
10	0x3ec81eec	0.39086092
11	0x3eb963cf	0.3620896
12	0xbb9ca69d	-0.004780604
13	0xbf10aa0b	-0.56509465
14	0xbc378d74	-0.011203159
15	0xc02379d6	-2.5543113
16	0x3eb3353c	0.35001552
17	0xbc5804de	-0.013184754
18	0x3c7acfd9	0.015308344
19	0x3d094538	0.033513278
20	0xbcb5feff	-0.022216318
21	0xbd66a704	-0.056311622
22	0x3ea687d8	0.32525516
23	0xbcdc4522	-0.026888434
24	0x3c801e24	0.015639372
25	0xbd848026	-0.06469755
26	0xbd91cbc4	-0.07118943
27	0x3ca81a0c	0.020520233
28	0x3ea79675	0.32731977
29	0xbbd88395	-0.0066074827
30	0xbc3520ee	-0.011055214
31	0xbbac28e3	-0.0052538975
32	0x3b5f93cf	0.00341152
33	0x3b6c27b9	0.0036034419
34	0x3ca8f291	0.020623477
35	0xbfa4ec78	-1.2884665
36	0x3c0297dc	0.007970776
37	0xbc40cdb1	-0.011767791
38	0xbd8224b5	-0.063546576
39	0x3ea87b26	0.32906455
40	0xbd197b5c	-0.03747116
41	0x3cb2a514	0.021807231
42	0xbcad0c04	-0.021123894
43	0xbe0f2718	-0.13979757
44	0x3ead2ab6	0.33821648
45	0xbd3fcb47	-0.04682472
46	0xbcfdc0f4	-0.030975796
47	0x3eac89b3	0.33698806
48	0x3e9e82f2	0.30959278
49	0x3ead9c72	0.3390842
50	0xbd92091d	-0.071306445
51	0x3e870759	0.26372793
52	0x3ea97655	0.33098093
53	0x3eaefcce	0.3417725
54	0x3c510e80	0.012759805
55	0x3cc96738	0.024585351
56	0x3ea4aa03	0.3216096
57	0x3ca515d9	0.02015202
58	0x3eca1b69	0.39474037
59	0x3c863bbf	0.016385911
60	0x3ec2f577	0.380779
61	0x3ebc68a8	0.36798596
62	0xbd82ec01	-0.063926704
63	0xbece6f81	-0.40319446
