src/python/services/models/500_episodes/best_dqn_test_prioritization_500.pt (torch, 439258 bytes, 6 tensors)

fc1.weight f4 [128, 684]
0	0x3c956176	0.01823495
1	0x3ce5180a	0.027965564
2	0xbcf548cc	-0.029941939
3	0xbcbda519	-0.023150014
4	0x3c039c44	0.008032862
5	0xbd401a25	-0.046899933
6	0xbd262641	-0.040563826
7	0xbd85a442	-0.0652547
8	0x3d9548ad	0.072892524
9	0x3cb411d5	0.02198116
10	0x3b8bbd20	0.004264489
11	0xbc89d809	-0.016826646
12	0xbb24eff0	-0.0025167428
13	0xbd74e62a	-0.059789814
14	0xbd857f1e	-0.06518386
15	0x3d1aa0ce	0.03775101
16	0x3beeeed1	0.0072916527
17	0xbcc8e8e0	-0.024525106
18	0xbc6a611f	-0.014305382
19	0xbcfe95d1	-0.031077297
20	0xbd22584c	-0.039634988
21	0x3c0a0531	0.008424089
22	0x3c8a230f	0.01686242
23	0xbd300644	-0.042974725
24	0xbccec748	-0.02524151
25	0x3b980e04	0.0046403427
26	0x3d17228d	0.036898185
27	0x3c544e3d	0.012958107
28	0x3c101fe2	0.008796664
29	0xba8e29af	-0.0010846163
30	0xbbcf9309	-0.0063346666
31	0x3b18f5bd	0.002333983
32	0xbd1aea07	-0.037820842
33	0xbd98e3ca	-0.07465322
34	0x3cf9c952	0.030491505
35	0xbc29c733	-0.010362434
36	0xbb6cc1c2	-0.003612623
37	0x3ce22cf5	0.027609328
38	0xbd1d32e2	-0.038378604
39	0xbd32ae35	-0.043623168
40	0xbd7062d0	-0.058687985
41	0xbca1354e	-0.019678738
42	0x3d016fef	0.03160089
43	0x3da2beba	0.079465345
44	0x3d6f1185	0.058366317
45	0xba895fa1	-0.001048077
46	0x3c9ec878	0.0193827
47	0xbd205263	-0.03914107
48	0x3cb73abb	0.022366872
49	0xbb14b49d	-0.0022690662
50	0xbc3454a1	-0.011006505
51	0xbb9d380d	-0.0047979415
52	0xbd609ac5	-0.0548351
53	0xbce772b9	-0.028252946
54	0xbcf2ca6d	-0.02963754
55	0xbc3e2211	-0.011604802
56	0x3bd3a2f9	0.006458637
57	0xb9a9dd98	-0.00032399292
58	0xbc0fee2c	-0.008784812
59	0xbbcfb06b	-0.0063381693
60	0x3d008f15	0.031386454
61	0x3cc48c6b	0.023992738
62	0xbce4ad0a	-0.027914543
63	0xbc9f6ae2	-0.019460145
64	0xbc94c21d	-0.018158967
65	0x3c3b396c	0.011427265
66	0x3d10fcb8	0.03539726
67	0x3cd8af55	0.026450792
68	0xbdbc53ce	-0.09195672
69	0xbd31eb4e	-0.043437295
70	0xbd9378aa	-0.07200749
71	0xbd9ec367	-0.07752114
72	0xbda4467d	-0.08021257
73	0xbc9fae1b	-0.0194922
74	0xbd88d9dc	-0.066821784
75	0xbd643327	-0.055712845
76	0xbcc982e6	-0.02459855
77	0x3d038841	0.032112364
78	0x3d70610b	0.058686297
79	0xbc681cc2	-0.014167013
80	0xbc889f4f	-0.016677527
81	0xbb4f84aa	-0.0031664767
82	0xbc8511a7	-0.016243769
83	0x3accaab3	0.0015614837
84	0x3cf7c11a	0.030243445
85	0xbcecf65a	-0.028926063
86	0xbd2c2232	-0.0420248
87	0xbcc4cd40	-0.024023652
88	0xbd23cbd3	-0.039989304
89	0xbd2aa75e	-0.04166352
90	0x3c9bba42	0.019009713
91	0xbd57a6d7	-0.052649345
92	0xbd613fd1	-0.0549925
93	0x3d549b00	0.051905632
94	0x3d2a1752	0.041526146
95	0x3c45efff	0.012081145
96	0xbc66b48a	-0.01408113
97	0x3d509ff7	0.050933804
98	0xbc6c0445	-0.014405315
99	0xbd483661	-0.048879985
100	0x3d4223ca	0.047397412
101	0x3c0b752f	0.008511825
102	0x3b5ce0b2	0.0033703265
103	0xbcb946e6	-0.022616815
104	0xbcf5c9c4	-0.030003436
105	0xbb8d05e0	-0.004303679
106	0xbb25911e	-0.0025263499
107	0xbd9a4748	-0.07533127
108	0xbd26ea61	-0.040750865
109	0xbd678995	-0.056527693
110	0x3d67110c	0.05641274
111	0x3cc3f519	0.023920583
112	0xbc383c09	-0.011244782
113	0x3c4bede7	0.012446857
114	0x3c8b891e	0.017033156
115	0x3c477072	0.012172805
116	0xbc7bcfb8	-0.015369348
117	0xbcbe9008	-0.023262039
118	0xbcff787b	-0.03118538
119	0x3c175324	0.009236131
120	0xbd0b41dc	-0.033998355
121	0xbca6280f	-0.020282773
122	0xbc831616	-0.016001742
123	0x3c9b28c1	0.018940331
124	0xbd4e6af7	-0.05039498
125	0xbcf4bb5f	-0.029874502
126	0xbd649133	-0.055802535
127	0x3b9b78e4	0.004744636
128	0x3b9e58cf	0.004832364
129	0x3d6e5a75	0.058191735
130	0x3c53d8de	0.012930123
131	0xbd524a1b	-0.051340204
132	0x3bfcb1dc	0.007711632
133	0xbd66a8b6	-0.05631324
134	0x3c0fffa4	0.008788977
135	0x3c9d2f7f	0.019187687
136	0xbcffd1f0	-0.031228036
137	0xbc201d14	-0.009772558
138	0xbcbd6968	-0.02312155
139	0xbaa6555e	-0.0012690236
140	0x3c8f728c	0.017510675
141	0xbc6feb03	-0.0146434335
142	0xbcfab078	-0.030601725
143	0x3b08985d	0.0020842769
144	0x3c5b1def	0.013373836
145	0x3d74a160	0.05972421
146	0xbb4431ba	-0.0029936866
147	0x3c6afbd6	0.014342269
148	0x3a3975e7	0.0007074759
149	0xbbf78091	-0.007553168
150	0xbbca9cf8	-0.006183263
151	0x3d4ed7f0	0.050498903
152	0x3b3a61bb	0.00284396
153	0x3bc95c3a	0.0061450275
154	0xbcd14927	-0.025547577
155	0x3bf67d5c	0.007522268
156	0xbcca03d3	-0.024660027
157	0xbc12d1b7	-0.008961133
158	0xbcf4ee1d	-0.029898698
159	0xbd3c5293	-0.045977186
160	0xbd4a5093	-0.049393248
161	0x3d3dd3eb	0.04634468
162	0x3d63e4d9	0.055638168
163	0x3d3cb6f7	0.046072926
164	0x3b8f9811	0.0043821414
165	0xbb4ce591	-0.0031264762
166	0xbcbb5f7f	-0.022872685
167	0x3cb1eb99	0.021718787
168	0xbcc01c70	-0.02345106
169	0x3cd5b26f	0.02608606
170	0x3cbcb501	0.023035528
171	0xbd1112cd	-0.03541832
172	0xbc94e92f	-0.018177597
173	0xbd0ebdc2	-0.034848936
174	0xbc9b7d5c	-0.018980674
175	0x3bc4f25a	0.006010336
176	0xbd1978a9	-0.037468586
177	0xbcbf6dbd	-0.023367757
178	0xbc255138	-0.010090165
179	0xbc8b6778	-0.017017111
180	0x3c9f42e9	0.019441085
181	0xbd10bd4e	-0.035336785
182	0xbd3b8a71	-0.045786325
183	0x3c83868c	0.016055368
184	0xbd1d9b89	-0.038478408
185	0x3cdc6884	0.026905306
186	0xbd297eaf	-0.04138058
187	0xbd1e8c63	-0.038708102
188	0xbcb91a99	-0.02259569
189	0xbcd07776	-0.025447588
190	0xbcf29820	-0.029613554
191	0x3c410347	0.011780567
192	0xbc591b61	-0.013251157
193	0xbc66c273	-0.014084446
194	0xbaf03710	-0.0018326957
195	0x3c39a23f	0.011330186
196	0x3b8a6367	0.0042232755
197	0xb9f08e6f	-0.00045882488
198	0xbd06c405	-0.032901783
199	0x3d10f8e3	0.035393607
200	0x3c73eb7d	0.014887688
201	0xbc41b7c2	-0.011823596
202	0x3c48fc1c	0.012267139
203	0xbb4eda17	-0.0031563097
204	0xbc4964d4	-0.012292106
205	0xbcb13863	-0.021633333
206	0xbc475aa9	-0.012167611
207	0xbc44b3c1	-0.012005747
208	0xbd256c2a	-0.040386356
209	0x3c9bd6ae	0.019023266
210	0x3c1253cf	0.008931114
211	0x3c2b71ee	0.010464175
212	0x3cad5767	0.02115984
213	0xbcd3861a	-0.02582078
214	0xbcb8fffb	-0.022582998
215	0xbcb3ddf0	-0.021956414
216	0x3d25de0a	0.040494956
217	0x3b95cc7e	0.0045714965
218	0x3bf59789	0.007494871
219	0x3d1644a1	0.036686543
220	0x3ac8f23d	0.0015330982
221	0xbcc07589	-0.023493545
222	0x3d23a183	0.03994895
223	0x3cb79ceb	0.022413692
224	0x3c2d1d78	0.010566108
225	0x3cb6a301	0.022294523
226	0xbc60193a	-0.0136778895
227	0xbca3fd25	-0.02001817
228	0x3cbd1c7a	0.023084868
229	0xbc05ab6d	-0.008158547
230	0xbc72d019	-0.014820122
231	0x3cd93dd4	0.02651874
232	0x3cc8385f	0.024440942
233	0x3cfd9249	0.030953543
234	0x3c4930c1	0.01227969
235	0xbd3444d3	-0.04401095
236	0xbb61f145	-0.0034476083
237	0xbc12033f	-0.008911907
238	0xbceaa2c5	-0.028642068
239	0x3c9bed2e	0.019033995
240	0x3cf8db2a	0.030377943
241	0x3cc0428e	0.023469236
242	0xbd1cd491	-0.038288657
243	0x3c7a6831	0.01528363
244	0x3ce07270	0.027398318
245	0x3cb148dc	0.021641187
246	0xbbd66751	-0.006543078
247	0xbcceaecb	-0.025229832
248	0x3cf1e375	0.029527405
249	0xbc067485	-0.008206491
250	0x3babcb08	0.005242709
251	0x3c3f9a5f	0.01169452
252	0xbc8db342	-0.01729739
253	0xbd032520	-0.032017827
254	0xbcd35965	-0.025799463
255	0x3c42b247	0.011883325

fc1.bias f4 [128]
0	0xbd42f90e	-0.0476008
1	0xbcc85d63	-0.024458593
2	0x3db8ec43	0.09029438
3	0x3c9acef8	0.018897519
4	0x3d1210dd	0.035660613
5	0xbc85ed54	-0.016348518
6	0xbd10e16b	-0.035371225
7	0xb93a391d	-0.00017759619
8	0x3da09655	0.078411736
9	0xbd7aebeb	-0.061260145
10	0x3de72ec3	0.11288216
11	0xbd24156b	-0.04005949
12	0x3c9557fb	0.018230429
13	0xbd95f4b8	-0.07322067
14	0xbdad3a0a	-0.08458336
15	0x3c45bf0a	0.012069473
16	0xbd4a402f	-0.049377616
17	0xbca5579d	-0.020183379
18	0xbd5377b5	-0.051627833
19	0x397e7ca8	0.00024269766
20	0x3d645bfd	0.05575179
21	0xbd48715d	-0.048936237
22	0xbd9883bc	-0.07447001
23	0xbbb70c39	-0.005586174
24	0x3df7c43d	0.12097976
25	0xbcbd1d56	-0.023085278
26	0xbce5da48	-0.028058186
27	0xbd182aae	-0.037150078
28	0xbdf6a349	-0.12042863
29	0x3d14fcc5	0.036373872
30	0x3e0dd5c3	0.13851075
31	0xbd2eb865	-0.04265632
32	0xbcc42bf2	-0.023946736
33	0xbd518d10	-0.05115992
34	0xbc46f586	-0.012143498
35	0x3cb3e795	0.021961013
36	0x3e33814a	0.17529789
37	0x3e36e0ff	0.17859267
38	0x3e12ccdb	0.14335959
39	0xbd38c0a5	-0.045105595
40	0xbc90864e	-0.017642166
41	0x3db96bed	0.09053788
42	0x3e2a7dec	0.16649598
43	0x3c8e7b92	0.017392907
44	0xbd27f211	-0.041002337
45	0xbd70f89f	-0.058830854
46	0xbbe4dcda	-0.0069843354
47	0xbd80da9f	-0.06291699
48	0x3da51c54	0.08062044
49	0x3df134c8	0.11777645
50	0x3b9312d7	0.00448833
51	0xbbbac963	-0.0057002767
52	0xbe0419d8	-0.12900484
53	0xbd57a25f	-0.052645084
54	0x3e12d64e	0.14339563
55	0xbd4bfc31	-0.049801055
56	0x3d27d1b4	0.040971473
57	0x3d8c958d	0.06864462
58	0x3ca9cb61	0.020726861
59	0xbdad58ab	-0.08464178
60	0x383b482e	4.4651497e-05
61	0xbcb565bb	-0.022143235
62	0xbcd4ff29	-0.026000576
63	0xbae958e9	-0.0017802987
64	0x3dc7dab3	0.097585104
65	0x3ba0a443	0.004902394
66	0x3d828cbd	0.063745
67	0x3c0c7c49	0.008574554
68	0xbd8b632f	-0.06806027
69	0xbdb117ac	-0.08647093
70	0x3e410a82	0.18851665
71	0xbd394027	-0.045227196
72	0x3dca729e	0.09885143
73	0xbde12f97	-0.10995405
74	0x3da4b491	0.08042253
75	0x3dcc43f1	0.09973896
76	0xbce94a5d	-0.028477842
77	0xbd65533e	-0.05598759
78	0x3c35056a	0.011048654
79	0xbd81fb58	-0.06346768
80	0x3c93f6ee	0.018062081
81	0xbd2b4ce5	-0.04182138
82	0xbd23924d	-0.039934445
83	0x3e65adbe	0.22429559
84	0xbbe74728	-0.007058043
85	0xbd96bc05	-0.07360081
86	0x3d403704	0.046927467
87	0xbc14afe4	-0.009075139
88	0x3c844cfa	0.016149987
89	0x3d03b6c2	0.032156713
90	0xbd1b19ac	-0.03786628
91	0x3dd76f47	0.10519271
92	0xbd25bb86	-0.04046204
93	0x3cff814b	0.031189581
94	0x3daaea0e	0.08345424
95	0x3dd3087c	0.10304353
96	0x3e51af95	0.20477135
97	0xbb93645e	-0.0044980487
98	0xbcbbe877	-0.022937996
99	0x3cefc2b0	0.029267639
100	0x3d2e379d	0.042533506
101	0xba6b1e93	-0.00089690945
102	0xbd39863d	-0.045294035
103	0xbe132948	-0.14371216
104	0x3d01b011	0.03166205
105	0x3d046b4f	0.0323289
106	0xbcd402d3	-0.025880253
107	0xbc2c397a	-0.01051175
108	0xbc15d757	-0.009145579
109	0x3d637670	0.055532873
110	0xbc8f2581	-0.017473938
111	0x3e2ee5e5	0.17079885
112	0xbce12231	-0.027482124
113	0xbc1b5bdd	-0.009482351
114	0x3bd9eab9	0.0066502956
115	0xbc737ca2	-0.014861258
116	0xbd056279	-0.032564614
117	0xbd7a81af	-0.061158832
118	0xbd85ef84	-0.065398246
119	0xbd733309	-0.059374843
120	0x3d173d90	0.036923945
121	0xbc8e01df	-0.017334877
122	0xbd84155e	-0.06449388
123	0x3e4509b8	0.19241989
124	0xbbc60e75	-0.006044204
125	0x3e156a99	0.14591445
126	0xbd33f191	-0.043931548
127	0xbd7706b8	-0.060309142

fc2.weight f4 [128, 128]
0	0x3baadccc	0.0052143093
1	0x3c32a24d	0.010902953
2	0xbde54504	-0.11194804
3	0xbd7d7f56	-0.061889015
4	0x3d65ccbb	0.05610345
5	0xbb22125a	-0.0024730177
6	0x3d218816	0.039436422
7	0x3d4c2b6a	0.04984609
8	0xbccafcfe	-0.02477884
9	0x3d94037e	0.072272286
10	0x3d58aa2f	0.052896675
11	0xbc920d2b	-0.017828545
12	0x3c65e590	0.014031783
13	0x3dbe6217	0.09296053
14	0xbccc179e	-0.024913605
15	0xbcd73d6d	-0.026274407
16	0xbd43faad	-0.047846485
17	0x3dd049ea	0.10170348
18	0x3c7527b5	0.01496308
19	0xbd02c95d	-0.031930316
20	0x3b489c01	0.0030610564
21	0x3caf666c	0.021411143
22	0xbccdc040	-0.025116086
23	0x3d479f17	0.048735704
24	0xbcd709ed	-0.02624985
25	0xbd55f345	-0.052233953
26	0xbc6e4672	-0.014543163
27	0xbc434d66	-0.011920309
28	0x3c8babfb	0.01704978
29	0xbd997814	-0.07493606
30	0xbdc363b2	-0.095405
31	0xbd4d7d24	-0.05016817
32	0x3d538249	0.05163792
33	0x3d07b9d3	0.0331362
34	0x3c8b26f3	0.016986346
35	0x3bd98603	0.00663829
36	0x3d3197c2	0.04335762
37	0xbdbc591d	-0.091966845
38	0xbd6dbdf2	-0.058042474
39	0xbcb94f35	-0.022620777
40	0xbcc91120	-0.024544299
41	0xbdfd1621	-0.123577364
42	0xbd9cfc30	-0.076652884
43	0x3d8fd224	0.07022503
44	0xbce6257a	-0.028094042
45	0xbcc538bd	-0.024074906
46	0x3a2d3b15	0.000660823
47	0xbca3cd0d	-0.019995237
48	0x3d271c01	0.04079819
49	0x3d9547d5	0.072890915
50	0xbc4c90bd	-0.01248568
51	0xbc919b85	-0.017774353
52	0x3d5c6819	0.053810213
53	0x3d0f6990	0.03501278
54	0xbd4cde0e	-0.050016455
55	0x3ccc8944	0.024967797
56	0x3d938d11	0.07204641
57	0x3d863a24	0.06554058
58	0x3c9f2dfa	0.019431103
59	0xbac04a07	-0.0014670499
60	0x3d498d62	0.0492071
61	0x3c52c79c	0.012864973
62	0x3d85467a	0.06507583
63	0xbc11f841	-0.008909286
64	0xbbeac8fa	-0.0071650716
65	0x3c3e589e	0.011617808
66	0xbdbf4752	-0.09339775
67	0x3d5c2d47	0.053754117
68	0xbd978eff	-0.07400321
69	0x3d91f08e	0.0712596
70	0xbd091321	-0.03346551
71	0x3d1ee37a	0.038791157
72	0xbbc8a4d2	-0.0061231637
73	0x3d1221e6	0.03567686
74	0x3de2aa18	0.11067599
75	0xbdd10ca2	-0.10207488
76	0xbd065eb5	-0.032805163
77	0xbcb8e8bc	-0.022571914
78	0xbd6041cf	-0.05475026
79	0xbcf94f0c	-0.0304332
80	0x3c208caf	0.009799167
81	0x3c2a9194	0.010410685
82	0xbd4b2829	-0.049598847
83	0x3c822a1f	0.015889226
84	0xbd92b779	-0.07163901
85	0xbd6938b6	-0.05693885
86	0x3c9cbca2	0.019132916
87	0x3d3cfebe	0.04614138
88	0x3ca0aef8	0.019614682
89	0x3d4efadf	0.050532218
90	0x3d5609cd	0.05225544
91	0x3d24f40a	0.040271796
92	0x3d8c3279	0.068455644
93	0x3d832aed	0.06404672
94	0xbdb4377f	-0.087996475
95	0xbc71901a	-0.014743829
96	0xbd286b9d	-0.041118253
97	0x3d601408	0.054706603
98	0x3d8de636	0.06928675
99	0x3d7a5c52	0.0611232
100	0x3d1326a8	0.035925537
101	0x3d0c5327	0.034258988
102	0xbd815c57	-0.063164406
103	0xbd80372c	-0.06260523
104	0xbd3047a3	-0.043037068
105	0xbd241e06	-0.040067695
106	0x3d62ec68	0.055401236
107	0x3cfa4576	0.0305507
108	0x3be9b7a0	0.0071324855
109	0x3d8bc8ba	0.06825395
110	0x3d4cf06f	0.050033983
111	0x3d3ca165	0.046052355
112	0xbdd1ae7a	-0.10238357
113	0x3ca4453d	0.020052547
114	0xbd935688	-0.07194239
115	0xbdc01853	-0.093796395
116	0x3d433eb8	0.047667235
117	0xbaeaf86a	-0.0017926816
118	0xbcb114c6	-0.02161635
119	0x3d6540a8	0.055969864
120	0xbc7e55c1	-0.015523375
121	0x3c786c04	0.015162472
122	0x3d4f4702	0.050604828
123	0x3c81801a	0.015808154
124	0x3c0eaed4	0.008708674
125	0xbd69bfa5	-0.057067532
126	0x3d8fe8e4	0.07026842
127	0x3cb65f87	0.022262348
128	0x3d9a7d17	0.0754339
129	0x3d545702	0.05184079
130	0xbd72e4db	-0.059300285
131	0xbda6a57e	-0.08137034
132	0xbdb28d45	-0.08718351
133	0xbcac34be	-0.021021243
134	0x3d241f8e	0.040069155
135	0x3c3e7600	0.011624813
136	0xbd9c2ec3	-0.076261066
137	0xbd3f84bc	-0.046757445
138	0xbc15839c	-0.009125616
139	0x3b841fb4	0.0040320996
140	0xbc7eec12	-0.015559213
141	0xbd26eb4e	-0.040751748
142	0xbc9e75b8	-0.019343242
143	0xbcc666ab	-0.024218878
144	0x3cfd6c25	0.030935356
145	0xbd8ede5d	-0.06976006
146	0x3d2b6a73	0.041849565
147	0xbd920844	-0.07130483
148	0x3d5bb4b9	0.053639147
149	0xbd12e67b	-0.035864335
150	0xbd5785d6	-0.05261787
151	0x3d0e0cc0	0.034680128
152	0x3d76a64b	0.060217183
153	0x3d02cf26	0.031935833
154	0xbdab471d	-0.08363173
155	0x3d444b74	0.04792352
156	0xbc9d2821	-0.019184174
157	0xbdced0c0	-0.1009841
158	0xbd65275b	-0.055945735
159	0x3a692e7d	0.0008895172
160	0x3d5145c7	0.051091935
161	0xbd5dde5f	-0.054167148
162	0xbdb34a64	-0.08754423
163	0x3c9b0ace	0.01892605
164	0xbc77289f	-0.015085368
165	0xbda4cd53	-0.08046975
166	0xbd0f1a8c	-0.034937426
167	0x3da6c3b1	0.08142794
168	0xbdb206d0	-0.08692706
169	0xbd5f9cb6	-0.05459281
170	0xbc808bf7	-0.01569174
171	0x3d9abcc0	0.075555325
172	0xbc7e16d0	-0.015508369
173	0x3d51f8ee	0.05126279
174	0xbd379082	-0.044815548
175	0xbd3a1ee1	-0.045439605
176	0xbd80b443	-0.06284382
177	0xbd9e7cb8	-0.07738632
178	0xbd28bec2	-0.041197546
179	0x3cae61dd	0.0212869
180	0x3d6c3885	0.05767109
181	0x3d795d2e	0.06087988
182	0xbd154f6b	-0.036452692
183	0xbd5d5453	-0.054035496
184	0xbdab71e8	-0.08371335
185	0xbd77def6	-0.060515366
186	0xbda79ccd	-0.08184204
187	0xbd34cabd	-0.04413866
188	0x3da87368	0.08225137
189	0x3d0a693f	0.033791777
190	0xbd971cec	-0.07378563
191	0x3ccaa96b	0.024738988
192	0xbd8d6f1a	-0.069059566
193	0x3d7ec517	0.06219968
194	0xbdbbdec1	-0.09173346
195	0x3cc63a1b	0.024197629
196	0xb9018d73	-0.00012355093
197	0x3d7ce0bf	0.061737772
198	0x3d0a6ba9	0.03379408
199	0xbda806c2	-0.08204414
200	0xbd3c8563	-0.046025645
201	0x3c80e191	0.015732558
202	0x3d772780	0.060340405
203	0xbd3d1696	-0.046164118
204	0xbd8be3e8	-0.06830579
205	0xbd1da209	-0.038484607
206	0x3d0b5e26	0.034025334
207	0x3d2757a2	0.040855058
208	0xbd8a03e0	-0.0673902
209	0xbdb91087	-0.090363555
210	0x3da14a16	0.07875459
211	0x3cc02e12	0.023459468
212	0x3d3fbbfa	0.046810128
213	0xbd340fa2	-0.04396022
214	0x3d2e33b4	0.042529777
215	0xbd8c271d	-0.06843398
216	0x3d8760c3	0.06610253
217	0xbcc3c08b	-0.023895523
218	0x3c46a79c	0.012124922
219	0xbce9e387	-0.028550876
220	0xbd978115	-0.07397667
221	0x3b9961f2	0.0046808654
222	0xbcb78b3b	-0.022405257
223	0xbd1fd168	-0.039018065
224	0x3d6b1a8d	0.057398368
225	0xbcf32ccd	-0.029684449
226	0x3d66134f	0.056170758
227	0xbd848b42	-0.06471874
228	0x3a9ebbac	0.0012110374
229	0xbc0c690d	-0.008569968
230	0x3d23dbe4	0.040004626
231	0x3c2043a1	0.009781749
232	0xbd2c1693	-0.042013716
233	0xbc900032	-0.017578218
234	0xbb771ceb	-0.0037706445
235	0x3d470816	0.048591696
236	0x3c197675	0.009366621
237	0x3d94c464	0.07264021
238	0x3c5414f7	0.0129444515
239	0xbcf98387	-0.030458225
240	0xbd245e40	-0.040128946
241	0x3d9fbc77	0.07799619
242	0x3ce5a720	0.028033793
243	0xbcaee95f	-0.021351514
244	0x3d8f397c	0.06993386
245	0xbce3ca06	-0.027806293
246	0xbcf08466	-0.029360007
247	0xbdc77a98	-0.0974018
248	0x3d3f093d	0.04663967
249	0xbd52adbd	-0.05143522
250	0x3d7f061c	0.062261686
251	0xbd81bb08	-0.063345015
252	0xbd17b8b8	-0.037041396
253	0xbdd1ded8	-0.10247582
254	0xbd19a094	-0.037506655
255	0xbcb84f26	-0.022498678

fc2.bias f4 [128]
0	0xbcaac07b	-0.020843735
1	0xbdf32118	-0.118715465
2	0x3e2eb279	0.1706027
3	0x3cd05464	0.025430866
4	0x3df06835	0.11738626
5	0x3dad230c	0.0845395
6	0xbcc1d6dd	-0.023662025
7	0x3d5dcd69	0.054150973
8	0xbde18be5	-0.11013011
9	0x3e22dbbf	0.15904139
10	0x3c3d122d	0.011539978
11	0x3e843fd9	0.25829962
12	0xbdf663cc	-0.120307535
13	0xbd84e3ff	-0.06488799
14	0x3ca1dfcf	0.01976004
15	0xbdf63154	-0.12021127
16	0x3dbab174	0.09115878
17	0x3e48fe21	0.19628192
18	0xbd8fba28	-0.07017928
19	0x3e93ad82	0.28843313
20	0x3d61036d	0.054934908
21	0xbd9f3590	-0.07773888
22	0xbd4afd6a	-0.04955808
23	0x3d15a078	0.036529988
24	0xbd09379d	-0.033500303
25	0x3c2eb0bd	0.010662255
26	0xbdca35a0	-0.098735094
27	0xbdd6399e	-0.10460208
28	0xbc8683ee	-0.01642033
29	0x3d3d7d85	0.046262283
30	0xbdf1ec7f	-0.11812686
31	0xbd9b43ae	-0.07581268
32	0xbcc5558d	-0.024088645
33	0xbd409211	-0.0470143
34	0x3e0ccbaf	0.13749574
35	0x3d91f1be	0.07126187
36	0xbd679c38	-0.056545466
37	0xbc152aa3	-0.009104404
38	0x3e6c9ee6	0.2310749
39	0xbd053794	-0.032523707
40	0xbd2d9d92	-0.0423866
41	0x3c450572	0.012025224
42	0xbba0a6cd	-0.0049026967
43	0x3ca65a6a	0.020306785
44	0xba5f8ff5	-0.0008528226
45	0xbdc03de6	-0.09386806
46	0x3c9cc1d0	0.019135386
47	0x3d1ef35e	0.03880631
48	0x3bddb485	0.0067659044
49	0x3dc472e9	0.0959223
50	0xbe09a432	-0.13441542
51	0xbce860e1	-0.028366508
52	0x3e18b371	0.14912201
53	0xbddf4d84	-0.10903457
54	0xbd84b87c	-0.064805
55	0xbbdf327e	-0.006811439
56	0xbe16289b	-0.14663927
57	0xbdd35e97	-0.10320776
58	0xbd8db51b	-0.06919309
59	0xbb124d9c	-0.002232409
60	0x3e6656d6	0.22494063
61	0x3c8ae6c6	0.016955744
62	0x3cfbc59c	0.030733876
63	0xbd9ef5bc	-0.07761714
64	0x3e099dff	0.13439177
65	0xbca7ddf9	-0.020491587
66	0xbd00a7de	-0.03141009
67	0x3d27c433	0.040958595
68	0x3af5c61a	0.0018751055
69	0x3d8dcbb1	0.06923617
70	0xbe03f136	-0.12884983
71	0xbd17ef9c	-0.037093744
72	0x3d15cae3	0.03657044
73	0x3d405e0c	0.04696469
74	0x3d23d176	0.03999468
75	0xbcacb036	-0.021080118
76	0xbdb78506	-0.08960919
77	0xbd3ec0f2	-0.046570726
78	0xbd8d594a	-0.06901796
79	0xbdbfb59d	-0.09360812
80	0x3dec7976	0.11546604
81	0xbc9be330	-0.01902923
82	0xbd279c34	-0.04092045
83	0x3d4771e0	0.048692584
84	0xbdbb9b89	-0.09160525
85	0xbd3b5fe4	-0.045745745
86	0x3c6eb8e8	0.014570452
87	0x3e5137f6	0.20431504
88	0x3d77bf01	0.06048489
89	0xbb2ac116	-0.002605503
90	0xbd8926ab	-0.066968285
91	0x3d2f9e72	0.042875715
92	0x3d676657	0.056494083
93	0x3c57c528	0.013169564
94	0x3e108b8b	0.14115731
95	0x3e76b9f9	0.2409438
96	0x3cabd927	0.02097757
97	0xbc3ca5fe	-0.011514185
98	0xbdb77a19	-0.08958835
99	0xbd8e72b2	-0.0695547
100	0xbdef594f	-0.11686956
101	0xbddacdd6	-0.10683791
102	0x3cb3b861	0.021938505
103	0xbda500f1	-0.0805682
104	0xbd935ed0	-0.071958184
105	0xbd8edc00	-0.069755554
106	0x3e4e4c53	0.20146303
107	0x3e248954	0.16068012
108	0x3d0e24f6	0.034703217
109	0xbcc4a7ef	-0.024005858
110	0xbddb38cd	-0.10704193
111	0x3d3895b6	0.04506465
112	0x3c4cbf88	0.0124968365
113	0xbd831718	-0.06400889
114	0x3e2758e8	0.16342509
115	0x3dc4f3c4	0.09616807
116	0x3dd4ef85	0.10397247
117	0x3e42a5a5	0.19008501
118	0xbe2c52eb	-0.16828506
119	0xbd346e35	-0.044050414
120	0x3dc0b0ae	0.09408699
121	0xbd0f3322	-0.034960873
122	0x3e6d5584	0.23177153
123	0x3d1ed2d3	0.038775276
124	0x3e321a2d	0.17392798
125	0x3e7061fd	0.2347488
126	0xbb966e5e	-0.0045907935
127	0xbd1830db	-0.037155967

fc3.weight f4 [38, 128]
0	0x3b0ea355	0.0021764834
1	0xbcfff5c1	-0.031245114
2	0xbdd554f9	-0.10416598
3	0x3d627e10	0.055296004
4	0xbd13af57	-0.03605589
5	0xbcddf144	-0.027092583
6	0x3d8df084	0.0693064
7	0xbd6ec301	-0.05829144
8	0x3b723cb7	0.0036962458
9	0xbc9ec86c	-0.019382678
10	0x3d5e4264	0.054262534
11	0x3dab0ec7	0.08352428
12	0xbcb546da	-0.022128511
13	0xbd3c6e29	-0.046003494
14	0xba88151e	-0.001038227
15	0xbd654e0b	-0.05598263
16	0x3d0773db	0.033069473
17	0x3c1dc232	0.009628819
18	0x3d35ef8c	0.044417903
19	0x3e041999	0.1290039
20	0x3d9996c2	0.07499458
21	0xbd806a57	-0.06270283
22	0x3d5dab2e	0.054118328
23	0xbcb98143	-0.022644645
24	0x3caaba19	0.020840691
25	0x3d01e3a7	0.031711247
26	0xbbc9c457	-0.0061574387
27	0xbcf4b639	-0.029872047
28	0xbd9e8972	-0.07741059
29	0xbd710432	-0.05884189
30	0x3d564899	0.05231533
31	0xbc526683	-0.0128418235
32	0xbcb7e56a	-0.02244826
33	0xbd77e251	-0.060518567
34	0xbc9375c1	-0.018000485
35	0x3ac826bf	0.0015270336
36	0x3ce32d49	0.027731555
37	0x3b724a37	0.0036970505
38	0x3c867f2c	0.016418062
39	0xbb9989d0	-0.004685618
40	0x3d52ef19	0.051497553
41	0x3d6caecc	0.057783887
42	0x3b824c95	0.0039764144
43	0x3da2c48b	0.07947644
44	0x3d6b85c0	0.0575006
45	0x3d8c268f	0.06843292
46	0xbd5a0c66	-0.05323448
47	0xbc0f5c2f	-0.008750006
48	0x3e13865c	0.14406723
49	0x3c60b65e	0.013715355
50	0x3d948a80	0.07252979
51	0xba19229d	-0.00058416446
52	0x3d208c54	0.039196327
53	0xbc244ef6	-0.010028591
54	0x3ccd23c8	0.025041476
55	0xbcda6b0f	-0.026662378
56	0x3c1e9bba	0.009680683
57	0xbc6b9691	-0.01437916
58	0x3d397f80	0.04528761
59	0x3aab6bba	0.001307837
60	0x3e03eb9b	0.12882845
61	0xbc6ecef7	-0.014575711
62	0xba83b20f	-0.0010047572
63	0x3da36eeb	0.0798014
64	0x3cc68263	0.024232095
65	0x3ba44bb8	0.005013909
66	0x3d2cd13d	0.042191733
67	0xbda37052	-0.07980408
68	0xbc01532a	-0.007893363
69	0xbbe9e0f0	-0.0071374103
70	0x3df656c9	0.12028272
71	0xbd92bbbd	-0.071647145
72	0xbad06c0f	-0.0015901345
73	0xbcccff05	-0.025023947
74	0xbc1b4bf3	-0.009478557
75	0x3cf20aff	0.029546259
76	0xbcd77ac8	-0.026303664
77	0x3d61c3fc	0.055118546
78	0x3a4ad00a	0.0007736689
79	0xbc7d66e1	-0.015466423
80	0x3c76bdb0	0.015059873
81	0x398d7e86	0.00026987883
82	0xbc51188c	-0.0127622
83	0xbd29cc32	-0.0414545
84	0xbd05ce75	-0.032667596
85	0xbc42b066	-0.011882877
86	0x3cd9757f	0.026545284
87	0x3d5eda56	0.05440744
88	0x3d05eefe	0.032698624
89	0x3c890c05	0.016729364
90	0xbeb834c5	-0.3597776
91	0x3df3b778	0.11900228
92	0x3d00a62b	0.03140847
93	0x3d2cf4e7	0.042225745
94	0x3d5bd6ed	0.053671766
95	0x3d31e0c9	0.043427262
96	0xbd4087ce	-0.047004513
97	0x3cb00552	0.021486912
98	0x3d0959cd	0.033532906
99	0x3d28e5e3	0.041234862
100	0x3c3d0b6a	0.011538366
101	0xbcec1d80	-0.02882266
102	0x3bb0ea64	0.0053990353
103	0x3e118024	0.14209038
104	0xbbcbc200	-0.006218195
105	0xbd6e6ac3	-0.058207285
106	0x3d337513	0.043812823
107	0x3dcd5737	0.100264005
108	0x3c1e2f72	0.0096548665
109	0xbccc858e	-0.024966028
110	0xbd6d03f7	-0.05786511
111	0xbd828368	-0.0637272
112	0xbc6ca860	-0.014444441
113	0x3d7c32cb	0.061571877
114	0x3ce490d9	0.0279011
115	0x3ddaa50b	0.10676011
116	0x3d0a5a90	0.033777773
117	0x3d9dfba5	0.07714013
118	0x3c5daff0	0.013530716
119	0xbe03ddc0	-0.1287756
120	0x3d947a56	0.07249896
121	0x3c3d9491	0.0115710655
122	0x3d781b1a	0.06057272
123	0xbc36b51f	-0.011151581
124	0x3da759b3	0.08171406
125	0xbd98f9ba	-0.074695066
126	0x3da61b2b	0.08110651
127	0x3d6fcfda	0.058547832
128	0xbd3a62de	-0.045504443
129	0xbd17c2fe	-0.037051193
130	0xb96a35b2	-0.00022335982
131	0x3dbbd105	0.09170727
132	0x3d69579b	0.056968313
133	0xbd9f3431	-0.077736266
134	0x3db50710	0.08839238
135	0x3d9219e6	0.07133846
136	0x3c7312ab	0.014835994
137	0x3cd8e106	0.026474487
138	0x3d84a6c7	0.06477123
139	0x3dc4946d	0.095986225
140	0xbd8034e1	-0.06260086
141	0xbd09cdb3	-0.033643436
142	0xbc8d800d	-0.017272973
143	0xbd6b069a	-0.057379343
144	0xbd2152c9	-0.03938559
145	0x3cbb4669	0.022860723
146	0xba5b5f17	-0.00083683565
147	0x3d9a054a	0.0752054
148	0x3d86cc46	0.06581931
149	0x3cc732e8	0.024316266
150	0xbcc97272	-0.024590705
151	0xbcec2871	-0.028827878
152	0xbd41d374	-0.047320798
153	0xbad0ea0d	-0.0015938893
154	0xbd257e5f	-0.04040372
155	0xbd323d0d	-0.043515254
156	0x3d2dbd9f	0.042417165
157	0xbd38a5c5	-0.045079965
158	0xbd8c08eb	-0.068376385
159	0xba91fa79	-0.0011137269
160	0xbd0b2471	-0.0339703
161	0xbcd89e17	-0.02644257
162	0x3d8be9ae	0.0683168
163	0xbc015bed	-0.007895452
164	0x3d0024ac	0.031284973
165	0xbda3e995	-0.080035366
166	0x3d7c0498	0.06152782
167	0xbd53e13c	-0.051728472
168	0xbd7ed727	-0.062216904
169	0xbcfab2c2	-0.030602816
170	0xbd3d056f	-0.04614776
171	0x3ccbf929	0.024899082
172	0x3d80a7e3	0.06282022
173	0x3cfa32f5	0.030541876
174	0x3c16ce11	0.0092044035
175	0x3ca14d6a	0.019690234
176	0x3c9b6c41	0.018972518
177	0x3dad8431	0.08472479
178	0x3d0b045d	0.033939708
179	0xbc4a2654	-0.01233824
180	0x3d91e519	0.07123775
181	0xbd63640e	-0.05551534
182	0x3d741fe3	0.059600722
183	0xbd8f24f8	-0.06989473
184	0xbd0a1943	-0.033715498
185	0xbc54a8fa	-0.01297974
186	0x3d074f7a	0.03303478
187	0x3d2e8ca4	0.042614594
188	0x3cf5319c	0.029930882
189	0xbcd1d75e	-0.02561539
190	0xbdd74244	-0.10510686
191	0xbd108a71	-0.035288278
192	0xbcefefa4	-0.029289074
193	0xbd95a5f7	-0.07307046
194	0xbd79f82d	-0.061027694
195	0x3d2be14f	0.041962918
196	0xbcf06797	-0.02934627
197	0x3d6a50af	0.057205852
198	0xbdc06550	-0.09394324
199	0xbd7bdf6e	-0.061492376
200	0x3d0b2bf0	0.03397745
201	0xbd3b0a0a	-0.04566387
202	0x3d27c9e4	0.040964022
203	0x3cd8365b	0.026393106
204	0xbd551a10	-0.05202681
205	0xbd05cb57	-0.032664623
206	0x3d5a59fa	0.053308465
207	0xbd86ddd7	-0.06585281
208	0x3d000798	0.031257242
209	0x3cf5c0fa	0.029999245
210	0xbe5060da	-0.20349446
211	0x3dca22e5	0.09869937
212	0x3bc87bd8	0.006118279
213	0x3c418966	0.0118125435
214	0x3cb89c2f	0.022535412
215	0x3d267e92	0.04064805
216	0x3b46ccce	0.0030334475
217	0xbda17302	-0.07883264
218	0x3d9a076b	0.07520946
219	0x3b9af033	0.004728341
220	0x3cc685c9	0.024233716
221	0x3cb1ef8c	0.02172067
222	0x3d8bd337	0.068273954
223	0x3dd3ee26	0.103481576
224	0x3da898c1	0.082322605
225	0xbc2c8481	-0.010529638
226	0x3d1c8f65	0.03822269
227	0x3c6e6f7a	0.014552945
228	0xbc93bb6a	-0.018033702
229	0x3cb99198	0.022652432
230	0xbd5f697a	-0.05454395
231	0x3c818449	0.015810149
232	0xbc8193a7	-0.015817476
233	0xbc3ba4e4	-0.011452887
234	0x3d1d3787	0.038383033
235	0x3deb6dc9	0.11495549
236	0xbcd43bc2	-0.025907401
237	0xbbf67663	-0.007521437
238	0x3d5c0802	0.053718574
239	0xbc7e2f3e	-0.015514193
240	0xbc116f6a	-0.008876661
241	0xbceb29e2	-0.028706495
242	0x3dabd044	0.08389333
243	0xbd6f1a07	-0.05837443
244	0x3db3494a	0.08754213
245	0x3d0832dd	0.033251632
246	0x3cf66200	0.030076027
247	0xbcb51be6	-0.02210803
248	0x3de69b0f	0.11260044
249	0xbe35c0ad	-0.17749281
250	0x3e02bb13	0.12766676
251	0x3a09943a	0.0005248223
252	0xbcafe37f	-0.021470783
253	0x3d671810	0.056419432
254	0xbcd58e91	-0.026068958
255	0x3d41fd0a	0.047360457

fc3.bias f4 [38]
0	0x3e706665	0.2347656
1	0x3ea43b45	0.3207647
2	0x3e5fed35	0.21867831
3	0x3e4ae5a0	0.19814157
4	0x3e326e32	0.17424849
5	0x3e1a377c	0.15060228
6	0x3e1f66e6	0.15566596
7	0x3e3d0307	0.18458186
8	0x3ec4ab15	0.38411775
9	0x3e6cd5e4	0.23128468
10	0x3e825b33	0.25460204
11	0x3dd152f3	0.102208994
12	0x3e68c32c	0.22730702
13	0x3e10530b	0.14094178
14	0xbc30075a	-0.01074394
15	0x3d79ff46	0.061034463
16	0x3d016c81	0.031597618
17	0x3c6b1c4e	0.01435001
18	0x3d814a6c	0.06313023
19	0x3e52d829	0.20590271
20	0x3e1e6a21	0.15470172
21	0x3d0f00d3	0.034912895
22	0x3d8e7cb4	0.06957379
23	0x3defdc23	0.117119096
24	0x3e593a9a	0.21213761
25	0x3e637573	0.22212772
26	0x3dceb00e	0.100921735
27	0x3e887c5c	0.2665738
28	0xbd78cc4d	-0.06074171
29	0x3d8655ea	0.065593556
30	0x3dd72dff	0.1050682
31	0x3c401d2d	0.011725706
32	0xbd21acf5	-0.039471585
33	0x3d165805	0.036705036
34	0x3be86347	0.007091913
35	0x3cdeab74	0.027181365
36	0x3cb44c81	0.022009136
37	0xbc668e9a	-0.014072085
