models/comparison_apache@airvata_comparison_1000ep_dqn/pairwise_dqn_1000ep_dqn.pt (torch, 173568 bytes, 8 tensors)

fc1.weight f4 [128, 112]
0.02385137 0.3148098 -0.033435002 0.20467804 -0.03327791 0.035400208 -0.00019228391 0.09105459
0.06676795 0.16767892 -0.09464916 -0.0038168957 0.055963863 -0.03802998 -0.05379198 -0.02818449
-0.010363742 -0.03377638 -0.048639525 0.031726327 -0.011563166 -0.010264683 -0.09688492 -0.00093743304
0.006487841 -0.052165415 -0.0900142 0.031802725 -0.059741694 -0.0076839756 -0.034550454 -0.06853994
-0.07613359 -0.1816318 -0.05817713 -0.07929915 0.0059600854 -0.63518614 -0.057208605 -0.091755964
-0.2929462 -0.11276543 -0.08080862 0.057538133 -0.088057205 -0.08109471 0.3382168 0.2600268
-0.12041886 -0.022082496 -0.009401337 -0.046690445 -0.06856596 -0.5285296 -0.04174088 -0.0881007
0.074831344 0.41241845 -0.035770204 0.35610443 -0.08648054 0.28747985 -0.12943245 0.17929584
0.019393072 0.22943981 0.0008513258 -0.037081864 -0.07994951 0.03342945 -0.021082893 -0.025051998
-0.020017922 0.05357162 0.02508273 0.06643764 0.0104512675 -0.08509523 -0.01637722 -0.01540474
0.026271967 -0.10873454 -0.09490221 -0.055123094 0.057698254 -0.022735534 -0.022565583 -0.108013764
-0.081230335 -0.039481565 -0.116098456 0.017735116 0.03899562 -0.7211054 0.019652363 -0.099056885
-0.02301198 -0.00320374 -0.07930098 -0.034414124 0.013445362 -0.059747167 0.24920247 0.20591028
-0.07180018 -0.08225057 -0.05531329 -0.0765981 -0.05713114 -0.5111456 -0.046656944 -0.054231856
0.10298181 0.042995296 -0.035215005 -0.010073328 0.03483948 -0.018849932 0.032082293 0.008531617
-0.008381629 0.046002638 0.054218583 0.009993818 0.056985542 0.08239854 0.037760854 0.09820505
-0.016145095 0.05359586 0.08555036 0.058826108 -0.07038447 -0.07102002 0.0032491842 0.00845614
-0.00940869 0.082750805 0.09617825 -0.021065028 -0.036591224 0.014030113 0.11370398 0.06983266
0.022988629 -0.067466274 0.11528965 0.07879383 0.023342086 -0.01870862 0.08218848 -0.08110581
-0.008360645 -0.008586139 -0.03834348 0.0114906635 0.110506356 -0.042108074 0.014328368 0.039270926
-0.061588652 0.025477557 -0.025239605 0.044213623 -0.01101526 -0.027790787 0.0039257216 -0.0008836941
0.0710611 0.03304322 -0.05626972 0.023511993 0.07332091 -0.004472132 -0.00881704 -0.074337415
0.04158779 0.10504175 -0.069848396 -0.024878887 -0.026242934 -0.020111306 -0.022696298 0.041342724
0.109418415 0.0268017 -0.062102687 0.024441995 0.060647916 0.08886993 -0.061338566 -0.050241604
-0.02133214 0.10221019 -0.034362145 -0.011607601 0.01593664 0.043860648 0.052043963 -0.035956837
0.0648799 0.102088146 -0.021779919 0.114510596 0.031933937 0.11019541 0.07040021 0.08660725
-0.074953474 -0.056465104 -0.0497982 -0.051995948 0.114450954 -0.023888208 -0.037033565 -0.05166175
-0.03873862 -0.016046096 0.041151512 -0.004391808 0.02823408 -0.08604767 -0.062333617 0.067078605
-0.028101385 -0.030156646 -0.0013540365 -0.017930752 -0.114808045 -0.01671619 0.1050772 0.02167824
-0.040053777 0.07967725 -0.062057137 -0.028838577 -0.020757811 -0.04891213 0.026066715 -0.018925557
-0.053390305 -0.053766444 -0.042418923 0.006109076 0.023617355 -0.015821123 -0.007217398 -0.007971131
0.08286583 -0.0781882 0.06741228 0.03580971 0.08294449 -0.0057217805 -0.012895402 0.01104282
00000000: f363 c33c c02e a13e 24f3 08bd 1f97 513e
00000010: 6b4e 08bd cfff 103d d29f 49b9 d47a ba3d
00000020: a3bd 883d 06b4 2b3e 6bd7 c1bd e224 7abb
00000030: 5d3a 653d 53c5 1bbd fb54 5cbd 29e3 e6bc
00000040: afcc 29bc 1a59 0abd 3d3a 47bd 77f3 013d
00000050: 6f73 3dbc 332d 28bc 9a6b c6bd 11be 75ba
00000060: f497 d43b 67ab 55bd 5d59 b8bd 9343 023d
00000070: b5b3 74bd dcc9 fbbb c784 0dbd ab5e 8cbd
00000080: edeb 9bbd b0fd 39be 244b 6ebd 9867 a2bd
00000090: d24c c33b 8f9b 22bf 9253 6abd 8dea bbbd
000000a0: 0bfd 95be 90f1 e6bd fd7e a5bd 1bad 6b3d
000000b0: 5657 b4bd fc14 a6bd c12a ad3e 3c22 853e
000000c0: 2a9e f6bd 5ae6 b4bc 1108 1abc 7b3e 3fbd
000000d0: 4f6c 8cbd b74d 07bf 7cf8 2abd 246e b4bd
000000e0: 2d41 993d 8328 d33e c783 12bd 5253 b63e
000000f0: b61c b1bd 8f30 933e f189 04be 5499 373e
00000100: 38de 9e3c 45f2 6a3e 822b 5f3a 27e3 17bd
00000110: 92bc a3bd 52ed 083d 08b6 acbc d939 cdbc
00000120: a0fc a3bc ea6d 5b3d 4c7a cd3c 7510 883d
00000130: cb3b 2b3c 6846 aebd 8529 86bc 2a64 7cbc
00000140: 4f38 d73c 37b0 debd 175c c2bd c1c8 61bd
00000150: 0155 6c3d df3f babc 75db b8bc 5236 ddbd
00000160: 175c a6bd 6cb7 21bd 07c5 edbd 3c49 913c
00000170: dfb9 1f3d 5d9a 38bf fefd a03c 56de cabd
00000180: 9f83 bcbc d7f5 51bb 8d68 a2bd d3f5 0cbd
00000190: f049 5c3c 72b9 74bd ef2e 7f3e 25da 523e
000001a0: f90b 93bd fd72 a8bd 3090 62bd 77df 9cbd
000001b0: 5802 6abd 70da 02bf 5a1b 3fbd 3922 5ebd
000001c0: 21e8 d23d d61b 303d 9c3d 10bd 9a0a 25bc
000001d0: d8b3 0e3d 2c6b 9abc b968 033d 32c8 0b3c
000001e0: 1a53 09bc 436d 3c3d 4e14 5e3d 1cbd 233c
000001f0: ac69 693d 91c0 a83d 20ab 1a3d bb1f c93d
00000200: b842 84bc 5587 5b3d 0735 af3d a5f3 703d
00000210: bc25 90bd f272 91bd 44f0 543b 9f8b 0a3c
00000220: e826 1abc 4179 a93d 1af9 c43d 9190 acbc
00000230: aee0 15bd 8fde 653c a2dd e83d 6d04 8f3d
00000240: a652 bc3c c22b 8abd fb1c ec3d a95e a13d
00000250: e737 bf3c d242 99bc 6f52 a83d ce1a a6bd
00000260: 16fb 08bc e1ac 0cbc 0e0e 1dbd 5643 3c3c
00000270: 2851 e23d 8479 2cbd 88c1 6a3c 8dda 203d
00000280: 6244 7cbd 4fb6 d03c 4ac3 cebc 5819 353d
00000290: 5979 34bc 81a9 e3bc 57a3 803b b5a7 67ba
000002a0: 7b88 913d 5458 073d 147b 66bd 399c c03c
000002b0: 4629 963d f68a 92bb 5975 10bc 373e 98bd
000002c0: f557 2a3d 2120 d73d ad0c 8fbd cfce cbbc
000002d0: 6cfb d6bc 77c0 a4bc 96ed b9bc fd56 293d
000002e0: c316 e03d 3d8f db3c 635f 7ebd 943a c83c
000002f0: f369 783d 7001 b63d 263e 7bbd 24ca 4dbd
00000300: bdc0 aebc 9353 d13d 52bf 0cbd cf2d 3ebc
00000310: 8e8d 823c 39a7 333d 0d2c 553d 7a47 13bd
00000320: c1df 843d 9713 d13d cd6b b2bc 8884 ea3d
00000330: 29cd 023d 22ae e13d fc2d 903d 245f b13d
00000340: 3581 99bd f447 67bd 33f9 4bbd b4f9 54bd
00000350: 4365 ea3d 34b1 c3bc 82b0 17bd 459b 53bd
00000360: 63ac 1ebd 1a73 83bc 7d8e 283d 28e9 8fbb
00000370: 284b e73c c339 b0bd 8951 7fbd 8260 893d
00000380: e034 e6bc 120b f7bc ed79 b1ba 83e3 92bc
00000390: 7b20 ebbd 64f0 88bc b732 d73d 9096 b13c
000003a0: 6e0f 24bd d32d a33d a02f 7ebd e13e ecbc
000003b0: 490c aabc 1658 48bd dd89 d53c c509 9bbc
000003c0: cbaf 5abd 343a 5cbd 77bf 2dbd a52e c83b
000003d0: 2f79 c13c 4d9b 81bc ec7f ecbb 5999 02bc
000003e0: 8fb5 a93d 2321 a0bd 730f 8a3d 34ad 123d
000003f0: cdde a93d c67d bbbb 3c47 53bc f2ec 343c

fc1.bias f4 [128]
-0.039755635 -0.007308119 -0.0105124805 -0.114874266 0.049031466 -0.10565448 -0.020239037 -0.0070076287
-0.14249508 -0.22065331 -0.18670334 0.0013811956 -0.019386563 -0.08212854 0.057620633 0.06627141
-0.0045079268 0.07930245 0.008869411 -0.039481245 -0.012574214 -0.05821617 -0.0034938396 -0.1191438
-0.016814731 -0.0020466072 0.08238236 -0.11786018 0.041490838 0.19941959 0.08508564 -0.08614638
0.018160444 0.017304273 0.13389356 0.19793408 0.009923183 0.06312753 0.06803258 -0.105677485
-0.08672361 0.05910662 -0.13548781 -0.054188624 -0.09027092 0.037887823 -0.05983634 -0.091759056
-0.27635437 -0.038581684 -0.069490656 -0.034875624 -0.10747913 0.03672867 -0.05974694 0.07041366
0.07378892 -0.014396472 0.025158113 -0.017709492 0.06438726 -0.0016673233 0.09753368 0.04706794
-0.082399935 -0.17961827 0.01297558 0.015398467 0.011842292 -0.08222175 -0.104245625 -0.16996166
0.009578692 0.1021736 -0.035842884 -0.042075064 -0.06278497 0.03754814 -0.10777428 0.031615682
-0.10025435 -0.05426788 0.00029016452 -0.041919086 -0.10245252 0.010641338 -0.113418914 0.0005348298
-0.096715465 0.0040349346 -0.07766719 -0.12478707 0.029038116 0.019821947 0.16907781 0.004159325
-0.08538876 -0.046934243 0.07410987 -0.031575758 -0.039648652 -0.069662005 0.08484107 0.046038467
-0.110794365 -0.15785795 -0.15485276 -0.11023449 -0.097414285 -0.027722185 -0.042615782 -0.1474292
0.0155583415 -0.13803111 0.03539726 0.09759951 -0.031972405 0.012926029 -0.27521604 -0.014544885
-0.014332891 -0.16984244 0.16424666 -0.10749643 0.07766952 -0.026509468 -0.11282521 -0.026793154
00000000: ced6 22bd f278 efbb 8a3c 2cbc 3343 ebbd
00000010: 38d5 483d 6061 d8bd 56cc a5bc 40a0 e5bb
00000020: 3bea 11be f1f2 61be 292f 3fbe 3c09 b53a
00000030: 92d0 9ebc 0233 a8bd 9d03 6c3d 4eb9 873d
00000040: 3bb7 93bb 5369 a23d 0251 113c 16b7 21bd
00000050: 1304 4ebc 1474 6ebd e7f8 64bb aa01 f4bd
00000060: 0cbf 89bc 5f20 06bb 15b8 a83d ae60 f1bd
00000070: 4cf2 293d a634 4c3e 6141 ae3d 836d b0bd
00000080: 36c5 943c b1c1 8d3c 651b 093e 3baf 4a3e
00000090: d994 223c 0249 813d aa54 8b3d 706d d8bd
000000a0: 269c b1bd c819 723d 51bd 0abe e4f4 5dbd
000000b0: f6df b8bd 4330 1b3d f316 75bd 2cec bbbd
000000c0: 527e 8dbe d407 1ebd 1e51 8ebd bed9 0ebd
000000d0: 051e dcbd cd70 163d 35b9 74bd 0935 903d
000000e0: a51e 973d 2edf 6bbc 6318 ce3c 7f13 91bc
000000f0: 78dd 833d 168a daba bdbf c73d 50ca 403d
00000100: 4cc1 a8bd daed 37be 8797 543c da49 7c3c
00000110: 2c06 423c e063 a8bd bb7e d5bd 6e0a 2ebe
00000120: f2ef 1c3c 6440 d13d fdcf 12bd e756 2cbd
00000130: 6895 80bd 14cc 193d c3b8 dcbd 727f 013d
00000140: 2752 cdbd ff47 5ebd 3921 9839 59b3 2bbd
00000150: a0d2 d1bd 0259 2e3c 2d48 e8bd d233 0c3a
00000160: c212 c6bd 7c37 843b fa0f 9fbd 5d90 ffbd
00000170: 58e1 ed3c a361 a23c bc22 2d3e f24a 883b
00000180: 4de0 aebd 1f3e 40bd eac6 973d 9555 01bd
00000190: a066 22bd f4aa 8ebd 28c1 ad3d d592 3c3d
000001a0: 28e8 e2bd 84a5 21be b991 1ebe 9fc2 e1bd
000001b0: 2481 c7bd a319 e3bc e38d 2ebd aef7 16be
000001c0: 6ae8 7e3c 0758 0dbe b8fc 103d 40e2 c73d
000001d0: 7ff5 02bd b2c7 533c 1ee9 8cbe ab4d 6ebc
000001e0: 81d4 6abc 2deb 2dbe 4730 283e 1727 dcbd
000001f0: 3311 9f3d 622a d9bc e710 e7bd 517d dbbc

fc2.weight f4 [128, 128]
-0.2574355 -0.11910235 -0.20151314 -0.21889776 0.0810918 0.031200625 0.06774138 0.03234059
-0.18439636 0.0150538115 0.0029133204 -0.15701486 0.015727192 0.048233204 -0.26249528 0.02504945
0.066569194 -0.041295398 -0.077659145 0.042110052 0.04530194 -0.29845047 0.043139815 0.1347357
0.049605213 -0.07741727 -0.20771608 0.10511666 -0.099109836 0.039025098 -0.050279617 0.063485354
0.031016381 -0.07796571 -0.04227983 -0.11424819 0.029469285 0.040166285 -0.03205501 0.008081251
0.012945523 0.09540883 0.08162152 -0.14826766 0.039592817 -0.016342763 0.0038219313 -0.06690909
0.08561523 0.01993639 0.06324338 -0.06279414 -0.0403979 -0.01754815 0.0012194623 0.017465664
-0.016833773 0.0153455045 -0.22518271 -0.06001343 0.0343722 -0.0718348 -0.20867775 -0.01954314
0.066317104 -0.16877186 -0.0029842707 -0.09476922 -0.27526894 -0.043524966 -0.07675215 -0.010270387
-0.17182615 -0.17524202 0.08854715 -0.049224727 -0.025433414 -0.034635846 -0.04320212 0.03454053
0.16942456 0.08189456 -0.0238753 -0.025692998 0.08503577 -0.03981457 -0.14446796 -0.21129273
-0.09453846 -0.3855301 -0.052403804 0.040239103 0.014285503 0.049430564 0.08681135 -0.009238246
0.028532911 -0.17158493 0.0631596 -0.03104578 -0.14316602 0.0107384175 -0.23346646 -0.04120217
-0.076713786 -0.055554565 -0.08109147 -0.1558958 -0.0825968 0.045799553 0.058816887 -0.04337057
0.017671935 0.07696514 0.052044805 -0.03988161 -0.06694638 -0.27232948 0.08325874 0.004730741
0.06914233 0.098310985 -0.052329056 0.022851434 -0.13435839 -0.08056176 0.04359652 0.05226174
-0.17659804 -0.057125337 -0.14698656 -0.046783786 -0.03238947 0.06677915 0.024884228 -0.023172712
0.028385587 0.06547112 -0.071025975 -0.123683706 0.015441854 -0.076287046 -0.037278596 0.021244794
-0.038391713 -0.10942231 -0.22869825 0.053628482 0.056979124 -0.13506444 -0.024990382 0.12990198
-0.026391309 0.08397447 -0.030200535 -0.076103725 0.010833537 0.02463181 0.03709056 -0.058555547
0.006608057 -0.06667982 -0.15086453 0.030791933 -0.012788584 0.0050326153 0.04557467 -0.06151898
0.064030275 0.09198049 -0.077322684 -0.057770923 0.0013799539 0.01722508 -0.007885916 0.027109342
-0.08617884 -0.017026976 0.06321439 0.0120590385 -0.04524429 0.07145786 -0.08244345 0.07868809
0.047506608 0.003120472 -0.018178934 -0.068552636 0.013389511 -0.06699999 0.01867131 -0.045251667
-0.06445772 0.011747364 -0.06975931 -0.117632836 -0.122731104 0.014734001 0.061135948 -0.07377646
-0.055095438 -0.11631305 -0.034312095 0.049793452 -0.15397514 0.0665458 -0.05956358 -0.056070793
0.085895956 0.045348357 -0.043789215 0.04593476 -0.00054610637 0.05647809 -0.123029254 -0.22698969
0.05834252 -0.2513518 -0.15142478 0.047075875 0.012137228 0.0015176224 -0.05411741 -0.027964009
0.022967378 -0.06240099 0.024912287 0.024879431 -0.20104247 0.0082389 -0.055570822 -0.09948044
-0.004070002 0.009700783 0.015828913 -0.14080904 -0.07850967 0.0864255 0.081169076 0.04761291
0.09556324 -0.09221262 0.055412363 0.07469679 -0.028213726 -0.11768828 0.067657284 -0.05716994
0.044309735 -0.053724088 -0.033085812 -0.09206483 -0.19529201 0.022463618 -0.055448305 0.04127491
00000000: 96ce 83be efeb f3bd 7659 4ebe bc26 60be
00000010: 7513 a63d 7498 ff3c febb 8a3d 9177 043d
00000020: 66d2 3cbe 43a4 763c 68ed 3e3b 81c8 20be
00000030: 50d6 803c 2e90 453d c865 86be 8134 cd3c
00000040: 6e55 883d 5d25 29bd c20b 9fbd 977b 2c3d
00000050: 878e 393d 80ce 98be 60b3 303d 28f8 093e
00000060: d62e 4b3d f28c 9ebd 86b3 54be 6747 d73d
00000070: 19fa cabd c8d8 1f3d 00f2 4dbd 9c04 823d
00000080: 1116 fe3c 7cac 9fbd 9d2d 2dbd f4fa e9bd
00000090: 9269 f13c 6785 243d 1d4c 03bd 3967 043c
000000a0: 7519 543c b465 c33d 2f29 a73d 7ad3 17be
000000b0: 142c 223d 42e1 85bc 5e79 7a3b a207 89bd
000000c0: 0a57 af3d a451 a33c bf85 813d 379a 80bd
000000d0: 4578 25bd 23c1 8fbc 5dd6 9f3a 2714 8f3c
000000e0: fbe6 89bc b66b 7b3c 4c96 66be a4d0 75bd
000000f0: ddc9 0c3d 201e 93bd 9faf 55be ef18 a0bc
00000100: 43d1 873d 88d2 2cbe c193 43bb 5d16 c2bd
00000110: 0df0 8cbe 3c47 32bd 3b30 9dbd 2045 28bc
00000120: 32f3 2fbe a572 33be 3558 b53d de9f 49bd
00000130: bc59 d0bc 51de 0dbd b5f4 30bd 5f7a 0d3d
00000140: a27d 2d3e 56b8 a73d 2296 c3bc 1f7a d2bc
00000150: 3c27 ae3d 9a14 23bd 69ef 13be 1f5d 58be
00000160: 619d c1bd 3464 c5be 5fa5 56bd c2d1 243d
00000170: be0d 6a3c b477 4a3d 26ca b13d 035c 17bc
00000180: dabd e93c f6b3 2fbe d259 813d b853 febc
00000190: 1d9a 12be 30f0 2f3c d511 6fbe 9bc3 28bd
000001a0: 1e1c 9dbd 2f8d 63bd 4913 a6bd 26a3 1fbe
000001b0: 8328 a9bd 5098 3b3d fae9 703d 57a5 31bd
000001c0: bcc4 903c e69f 9d3d ef2c 553d e65a 23bd
000001d0: 2f1b 89bd c56e 8bbe 8f83 aa3d 5504 9b3b
000001e0: 7e9a 8d3d 4557 c93d fe56 56bd ee32 bb3c
000001f0: 3f95 09be 90fd a4bd 4492 323d 6810 563d
00000200: 1ed6 34be 42fc 69bd a583 16be 5ba0 3fbd
00000210: d2aa 04bd 82c3 883d 02da cb3c b3d4 bdbc
00000220: e488 e83c b915 863d 1176 91bd e24d fdbd
00000230: d4ff 7c3c 623c 9cbd 71b1 18bd 9009 ae3c
00000240: a140 1dbd ce18 e0bd e02f 6abe 8aa9 5b3d
00000250: f162 693d 554e 0abe a1b8 ccbc 0605 053e
00000260: 9632 d8bc cffa ab3d 1d67 f7bc 45dc 9bbd
00000270: 267f 313c a6c8 c93c 45ec 173d f1d7 6fbd
00000280: 6688 d83b 6e8f 88bd 3b7c 1abe 5d3f fc3c
00000290: 3687 51bc a3e8 a43b 81ac 3a3d 53fb 7bbd
000002a0: 4e22 833d 4460 bc3d 5b5b 9ebd 34a1 6cbd
000002b0: 92df b43a 9c1b 8d3c ee33 01bc 6914 de3c
000002c0: 887e b0bd 287c 8bbc 8c76 813d 4693 453c
000002d0: 1452 39bd 8058 923d 1dd8 a8bd 3927 a13d
000002e0: 4a96 423d d580 4c3b fdeb 94bc 5365 8cbd
000002f0: ae5f 5b3c 4a37 89bd 93f4 983c d059 39bd
00000300: 6902 84bd 0478 403c f8dd 8ebd 7ce9 f0bd
00000310: 725a fbbd e166 713c b069 7a3d 1d18 97bd
00000320: c1ab 61bd 8935 eebd d78a 0cbd 38f4 4b3d
00000330: a9ab 1dbe 2a49 883d f1f8 73bd 7daa 65bd
00000340: 38ea af3d 33bf 393d 525c 33bd 1626 3c3d
00000350: 9428 0fba 9255 673d c3f6 fbbd fc6f 68be
00000360: 91f8 6e3d 2fb1 80be 190f 1bbe a2d2 403d
00000370: 39db 463c f5ea c63a 38aa 5dbd c714 e5bc
00000380: 1526 bc3c 2e98 7fbd da14 cc3c f3cf cb3c
00000390: 14de 4dbe 74fc 063c 3b9e 63bd 67bc cbbd
000003a0: a75d 85bb 08f0 1e3c a3ab 813c 3f30 10be
000003b0: aec9 a0bd daff b03d f93b a63d c105 433d
000003c0: a9b6 c33d f8d9 bcbd 13f8 623d a1fa 983d
000003d0: 7920 e7bc 8e06 f1bd e78f 8a3d 072b 6abd
000003e0: 207e 353d ca0d 5cbd fd84 07bd 7c8c bcbd
000003f0: a1fa 47be 9f05 b83c c31d 63bd e10f 293d

fc2.bias f4 [128]
0.009603763 -0.089935 0.111589104 -0.116001144 0.2516319 0.2218651 -0.08965806 0.10055779
0.05509107 -0.1258235 0.017627358 0.05590437 0.15561792 0.083774365 0.042647656 -0.07848992
-0.076371774 0.11608555 -0.0043059527 -0.14393933 0.12126478 0.09559914 -0.017023938 0.14975952
-0.13025217 -0.09470926 0.23489232 -0.17357853 0.11126004 0.18461065 0.029383484 -0.03274532
0.24960184 0.17954268 -0.04667152 0.018145455 0.13039555 -0.206599 -0.3845442 -0.00840931
-0.14800374 -0.0935232 0.12688573 0.19895433 -0.06664813 -0.126263 0.03805343 -0.040936816
0.017136507 0.1970652 -0.08443668 0.13610329 -0.07732518 -0.11755559 -0.025176223 0.0025484136
0.06721864 0.21173516 0.2745477 -0.012998898 0.15147756 0.27249163 0.18400551 -0.028660446
0.09497752 -0.13289467 0.0044689695 -0.022165844 0.24972002 -0.08270818 0.04279316 0.18584543
0.14114554 0.26278493 0.13525367 0.09733433 -0.055988576 -0.044209 0.18565588 -0.13439514
-0.052817903 -0.0055637704 0.15809153 -0.17100486 0.166537 -0.10059386 -0.1800205 0.18348184
-0.04926517 -0.0021109197 -0.07789171 0.16825098 0.13027647 -0.082637705 -0.1370045 -0.033347715
0.16607162 0.18959673 0.02487911 0.2883762 -0.043100312 -0.13139439 0.16934708 0.2822781
-0.029838704 -0.10907142 0.2779969 -0.043275647 0.029499339 -0.229064 0.07301441 0.051346645
-0.17538857 -0.039573807 0.04050779 0.025153946 -0.03764921 -0.09953603 -0.015081788 0.041143186
0.15123734 0.046671495 -0.106033936 0.13257492 -0.10545092 -0.15760121 -0.055953622 0.13118099
00000000: 1a59 1d3c d72f b8bd d488 e43d 0292 edbd
00000010: e5d5 803e 9b30 633e a59e b7bd 3ef1 cd3d
00000020: 2ca7 613d e0d7 00be 4067 903c fbfb 643d
00000030: 4e5a 1f3e e591 ab3d 4faf 2e3d 53bf a0bd
00000040: ce68 9cbd 43be ed3d f318 8dbb d564 13be
00000050: ab59 f83d 7bc9 c33d c975 8bbc 8f5a 193e
00000060: d360 05be eef6 c1bd 9d87 703e 92be 31be
00000070: 4edc e33d 930a 3d3e a2b5 f03c f51f 06bd
00000080: a097 7f3e 09da 373e a32a 3fbd c7a5 943c
00000090: 6986 053e b08e 53be fae2 c4be 34c7 09bc
000000a0: 4b8e 17be 1789 bfbd 55ee 013e afba 4b3e
000000b0: d17e 88bd 164b 01be eadd 1b3d 5dad 27bd
000000c0: dc61 8c3c 76cb 493e 23ed acbd a95e 0b3e
000000d0: aa5c 9ebd fcc0 f0bd 5e3e cebc 4903 273b
000000e0: eda9 893d 1ad1 583e 8491 8c3e 54f9 54bc
000000f0: ef1c 1b3e 0684 8b3e f16b 3c3e 50c9 eabc
00000100: 9383 c23d 8a15 08be 6f70 923b 2595 b5bc
00000110: 9bb6 7f3e e862 a9bd e147 2f3d 444e 3e3e
00000120: 7588 103e bf8b 863e f07f 0a3e 3957 c73d
00000130: 4754 65bd 7f14 35bd 931c 3e3e e19e 09be
00000140: 9657 58bd 4a50 b6bb bfe2 213e e61b 2fbe
00000150: ad88 2a3e 2704 cebd 4b57 38be aae2 3b3e
00000160: 46ca 49bd 5b57 0abb b085 9fbd fc49 2c3e
00000170: 3267 053e f53d a9bd e84a 0cbe 9d97 08bd
00000180: ae0e 2a3e a525 423e 46cf cb3c 0ca6 933e
00000190: f489 30bd 408c 06be 5269 2d3e c186 903e
000001a0: 4c70 f4bc d660 dfbd 9c55 8e3e ce41 31bd
000001b0: 99a8 f13c c18f 6abe 9488 953d dc50 523d
000001c0: 1099 33be 2518 22bd 7feb 253d a60f ce3c
000001d0: 0f36 1abd 8cd9 cbbd 9b19 77bc c285 283d
000001e0: f6dd 1a3e 9c2a 3f3d 5228 d9bd b8c1 073e
000001f0: a7f6 d7bd 3662 21be a02f 65bd 4f54 063e

fc3.weight f4 [64, 128]
0.0039471723 -0.051000405 -0.10524112 0.031354874 -0.29660445 -0.5069236 -0.17549117 -0.45456868
-0.16964743 -0.09238049 -0.10512885 -0.064425744 -0.53796357 0.06617813 -0.015284584 -0.11707085
0.038430426 -0.19339919 -0.14485918 -0.07559768 -0.31785074 0.5399132 0.037200227 0.17856675
0.04971632 -0.026961224 0.093615994 -0.35117874 0.2111042 -0.15943366 0.00913178 -0.070856296
-0.66824836 -0.24886617 -0.059028454 0.21383344 -0.569719 0.07074141 -0.117653914 0.11342741
-0.0056869145 0.24356405 -0.0025939625 0.23643668 -0.018137068 -0.03997942 -0.102070294 -0.01670179
0.07307761 -0.33653265 0.025168428 -0.37458706 -0.04713718 0.039451018 0.03706543 -0.4401963
-0.027050164 -0.024530124 0.1758258 0.15765958 -0.72178465 0.12131837 -0.035341617 -0.1881607
-0.54422694 -0.06391561 -0.02984654 -0.002075416 0.1652252 -0.17307094 0.16807802 0.29233596
-0.55687374 0.039628785 -0.26957196 0.06797133 -0.00036701982 0.09074513 0.08284625 -0.08536495
0.006358081 0.006395665 -0.646511 -0.23653132 -0.287638 -0.10309079 -0.04891429 -0.56736195
0.12124507 0.07527926 0.10593861 0.02427464 0.08643564 0.07109256 -0.056553457 0.08824623
0.20599474 0.13222733 -0.08620671 0.045964688 -0.025668608 -0.043230668 0.04830288 0.12227549
-0.15234537 0.036376927 -0.5283659 -0.047996696 -0.321622 0.02362563 0.1765688 0.12425101
-0.094838426 0.04292384 -0.23175927 -0.07146045 0.010647159 -0.05497484 0.15735778 0.11950366
0.13218415 0.17327164 -0.11752437 -0.12623444 0.06423749 -0.014463946 -0.018426294 0.0035507372
-0.31228185 0.035645798 0.15818518 0.04000899 -0.6759652 -0.314016 -0.022122603 0.09784143
-0.16989279 -0.053606365 -0.28043175 0.22421636 -0.27871147 0.098782025 0.43781424 0.0066566626
-0.05931172 0.08381798 0.20868002 0.1242261 -0.26163933 0.16749795 -0.16001315 0.110458836
-0.05505494 0.11367668 0.13960151 -0.43380627 -0.09689233 0.06102669 0.023860283 0.02250568
0.06117272 0.4677292 -0.35438988 -0.7916195 0.022501849 -0.44367924 -0.52466285 0.02664347
-0.056997046 -0.091522574 0.10236109 -0.050486747 0.07114239 0.056131594 -0.07380897 -0.1222868
-0.044813897 0.6124914 -0.13961127 -0.68007135 -0.044891506 -0.054773185 0.037762318 0.33506483
-0.2758023 0.13040046 -0.0031130805 0.1206182 0.16603385 0.5919677 -0.14131947 -0.71002245
0.031628996 0.08237844 0.013232227 0.03723392 -0.030071577 -0.53261906 -0.21483627 0.12185168
-1.2599025 0.056098763 0.32739073 -0.07411995 -0.43148166 0.017628955 0.11352499 -0.030832969
-0.008404238 0.024236482 -0.0519584 -1.240247 0.108738095 -0.30354455 -0.24509563 -0.0027211208
-0.1800869 0.007825208 -0.019077921 0.015801279 -0.0559782 -0.027849052 -0.017069684 -0.050781194
-0.5944169 0.047007114 -0.16859457 0.11709229 0.07400473 0.0005483744 -0.7083895 -0.104416505
0.095497616 0.04553846 0.21302602 0.012419534 0.058744952 0.06541542 -0.8173542 0.20579107
-0.3540285 -0.6994887 0.0048068156 0.1509779 -0.087142825 0.11834472 -0.8119481 -0.07133594
-0.30850527 -0.40451795 -0.2202183 0.19771156 0.06704002 -0.21607864 0.12501511 0.1669485
00000000: 4857 813b cde5 50bd a888 d7bd f86d 003d
00000010: 8adc 97be bfc5 01bf f5b3 33be 3abd e8be
00000020: 0eb8 2dbe fb31 bdbd cb4d d7bd a5f1 83bd
00000030: fbb7 09bf 6688 873d 316c 7abc d8c2 efbd
00000040: 3969 1d3d 700a 46be f755 14be f5d2 9abd
00000050: 55bd a2be c037 0a3f 445f 183d 34da 363e
00000060: 57a3 4b3d c9dd dcbc beb9 bf3d b3cd b3be
00000070: b32b 583e 9442 23be 769d 153c 1b1d 91bd
00000080: 5312 2bbf c6d6 7ebe d2c7 71bd 27f7 5a3e
00000090: 1bd9 11bf dfe0 903d 89f4 f0bd a14c e83d
000000a0: 4c59 babb db68 793e 78ff 29bb 751c 723e
000000b0: 3094 94bc 76c1 23bd 3b0a d1bd 31d2 88bc
000000c0: b7a9 953d 024e acbe 052e ce3c e0c9 bfbe
000000d0: ea12 41bd 6497 213d ecd1 173d 6961 e1be
000000e0: 4e98 ddbc 66f3 c8bc ae0b 343e 8371 213e
000000f0: e1c6 38bf c475 f83d 5fc2 10bd 33ad 40be
00000100: 7552 0bbf 30e6 82bd bb80 f4bc b403 08bb
00000110: cb30 293e 8239 31be a51c 2c3e 0fad 953e
00000120: 478f 0ebf cb51 223d 5605 8abe 8d34 8b3d
00000130: 916c c0b9 95d8 b93d 4bab a93d d2d3 aebd
00000140: 7357 d03b ba92 d13b bf81 25bf 4435 72be
00000150: 4a45 93be 4421 d3bd 5a5a 48bd a23e 11bf
00000160: 564f f83d 032c 9a3d 58f6 d83d 9cdb c63c
00000170: 2b05 b13d fa98 913d 99a4 67bd 70ba b43d
00000180: 49f0 523e 9a66 073e 258d b0bd 7845 3c3d
00000190: f946 d2bc a412 31bd 3ed9 453d 926b fa3d
000001a0: 6d00 1cbe f9ff 143d fd42 07bf 2f98 44bd
000001b0: a4ab a4be 8a8a c13c 74ce 343e 5077 fe3d
000001c0: a63a c2bd e9d0 2f3d 4d52 6dbe db59 92bd
000001d0: 6c71 2e3c 4c2d 61bd 6622 213e 56be f43d
000001e0: 485b 073e 1f6e 313e 9eb0 f0bd 9a43 01be
000001f0: f28e 833d 30fa 6cbc bdf2 96bc 7cb3 683b
00000200: 68e3 9fbe 5401 123d 4cfb 213e 77e0 233d
00000210: 0e0c 2dbf b5c6 a0be 763a b5bc 1661 c83d
00000220: 60f8 2dbe 5992 5bbd c094 8fbe f998 653e
00000230: 45b3 8ebe 3b4e ca3d 3029 e03e 2220 da3b
00000240: d9f0 72bd c3a8 ab3d 37b0 553e 416a fe3d
00000250: 97f5 85be 9584 2b3e 7dda 23be 3e38 e23d
00000260: 4a81 61bd 52cf e83d b3f3 0e3e db1b debe
00000270: 7c6f c6bd 1ff7 793d a476 c33c d55d b83c
00000280: 3f90 7a3d 347a ef3e 9772 b5be 93a7 4abf
00000290: cc55 b83c ed29 e3be 4e50 06bf 6843 da3c
000002a0: bc75 69bd 3070 bbbd b1a2 d13d 31cb 4ebd
000002b0: 1ab3 913d 3eea 653d 2829 97bd 8071 fabd
000002c0: c78e 37bd 3dcc 1c3f 42f6 0ebe 2819 2ebf
000002d0: 28e0 37bd d959 60bd a9ac 1a3d 9e8d ab3e
000002e0: f635 8dbe b387 053e d304 4cbb ad06 f73d
000002f0: c704 2a3e 328b 173f 0db6 10be 08c4 35bf
00000300: 688d 013d 07b6 a83d fccb 583c 9882 183d
00000310: ab58 f6bc b959 08bf 0afe 5bbe 608d f93d
00000320: 7c44 a1bf d1c7 653d c29f a73e 33cc 97bd
00000330: 2aeb dcbe 996a 903c ca7f e83d 6c95 fcbc
00000340: eeb1 09bc 968b c63c 55d2 54bd 6ac0 9ebf
00000350: 14b2 de3d 316a 9bbe 59fa 7abe d554 32bb
00000360: b368 38be 4d35 003c 4d49 9cbc af71 813c
00000370: 6649 65bd b223 e4bc b9d5 8bbc f1ff 4fbd
00000380: b52b 18bf 888a 403d 0ea4 2cbe 15ce ef3d
00000390: cb8f 973d c8c0 0f3a 0459 35bf 52d8 d5bd
000003a0: 4194 c33d 8986 3a3d 7e23 5a3e 4d7b 4b3c
000003b0: 8c9e 703d 85f8 853d 203e 51bf e5ba 523e
000003c0: 3943 b5be b111 33bf 7e82 9d3b f399 1a3e
000003d0: f077 b2bd b75e f23d d5db 4fbf 9418 92bd
000003e0: 67f4 9dbe fa1c cfbe e880 61be e674 4a3e
000003f0: 474c 893d b843 5dbe f603 003e 8cf4 2a3e

fc3.bias f4 [64]
0.09443639 0.21871395 0.11706928 0.10395772 0.284206 0.06976503 -0.14799918 0.4183935
-0.1219299 0.28639042 -0.19564931 0.069548294 -0.047064934 -0.17484413 0.27939925 0.055845294
-0.098413646 -0.13651888 -0.080180824 -0.1590194 -0.05764524 0.30124924 0.19361566 0.24047528
-0.12501717 0.054890502 -0.09902932 -0.050116885 0.2655386 -0.122076906 0.08565823 0.18934375
0.09490002 0.08026184 0.1395761 -0.3028165 0.3109487 0.29159534 -0.043454215 -0.05581992
-0.16515587 0.29598984 0.002388782 -0.055577062 0.13293901 0.09973054 0.12598927 -0.057499655
0.00038453704 -0.1554951 -0.16803928 0.20844066 0.36635828 0.2030333 0.16563177 -0.18709306
-0.13508107 -0.08620484 0.0021037587 0.11717268 0.13256526 0.23326467 -0.16934367 0.06269492
00000000: de67 c13d 8df6 5f3e 05c2 ef3d c9e7 d43d
00000010: 7383 913e f8e0 8e3d 198d 17be ac37 d63e
00000020: 62b6 f9bd c4a1 923e 4b58 48be 566f 8e3d
00000030: 29c7 40bd 570a 33be 6b0d 8f3e 09be 643d
00000040: 188d c9bd 9bcb 0bbe d835 a4bd fbd5 22be
00000050: 6a1d 6cbd 573d 9a3e 2f43 463e 273f 763e
00000060: 8004 00be ddd4 603d e2cf cabd 5d47 4dbd
00000070: adf4 873e 7503 fabd 956d af3d 54e3 413e
00000080: f15a c23d 5260 a43d 0aed 0e3e c40a 9bbe
00000090: ab34 9f3e fc4b 953e 0cfd 31bd 6ea3 64bd
000000a0: 9f1e 29be fb8b 973e 1d8d 1c3b c6a4 63bd
000000b0: 2a21 083e 863f cc3d 5503 013e c284 6bbd
000000c0: b09b c939 1c3a 1fbe 7d12 2cbe 7871 553e
000000d0: 5093 bb3e f6e7 4f3e 609b 293e 5395 3fbe
000000e0: b152 0abe 2a8c b0bd 37df 093b 3bf8 ef3d
000000f0: 30bf 073e efdc 6e3e 6d68 2dbe 3266 803d

fc4.weight f4 [51, 64]
-0.14447676 0.45940816 -0.20733723 -0.14727339 0.17365476 -0.022813296 -0.019928925 0.15890273
0.0018321397 0.34828272 0.26195207 -0.27810737 0.37859204 -0.6594244 0.40414202 -0.1095336
0.23431215 -0.00693096 -0.0014970882 0.01057637 0.05736142 0.06622934 -0.43582076 0.4449858
0.029928755 0.13072786 -0.030643748 -0.0680858 0.0662289 -0.0056886473 -0.62638515 0.18597686
0.21501468 0.18077885 -0.1816033 0.26031908 0.3866617 0.13077894 0.17824163 -0.2328196
0.044550195 0.14425915 -0.27878153 -0.010896439 -0.011033897 0.49406743 -0.06995875 0.013843652
-0.77001226 -0.050870597 -0.023778727 -0.21615748 0.16483715 -0.19468543 -0.13440044 0.22301675
-0.044711035 -0.16880006 0.0067698876 -0.1111785 -0.7633707 -0.2894468 0.025980206 -0.4359934
0.028623745 0.12444463 0.06409116 -0.07764122 0.09505813 0.054420084 0.06302081 -0.081702515
-0.0064940453 0.09819016 0.055311337 -0.06520368 0.120917246 -0.020721287 0.04633324 0.07542725
0.10511145 -0.054485157 -0.044324815 0.10136829 -0.06290935 0.10873079 -0.06871705 -0.08921419
0.07073389 0.02179733 0.05482939 0.019861624 0.022144735 0.118595436 -0.06006971 0.073534
-0.05651623 -0.1022944 -0.12441836 -0.08497867 0.019077003 0.058612823 0.096522674 0.08409223
-0.037976265 0.03162913 0.06638366 0.04554957 0.008454949 0.10550627 0.009923711 0.117046624
0.008667514 0.10534085 0.04867871 -0.06138453 0.008803517 -0.103468135 -0.081736505 -0.10089326
-0.011380732 0.035473213 0.12252572 0.08789244 -0.007578358 -0.042223945 0.07521348 0.046575785
0.060374036 0.042182714 -0.07097572 0.07168828 0.076818004 -0.12465887 0.047973245 0.05363594
0.010032773 -0.08290018 0.07208447 0.10295075 0.020877257 -0.004190132 0.09194146 -0.06214428
0.09356518 0.103841126 -0.029908285 -0.045142546 -0.066061586 -0.07097426 -0.0055356175 0.014134407
0.050192237 0.0021898597 -0.017287895 -0.07202764 -0.10148361 0.05785148 0.12315957 0.059683114
-0.053198054 -0.050133094 0.09822562 0.04151176 -0.12173532 0.0065803975 0.008768529 0.00024347007
0.045960277 -0.11314769 -0.01610893 -0.01264751 -0.09114234 0.08224575 -0.09004006 0.049173474
-0.02748324 -0.11633961 -0.08783649 0.09368506 0.039420187 0.013111472 0.0394388 -0.114471585
-0.018840417 -0.017823502 -0.12076607 0.11336891 -0.0038575232 0.04162711 -0.04969558 0.10692231
-0.053704336 -0.070614755 0.052554205 -0.0019607097 0.00087842345 -0.054651216 0.009536788 0.07384637
-0.119055465 -0.0022915304 -0.09722893 0.090183556 0.111948416 0.05311933 0.042432964 0.067194134
0.08893359 0.10813671 0.12104298 -0.016183257 -0.059181124 0.006117001 0.08953191 0.104974404
-0.08335176 0.017384768 -0.033015892 0.021555275 0.025177196 0.083752304 -0.10529274 -0.08403739
-0.009041131 0.10857102 0.038100332 -0.046816975 -0.06898284 0.007938072 0.0026709437 0.098483786
-0.04676363 0.06425774 -0.018778235 -3.5464764e-06 -0.09975225 -0.121059984 -0.019404843 -0.031173319
-0.03513597 -0.099404946 -0.094996154 0.060053617 -0.07339935 -0.059397742 -0.061211884 0.12287395
-0.029619992 0.074773565 -0.04024206 -0.02898699 0.10583459 0.11966443 0.0009829253 -0.086392134
00000000: b7f1 13be 8c37 eb3e 3650 54be d6ce 16be
00000010: 8ed2 313e f3e2 babc fc41 a3bc 66b7 223e
00000020: 6824 f03a 1d52 b23e 951e 863e 1764 8ebe
00000030: d1d6 c13e 0ad0 28bf b4eb ce3e 2753 e0bd
00000040: 86ef 6f3e 1b1d e3bb f239 c4ba 8348 2d3c
00000050: cff3 6a3d 40a3 873d e623 dfbe 2ed5 e33e
00000060: 262d f53c 86dd 053e 9908 fbbc 9170 8bbd
00000070: 04a3 873d d567 babb c75a 20bf b870 3e3e
00000080: cf2c 5c3e 171e 393e 37f6 39be 8b48 853e
00000090: 86f8 c53e eaea 053e f984 363e 4368 6ebe
000000a0: 447a 363d acb8 133e 74bc 8ebe fa86 32bc
000000b0: 85c7 34bc 68f6 fc3e 8846 8fbd 7cd0 623c
000000c0: 861f 45bf b05d 50bd 9bcb c2bc 6358 5dbe
000000d0: 12cb 283e 9e5b 47be 45a0 09be 815e 643e
000000e0: eb22 37bd ecd9 2cbe efd5 dd3b 8eb1 e3bd
000000f0: 436c 43bf 5f32 94be 71d4 d43c 873a dfbe
00000100: 587c ea3c d4dc fe3d 3a42 833d 5c02 9fbd
00000110: d6ad c23d 98e7 5e3d 0e11 813d a653 a7bd
00000120: 00cc d4bb ec17 c93d 248e 623d 8289 85bd
00000130: 76a3 f73d b0bf a9bc ecc7 3d3d 9a79 9a3d
00000140: ac44 d73d d42b 5fbd f08d 35bd 2e9a cf3d
00000150: 9ed6 80bd 40ae de3d 86bb 8cbd eeb5 b6bd
00000160: eedc 903d 5090 b23c c894 603d d8b4 a23c
00000170: e068 b53c 2ae2 f23d a80b 76bd fe98 963d
00000180: 907d 67bd ba7f d1bd 0ecf febd 4c09 aebd
00000190: 6047 9c3c 0014 703d aead c53d 8c38 ac3d
000001a0: 008d 1bbd 8c8d 013d 28f4 873d 3092 3a3d
000001b0: a086 0a3c ac13 d83d 1097 223c 24b6 ef3d
000001c0: 3002 0e3c f2bc d73d 5463 473d 586e 7bbd
000001d0: a03c 103c 1ae7 d3bd 7865 a7bd 20a1 cebd
000001e0: 4076 3abc 5c4c 113d c4ee fa3d f400 b43d
000001f0: e053 f8bb 04f3 2cbd 8609 9a3d 40c6 3e3d
00000200: c44a 773d c8c7 2c3d b85b 91bd 4ed1 923d
00000210: c252 9d3d 264d ffbd 987f 443d 5cb1 5b3d
00000220: 8060 243c 92c7 a9bd 06a1 933d d8d7 d23d
00000230: c806 ab3c 604d 89bb ce4b bc3d 008b 7ebd
00000240: 1a9f bf3d a8aa d43d 3802 f5bc 64e7 38bd
00000250: 4c4b 87bd f45a 91bd 2064 b5bb 0094 673c
00000260: 6096 4d3d c083 0f3b 589f 8dbc 3a83 93bd
00000270: a4d6 cfbd acf5 6c3d 163b fc3d 4876 743d
00000280: 34e6 59bd 5c58 4dbd 842a c93d 3c08 2a3d
00000290: 5e50 f9bd 60a0 d73b e0a9 0f3c 004c 7f39
000002a0: d840 3c3d fab9 e7bd e0f6 83bc 8037 4fbc
000002b0: d6a8 babd 7670 a83d ec66 b8bd 206a 493d
000002c0: 8824 e1bc 7643 eebd 9ee3 b3bd f4dd bf3d
000002d0: 1077 213d 80d1 563c 948a 213d 1470 eabd
000002e0: 3857 9abc 9802 92bc 3454 f7bd f62d e83d
000002f0: 80ce 7cbb 3081 2a3d 988d 4bbd 16fa da3d
00000300: 14f9 5bbd 789e 90bd 1443 573d 407f 00bb
00000310: 0046 663a f4d9 5fbd 3040 1c3c c43c 973d
00000320: 5ad3 f3bd 802d 16bb f61f c7bd 28b2 b83d
00000330: 3645 e53d a893 593d 30ce 2d3d 149d 893d
00000340: d022 b63d c876 dd3d 62e5 f73d c092 84bc
00000350: e867 72bd 2071 c83b 825c b73d d2fc d63d
00000360: 54b4 aabd 806a 8e3c ac3b 07bd b094 b03c
00000370: 6840 ce3c 5486 ab3d b8a3 d7bd cc1b acbd
00000380: 4021 14bc 7c5a de3d 180f 1c3d 28c3 3fbd
00000390: e046 8dbd b00e 023c 000b 2f3b deb1 c93d
000003a0: 388b 3fbd 9099 833d d0d4 99bc 0000 6eb6
000003b0: e84a ccbd 4cee f7bd e8f6 9ebc 305f ffbc
000003c0: bcea 0fbd d294 cbbd 588d c2bd c8fa 753d
000003d0: 6652 96bd 0c4b 73bd 50b9 7abd 56a5 fb3d
000003e0: a0a5 f2bc e222 993d dcd4 24bd 2076 edbc
000003f0: cebf d83d a012 f53d 80d5 803a 5cee b0bd

fc4.bias f4 [51]
0.45511332 0.08635078 0.058817863 -0.03280741 0.105033934 0.081144944 0.10109632 -0.018566161
-0.0051024407 0.1128476 -0.0682545 -0.014060751 -0.014015079 -0.100433215 0.0796112 0.07391232
0.08956829 -0.041038215 -0.072194815 0.04942435 -0.10833229 0.053846657 -0.07616092 0.023939818
-0.029444695 0.082301274 -0.058504462 -0.12413341 0.065067515 -0.020418823 -0.10751082 -0.10198225
-0.024240136 -0.037157014 0.1155079 0.10724795 0.03678389 0.0807828 -0.053824976 0.10378751
0.068138614 0.08755243 -0.039256975 -0.099481165 0.06753564 -0.010841683 0.07766785 -0.05241105
-0.11124565 -0.07833023 -0.038012385
00000000: 9d04 e93e aed8 b03d 00eb 703d 1061 06bd
00000010: 081c d73d 522f a63d 960b cf3d 1018 98bc
00000020: 6032 a7bb a41c e73d 04c9 8bbd 105f 66bc
00000030: 809f 65bc eeaf cdbd 320b a33d 585f 973d
00000040: 946f b73d b017 28bd e0da 93bd 3071 4a3d
00000050: 52dd ddbd 508e 5c3d 42fa 9bbd 701d c43c
00000060: 0036 f1bc 928d a83d 60a2 6fbd a839 febd
00000070: 1e42 853d 6045 a7bc a22e dcbd 12dc d0bd
00000080: 4093 c6bc f431 18bd 688f ec3d d0a4 db3d
00000090: b4aa 163d 7471 a53d 9477 5cbd 8c8e d43d
000000a0: 428c 8b3d b04e b33d eccb 20bd c8bc cbbd
000000b0: 2050 8a3d 50a1 31bc 5210 9f3d f8ac 56bd
000000c0: c2d4 e3bd 9a6b a0bd e0b2 1bbd
