models/comparison_apache@airvata_comparison_1000ep_dqn/pointwise_dqn_1000ep_dqn.pt (torch, 144908 bytes, 8 tensors)

fc1.weight f4 [128, 56]
-0.011932814 0.06786836 -0.060831632 0.025715834 -0.0875537 -0.07924962 0.1351533 -0.0996682
-0.061291724 0.00443707 -0.07813034 0.096136935 -0.050157025 0.020683875 0.063771926 0.030705448
-0.084067546 -0.027634118 0.0031488528 0.14292385 0.1094669 0.054426055 -0.006284325 -0.07890965
0.032239124 0.11944964 -0.042522386 -0.07386655 -0.005571295 0.12537453 -0.034722593 0.14917158
0.055359956 0.064781934 0.019818494 0.04543478 -0.09672507 -0.028483463 -0.1025493 0.11259934
0.041913774 -0.15529345 0.1390015 -0.013664677 0.031821735 0.088993445 0.012362721 0.07946951
0.15486108 0.068358876 0.08892186 -0.015296404 -0.00870795 0.0049005277 0.09103437 0.048433255
-0.10519848 -0.12692353 0.32563457 -0.4104208 0.10451001 -0.33034703 0.10150068 -0.3503519
-0.12448688 -0.3370236 -0.089216985 0.03599836 -0.11104176 -0.043379813 -0.08504917 -0.025569197
0.060140073 0.049930595 -0.014620209 0.13102245 -0.018807646 -0.08690536 0.05308252 0.13956045
-0.021873675 0.007411425 -0.05863611 -0.10828942 0.12258234 -0.067819685 0.120741785 -0.04071625
0.025344366 0.08378002 -0.07195682 -0.026105372 0.031842824 0.5208221 -0.15078184 -0.21478903
0.057991307 0.110895745 0.123602405 0.0585762 0.042877574 -0.013572765 -0.14013788 -0.14370885
-0.060127117 -0.048757523 -0.110814594 0.111187726 0.039573546 0.19585213 -0.08129134 0.041535728
-0.068965845 0.11604744 0.07285263 0.06515607 0.12531506 -0.046990458 -0.049702257 -0.082118236
0.07877061 -0.09497114 0.0752163 -0.13301545 0.06886096 0.092031114 -0.08974559 -0.12089705
0.045254547 -0.049906876 0.10443173 -0.05921671 -0.06127074 0.07263661 -0.123202704 0.041836653
0.014031679 -0.12131975 -0.12140467 0.11679264 0.10527243 0.024697699 -0.13028099 0.0992528
0.12584938 -0.10032304 0.070104726 0.10897665 0.0014422555 0.0012842456 0.13286078 -0.12833516
-0.012130433 -0.004491403 -0.011487051 0.057570186 0.10762696 0.11031458 -0.06190517 -0.042177923
-0.11248176 -0.092643276 0.050633956 -0.07241586 -0.031958137 0.018736003 -0.06736842 -0.12333983
0.03743532 0.9264663 0.28752154 0.28072694 0.12260604 0.19750006 -0.07886308 0.230392
-0.059341647 0.09936618 -0.17452884 -0.13862956 0.030724557 -0.1566187 -0.016953586 -0.018351763
0.066188514 0.0021651988 0.046090614 0.058378644 -0.064111054 -0.1497575 0.0416442 -0.15138215
-0.100859374 -0.004821592 -0.018251715 -0.18966733 -0.108220436 -0.19595717 0.010381394 0.08334715
-0.14654769 -0.12915097 -0.17006764 0.035439573 -0.13137412 1.0833994 -0.46620542 -0.41791758
0.07717192 -0.13588326 -0.12531413 -0.054922316 -0.09825123 -0.14832172 -0.09087673 -0.16811281
0.043252982 -0.16595899 -0.024522737 0.035214566 -0.058786362 0.088294566 -0.05813402 -0.043461215
0.09432463 -0.09724184 -0.07662033 -0.017838404 0.11986222 0.1055309 -0.071744695 -0.05574882
-0.08199783 0.107287504 -0.057941943 -0.12397029 -0.11002538 0.11944565 -0.12465515 -0.090432085
0.040155254 0.048453815 0.003563525 0.0556 0.04627282 0.0777934 0.1325516 0.11143507
0.12513128 -0.013057253 0.10395757 0.0014491036 0.13048594 -0.07358296 0.040735144 -0.07781428
00000000: d981 43bc 91fe 8a3d 972a 79bd 03aa d23c
00000010: 5b4f b3bd a04d a2bd a065 0a3e d71e ccbd
00000020: 080d 7bbd d764 913b cd02 a0bd 71e3 c43d
00000030: 7471 4dbd 3b71 a93c db9a 823d fe89 fb3c
00000040: 9b2b acbd f260 e2bc fc5c 4e3b a15a 123e
00000050: 2f30 e03d dbed 5e3d bdec cdbb 629b a1bd
00000060: 2c0d 043d 03a2 f43d f42b 2ebd 5947 97bd
00000070: 698f b6bb 2e62 003e 4739 0ebd 6fc0 183e
00000080: 1fc1 623d 64ac 843d 655a a23c d219 3a3d
00000090: cb17 c6bd 2756 e9bc 5e05 d2bd 7c9a e63d
000000a0: c7ad 2b3d 3f05 1fbe 6956 0e3e cfe1 5fbc
000000b0: 8257 023d 3242 b63d 038d 4a3c e9c0 a23d
000000c0: e793 1e3e bdff 8b3d aa1c b63d c59d 7abc
000000d0: caab 0ebc 9b94 a03b 3a70 ba3d f361 463d
000000e0: 4d72 d7bd 3ef8 01be 93b9 a63e ad22 d2be
000000f0: 5809 d63d 3f23 a9be 97df cf3d 5361 b3be
00000100: faf2 febd 5b8e acbe 65b7 b6bd 0473 133d
00000110: dd69 e3bd 08af 31bd 422e aebd 7e76 d1bc
00000120: 7055 763d 0684 4c3d 9a89 6fbc c02a 063e
00000130: 7e12 9abc 70fb b1bd 0e6d 593d efe8 0e3e
00000140: 6c30 b3bc 8adb f23b 6b2c 70bd d8c6 ddbd
00000150: 730c fb3d 0ce5 8abd 7847 f73d 15c6 26bd
00000160: fd9e cf3c dc94 ab3d 195e 93bd efda d5bc
00000170: 9f6d 023d 9954 053f 8e66 1abe a8f1 5bbe
00000180: 4b88 6d3d 4f1d e33d 4223 fd3d 99ed 6f3d
00000190: 65a0 2f3d 4d60 5ebc 4e80 0fbe 6a28 13be
000001a0: da47 76bd f8b5 47bd c3f2 e2bd 64b6 e33d
000001b0: df17 223d 768d 483e 137c a6bd 5e21 2a3d
000001c0: f73d 8dbd 48aa ed3d c233 953d 8c70 853d
000001d0: 9752 003e 1179 40bd 9894 4bbd 9b2d a8bd
000001e0: 7c52 a13d 3b80 c2bd 010b 9a3d 3435 08be
000001f0: fa06 8d3d cf7a bc3d 89cc b7bd df98 f7bd
00000200: d55c 393d 276b 4cbd 4ee0 d53d 398d 72bd
00000210: 07f7 7abd 81c2 943d b351 fcbd e95c 2b3d
00000220: 21e5 653c 7d76 f8bd 03a3 f8bd fb30 ef3d
00000230: 1299 d73d d452 ca3c 6168 05be 0d45 cb3d
00000240: a9de 003e 2a76 cdbd 1193 8f3d 262f df3d
00000250: 100a bd3a 2254 a83a a80c 083e 4b6a 03be
00000260: b9be 46bc 9e2c 93bb 2f34 3cbc b7ce 6b3d
00000270: 866b dc3d 9cec e13d 4790 7dbd c2c2 2cbd
00000280: d65c e6bd c2bb bdbd 8d65 4f3d c44e 94bd
00000290: 89e6 02bd 3f7c 993c 74f8 89bd 9899 fcbd
000002a0: c755 193d e52c 6d3f 0636 933e 71bb 8f3e
000002b0: e018 fb3d 753d 4a3e f782 a1bd e1eb 6b3e
000002c0: 3a10 73bd 7f80 cb3d b0b7 32be e8f4 0dbe
000002d0: 11b2 fb3c a760 20be 3fe2 8abc 7056 96bc
000002e0: d88d 873d 02e6 0d3b 83c9 3c3d 721e 6f3d
000002f0: a84c 83bd 085a 19be 1c93 2a3d ec03 1bbe
00000300: 5c8f cebd 72fe 9dbb 9f84 95bc 2738 42be
00000310: ada2 ddbd ffa8 48be b916 2a3c e9b1 aa3d
00000320: 9910 16be 2740 04be 3626 2ebe 1629 113d
00000330: f086 06be d5ac 8a3f 7ab2 eebe 4bf9 d5be
00000340: 500c 9e3d fb24 0bbe 5952 00be 39f6 60bd
00000350: f137 c9bd a6e1 17be 941d babd c425 2cbe
00000360: 0a2a 313d 27f1 29be e8e3 c8bc 263d 103d
00000370: f8c9 70bd c8d3 b43d f01d 6ebd 6304 32bd
00000380: 462d c13d bb26 c7bd 1feb 9cbd d821 92bc
00000390: 537a f53d 9620 d83d e2ee 92bd e058 64bd
000003a0: 7aee a7bd 8db9 db3d 8854 6dbd 23e4 fdbd
000003b0: fd54 e1bd ec9f f43d 334b ffbd 7534 b9bd
000003c0: d679 243d 8277 463d 078a 693b d3bc 633d
000003d0: 9288 3d3d 2552 9f3d 9bbb 073e 1238 e43d
000003e0: 6a22 003e 17ee 55bc b5e7 d43d d9ef bd3a
000003f0: 1b9e 053e aab2 96bd e5d9 263d 185d 9fbd

fc1.bias f4 [128]
-0.13641785 -0.07847639 -0.12502797 -0.010693783 -0.037933815 0.020634431 -0.0648077 0.11614484
0.110484466 0.06822274 0.0702336 -0.026146915 -0.071321785 0.07172191 0.057874117 -0.13868096
-0.04243323 0.02098967 -0.11938016 -0.026568733 -0.124203235 0.073839106 0.16912965 0.09933838
-0.110016406 0.003784342 0.10356731 0.011714324 -0.09392958 0.052674234 -0.12625162 0.028723152
-0.014530527 -0.026518054 0.13219194 -0.06904723 0.07745109 0.15178809 -0.07495548 -0.08103627
-0.028464599 -0.05056671 0.04341203 -0.005145521 -0.022877024 0.06639593 0.04091023 0.2250328
0.056075107 -0.011491134 0.0030386776 0.04664648 -0.027924545 -0.10646372 -0.05336267 -0.06471082
-0.35066786 -0.057511378 0.13770309 -0.0972082 -0.121221475 0.22335207 -0.013053507 0.069652356
0.023178762 0.10436394 -0.11958432 -0.24116687 0.0765723 -0.040619694 -0.038826883 0.001846814
0.018740622 0.06724379 0.15757723 -0.0077852733 -0.0598273 0.038031768 -0.4954713 -0.12546419
0.025861943 0.07788122 -0.0443136 0.071769565 -0.07292193 0.057529192 -0.050845202 0.013653142
0.06417263 -0.14596283 0.0497437 -0.3780463 0.107551366 0.04336333 0.113529004 -0.062047042
-0.027626354 -0.060902983 0.06657812 0.060697142 0.11855683 -0.06631784 0.051004257 -0.43225172
-0.10111294 0.03491729 -0.18988156 0.04645577 -0.036026802 0.080379955 0.061199393 -0.08291778
0.064651854 -0.018088395 -0.00513004 0.11767638 0.015899444 0.07111499 0.029021578 0.057154167
0.01510987 -0.052709155 0.027356248 -0.15737422 0.08360301 -0.12618749 -0.47508234 -0.007937208
00000000: 1fb1 0bbe 3bb8 a0bd 5507 00be fa34 2fbc
00000010: 7d60 1bbd 8a09 a93c e6b9 84bd 59dd ed3d
00000020: ae45 e23d 5db8 8b3d a2d6 8f3d 0e32 d6bc
00000030: 2811 92bd f0e2 923d 690d 6d3d 6202 0ebe
00000040: 77ce 2dbd 87f2 ab3c 967d f4bd aca6 d9bc
00000050: 445e febd f538 973d 5330 2d3e ec71 cb3d
00000060: 4850 e1bd b902 783b 191b d43d 70ed 3f3c
00000070: 275e c0bd f0c0 573d 1b48 01be d14c eb3c
00000080: 7311 6ebc 643c d9bc 535d 073e a268 8dbd
00000090: ad9e 9e3d 566e 1b3e 4282 99bd 58f6 a5bd
000000a0: 972e e9bc 0a1f 4fbd d0d0 313d c29b a8bb
000000b0: 9968 bbbc 97fa 873d 7c91 273d 006f 663e
000000c0: 03af 653d 4f45 3cbc 8d24 473b 6110 3f3d
000000d0: 04c2 e4bc a709 dabd d192 5abd 1b87 84bd
000000e0: bd8a b3be 0d91 6bbd 0a02 0d3e 1815 c7bd
000000f0: f742 f8bd 68b6 643e 60de 55bc e5a5 8e3d
00000100: 63e1 bd3c c3bc d53d a0e8 f4bd 73f4 76be
00000110: f0d1 9c3d d660 26bd f008 1fbd cb10 f23a
00000120: ef85 993c 1db7 893d ed5b 213e 9b1b ffbb
00000130: 790d 75bd 33c7 1b3d 6aae fdbe af79 00be
00000140: 6ddc d33c 3080 9f3d 2d82 35bd ecfb 923d
00000150: 1858 95bd bba3 6b3d 0f43 50bd 6eb1 5f3c
00000160: f16c 833d 4877 15be 0dc0 4b3d 498f c1be
00000170: e443 dc3d bf9d 313d e581 e83d 0a25 7ebd
00000180: aa50 e2bc 6875 79bd 1c5a 883d 919d 783d
00000190: eccd f23d a6d1 87bd d7e9 503d 1950 ddbe
000001a0: 4d14 cfbd 6f05 0f3d 5070 42be 6848 3e3d
000001b0: d790 13bd 3f9e a43d 37ac 7a3d ccd0 a9bd
000001c0: 3168 843d 1d2e 94bc e519 a8bb 5000 f13d
000001d0: 8d3f 823c bca4 913d a9be ed3c 7d1a 6a3d
000001e0: 638f 773c 8ee5 57bd 361a e03c b526 21be
000001f0: 0e38 ab3d 4b37 01be fe3d f3be 100b 02bc

fc2.weight f4 [128, 128]
-0.021662157 -0.08678908 0.07011064 -0.026940266 -0.056101114 -0.037208874 -0.010773588 0.011727941
-0.08623746 -0.034719095 -0.018358681 0.06208431 -0.016690547 0.072789386 0.04105247 -0.029354509
0.009259546 0.03241938 0.03176625 -0.055346243 -0.043819908 -0.08832188 0.05751427 -0.030000232
0.05580494 0.039446633 -0.05229209 0.074895464 0.0035434524 -0.05415044 -0.052705243 0.0050792284
-0.048659462 -0.011041773 0.055322964 0.01637033 -0.09834797 0.019724103 0.08530803 -0.020490121
-0.05697055 -0.027091805 -0.06336084 0.069402374 0.004215619 -0.03751607 -0.07086692 -0.06957001
-0.03098241 -0.013749102 0.0067527224 0.030666446 0.017835645 -0.040699426 -0.00031215238 -0.07920955
0.07053501 0.02697177 -0.03713295 0.034585863 -0.05357329 0.0612586 -0.048569396 -0.04097281
0.04720464 -0.009697368 0.02259047 -0.026457215 0.0070443503 -0.037085246 -0.048108585 -0.07597594
0.042447872 0.025462566 0.029169695 0.034124423 0.04592903 -0.09231904 0.017648084 -0.08303118
-0.03964405 0.008245346 -0.075806566 -0.03554407 0.0143610155 0.07639265 -0.008989153 -0.014101174
0.040628016 0.049103297 0.08254015 0.04761946 -0.023731815 -0.03143357 -0.041091476 -0.02461082
-0.0284642 0.039017655 -0.032325834 0.009045862 -0.03701526 0.057795368 0.004331273 -0.026027009
0.06349198 -0.066490255 0.06784566 0.026973948 -0.06814473 -0.026782868 -0.049982842 -0.02516389
0.06240574 -0.097533286 0.003966877 -0.023668468 -0.06223071 -0.026087245 0.035815574 0.07476358
0.00417357 -0.07709789 0.05752109 -0.09863754 -0.078511074 -0.09896086 -0.009751111 0.026598306
-0.04776107 -0.0454754 -0.08502668 0.058331184 0.02453945 -0.07504312 0.06861299 0.057966817
-0.09415803 0.021062333 0.0039878394 -0.09368196 0.0662543 0.034735378 -0.0009825589 -0.0552846
0.037958916 0.024814177 0.06947907 0.046571936 0.01246865 -0.054242924 -0.088484 -0.02297236
0.05157192 0.03098771 -0.05264217 0.044613775 -0.04310378 0.02854293 0.066300996 -0.0034973982
0.012957209 -0.0023080772 0.077204734 -0.020610599 0.03678553 -0.05100958 -0.03416196 -0.09094794
-0.067161694 0.006838731 -3.964313e-05 -0.039956603 -0.088295124 -0.059821796 -0.049221426 -0.07636994
0.05302714 -0.069662966 -0.043892108 0.078939505 -0.060091384 -0.08538263 0.004767719 0.06380808
0.07518461 -0.00813392 -0.012130277 0.013911292 0.055408426 -0.08646206 -0.04499764 -0.022069568
-0.0839095 -0.031671923 0.06112217 -0.023343906 0.036019813 0.049243778 0.013011316 0.0074610244
-0.05689541 -0.021635277 -0.07244482 -0.03974198 -0.0051803216 -0.031152936 -0.02295479 -0.026353328
-0.04856735 0.021478865 -0.10144195 0.00020248399 -0.07241554 -0.0457297 -0.06959344 -0.05701724
0.0704502 -0.033810575 0.036933057 0.073200464 -0.0756878 -0.09770065 0.06708275 0.06371339
0.016674321 0.0364774 0.018907668 -0.026760077 0.0519723 0.08623864 -0.03040144 0.01898792
-0.032160312 -0.09756327 -0.021260861 -0.052407425 0.029467126 -0.012344348 -0.059844196 0.042674307
0.014146079 -0.0038250478 -0.04806395 0.0660572 0.00738221 -0.01573779 -0.06910118 -0.07071871
-0.083396085 -0.06570149 -0.05811141 0.050679572 0.029781954 0.046878356 -0.042781405 -0.0019411785
00000000: d674 b1bc 79be b1bd 2b96 8f3d d5b1 dcbc
00000010: 48ca 65bd 5568 18bd b483 30bc 8d26 403c
00000020: 449d b0bd 9c35 0ebd f264 96bc 1e4c 7e3d
00000030: 9dba 88bc 9a12 953d a326 283d de78 f0bc
00000040: 5ab5 173c 2fca 043d 541d 023d beb2 62bd
00000050: 817c 33bd 1ae2 b4bd 1594 6b3d 0cc3 f5bc
00000060: b993 643d cb92 213d 3b30 56bd cb62 993d
00000070: 4439 683b dacc 5dbd 74e1 57bd a86f a63b
00000080: 254f 47bd 8de8 34bc 559a 623d 121b 863c
00000090: a96a c9bd 7194 a13c fab5 ae3d e6da a7bc
000000a0: f459 69bd a2ef ddbc 54c3 81bd d522 8e3d
000000b0: 2d23 8a3b 73aa 19bd ad22 91bd b97a 8ebd
000000c0: d3ce fdbc ea43 61bc f145 dd3b 3338 fb3c
000000d0: 0f1c 923c 71b4 26bd 62a8 a3b9 9e38 a2bd
000000e0: a974 903d e7f3 dc3c b818 18bd e8a9 0d3d
000000f0: ab6f 5bbd 4cea 7a3d b4f0 46bd 1bd3 27bd
00000100: a759 413d b6e1 1ebc a60f b93c cdbc d8bc
00000110: 4bd4 e63b b3e6 17bd 820d 45bd 4699 9bbd
00000120: d2dd 2d3d df96 d03c 49f5 ee3c 0dc6 0b3d
00000130: 1420 3c3d c411 bdbd b792 903c 400c aabd
00000140: cd61 22bd 7d17 073c 7940 9bbd a996 11bd
00000150: 774a 6b3c c073 9c3d 3e47 13bc 9c08 67bc
00000160: 9069 263d 8a20 493d cf0a a93d 9f0c 433d
00000170: 3969 c2bc 7dc0 00bd 894f 28bd a19c c9bc
00000180: c12d e9bc fad0 1f3d 1868 04bd 1835 143c
00000190: 509d 17bd d6ba 6c3d 5aed 8d3b 9836 d5bc
000001a0: 1508 823d 0b2c 88bd aaf2 8a3d 78f8 dc3c
000001b0: 778f 8bbd bf67 dbbc cfba 4cbd 8124 cebc
000001c0: 299d 7f3d 88bf c7bd 93fc 813b 60e4 c1bc
000001d0: a1e5 7ebd ebb4 d5bc 5ab3 123d a61d 993d
000001e0: 71c2 883b 80e5 9dbd 3c9b 6b3d 7b02 cabd
000001f0: 6aca a0bd feab cabd 20c3 1fbc b1e4 d93c
00000200: 1da1 43bd 6a44 3abd 7822 aebd aeec 6e3d
00000210: f506 c93c 35b0 99bd f884 8c3d 9d6e 6d3d
00000220: edd5 c0bd ea8a ac3c 6cac 823b 54dc bfbd
00000230: 56b0 873d af46 0e3d 35c9 80ba 1b72 62bd
00000240: cf7a 1b3d 1a47 cb3c 0b4b 8e3d 37c2 3e3d
00000250: 4f49 4c3c d42d 5ebd 1937 b5bd 8830 bcbc
00000260: 143d 533d f0d9 fd3c 519f 57bd efbc 363d
00000270: 978d 30bd ddd2 e93c d1c8 873d 9b34 65bb
00000280: 794a 543c 1c43 17bb 841d 9e3d 8fd7 a8bc
00000290: 6dac 163d 6cef 50bd 69ed 0bbd ea42 babd
000002a0: 128c 89bd 6f17 e03b 7d46 26b8 89a9 23bd
000002b0: 13d4 b4bd b307 75bd 689c 49bd d867 9cbd
000002c0: fd32 593d 75ab 8ebd 36c8 33bd 09ab a13d
000002d0: 6222 76bd 17dd aebd 873a 9c3b d0ad 823d
000002e0: 64fa 993d 2244 05bc 12be 46bc 30ec 633c
000002f0: f2f3 623d 0513 b1bd 724f 38bd 3dcb b4bc
00000300: bed8 abbd 6bba 01bd 3e5b 7a3d b83b bfbc
00000310: 8389 133d d8b3 493d 6a2d 553c 9c7b f43b
00000320: 290b 69bd 773c b1bc f35d 94bd 7dc8 22bd
00000330: b0bf a9bb 7134 ffbc af0b bcbc efe2 d7bc
00000340: 8fee 46bd 72f4 af3c ccc0 cfbd e251 5439
00000350: 994e 94bd 114f 3bbd 0187 8ebd e98a 69bd
00000360: 3248 903d f57c 0abd 1e47 173d 20ea 953d
00000370: 3502 9bbd 4717 c8bd ae62 893d 2a7c 823d
00000380: 9698 883c 5469 153d 41e4 9a3c f337 dbbc
00000390: e8e0 543d e29d b03d 710c f9bc 8e8c 9b3c
000003a0: 88ba 03bd 40cf c7bd 422b aebc 2ba9 56bd
000003b0: 0b65 f13c f33f 4abc 301f 75bd 41cb 2e3d
000003c0: f5c4 673c a7ad 7abb b4de 44bd ff48 873d
000003d0: 77e6 f13b 8aec 80bc eb84 8dbd f9d4 90bd
000003e0: 91cb aabd 818e 86bd 3b06 6ebd 6295 4f3d
000003f0: 49f9 f33c 8503 403d 8e3b 2fbd 246f feba

fc2.bias f4 [128]
-0.096213914 -0.023740739 0.16187577 0.15884402 0.056528457 -0.10399614 -0.09767312 0.019223562
-0.12731862 -0.0912317 0.010963063 0.115735024 0.12860958 -0.005346918 0.07984212 -0.2526024
0.17420149 -0.17492661 -0.08783117 -0.13064632 0.103186436 -0.02541026 -0.018986057 -0.045925304
-0.036943436 -0.08734326 0.26024443 0.014971081 0.017592259 -0.08038296 -0.034130357 -0.09679307
0.18351969 -0.10201769 0.023062307 -0.04634419 -0.034288406 0.07303579 -0.03406986 -0.01657087
0.2893959 -0.084810674 -0.12012063 0.0054584206 0.18074703 -0.023822693 0.019797128 0.03607858
-0.10043865 0.03768565 -0.023174543 -0.10483533 0.19814414 -0.031158501 -0.06286319 0.030390372
-0.106240205 0.1732474 0.014559884 -0.07018927 -0.1418142 0.28198513 0.010206681 -0.11471747
-0.09329992 -0.0016473958 0.30034962 0.106702276 -0.1447014 -0.025604935 0.06227888 -0.09209317
-0.00097143935 -0.020210652 0.2944513 0.12395696 -0.025327016 0.052158598 -0.09071048 0.045476936
-0.17644404 -0.08283018 -0.022900842 0.14302063 0.15346043 -0.07875933 -0.11347383 -0.0030301881
-0.11852741 0.16832024 0.20337136 0.14265531 0.26445168 -0.121270396 -0.08201796 0.1190937
-0.04729421 -0.08703678 0.24413736 -0.022649428 -0.04915301 -0.09282763 0.09961553 -0.08721347
-0.06346817 0.058493752 -0.08800266 0.019287199 0.23441783 -0.008334778 0.19254513 0.26438683
-0.06626856 -0.097676896 -0.086493075 -0.099503815 -0.02970648 -0.11396356 0.03839038 0.030655226
-0.031173797 -0.04212262 -0.09971512 0.076866046 0.0038224268 -0.14964095 -0.041300893 -0.031319544
00000000: cd0b c5bd f07b c2bc c3c2 253e 02a8 223e
00000010: 628a 673d eefb d4bd d808 c8bd bb7a 9d3c
00000020: d05f 02be afd7 babd 6b9e 333c 7c06 ed3d
00000030: 3bb2 033e 3335 afbb 4484 a33d 1a55 81be
00000040: e061 323e f61f 33be d4e0 b3bd 26c8 05be
00000050: 6953 d33d 2d29 d0bc a688 9bbc 2c1c 3cbd
00000060: 0052 17bd 06e1 b2bd c23e 853e 4449 753c
00000070: a41d 903c d29f a4bd 46cc 0bbd 723b c6bd
00000080: 96ec 3b3e a7ee d0bd 2aed bc3c 68d3 3dbd
00000090: 0072 0cbd ca93 953d d68c 0bbd a2bf 87bc
000000a0: b32b 943e 38b1 adbd ce01 f6bd 8ddc b23b
000000b0: c015 393e cf27 c3bc 962d a23c 22c7 133d
000000c0: c7b2 cdbd 455c 1a3d 8ad8 bdbc e8b3 d6bd
000000d0: 4ce6 4a3e 1d40 ffbc 6bbe 80bd 3bf5 f83c
000000e0: 7794 d9bd c467 313e 948c 6e3c 64bf 8fbd
000000f0: be37 11be 5b60 903e ec39 273c fef0 eabd
00000100: 0714 bfbd 6eed d7ba 6dc7 993e b986 da3d
00000110: 9b2c 14be 71c1 d1bc 2418 7f3d 589b bcbd
00000120: 31a8 7eba cf90 a5bc 52c2 963e 26dd fd3d
00000130: 9a7a cfbc 41a4 553d 6bc6 b9bd 0646 3a3d
00000140: bfad 34be dfa2 a9bd 8c9a bbbc 0074 123e
00000150: bb24 1d3e 924c a1bd f864 e8bd 1f96 46bb
00000160: 80be f2bd 245c 2c3e 9540 503e 3c14 123e
00000170: 3666 873e 9d5c f8bd 08f9 a7bd 66e7 f33d
00000180: 93b7 41bd 5740 b2bd 25ff 793e 4b8b b9bc
00000190: ab54 49bd 6a1c bebd 3a03 cc3d fa9c b2bd
000001a0: 9afb 81bd 2597 6f3d bd3a b4bd 3000 9e3c
000001b0: 3a0b 703e 988e 08bc 8d2a 453e b65d 873e
000001c0: d0b7 87bd d30a c8bd 4823 b1bd a8c8 cbbd
000001d0: 015b f3bc ba65 e9bd 3b3f 1d3d ab20 fb3c
000001e0: 3160 ffbc c588 2cbd 7137 ccbd f26b 9d3d
000001f0: ae81 7a3b 7a3b 19be 202b 29bd ec48 00bd

fc3.weight f4 [64, 128]
0.046554346 0.055900607 0.005125762 -0.048808947 -0.08469172 -0.00037229364 -0.016634254 -0.01018865
0.07826011 -0.08285298 -0.041721545 -0.1103946 -0.1096846 -0.07204151 -0.08133074 0.04979318
-0.10920947 -0.0052604065 -0.08810754 0.011247603 0.054154977 -0.08268354 -0.16234717 -0.039950237
0.009335306 -0.06731203 -0.005367267 0.03763271 0.044965185 -0.067094386 -0.037530135 -0.03801258
-0.12453691 0.00061015994 -0.037556477 -0.013308879 0.058967423 -0.07368205 0.08238706 0.00038609104
-0.032369204 0.003192118 0.028657148 -0.010010614 0.044226114 -0.031344324 0.04022868 -0.08156372
0.07692228 0.03610158 -0.071335785 -0.085264415 -0.045311518 0.049960177 -0.05375347 -0.023861438
0.0336755 -0.008964362 0.025174638 0.023461264 0.020950377 -0.0090998635 0.04728222 -0.05529072
0.020125026 0.0024667918 -0.11577196 -0.10035271 0.054443803 -0.03915754 -0.032555457 -0.026117232
-0.039819468 -0.06396512 0.015354391 -0.018629666 0.032746352 -0.09719075 -0.01934104 -0.07500841
-0.017635843 -0.0016840721 0.059431754 -0.027725777 -0.021215932 0.07144428 -0.0753078 -0.06581819
0.036750313 -0.027504554 -0.028286444 -0.048418116 -0.033569526 0.06259345 0.036774557 -0.07549497
0.02043511 0.013176822 0.028419454 -0.04782937 0.08080631 0.002632903 -0.0436059 0.03731895
-0.071977146 0.0585588 0.05631666 -0.04079116 0.024637645 0.0012037233 0.051437773 -0.0825608
0.0106054535 -0.042217042 0.077323005 -0.076925665 0.07553644 0.073702805 0.044292387 -0.03678935
-0.020419369 0.061450798 -0.046733025 0.042149715 0.044672277 0.065810375 -0.043623324 -0.07452799
-0.052775797 -0.06351011 0.024022175 -0.096682936 0.023940578 -0.0037692979 -0.009157425 -0.043571644
-0.07406245 -0.0980481 -0.05976559 0.048168976 0.018377433 -0.045760635 -0.074955516 0.028534638
-0.03236068 0.030907147 -0.029355733 0.011687503 0.049728747 -0.026928438 -0.018120436 -0.053815562
-0.06439227 -0.0759249 0.07407067 0.06636749 -0.051098734 0.06414343 -0.014888652 -0.038493372
-0.038894422 0.06697317 -2.6973983e-05 -0.014561788 -0.010389259 0.019878644 0.034844305 0.05856865
-0.008087286 0.05663525 -0.010341686 -0.033416662 0.030022854 0.030632086 0.021342764 0.026142191
0.035917703 -0.02061593 -0.036710374 -0.039104752 -0.028944243 0.020835852 0.010942565 -0.054963186
0.009674682 0.027831366 0.017426932 -0.07923467 -0.048312407 -0.066969454 -0.07134732 0.07937924
0.07324998 0.030954786 -0.027605278 -0.092581324 -0.029439239 0.06324321 -0.044944763 0.057952035
0.06715105 0.0060329316 0.024110537 -0.08445065 -0.06788981 -0.017365634 0.05316335 -0.0813324
0.017417582 0.0038970977 -0.062420018 -0.075407505 -0.015059511 0.0062578334 0.016231565 0.026215477
-0.016028972 0.02229704 0.063509256 -0.027073994 0.0586098 -0.017565025 0.08724776 0.0043639326
-0.062112913 -0.031332653 0.014092017 0.02886821 -0.018328523 0.041212305 0.07571051 0.062019445
0.057535585 0.048759643 -0.02662413 0.03779076 -0.0660999 -0.018658005 0.08373197 -0.03910622
-0.0692687 0.001609742 0.05186466 0.0022922775 -0.0063032825 -0.062075995 0.005893141 0.054905213
0.022933606 0.08612669 -0.054799683 0.01585441 0.0110372575 0.06735431 -0.041702487 0.0094901845
00000000: c5af 3e3d 09f8 643d 02f6 a73b e4eb 47bd
00000010: da72 adbd 6830 c3b9 8f44 88bc 4cee 26bc
00000020: d646 a03d d3ae a9bd 36e4 2abd 9016 e2bd
00000030: 52a2 e0bd 808a 93bd bb90 a6bd eff3 4b3d
00000040: 37a9 dfbd 7d5f acbb ba71 b4bd de47 383c
00000050: 9cd1 5d3d fd55 a9bd 563e 26be dca2 23bd
00000060: 1cf3 183c e4da 89bd e6df afbb c224 1a3d
00000070: 6a2d 383d c868 89bd 33b9 19bd 14b3 1bbd
00000080: 350d ffbd 24f3 1f3a d2d4 19bd 7c0d 5abc
00000090: d387 713d 9de6 96bd 8cba a83d 436c ca39
000000a0: 9295 04bd da32 513b 65c2 ea3c 8f03 24bc
000000b0: 7126 353d e862 00bd d4c6 243d e10a a7bd
000000c0: 6e89 9d3d 40df 133d 7f18 92bd 1c9f aebd
000000d0: 9298 39bd 0ba3 4c3d 992c 5cbd 1079 c3bc
000000e0: 52ef 093d 42df 12bc 0b3b ce3c d631 c03c
000000f0: 20a0 ab3c 9817 15bc 00ab 413d 8678 62bd
00000100: 3ddd a43c e6a9 213b d919 edbd b985 cdbd
00000110: 7700 5f3d a863 20bd df58 05bd cef3 d5bc
00000120: bd19 23bd 2500 83bd fc90 7b3c 3e9d 98bc
00000130: 0a21 063d f20b c7bd 1a71 9ebc 029e 99bd
00000140: 0b79 90bc 15bc dcba b66e 733d 2b21 e3bc
00000150: 09cd adbc 6151 923d fa3a 9abd b0cb 86bd
00000160: 7f87 163d 3b51 e1bc f9b8 e7bc 1352 46bd
00000170: 3380 09bd ff30 803d eba0 163d 1b9d 9abd
00000180: 8867 a73c 99e3 573c eacf e83c bbe8 43bd
00000190: c77d a53d c88c 2c3b 1a9c 32bd c1db 183d
000001a0: c168 93bd 5adb 6f3d 4cac 663d a214 27bd
000001b0: e3d4 c93c 40c6 9d3a 6ab0 523d a315 a9bd
000001c0: 7fc2 2d3c c7eb 2cbd 865b 9e3d 348b 9dbd
000001d0: d9b2 9a3d 7ff1 963d ef6b 353d 6eb0 16bd
000001e0: 8546 a7bc d5b3 7b3d 216b 3fbd 2ea5 2c3d
000001f0: 47fa 363d 97c7 863d 5fae 32bd 21a2 98bd
00000200: 6f2b 58bd 9711 82bd 27ca c43c b401 c6bd
00000210: 081f c43c 5306 77bb 0609 16bc 2e78 32bd
00000220: 0eae 97bd 71cd c8bd c3cc 74bd d54c 453d
00000230: 458c 963c 816f 3bbd 4782 99bd 79c1 e93c
00000240: a28c 04bd fc30 fd3c 6f7b f0bc f17c 3f3c
00000250: 5fb0 4b3d 0799 dcbc 4f71 94bc b56d 5cbd
00000260: 18e0 83bd 847e 9bbd 5db2 973d aeeb 873d
00000270: e84c 51bd a15d 833d 88ef 73bc 3aab 1dbd
00000280: c24f 1fbd 3b29 893d 3046 e2b7 9194 6ebc
00000290: b637 2abc 8ad8 a23c e7b8 0e3d aee5 6f3d
000002a0: 8980 04bc 5dfa 673d 2d70 29bc e9df 08bd
000002b0: 7df2 f53c 24f0 fa3c 05d7 ae3c 2628 d63c
000002c0: 711e 133d bde2 a8bc 9e5d 16bd 4e2c 20bd
000002d0: 7a1c edbc f3af aa3c 7248 333c 1421 61bd
000002e0: 8f82 1e3c 9bfe e33c edc2 8e3c c945 a2bd
000002f0: 3be3 45bd 4827 89bd 8b1e 92bd 9591 a23d
00000300: 1604 963d e494 fd3c 7724 e2bc 479b bdbd
00000310: 8f2a f1bc a885 813d 0018 38bd 1d5f 6d3d
00000320: 7d86 893d e6af c53b 7683 c53c 76f4 acbd
00000330: d009 8bbd 6042 8ebc d0c1 593d 9a91 a6bd
00000340: 51af 8e3c 7366 7f3b 22ac 7fbd 406f 9abd
00000350: 2bbc 76bc 830e cd3b 0ff8 843c d7c1 d63c
00000360: 314f 83bc 48a8 b63c 2411 823d 48ca ddbc
00000370: d410 703d 87e4 8fbc f4ae b23d 52ff 8e3b
00000380: 1c6a 7ebd ab56 00bd 34e2 663c 067d ec3c
00000390: b325 96bc 3cce 283d 1d0e 9b3d 1a08 7e3d
000003a0: 6faa 6b3d 31b8 473d d91a dabc 7cca 1a3d
000003b0: 625f 87bd acd8 98bc ab7b ab3d d82d 20bd
000003c0: c0dc 8dbd fafd d23a 0a70 543d 093a 163b
000003d0: c48b cebb 6643 7ebd 401b c13b 4ae4 603d
000003e0: 42df bb3c 3163 b03d a275 60bd 1ce1 813c
000003f0: 9dd5 343c 0ef1 893d 3ad0 2abd b87c 1b3c

fc3.bias f4 [64]
-0.11232268 -0.07011821 0.1961289 0.13494451 -0.11171671 0.13342339 -0.06331825 -0.08194653
-0.072067745 0.054754764 -0.023618609 -0.16970496 0.021345675 0.045336112 -0.044164944 -0.072935805
0.1453376 -0.12358186 -0.067489974 -0.011768232 -0.021786634 0.2779843 0.02687944 -0.024268478
-0.08653644 0.23560362 -0.10260881 -0.104832806 0.26010114 -0.0856952 0.05717875 0.07938759
-0.026195267 0.0054207514 0.22373465 -0.080117196 0.25121048 0.27913818 -0.108776346 0.26162916
0.0076127094 0.020999447 0.03072096 0.17304574 0.29297245 -0.07282592 -0.08890384 0.03341489
0.040578812 -0.16141978 -0.086379595 -0.116497055 0.062050663 0.26208583 0.049537133 -0.07200295
0.19028202 -0.039763186 -0.07540666 -0.12149978 0.19368663 -0.09716771 -0.07247998 -0.08551202
00000000: 6f09 e6bd 239a 8fbd 04d6 483e e52e 0a3e
00000010: bbcb e4bd 24a0 083e 00ad 81bd 95d3 a7bd
00000020: 4198 93bd 8846 603d d07b c1bc 23c7 2dbe
00000030: 20dd ae3c 5cb2 393d 4de6 34bd 5e5f 95bd
00000040: 61d3 143e 7c18 fdbd 2f38 8abd 8bcf 40bc
00000050: e279 b2bc f553 8e3e 4532 dc3c b0ce c6bc
00000060: 043a b1bd 1342 713e 9124 d2bd 95b2 d6bd
00000070: fa2b 853e f780 afbd 4434 6a3d f695 a23d
00000080: 7597 d6bc 8fa0 b13b b21a 653e 7c14 a4bd
00000090: a99e 803e 33eb 8e3e 22c6 debd 42f4 853e
000000a0: 0974 f93b 0807 ac3c 86aa fb3c e732 313e
000000b0: 7c00 963e c225 95bd 3713 b6bd 0dde 083d
000000c0: f835 263d 3a4b 25be c9e7 b0bd 0296 eebd
000000d0: d628 7e3d 1d30 863e 73e7 4a3d 4876 93bd
000000e0: 4ad9 423e b9de 22bd cf6e 9abd e0d4 f8bd
000000f0: ca55 463e ddff c6bd 6270 94bd ed20 afbd

fc4.weight f4 [51, 64]
-0.021001805 -0.00047861115 0.29106182 0.27794045 -0.004253861 0.2874622 0.08062975 0.018139148
0.021417066 -0.0027520508 -0.0765743 0.016222585 -0.041699093 -0.0013496055 -0.057682823 -0.09761718
0.25871947 -0.007111862 0.09834296 -0.07587509 -0.07919533 0.28237385 -0.02617451 0.098060764
-0.02672831 0.27403665 -0.099071905 -0.0078885835 0.32190007 0.047289502 -0.05154738 0.0059880614
-0.08858472 -0.03410143 0.3024864 -0.005714602 0.31627974 0.3212416 0.035704557 0.31842136
0.38802198 -0.0546937 0.004664432 0.32528138 0.3303186 0.00012099977 0.012198942 -0.035141192
-0.0796217 -0.012001081 0.0029525287 0.050380774 -0.114215195 0.27051088 -0.07058952 -0.0696231
0.2725545 0.045127004 0.011487814 -0.021958089 0.2550358 0.0018363947 -0.037856087 0.013737016
0.0982483 0.09356952 -0.09373808 -0.04549052 0.11886755 0.082381755 0.04700689 -0.06653795
0.0008621514 0.0062574595 0.045166075 0.09322314 0.07585767 0.10425381 -0.098907754 -0.035098746
0.014774635 -0.04057762 -0.121399626 0.0887488 -0.09055878 0.06948918 0.067474246 0.07043144
0.07619421 0.011519387 -0.06269126 -0.028151184 -0.029891923 0.06508459 -0.07840572 0.074855894
-0.02747558 0.020758584 -0.010712668 0.0061647743 0.051273137 -0.12079731 0.020087436 0.058919102
0.050851405 0.09534934 -0.08189206 0.033715308 -0.123484194 -0.017824277 0.049927905 0.08999561
-0.0043875277 0.09707171 0.09916359 -0.063359186 -0.12212825 -0.05259882 0.100569814 -0.049618647
0.088351026 -0.09548913 0.12165591 0.037618354 -0.04755935 0.008984521 0.09852804 -0.11832315
0.010622531 0.08306773 0.024810955 0.050501734 0.0042137504 0.09695132 0.09182288 -0.046489254
0.006689638 0.06842056 -0.014902666 0.082362846 -0.04543321 0.11774284 -0.12023385 -0.09124604
0.11318442 0.0034734458 -0.08834235 -0.059552923 -0.09750883 0.053692013 -0.021688432 -0.060628682
0.06657246 0.0072290897 -0.0280298 0.08146337 -0.03025265 0.07632248 0.07613549 0.11430015
-0.116762504 0.07016505 0.036866054 -0.020702824 0.12300953 -0.11303207 0.0040044636 -0.022746861
0.013911143 0.07518308 0.050367773 0.035002545 -0.011514679 -0.11144316 0.010658935 0.11218774
-0.04680872 0.081893966 0.11441082 -0.0872986 0.059290156 0.0069693923 0.116706684 0.07087685
0.1089084 -0.030532807 0.0919089 0.07085176 0.11362746 0.03501469 -0.057819396 0.10041806
0.058827057 -0.092092246 0.10964678 0.0015223473 0.068599194 -0.047051877 -0.0625034 -0.03402105
-8.946657e-05 -0.10654904 -0.037281632 -0.08493009 -0.11065593 -0.09801082 0.10661577 -0.01606509
-0.10984087 0.067225754 0.06694466 0.08430725 -0.0582591 -0.065793484 -0.10390885 0.12132664
0.11889529 -0.11223759 0.011030912 -0.018405735 -0.10069297 0.077193975 0.09319784 0.09417114
-0.08457358 0.09889892 0.087465316 0.051614076 0.012478739 0.09710473 0.014767706 -0.08683485
-0.07648717 0.014294803 0.00083228946 -0.08655073 0.026326671 0.004821241 0.032346338 -0.09595962
0.10898952 0.05829847 -0.037745684 0.043818936 0.102592885 -0.037015915 -0.07182264 -0.04899928
-0.0022098273 -0.028093234 -0.037907258 -0.025551349 -0.032858476 -0.006484911 0.024187833 0.027412653
00000000: fa0b acbc 1aee fab9 0e06 953e 364e 8e3e
00000010: f963 8bbb 3f2e 933e 3621 a53d 8d98 943c
00000020: d872 af3c c05b 34bb fdd2 9cbd 3ae5 843c
00000030: abcc 2abd 3fe5 b0ba d344 6cbd 84eb c7bd
00000040: e176 843e 9f0a e9bb 0968 c93d 6664 9bbd
00000050: 2931 a2bd 4e93 903e ed6b d6bc 15d4 c83d
00000060: 54f5 dabc 884e 8c3e 36e6 cabd 1e3f 01bc
00000070: 16d0 a43e a3b2 413d 5823 53bd 8037 c43b
00000080: e86b b5bd f1ad 0bbd 7fdf 9a3e 8e41 bbbb
00000090: 6bef a13e c779 a43e f13e 123d 2008 a33e
000000a0: d1aa c63e 8006 60bd 17d8 983b 488b a63e
000000b0: 851f a93e 42c1 fd38 12de 473c 36f0 0fbd
000000c0: b410 a3bd 2fa0 44bc 367f 413b 125c 4e3d
000000d0: a8e9 e9bd 6780 8a3e 3d91 90bd 8e96 8ebd
000000e0: 438c 8b3e 18d7 383d 6237 3c3c 73e1 b3bc
000000f0: 0d94 823e 2eb3 f03a fc0e 1bbd 3911 613c
00000100: 6836 c93d 60a1 bf3d c0f9 bfbd 4454 3abd
00000110: d470 f33d c4b7 a83d 4c8a 403d 0c45 88bd
00000120: 0002 623a 600b cd3b 1000 393d c6eb be3d
00000130: 445b 9b3d 0683 d53d 2690 cabd b4c3 0fbd
00000140: 5011 723c b834 26bd 5ea0 f8bd eec1 b53d
00000150: e276 b9bd 5850 8e3d f02f 8a3d 5c3e 903d
00000160: b60b 9c3d d0bb 3c3c 4664 80bd 509d e6bc
00000170: e8df f4bc 124b 853d 2e93 a0bd 0c4e 993d
00000180: 7814 e1bc e80d aa3c 3084 2fbc e001 ca3b
00000190: c803 523d 9464 f7bd 688e a43c 2855 713d
000001a0: 9049 503d 8446 c33d 06b7 a7bd 1019 0a3d
000001b0: 48e5 fcbd 3804 92bc 3481 4c3d 9e4f b83d
000001c0: 40c5 8fbb 88cd c63d 4816 cb3d 76c2 81bd
000001d0: 601e fabd dc71 57bd 8cf7 cd3d ec3c 4bbd
000001e0: 62f1 b43d ce8f c3bd bc26 f93d b415 1a3d
000001f0: 98cd 42bd d033 133c 12c9 c93d 6853 f2bd
00000200: 200a 2e3c 6a1f aa3d 5840 cb3c e8da 4e3d
00000210: 8013 8a3b 6a8e c63d a20d bc3d 846b 3ebd
00000220: c034 db3b 1420 8c3d 502a 74bc daad a83d
00000230: 2c18 3abd 2823 f13d 2a3d f6bd 34df babd
00000240: 3ccd e73d c0a2 633b d6ec b4bd c4ed 73bd
00000250: b6b2 c7bd 28ec 5b3d f0ab b1bc c855 78bd
00000260: 2457 883d 00e2 ec3b c09e e5bc 44d6 a63d
00000270: 68d4 f7bc f64e 9c3d ecec 9b3d 3216 ea3d
00000280: 2e21 efbd b2b2 8f3d dc00 173d f898 a9bc
00000290: 6cec fb3d 5c7d e7bd e037 833b a057 babc
000002a0: 90eb 633c 96f9 993d 704e 4e3d d45e 0f3d
000002b0: 10a8 3cbc 503c e4bd d0a2 2e3c b0c2 e53d
000002c0: 80ba 3fbd 06b8 a73d 3850 ea3d 9cc9 b2bd
000002d0: 3cda 723d 805f e43b ea03 ef3d e227 913d
000002e0: 5e0b df3d f01f fabc bc3a bc3d ba1a 913d
000002f0: 84b5 e83d 906b 0f3d 08d4 6cbd fca7 cd3d
00000300: a4f4 703d dc9a bcbd 7e8e e03d 8089 c73a
00000310: bc7d 8c3d 78b9 40bd c801 80bd a859 0bbd
00000320: 00a0 bbb8 6236 dabd a0b4 18bd d4ef adbd
00000330: 949f e2bd e6b9 c8bd 5e59 da3d f09a 83bc
00000340: 40f4 e0bd a8ad 893d 481a 893d 48a9 ac3d
00000350: 18a1 6ebd bcbe 86bd 2ace d4bd 1a7a f83d
00000360: 607f f33d d2dc e5bd 00bb 343c a0c7 96bc
00000370: 1e38 cebd e017 9e3d 82de be3d ccdc c03d
00000380: ea34 adbd 848b ca3d 0421 b33d 4869 533d
00000390: a073 4c3c d8de c63d 40f4 713c 78d6 b1bd
000003a0: 4ea5 9cbd c034 6a3c 002e 5a3a 8241 b1bd
000003b0: 08ab d73c 80fb 9d3b 987d 043d 7a86 c4bd
000003c0: e635 df3d 60ca 6e3d 389b 1abd 7c7b 333d
000003d0: 381c d23d 009e 17bd c017 93bd 78b3 48bd
000003e0: c0d2 10bb c823 e6bc a444 1bbd 1051 d1bc
000003f0: 9c96 06bd 607f d4bb 9025 c63c 8090 e03c

fc4.bias f4 [51]
0.3582452 -0.05174774 -0.0949 -0.037475795 -0.044016942 -0.0007814318 0.012207955 0.09445894
-0.032478496 -0.12186435 0.044146895 -0.11595851 0.10000335 0.0069149733 -0.07806012 -0.1178201
-0.00804159 0.022013858 -0.1012359 -0.069568396 0.032802194 0.00069998205 -0.02597624 0.015071824
-0.07847653 0.104586944 0.112767056 -0.07881613 0.06287563 0.05219139 0.119823515 -0.08649981
-0.06778009 0.10625377 -0.012995228 0.07826966 -0.07416162 0.06369999 0.029922426 -0.019818664
-0.029167637 0.089163154 -0.12088801 -0.084001094 0.020685911 0.123522565 0.071549684 0.0015047789
0.0453673 -0.10933499 -0.015237957
00000000: ea6b b73e 70f5 53bd ee5a c2bd 3880 19bd
00000010: 1c4b 34bd 00d9 4cba e003 483c b073 c13d
00000020: 2c08 05bd 0494 f9bd 60d3 343d a87b edbd
00000030: 8ece cc3d 0097 e23b fcdd 9fbd aa4b f1bd
00000040: e0c0 03bc 6856 b43c c454 cfbd e079 8ebd
00000050: 985b 063d 007f 373a 20cc d4bc d0ef 763c
00000060: 4eb8 a0bd ae31 d63d 6af2 e63d 5a6a a1bd
00000070: f0c4 803d a4c6 553d 0866 f53d d026 b1bd
00000080: 4ad0 8abd 949b d93d f0e9 54bc d84b a03d
00000090: 0ce2 97bd 2475 823d e01f f53c c05a a2bc
000000a0: f8f0 eebc 2c9b b63d 2294 f7bd c408 acbd
000000b0: 8075 a93c 66f9 fc3d a488 923d 003c c53a
000000c0: 10d3 393d 06eb dfbd a0a8 79bc
