models/comparison_apache@airvata_comparison_2500ep_dqn/best_pointwise_dqn_2500ep_dqn.pt (torch, 144968 bytes, 8 tensors)

fc1.weight f4 [128, 56]
-0.003865538 0.3796155 -0.21730237 0.7425196 0.22775045 0.30244207 -0.21755104 0.30754498
0.21973453 0.12558721 -0.046443187 0.007985101 -0.12060224 -0.10259128 0.052474823 -0.1614489
0.08669846 -0.10779464 -0.102214605 0.075601876 0.010786451 -0.15092734 -0.12575059 -0.06485534
0.057729147 0.0463419 -0.10091057 0.101458944 0.070573606 0.013184285 -0.16895945 -0.026517387
0.10820374 0.40291548 -0.159093 0.014119538 -0.100467 -2.0097046 -0.028254401 0.050388772
-1.1483719 0.13894862 -0.11137028 -0.03185517 -0.05319287 -0.13335264 -0.74996686 -0.9033646
-0.13096702 0.09379974 -0.04785581 -0.051221453 0.00856197 -1.0785824 0.033470687 -0.1206686
-0.09746377 -0.06135063 -0.021786759 -0.077706076 -0.042437445 0.10396379 0.1279671 0.055099647
0.1574427 0.12727009 -0.022171777 -0.103117265 -0.079283215 0.055193707 -0.06728191 0.112778686
0.12828645 -0.06662574 0.1454841 0.04832464 0.04014918 0.1318646 -0.08407098 0.1455641
0.15352829 -0.08847832 0.12627192 0.08239554 -0.08479938 -0.053131152 0.0505401 0.09864869
-0.045360427 -0.10211011 0.063150495 0.06919896 -0.0037927935 -0.039168037 0.15055077 -0.052155454
-0.13035294 0.0025610798 0.076902315 0.022380931 0.0022254675 -0.0751442 0.08571148 -0.037643466
-0.10541622 -0.07549254 -0.0789998 0.009715029 0.13169637 -0.08439347 0.09461402 -0.084166236
0.67081565 2.259507 1.0409331 0.6745018 1.3482428 0.407269 0.513845 -0.25037777
1.3155414 -0.96966803 0.48295188 0.65649474 0.56655073 0.6457268 0.5315365 0.67497987
0.786662 0.775496 0.5903747 0.88302726 0.5197246 0.4193943 0.58342063 0.7775684
0.66347677 0.39366096 0.5533716 0.43743646 0.53658986 0.59436095 0.6222185 0.41273624
0.6079422 0.8245676 0.5682813 0.48664376 0.63249815 1.1029154 0.97380745 0.9114872
0.26188403 0.2947885 0.5485004 0.5575528 0.44753778 0.49953184 0.24518965 -0.318074
0.43331465 0.4863593 0.5322646 0.43876085 0.46489125 0.14706033 0.42515156 0.54694366
-0.06328578 0.074627444 0.021392282 -0.041131075 0.0072665513 0.09540419 -0.069859065 0.0121163605
-0.042537082 0.083970405 0.123430245 0.039228156 0.123872764 0.015948918 -0.018560128 0.12247945
0.020006651 0.14987029 0.1206488 0.14549571 0.090098806 -0.08821584 -0.074773274 0.14434761
0.14699961 0.10045352 0.0970769 -0.06264383 -0.082231656 0.1108486 0.04125459 -0.045104582
0.081973486 -0.077258565 0.101728976 0.1008174 0.07567036 -0.07968892 0.058783706 0.06563139
0.054415785 -0.049659226 -0.039181005 0.0071125682 0.15621217 -0.07837583 -0.07169094 0.0079744775
0.0446043 -0.036460586 -0.0845854 -0.05226388 -0.06083638 0.06727113 -0.07078659 -0.02041993
0.10998199 -0.011772717 -0.08950054 -0.079133764 -0.06939397 -0.04088498 0.11916717 0.016923957
0.025552161 -0.05349538 0.12316988 -0.055508196 -0.00053712295 0.1039542 0.047646 0.089694016
-0.047499333 0.084722765 -0.03667581 -0.070982784 -0.010683045 -0.03276389 0.08591025 -0.04472114
0.038830373 -0.098461404 -0.032812122 -0.0049927486 -0.05795886 -0.02383436 -0.031684905 -0.1253525
00000000: f754 7dbb f65c c23e 8384 5ebe c415 3e3f
00000010: 6a37 693e b0d9 9a3e b3c5 5ebe 8976 9d3e
00000020: 1702 613e ef99 003e 363b 3ebd f1d3 023c
00000030: 4ffe f6bd 611b d2bd d7ef 563d dc52 25be
00000040: f68e b13d 70c3 dcbd e455 d1bd 28d5 9a3d
00000050: a8b9 303c b28c 1abe c3c4 00be e0d2 84bd
00000060: 6675 6c3d 01d1 3d3d 33aa cebd b5c9 cf3d
00000070: e588 903d e602 583c b503 2dbe fe3a d9bc
00000080: ec99 dd3d f04a ce3e 47e9 22be a255 673c
00000090: a4c1 cdbd 009f 00c0 c675 e7bc 7564 4e3d
000000a0: dafd 92bf 8c48 0e3e 1a16 e4bd 917a 02bd
000000b0: c4e0 59bd 988d 08be d4fd 3fbf e742 67bf
000000c0: 381c 06be 141a c03d 7404 44bd 96cd 51bd
000000d0: 8147 0c3c fd0e 8abf 8f18 093d 1921 f7bd
000000e0: 169b c7bd cc4a 7bbd 257a b2bc 5d24 9fbd
000000f0: e3d2 2dbd f8ea d43d cf09 033e 2bb0 613d
00000100: a938 213e 1753 023e 96a1 b5bc 252f d3bd
00000110: 3d5f a2bd cc12 623d 19cb 89bd 83f8 e63d
00000120: 865d 033e 1373 88bd c9f9 143e 0ff0 453d
00000130: 7773 243d 8407 073e 682d acbd c10e 153e
00000140: 8536 1d3e 1f34 b5bd 6d4d 013e febe a83d
00000150: 4cab adbd 0da0 59bd 2303 4f3d 5308 ca3d
00000160: dbcb 39bd 1b1f d1bd 0c55 813d 2fb8 8d3d
00000170: 8490 78bb aa6e 20bd fb29 1a3e f5a0 55bd
00000180: 3e7b 05be cad7 273b f67e 9d3d 3758 b73c
00000190: 26d9 113b 34e5 99bd 8089 af3d 0930 1abd
000001a0: 76e4 d7bd d59b 9abd a6ca a1bd c92b 1f3c
000001b0: 6adb 063e 7cd6 acbd ffc4 c13d 595f acbd
000001c0: 93ba 2b3f c39b 1040 4c3d 853f 26ac 2c3f
000001d0: 3893 ac3f 9085 d03e 598b 033f 8431 80be
000001e0: a963 a83f 2a3c 78bf 7845 f73e 0a10 283f
000001f0: 7809 113f 5a4e 253f c712 083f 7bcb 2c3f
00000200: ae62 493f e886 463f cc22 173f 130e 623f
00000210: ac0c 053f daba d63e 0e5b 153f b90e 473f
00000220: 9dd9 293f ee8d c93e c3a9 0d3f acf7 df3e
00000230: f45d 093f 0a28 183f b649 1f3f 2a52 d33e
00000240: 1aa2 1b3f dd16 533f e27a 113f 5f29 f93e
00000250: 66eb 213f 552c 8d3f 724b 793f 3a57 693f
00000260: aa15 863e 85ee 963e 866a 0c3f c8bb 0e3f
00000270: ac23 e53e a3c2 ff3e ff12 7b3e 98da a2be
00000280: 6bdb dd3e 1604 f93e 7e42 083f 43a5 e03e
00000290: 3a06 ee3e fc96 163e 77ad d93e 8004 0c3f
000002a0: fa9b 81bd 46d6 983d de3e af3c 0f79 28bd
000002b0: 401c ee3b 4663 c33d 4512 8fbd b383 463c
000002c0: 5d3b 2ebd adf8 ab3d ffc8 fc3d b4ad 203d
000002d0: 01b1 fd3d 4ea7 823c 690b 98bc 82d6 fa3d
000002e0: fde4 a33c 9977 193e b816 f73d d4fc 143e
000002f0: b985 b83d 82aa b4bd bb22 99bd dccf 133e
00000300: 1187 163e 93ba cd3d 41d0 c63d 694b 80bd
00000310: 1269 a8bd 9704 e33d 93fa 283d 95bf 38bd
00000320: b7e1 a73d bd39 9ebd 4857 d03d 5a79 ce3d
00000330: 10f9 9a3d f233 a3bd 2fc7 703d c069 863d
00000340: 16e3 5e3d 7967 4bbd 437c 20bd 8c10 e93b
00000350: 15f6 1f3e 8283 a0bd b3d2 92bd 62a7 023c
00000360: 00b3 363d b257 15bd 1c3b adbd a612 56bd
00000370: 912f 79bd 72c5 893d 8ff8 90bd b247 a7bc
00000380: 3d3e e13d 5be2 40bc 0f4c b7bd e210 a2bd
00000390: 6d1e 8ebd 0277 27bd eb0d f43d 1ca4 8a3c
000003a0: c452 d13c f91d 5bbd 7d40 fc3d 905c 63bd
000003b0: b6cd 0cba f1e5 d43d 7428 433d 7fb1 b73d
000003c0: a98e 42bd 2183 ad3d 6039 16bd 6c5f 91bd
000003d0: f007 2fbc 6e33 06bd b7f1 af3d 842d 37bd
000003e0: 990c 1f3d 22a6 c9bd 0166 06bd 369a a3bb
000003f0: 4566 6dbd 4740 c3bc 08c8 01bd 685c 00be

fc1.bias f4 [128]
-0.10155484 -0.1341565 -0.50015956 -0.06028939 -0.069094196 0.094244674 -0.096428834 0.20664005
-0.051444627 0.08822584 -0.089105204 0.043635327 -0.06370673 -0.087555684 -0.081417784 0.0865
0.03178946 0.08345854 0.016472917 0.111879304 -0.014241342 -0.024903778 0.09563251 -0.06458495
0.009310841 0.08074997 -0.046996374 -0.085226834 -0.047032956 -0.12023465 0.077346615 -0.121531986
0.06314596 0.006291367 -0.053500973 0.08142012 0.09066042 0.045112032 -0.12089577 0.048726454
-0.05415629 -0.09081145 -0.02269779 -0.11060247 -0.26611325 -0.12390392 0.017449832 0.051134985
0.13300432 -0.070648804 -0.12665083 -0.025544804 -0.050588705 -0.12163822 0.039877955 0.00035903833
-0.07691232 0.10008547 0.12800713 0.00375466 -0.58878624 0.22584713 0.06092232 -0.23856999
0.0814443 0.08674166 -0.008277345 -0.07646361 -0.04859738 -0.023262681 -0.14217864 -0.12716055
-0.45209223 -0.12662788 0.080135055 -0.03695433 -0.08596125 0.067080475 0.05003218 0.026916761
-0.045729727 -0.005426301 -0.02029653 0.0774466 -0.1124871 -0.040618632 -0.29738843 -0.10183107
-0.10607288 -0.097808935 0.065846264 0.114167236 0.086775705 -0.00181403 -0.04635975 0.06368021
0.086517505 0.10511658 -0.0017773975 -0.08288041 -0.16521838 -0.50034904 0.06721988 -0.07109332
-0.108904645 -0.024174102 0.055489846 0.008298586 0.049863156 0.057100877 -0.10394853 -0.04079392
-0.1257745 -0.36017117 -0.09849369 -0.00039688076 0.062023133 0.1380026 -0.065577745 0.071954325
0.04754851 -0.027831392 -0.07617889 0.025103783 -0.06967405 -0.13969137 -0.05250418 -0.044956755
00000000: fcfb cfbd 5260 09be 750a 00bf 02f2 76bd
00000010: 4281 8dbd 5a03 c13d 7b7c c5bd 7399 533e
00000020: 9ab7 52bd c0af b43d ca7c b6bd f5ba 323d
00000030: ad78 82bd 6550 b3bd 5ebe a6bd e926 b13d
00000040: aa35 023d 50ec aa3d 36f2 863c fa20 e53d
00000050: 8554 69bc 0203 ccbc fada c33d 1d45 84bd
00000060: 7f8c 183c 3e60 a53d 457f 40bd 688b aebd
00000070: a1a5 40bd 963d f6bd e767 9e3d c3e5 f8bd
00000080: ab52 813d d027 ce3b d623 5bbd 98bf a63d
00000090: 2cac b93d 65c7 383d 3498 f7bd 6495 473d
000000a0: fcd2 5dbd 5afb b9bd b7f0 b9bc 8c83 e2bd
000000b0: ff3f 88be 57c1 fdbd f3f2 8e3c eb72 513d
000000c0: 4932 083e 52b0 90bd c1b0 01be 5643 d1bc
000000d0: 1a36 4fbd 761d f9bd 1157 233d 4f3d bc39
000000e0: 3584 9dbd 9cf9 cc3d 4d14 033e be10 763b
000000f0: b2ba 16bf 7844 673e af89 793d b14b 74be
00000100: 45cc a63d 9da5 b13d b49d 07bc f498 9cbd
00000110: 0c0e 47bd 6191 bebc 4797 11be 6036 02be
00000120: a278 e7be bdaa 01be d91d a43d 6c5d 17bd
00000130: 740c b0bd 7d61 893d 8bee 4c3d 8a80 dc3c
00000140: 184f 3bbd 1dcf b1bb e944 a6bc 539c 9e3d
00000150: a35f e6bd b95f 26bd 4c43 98be cf8c d0bd
00000160: bd3c d9bd 0d50 c8bd 68da 863d 83d0 e93d
00000170: 76b7 b13d bfc4 edba b9e3 3dbd c56a 823d
00000180: 1730 b13d 5d47 d73d 90f7 e8ba 34bd a9bd
00000190: 022f 29be e016 00bf 94aa 893d 6099 91bd
000001a0: 6609 dfbd c408 c6bc 5249 633d cbf6 073c
000001b0: 4f3d 4c3d 9ce2 693d f8e2 d4bd 8717 27bd
000001c0: 08cb 00be 5b68 b8be 0fb7 c9bd 6f14 d0b9
000001d0: f80b 7e3d 8e50 0d3e a04d 86bd ca5c 933d
000001e0: 3ac2 423d a9fe e3bc ae03 9cbd 73a6 cd3c
000001f0: 45b1 8ebd 410b 0fbe a00e 57bd 9324 38bd

fc2.weight f4 [128, 128]
0.046033222 0.017835999 0.046216603 -0.07132291 -0.062146023 0.012966457 0.04223032 0.020384206
0.07110551 -0.10472641 -0.0140388 -0.11361282 -0.011191407 -0.08399765 0.038630083 -0.004976116
-0.00033005342 2.3444504e-06 -0.04040968 -0.08387946 0.070742905 -0.06517043 0.06000232 0.060165815
-0.09566165 -0.04419033 -0.0065874816 -0.057890296 0.061233375 -0.09854053 -0.084754825 0.03103873
0.03739555 0.01694323 -0.06326424 -0.026066946 0.03160869 -0.084355175 0.03797845 -0.09355033
0.03291377 0.028620224 -0.07997313 0.054727588 -0.055480596 0.00726507 -0.025273247 0.028857531
0.0060222712 0.05044671 0.07409321 -0.07183032 -0.1056337 -0.09446939 -0.09743488 0.043694805
0.036778603 -0.06676868 -0.08440438 -0.006681564 -0.06198379 -0.07252959 -0.10912727 0.04862499
0.059598934 -0.09142711 -0.07646355 -0.009159827 -0.08370545 0.0072288304 0.043883186 0.045120236
-0.095012255 0.017494105 -0.016596647 -0.04547707 -0.086967185 -0.009154031 -0.030876728 -0.0042486656
-0.04172464 -0.038912367 -0.06528374 -0.07827217 0.07415051 -0.03714095 -0.059121694 -0.100522794
0.013736522 -0.12110821 -0.09475128 0.031540774 -0.05182719 -0.012929125 0.058074575 0.010709649
-0.10592988 0.025324387 -0.05244795 -0.009093889 -0.011202515 0.03725024 -0.091177404 0.012284427
-0.0241762 -0.07990371 0.07528535 0.07998743 0.05189494 -0.079243556 -0.07013975 -0.032131314
-0.012460304 -0.06010075 -0.101449944 -0.032651246 -0.0006764843 -0.10424521 -0.10117579 0.02093221
-0.05750723 -0.012593626 0.027917081 -0.11449093 -0.08622106 -0.024857052 0.0490748 0.06745658
-0.14804798 0.07793446 -0.71815974 -0.09522274 -0.041987047 0.06071311 -0.033017714 -0.8820021
0.03318258 0.17310087 0.12121879 0.080798164 0.19049007 -0.120300844 -0.050948527 -0.0059974007
0.12167022 1.181919 -0.40509123 -0.010051365 0.051614575 -0.045770723 0.080895126 0.027974065
-0.06435991 0.038514797 0.21325453 -0.0050478745 -0.056959294 0.13882643 0.026241919 0.08237239
-0.03140012 0.030907389 0.051784094 -0.05957227 0.33102694 -0.015623525 -0.08284864 -0.062135767
0.030294944 0.0026195815 0.07360502 -0.024313495 -0.2211396 -0.040302444 0.039650854 0.09319367
0.0014414442 0.08559964 -0.115228936 -0.043394692 -0.026929272 0.02381837 -0.38255405 0.041176442
0.041553896 -0.36699188 -0.051258206 -0.013602586 -0.86138123 0.0072399513 0.051303945 -0.06986526
0.036969844 0.008333912 0.037801266 -0.0815639 0.031771485 0.085338034 0.053073365 0.03416612
-0.94628584 -0.082045116 -0.06887908 0.07415647 -0.04963354 0.011414462 0.0204705 0.14471418
-0.013796476 -0.050541546 -0.019000882 0.1844624 0.047094814 -0.26946527 -0.15875249 0.44636768
-0.046064597 -0.1426737 0.10199415 0.036769837 0.5275999 0.010568522 0.081486925 0.07433583
0.02860241 0.019728888 0.011187549 0.07456061 -0.02469171 -0.5320041 -0.0047635725 -0.34940505
0.0712126 -0.03639818 0.019191198 -0.03694172 0.0021514383 -0.0013869205 0.01890871 0.05682095
0.033330895 -0.26995996 -0.14854707 -0.052113492 0.094067894 0.07875738 0.013429783 0.0120264385
0.094660446 -0.03692319 -0.06016182 0.06927274 0.13477153 0.007790998 0.054789282 0.08506473
00000000: 558d 3c3d cd1c 923c 9f4d 3d3d bf11 92bd
00000010: d48c 7ebd 4371 543c b3f9 2c3d c7fc a63c
00000020: c49f 913d cd7a d6bd ff02 66bc d7ad e8bd
00000030: 2a5c 37bc f606 acbd 943a 1e3d b00e a3bb
00000040: 050b adb9 5a55 1d36 9f84 25bd ffc8 abbd
00000050: a8e1 903d 1378 85bd fec4 753d 6e70 763d
00000060: 41ea c3bd eb00 35bd cddb d7bb 601e 6dbd
00000070: d9cf 7a3d 9ecf c9bd f093 adbd ef44 fe3c
00000080: 142c 193d 87cc 8a3c af90 81bd 598a d5bc
00000090: 1d78 013d 68c2 acbd 4b8f 1b3d 5197 bfbd
000000a0: 97d0 063d f674 ea3c f4c8 a3bd 092a 603d
000000b0: 9f3f 63bd d30f ee3b d709 cfbc a166 ec3c
000000c0: 7956 c53b 36a1 4e3d 2ebe 973d c61b 93bd
000000d0: 7b56 d8bd 2b79 c1bd f08b c7bd 53f9 323d
000000e0: 29a5 163d 05be 88bd 34dc acbd 05f1 dabb
000000f0: b7e2 7dbd 658a 94bd 1e7e dfbd ff2a 473d
00000100: 031e 743d 233e bbbd ec98 9cbd 1913 16bc
00000110: c36d abbd d3df ec3b dbbe 333d ffcf 383d
00000120: c995 c2bd cc4f 8f3c b1f5 87bc 2a46 3abd
00000130: da1b b2bd cafa 15bc 31f1 fcbc 6438 8bbb
00000140: 75e7 2abd 9362 1fbd 7bb3 85bd 294d a0bd
00000150: 39dc 973d 1c21 18bd 9729 72bd e5de cdbd
00000160: 260f 613c 9507 f8bd f60c c2bd e630 013d
00000170: bf48 54bd aed4 53bc 9bdf 6d3d 8677 2f3c
00000180: c4f1 d8bd 1775 cf3c a9d3 56bd 89fe 14bc
00000190: c18a 37bc b593 183d 38bb babd 9f44 493c
000001a0: 2b0d c6bc 8ea4 a3bd 352f 9a3d 73d0 a33d
000001b0: ca8f 543d 724a a2bd 6ea5 8fbd 209c 03bd
000001c0: 4e26 4cbc 342c 76bd fdc4 cfbd 50bd 05bd
000001d0: 1856 31ba 837e d5bd 4135 cfbd 077a ab3c
000001e0: b48c 6bbd 7f55 4ebc 5db2 e43c 397a eabd
000001f0: ab94 b0bd 04a1 cbbc a802 493d ad26 8a3d
00000200: e499 17be 1a9c 9f3d 51d9 37bf 2404 c3bd
00000210: 9cfa 2bbd 4fae 783d 953d 07bd e4ca 61bf
00000220: 75ea 073d 5b41 313e 8f41 f83d 8279 a53d
00000230: d40f 433e 4a60 f6bd 67af 50bd d885 c4bb
00000240: 3c2e f93d 1f49 973f 1e68 cfbe 7bae 24bc
00000250: ce69 533d 157a 3bbd 58ac a53d de29 e53c
00000260: 21cf 83bd b1c1 1d3d 655f 5a3e a468 a5bb
00000270: 264e 69bd 8428 0e3e 4bf9 d63c dbb2 a83d
00000280: 6a9d 00bd 7e31 fd3c 8f1b 543d 0d02 74bd
00000290: 5d7c a93e d0f9 7fbc 8cac a9bd 1382 7ebd
000002a0: 1a2d f83c 49ad 2b3b 3bbe 963d 182d c7bc
000002b0: 6b72 62be 2d14 25bd ef68 223d 53dc be3d
000002c0: d7ee bc3a dd4e af3d 26fd ebbd a2be 31bd
000002d0: c79a dcbc be1e c33c 20de c3be a1a8 283d
000002e0: 6b34 2a3d 5ce6 bbbe 20f4 51bd 62dd 5ebc
000002f0: 7b83 5cbf 1d3d ed3b 1624 523d 8415 8fbd
00000300: b16d 173d f68a 083c 80d5 1a3d f90a a7bd
00000310: d122 023d b5c5 ae3d 7563 593d c6f1 0b3d
00000320: ca3f 72bf 4507 a8bd 7a10 8dbd 59df 973d
00000330: 8a4c 4bbd b903 3b3c c0b1 a73c f42f 143e
00000340: 9d0a 62bc a704 4fbd bda7 9bbc b6e3 3c3e
00000350: 7ee6 403d 5af7 89be 0390 22be 4e8a e43e
00000360: 3bae 3cbd 0e19 12be 4fe2 d03d f89b 163d
00000370: c910 073f 9827 2d3c 9ee2 a63d 623d 983d
00000380: 9a4f ea3c 7a9e a13c fb4b 373c 3cb3 983d
00000390: 4546 cabc 6c31 08bf be17 9cbb 38e5 b2be
000003a0: e9d7 913d 4216 15bd dc36 9d3c 3350 17bd
000003b0: 25ff 0c3b 54c9 b5ba 70e6 9a3c 16bd 683d
000003c0: fa85 083d 3138 8abe b91c 18be f574 55bd
000003d0: aba6 c03d 8d4b a13d 9808 5c3c 8a0a 453c
000003e0: 56dd c13d c53c 17bd 3e6c 76bd dede 8d3d
000003f0: 8c01 0a3e a14b ff3b ba6a 603d 6b36 ae3d

fc2.bias f4 [128]
-0.01879141 0.5499187 0.41048768 0.10131999 -0.12795247 -0.06505127 -0.025658814 0.45664096
-0.13545392 -0.03945936 0.40024108 -0.110071726 -0.050715264 -0.1008369 -0.08382422 -0.086915694
-0.061758347 -0.04883881 -0.07747451 -0.041735273 -0.09658343 -0.071943164 -0.09065788 -0.119728796
0.12199943 -0.035711877 -0.037049077 -0.07262966 -0.07001704 -0.023095975 -0.06528099 -0.10166943
-0.15097706 -0.05962347 0.0039944774 0.15154345 0.19705635 -0.12796001 -0.033149455 0.5376804
0.097020425 0.06861937 -0.10067821 -0.053201534 0.35780013 0.18258378 -0.021404924 0.2105538
0.44551995 -0.05873449 -0.07880707 0.30439898 -0.1258419 -0.07648426 -0.14865519 0.013226583
-0.0812341 -0.058808073 -0.037080362 -0.06757146 -0.0076098745 -0.06773627 -0.11639144 -0.13712461
-0.037077177 0.02113975 0.25471902 -0.12454792 -0.061262507 0.25780284 -0.038882516 0.24189118
0.006884107 -0.011395315 -0.11259779 0.0018692921 -0.063688576 -0.06031985 -0.13248716 -0.12395993
-0.11648644 -0.13444607 0.53380966 -0.102998964 -0.025500825 -0.09345742 -0.093332276 -0.115386516
-0.03746376 -0.06555237 -0.0046434416 0.33412308 -0.009749379 0.3369419 -0.04161647 0.29813987
-0.10833334 -0.04440406 0.21196108 -0.02378142 -0.098533675 -0.086594865 0.3868845 0.5231524
0.0044800667 -0.07121877 -0.012867376 0.4473317 0.4127354 -0.006317853 -0.03616521 -0.02036985
0.5151339 -0.009064625 0.39200732 -0.054620326 -0.046554398 0.41730958 -0.123187184 -0.093671255
-0.04499237 -0.010864807 -0.013601229 0.36871034 -0.052378386 0.30312407 0.30698678 0.2620291
00000000: 71f0 99bc 79c7 0c3f 712b d23e db80 cf3d
00000010: f905 03be 9a39 85bd 6f32 d2bc d8cc e93e
00000020: 6fb4 0abe 23a0 21bd 66ec cc3e 496d e1bd
00000030: cfba 4fbd 9483 cebd 08ac abbd db00 b2bd
00000040: 52f6 7cbd 340b 48bd f5aa 9ebd 9bf2 2abd
00000050: 89cd c5bd f056 93bd d7aa b9bd 5f34 f5bd
00000060: d6da f93d 9e46 12bd c6c0 17bd dcbe 94bd
00000070: 1865 8fbd c533 bdbc 0ab2 85bd 1038 d0bd
00000080: bb99 1abe bd37 74bd 1be4 823b 352e 1b3e
00000090: 24c9 493e f307 03be b9c7 07bd 6ca5 093f
000000a0: a5b2 c63d 5088 8c3d 6130 cebd dae9 59bd
000000b0: 9431 b73e 3ef7 3a3e 6159 afbc 6a9b 573e
000000c0: 311b e43e 9493 70bd 9a65 a1bd 2fda 9b3e
000000d0: b3dc 00be c8a3 9cbd 1139 18be 4fb4 583c
000000e0: 105e a6bd bce0 70bd 94e1 17bd e862 8abd
000000f0: 415c f9bb 50b9 8abd a35e eebd 656a 0cbe
00000100: 3dde 17bd 452d ad3c 886a 823e fb12 ffbd
00000110: 65ee 7abd bcfe 833e 4643 1fbd 52b2 773e
00000120: 1394 e13b 6ab3 3abc ac99 e6bd 0903 f53a
00000130: 286f 82bd f211 77bd b7aa 07be b4de fdbd
00000140: 7190 eebd 3bac 09be c0a7 083f 1ff1 d2bd
00000150: 1be7 d0bc 9b66 bfbd fe24 bfbd c44f ecbd
00000160: 9973 19bd 5240 86bd 0328 98bb 2e12 ab3e
00000170: dcbb 1fbc a683 ac3e 0876 2abd caa5 983e
00000180: dfdd ddbd 08e1 35bd 530c 593e 41d1 c2bc
00000190: 06cc c9bd a658 b1bd ba15 c63e 51ed 053f
000001a0: 86cd 923b 26db 91bd b0d1 52bc a908 e53e
000001b0: 0e52 d33e fe05 cfbb f921 14bd acde a6bc
000001c0: d1df 033f cb83 14bc 2fb5 c83e 90b9 5fbd
000001d0: d3af 3ebd 9aa9 d53e 9049 fcbd b7d6 bfbd
000001e0: eb49 38bd 4e02 32bc b0d7 5ebc 9ac7 bc3e
000001f0: b88a 56bd 1433 9b3e 5f2d 9d3e ae28 863e

fc3.weight f4 [64, 128]
-0.0067059114 -0.029510401 -0.070096575 -0.087318614 -0.006997141 0.094307974 -0.04959078 -0.008890898
-0.0028912597 -0.07047012 0.076423764 0.084907755 0.014292417 0.0768346 -0.06390918 -0.01894213
-0.06470377 0.09232143 -0.0018274979 0.075078435 0.051590633 -0.050377384 -0.0060622236 -0.033693496
-0.07940315 0.014462075 -0.085300826 -0.039477497 0.06060017 -0.08311849 0.056506902 -0.05654961
0.027443383 -0.025541611 0.044192415 -0.025009297 0.04311231 0.0777808 -0.085739456 -0.06175134
-0.03481899 0.04967988 -0.045424324 -0.054240305 -0.09329328 -0.0015343534 0.036740217 -0.020803373
0.07369273 0.08153063 0.04226218 -0.04015864 0.049323373 -0.070606105 0.036106624 0.073999025
-0.014068365 -0.011305829 -0.049642406 -0.00994429 0.01632475 0.05841116 -0.07672144 0.050177403
0.06479276 -0.016582938 -0.014772439 -0.07268873 -0.029759822 -0.018576574 0.05518477 0.06028558
0.0854843 -0.0690284 -0.0689499 -0.08792217 0.033831097 -0.058659375 -0.020914705 -0.048290268
-0.018260939 0.018163912 -0.051560536 0.014057428 -0.08808847 0.0032027494 0.07733605 -0.07805609
-0.08182199 0.06615147 0.04395216 -0.022878164 0.049992252 0.027524266 -0.040130176 0.044120215
-0.030415677 -0.027260454 -0.057747602 0.011775544 -0.0032126575 -0.033621155 0.058681414 -0.09342714
-0.03747018 -0.0075825797 -0.08190102 -0.04287024 -0.086834185 0.05972462 -0.033640273 0.0752863
-0.04302411 0.051496208 -0.045576263 -0.08257729 0.04753387 -0.08145273 0.043993775 -0.054244973
0.061389215 0.07202882 -8.148039e-05 0.07474674 -0.00717038 0.076145865 -0.07377578 0.050554372
0.07337904 0.26527628 0.8907865 0.064132124 -0.017979098 0.10603951 0.06966298 0.21157487
-0.061672125 -0.07066393 0.16284855 0.045665808 0.01708591 0.31371024 -0.030146899 0.024148809
0.0379492 -0.012121727 -0.03307419 0.029283328 -0.043033846 0.0350476 0.07494317 0.10817806
-0.7219467 -0.0007015944 -0.039079387 0.02825688 -0.07322652 0.003572233 -0.04420993 -0.06918403
-0.01128647 0.026886657 0.061978262 0.05819514 -0.3561143 -0.10300301 -0.048918854 0.25371367
-0.0073175267 -0.058945086 0.051392548 -0.06340152 0.14116843 -0.050551455 0.029440504 -0.12454246
0.18944451 0.0825857 -0.09277573 0.10032797 0.0114214225 -0.10926018 1.3156846 0.019900218
-0.0682085 -0.015677372 0.0061673694 -0.040224 0.0862091 -0.01240206 -0.087917835 -0.0312065
-0.011580292 0.58365834 -1.3808007 -0.07589239 0.08081774 0.15585648 0.08055078 0.12449135
0.01796273 0.011987907 0.011806729 -0.053554133 -0.023914628 0.05478418 0.028034274 0.0013743764
-0.051208194 -0.091703296 0.31632414 0.008340316 0.017088411 -0.028530437 0.05989926 0.037964445
-0.0841126 0.05963592 0.082670756 0.2751944 0.09402573 0.0008536625 -1.5023288 -0.40814456
-0.042921707 -0.09732194 -0.02469168 0.056145526 -0.8549788 0.10209744 0.23210773 0.16721746
-0.0018118726 0.07517848 0.07653185 0.123164795 0.18258612 0.07258494 0.007071391 0.00827256
0.19029096 0.05540973 1.4006604 0.006262225 0.045182787 0.10435815 0.104509644 0.0010148026
-0.06615917 -0.05971318 -0.079248644 0.061536226 -0.0076188645 0.3496412 1.3857167 0.121686265
00000000: 43bd dbbb ccbf f1bc cb8e 8fbd 1ad4 b2bd
00000010: 4648 e5bb 8a24 c13d b41f 4bbd 21ab 11bc
00000020: 4a7b 3dbb a352 90bd 1084 9c3d 1ee4 ad3d
00000030: be2a 6a3c 755b 9d3d d1e2 82bd 872c 9bbc
00000040: 6983 84bd 0513 bd3d a788 efba b9c2 993d
00000050: b350 533d 8458 4ebd 9ea5 c6bb 3102 0abd
00000060: 1e9e a2bd 57f2 6c3c 33b2 aebd 28b3 21bd
00000070: e237 783d 073a aabd c873 673d 90a0 67bd
00000080: f2d0 e03c a43c d1bc 1b03 353d 4ce0 ccbc
00000090: 8996 303d 8a4b 9f3d 2b98 afbd f9ee 7cbd
000000a0: 5b9e 0ebd 217d 4b3d db0e 3abd 152b 5ebd
000000b0: 8c10 bfbd 5b1c c9ba e97c 163d d66b aabc
000000c0: 37ec 963d 88f9 a63d 1c1b 2d3d 637d 24bd
000000d0: 4e07 4a3d ef99 90bd 8ae4 133d cd8c 973d
000000e0: 007f 66bc 153c 39bc d655 4bbd 60ed 22bc
000000f0: 7bbb 853c 8a40 6f3d 2120 9dbd d286 4d3d
00000100: 11b2 843d f1d8 87bc 1a08 72bc d4dd 94bd
00000110: dfca f3bc e62d 98bc 6d09 623d 03ee 763d
00000120: 6512 af3d c35e 8dbd 9b35 8dbd 8a10 b4bd
00000130: 7a92 0a3d d044 70bd 5155 abbc 04cc 45bd
00000140: f797 95bc 7ccc 943c 2431 53bd 2051 663c
00000150: ba67 b4bd 38e5 513b 5d62 9e3d dfdb 9fbd
00000160: 4a92 a7bd 6c7a 873d 2e07 343d fd6a bbbc
00000170: adc4 4c3d 927a e13c 8a5f 24bd 66b7 343d
00000180: 4c2a f9bc 5151 dfbc c088 6cbd 36ee 403c
00000190: 738b 52bb 56b6 09bd ec5b 703d ba56 bfbd
000001a0: 557a 19bd 4a77 f8bb b9bb a7bd b498 2fbd
000001b0: 1fd6 b1bd cea1 743d 62ca 09bd b42f 9a3d
000001c0: 0d3a 30bd b0ed 523d 2dae 3abd 481e a9bd
000001d0: e0b2 423d b0d0 a6bd d132 343d fa2f 5ebd
000001e0: 4273 7b3d d983 933d 74e0 aab8 d214 993d
000001f0: 82f5 eabb 5df2 9b3d c217 97bd 1a12 4f3d
00000200: c047 963d 4bd2 873e 960a 643f b457 833d
00000210: e748 93bc 3e2b d93d 77ab 8e3d 15a7 583e
00000220: e99b 7cbd 40b8 90bd c5c1 263e 120c 3b3d
00000230: c0f7 8b3c a19e a03e a1f6 f6bc b9d3 c53c
00000240: 9f70 1b3d 359a 46bc cd78 07bd 97e3 ef3c
00000250: 4244 30bd 128e 0f3d ce7b 993d 758c dd3d
00000260: 80d1 38bf 34eb 37ba b511 20bd f97a e73c
00000270: c9f7 95bd 201c 6a3b 7915 35bd 5bb0 8dbd
00000280: e3ea 38bc 6841 dc3c ebdc 7d3d 075e 6e3d
00000290: 9d54 b6be 3ef3 d2bd 235f 48bd c2e6 813e
000002a0: ddc7 efbb 6770 71bd fe80 523d a8d8 81bd
000002b0: 758e 103e 0b0f 4fbd 362d f13c 1e10 ffbd
000002c0: befd 413e b122 a93d 3401 bebd c078 cd3d
000002d0: eb20 3b3c cdc3 dfbd 5a68 a83f c805 a33c
000002e0: e6b0 8bbd d56d 80bc a517 ca3b ecc1 24bd
000002f0: 668e b03d 0332 4bbc 440e b4bd c6a4 ffbc
00000300: 44bb 3dbc a26a 153f 14be b0bf 786d 9bbd
00000310: c583 a53d d798 1f3e cff7 a43d 52f5 fe3d
00000320: 9326 933c ed68 443c 0371 413c 945b 5bbd
00000330: 9ce8 c3bc 6065 603d 22a8 e53c 6b24 b43a
00000340: afbf 51bd f0ce bbbd 3df5 a13e d2a5 083c
00000350: fffc 8b3c aab8 e9bc ed58 753d 9b80 1b3d
00000360: 3a43 acbd cb44 743d 494f a93d 48e6 8c3e
00000370: 9090 c03d 52c8 5f3a 4f4c c0bf 53f8 d0be
00000380: acce 2fbd ba50 c7bd 3546 cabc daf8 653d
00000390: e4df 5abf 7618 d13d a6ad 6d3e 0e3b 2b3e
000003a0: 5b7c edba 2df7 993d bbbc 9c3d d33d fc3d
000003b0: dbf7 3a3e 6aa7 943d 21b7 e73b a289 073c
000003c0: a2db 423e 50f5 623d d748 b33f 5a33 cd3b
000003d0: 9611 393d bab9 d53d 2709 d63d 2003 853a
000003e0: 757e 87bd cf95 74bd 1d4d a2bd 690d 7c3d
000003f0: aba7 f9bb 2c04 b33e 2a5f b13f a636 f93d

fc3.bias f4 [64]
-0.06518481 0.57867366 0.6702373 -0.12179059 -0.06329353 -0.06992367 0.5305558 0.5276822
0.6185318 -0.030372962 0.29691193 0.14904103 -0.07911892 -0.109637894 -0.03666627 0.000925771
0.56850433 -0.13705797 0.5988053 -0.0076532527 -0.0604995 0.6204546 0.3996099 0.5586977
0.5783948 0.50628984 -0.08148707 -0.22664772 -0.17198455 -0.16468705 0.019687602 0.6196038
-0.11496499 0.6357452 0.56747395 -0.036142047 -0.035775136 -0.06249424 0.016257636 0.5698551
-0.14597075 0.51043993 -0.0056373095 -0.1880112 0.04594977 -0.088916846 -0.13039407 0.59449786
0.0138058085 -0.022530617 -0.09121935 0.049519252 -0.111167304 -0.08840563 -0.018035287 -0.11102733
-0.0666065 0.5242444 0.57340395 -0.06358723 0.009130901 -0.06040279 0.62148035 -0.16628702
00000000: 9d7f 85bd f523 143f ac94 2b3f 586d f9bd
00000010: 0aa0 81bd 2434 8fbd 81d2 073f 2e16 073f
00000020: 1a58 1e3f b8d0 f8bc d704 983e 369e 183e
00000030: 1a09 a2bd d589 e0bd 5f2f 16bd 71af 723a
00000040: 8089 113f ed58 0cbe 4e4b 193f 23c8 fabb
00000050: 53ce 77bd 1dd6 1e3f ab99 cc3e d006 0f3f
00000060: ae11 143f 369c 013f b1e2 a6bd 5716 68be
00000070: b81c 30be b9a3 28be e547 a13c 5b9e 1e3f
00000080: c472 ebbd 33c0 223f f945 113f af09 14bd
00000090: f388 12bd f6f9 7fbd bc2e 853c 06e2 113f
000000a0: 5b79 15be 31ac 023f 2eb9 b8bb 0286 40be
000000b0: d335 3c3d 091a b6bd 0686 05be 0331 183f
000000c0: c231 623c 2192 b8bc 36d1 babd b3d4 4a3d
000000d0: afab e3bd 030e b5bd bdbe 93bc 4c62 e3bd
000000e0: fd68 88bd e234 063f 9aca 123f 063a 82bd
000000f0: c699 153c ea68 77bd 5619 1f3f 2547 2abe

fc4.weight f4 [51, 64]
0.008497605 0.34017375 1.9154091 -0.049885094 -0.05387121 -0.0064630425 0.36209476 0.35947368
0.3957608 0.011740001 -3.9510598 1.4912735 0.0006746872 -0.048614934 -0.014070787 -0.06611947
0.4236324 0.012728799 0.3699619 0.21200067 -0.03279376 0.4285805 -2.0426567 0.344619
0.4004955 0.33451644 -0.00046699896 0.0033126853 0.0009539159 0.0022730601 -0.06661827 0.3911977
-0.027667725 0.4279077 0.368572 0.0036043145 -0.020213796 0.071920395 -0.04432771 0.34250537
-0.033145923 0.32290322 -0.04623725 -0.009694515 0.018278658 0.006679957 0.029698804 0.3762423
-4.071304 0.004023995 0.02567708 -0.06193209 -0.06384012 -0.017257733 -0.019417016 0.012701928
0.06233262 0.37831795 0.35307685 -0.035074014 -0.09003007 -0.008863591 0.41012916 -0.033011794
-0.09289037 0.09856504 0.0531231 -0.040985227 -0.09413697 0.053918287 -0.10303563 0.1206357
-0.124381036 0.064646184 -0.09307028 0.011290371 0.025249407 0.12053858 0.019148916 0.045745745
0.008511141 0.076982856 -0.023345932 -0.11827128 -0.11512071 0.008137569 0.07457942 0.098383665
-0.051717028 0.01653999 -0.004194662 -0.082277045 0.035226256 -0.09246197 -0.02397284 -0.11569063
0.04766804 0.0047282577 0.103233755 0.020253062 0.0888391 -0.12121388 0.11029096 -0.0034671426
0.06933832 0.10879916 -0.063688904 0.043905273 0.013709843 0.07019898 -0.037356123 0.056330413
0.08342713 -0.0195532 -0.005636096 -0.0123081505 0.09970018 0.06798634 -0.12068051 -0.11974685
0.03519389 -0.016849786 0.067010865 -0.014429688 0.039466023 0.0020247847 -0.0792 -0.063797385
-0.058899254 -0.03539394 -0.053603366 -0.022266686 0.076662675 0.010299087 -0.09849343 0.09898515
-0.10565965 0.04746066 0.05245036 -0.06966141 -0.055973664 -0.08451937 -0.058683023 0.113333926
0.05569434 -0.10266192 0.0053184777 -0.05557263 -0.005037904 -0.10723391 0.10273807 0.02979137
-0.043802395 -0.0015411973 0.07187283 0.09613961 -0.0054145604 0.0048553646 -0.012173563 -0.06406343
0.010121703 -0.07268271 0.03661549 -0.052895322 -0.02543129 -0.054610595 0.06745601 0.082103536
-0.06444791 0.09512843 -0.10545012 -0.0026324093 0.03654319 -0.02871646 -0.052473605 -0.09716573
0.085032806 -0.11643833 0.11753172 0.10092457 -0.027047157 0.12490356 0.044842765 0.07917231
-0.03802672 0.0015055388 0.050915107 -0.03550133 0.053010568 -0.11172448 -0.0050613284 -0.025408894
-0.014731601 0.06714037 0.11670858 0.055925235 -0.09635459 -0.057681635 -0.025140688 0.0034632385
0.06454247 0.08422354 -0.088860825 -0.025084928 0.03947653 -0.062319607 -0.055412546 0.020557716
-0.05466965 0.037293747 -0.044228256 0.1213422 -0.07221925 -0.015982017 0.11004345 0.07528043
-0.12449619 -0.00080515444 -0.11960545 0.08642709 -0.10078786 0.11161652 -0.11874783 0.09145771
0.02003859 -0.08449717 0.035524353 0.024528354 0.008616641 0.029619008 0.090066984 0.10058361
0.12302601 -0.042173803 -0.09563017 0.029064864 -0.07437007 0.09727074 -0.0008562803 0.05313091
0.020148844 -0.023330986 0.07489279 -0.08677733 -0.0025461912 0.038716555 0.07281916 -0.0008520186
0.029176041 -0.09582241 0.10225488 0.094808295 -0.10772616 -0.10324885 0.04715328 0.04281938
00000000: 8a39 0b3c 412b ae3e 202c f53f 5054 4cbd
00000010: 0fa8 5cbd eec7 d3bb 7c64 b93e ef0c b83e
00000020: 29a1 ca3e 2259 403c 2ade 7cc0 0de2 be3f
00000030: 7edd 303a 7420 47bd 2889 66bc a569 87bd
00000040: 59e6 d83e 748c 503c a56b bd3e b416 593e
00000050: c052 06bd e76e db3e e3ba 02c0 e771 b03e
00000060: bf0d cd3e bd45 ab3e 8ad7 f4b9 a319 593b
00000070: 3610 7a3a 9ff7 143b 296f 88bd 114b c83e
00000080: 6da7 e2bc b816 db3e 78b5 bc3e 5d36 6c3b
00000090: 6797 a5bc 004b 933d f990 35bd dd5c af3e
000000a0: 05c4 07bd 9253 a53e 4563 3dbd bed5 1ebc
000000b0: 20bd 953c 8ae3 da3b e84a f33c d5a2 c03e
000000c0: 1f48 82c0 b7db 833b bd58 d23c 81ac 7dbd
000000d0: 9cbe 82bd 1760 8dbc 6f10 9fbc bf1b 503c
000000e0: 7d50 7f3d e4b2 c13e 7dc6 b43e c5a9 0fbd
000000f0: af61 b8bd 9838 11bc 73fc d13e 6037 07bd
00000100: 4e3d bebd 78dc c93d 9c97 593d 20e0 27bd
00000110: e2ca c0bd 6cd9 5c3d 5804 d3bd da0f f73d
00000120: 7cbb febd 3865 843d a29b bebd 40fb 383c
00000130: d8d7 ce3c eedc f63d 30de 9c3c e45f 3b3d
00000140: 5072 0b3c 30a9 9d3d f83f bfbc 3638 f2bd
00000150: 68c4 ebbd 7053 053c 18bd 983d 607d c93d
00000160: 3cd5 53bd e07e 873c 6073 89bb de80 a8bd
00000170: 6849 103d b45c bdbd b062 c4bc 36ef ecbd
00000180: 903f 433d 80ef 9a3b 386c d33d c0e9 a53c
00000190: 46f1 b53d fc3e f8bd 3ae0 e13d 0039 63bb
000001a0: 4001 8e3d 18d2 de3d 546f 82bd 04d6 333d
000001b0: 409f 603c 7cc4 8f3d bc02 19bd b8ba 663d
000001c0: d8db aa3d 082e a0bc 00af b8bb 20a8 49bc
000001d0: 9c2f cc3d 6c3c 8b3d 5827 f7bd d63d f5bd
000001e0: 7827 103d 9008 8abc fe3c 893d 806a 6cbc
000001f0: 20a7 213d 40b2 043b 9c33 a2bd 34a8 82bd
00000200: 5840 71bd 3cf9 10bd 348f 5bbd a068 b6bc
00000210: 5201 9d3d 80bd 283c ecb6 c9bd bab8 ca3d
00000220: 1664 d8bd 1c66 423d 30d6 563d a4aa 8ebd
00000230: a444 65bd 7e18 adbd 9c5d 70bd 9e1b e83d
00000240: c01f 643d 6a40 d2bd a046 ae3b 20a0 63bd
00000250: 0015 a5bb 749d dbbd 5668 d23d 080d f43c
00000260: 246a 33bd 0002 caba 1032 933d d8e4 c43d
00000270: a06c b1bb c019 9f3b a073 47bc b033 83bd
00000280: 80d5 253c acda 94bd 20fa 153d c4a8 58bd
00000290: 4855 d0bc 5caf 5fbd 6026 8a3d e625 a83d
000002a0: 44fd 83bd b2d2 c23d 3cf6 d7bd 8084 2cbb
000002b0: 50ae 153d c83e ebbc 90ee 56bd d4fe c6bd
000002c0: ae25 ae3d 3877 eebd 78b4 f03d 8ab1 ce3d
000002d0: 0092 ddbc 70cd ff3d 0cad 373d 1825 a23d
000002e0: e8c1 1bbd 8055 c53a 5c8c 503d d869 11bd
000002f0: 9c21 593d cecf e4bd 80d9 a5bb 5026 d0bc
00000300: d05c 71bc e480 893d e804 ef3d dc11 653d
00000310: 8e55 c5bd 9443 6cbd d8f3 cdbc 80f7 623b
00000320: d82e 843d 647d ac3d aafc b5bd e87e cdbc
00000330: 24b2 213d d842 7fbd 44f8 62bd a868 a83c
00000340: 48ed 5fbd 54c1 183d b028 35bd 4282 f83d
00000350: b0e7 93bd b8ec 82bc 765e e13d a02c 9a3d
00000360: dcf7 febd 0011 53ba b4f3 f4bd b000 b13d
00000370: de69 cebd 3497 e43d 1032 f3bd 2e4e bb3d
00000380: f827 a43c da0c adbd fc81 113d b0ef c83c
00000390: d02c 0d3c 90a3 f23c 0a75 b83d c8fe cd3d
000003a0: 10f5 fb3d 70be 2cbd c0d9 c3bd 7019 ee3c
000003b0: 564f 98bd e235 c73d 0078 60ba cc9f 593d
000003c0: 300f a53c a020 bfbc 6461 993d 50b8 b1bd
000003d0: 00de 26bb 4095 1e3d 3622 953d 005a 5fba
000003e0: 9802 ef3c 8a3e c4bd 026b d13d da2a c23d
000003f0: 889f dcbd 2274 d3bd cc23 413d 6063 2f3d

fc4.bias f4 [51]
0.74844885 0.048495054 0.025624782 0.053290054 0.11432223 -0.059373558 -0.029578641 -0.06326713
-0.11259785 -0.0840857 0.11391583 -0.0141055435 -0.09724873 0.059425876 -0.01639916 -0.07556492
-0.11388177 -0.033106074 -0.08784042 -0.040440455 0.0631264 0.060094208 -0.038706362 0.05206245
-0.0008047074 0.09691496 -0.012990817 -0.035594553 -0.010462031 0.07453704 -0.09941475 -0.012177825
0.024205953 -0.10130106 0.07532312 0.039512634 -0.046905264 0.10646665 0.117950484 0.04865676
0.04169613 -0.037250295 -0.12328069 -0.067639485 0.053637058 -0.11686258 -0.07299392 0.09570925
0.039072067 0.025964469 -0.074563116
00000000: 589a 3f3f c0a2 463d 10eb d13c ac46 5a3d
00000010: c621 ea3d b031 73bd e84e f2bc 3292 81bd
00000020: b499 e6bd 2035 acbd b44c e93d f01a 67bc
00000030: 582a c7bd 8c68 733d 8857 86bc c8c1 9abd
00000040: d83a e9bd 3c9a 07bd aee5 b3bd e4a4 25bd
00000050: 6a48 813d 5825 763d 908a 1ebd 703f 553d
00000060: 00f3 52ba 5a7b c63d 70d7 54bc 98cb 11bd
00000070: f068 2bbc e0a6 983d f699 cbbd 8085 47bc
00000080: 904b c63c ee76 cfbd 0243 9a3d 00d8 213d
00000090: bc1f 40bd 300b da3d 0690 f13d 504c 473d
000000a0: 90c9 2a3d c493 18bd 967a fcbd 9286 8abd
000000b0: 88b2 5b3d a655 efbd d67d 95bd 3603 c43d
000000c0: 080a 203d 70b3 d43c 8cb4 98bd
