models/comparison_apache@airvata_comparison_2500ep_dqn/pairwise_dqn_2500ep_dqn.pt (torch, 173568 bytes, 8 tensors)

fc1.weight f4 [128, 112]
0	0xbd6cc5ac	-0.057805702
1	0xbd6652d6	-0.056231342
2	0x3dae6804	0.08515933
3	0xbd209bbf	-0.03921103
4	0x3cb88c04	0.022527702
5	0x3cad6fcd	0.021171475
6	0xbd6b80c6	-0.057495855
7	0x3da11bc4	0.07866624
8	0xbca8ddaf	-0.02061352
9	0x3c705b8a	0.014670262
10	0x3dc11953	0.09428658
11	0x3dc18482	0.09449102
12	0xbc7d4e40	-0.015460551
13	0xbce2a215	-0.027665177
14	0x3cad7066	0.02117176
15	0x3d826f1c	0.06368849
16	0x3d90a11f	0.070619814
17	0x3dc46326	0.095892236
18	0x3d47a471	0.048740808
19	0xbd7167e4	-0.05893697
20	0x3dcdb435	0.100441374
21	0xbca3386d	-0.019924367
22	0xbcadbcec	-0.021208249
23	0xbac2ebe3	-0.0014871325
24	0xbd28bd3a	-0.041196086
25	0x3d1ab6e8	0.03777209
26	0xbd825abe	-0.06364964
27	0x3de49a71	0.1116227
28	0x3d8a9df9	0.06768412
29	0x3db2a715	0.087232746
30	0xbd1fa521	-0.03897584
31	0x3dd4c5b4	0.103892714
32	0xbd667863	-0.056267153
33	0xbd1df6f8	-0.038565606
34	0xbc020c6e	-0.007937534
35	0x3de7cf93	0.113188885
36	0x3ca7837a	0.020448435
37	0x3d852e5a	0.065029815
38	0x3db9fe09	0.090816565
39	0xbc2ccc2c	-0.010546725
40	0x3d3f6722	0.046729214
41	0xbdb29027	-0.08718901
42	0x3d7ad1ad	0.06123512
43	0x3d22f30e	0.039782576
44	0xbd6150aa	-0.055008568
45	0x3db0a1ec	0.08624634
46	0xbdc9a0e2	-0.09845139
47	0x3cb72d6c	0.022360526
48	0xbd40d070	-0.04707378
49	0xbd381546	-0.044942163
50	0xbc1a481d	-0.009416607
51	0x3da0967c	0.078412026
52	0x3d8912e7	0.066930585
53	0xbc22969e	-0.009923605
54	0xbccaab95	-0.02474002
55	0x3c86fcb5	0.016477922
56	0x3da82604	0.08210376
57	0xbd826410	-0.06366742
58	0x3d17e3f5	0.03708263
59	0x3d85784d	0.06517086
60	0x3d8f968d	0.07011137
61	0xba10f85f	-0.0005530174
62	0x3c20605c	0.009788599
63	0xbd8ad93b	-0.06779715
64	0x3cc46d83	0.023978
65	0x3d540ad2	0.05176813
66	0x3d191307	0.03737166
67	0x3d25d836	0.040489398
68	0x3df33204	0.11874774
69	0x3dee3dde	0.11632894
70	0xbd8d93a5	-0.069129266
71	0x3d78a144	0.06070067
72	0x3bbc6a5e	0.0057499846
73	0xbb74b509	-0.003733935
74	0xbaab2c1d	-0.0013059411
75	0x3d18f1b7	0.037339892
76	0xbd240f02	-0.040053375
77	0xbcc3e97b	-0.023915043
78	0x3dd00a00	0.10158157
79	0x3dbbbcf4	0.09166899
80	0x3c80088c	0.015629075
81	0x3ac80f8d	0.0015263424
82	0xbd1e8daf	-0.03870934
83	0x3db70707	0.08936887
84	0xbd7d8fea	-0.061904825
85	0x3dd1c073	0.10241785
86	0xbd13d647	-0.036093023
87	0x3d510397	0.051028814
88	0xbc6c7afa	-0.014433617
89	0x3d2e608d	0.042572547
90	0xbd7aa828	-0.061195523
91	0x3d586ba4	0.05283703
92	0xbcdcab98	-0.026937291
93	0x3c575130	0.013141915
94	0x3da7ddd8	0.0819661
95	0x3d80851a	0.06275387
96	0xbdcd5423	-0.100258134
97	0x3caf33e5	0.02138705
98	0xbd2d4f93	-0.042312216
99	0xbd526866	-0.051369093
100	0xbd687277	-0.056749787
101	0xbd517cee	-0.051144533
102	0xbdea5171	-0.11441315
103	0xbc68ae4a	-0.01420171
104	0x3da3f1e8	0.08005124
105	0xbd6477bd	-0.055778254
106	0xbb9bc863	-0.0047541126
107	0x3db62d11	0.088953145
108	0x3dc71b1e	0.09721969
109	0xbd900b4e	-0.07033406
110	0x3dd00a80	0.10158253
111	0x3bbb31a1	0.0057127033
112	0x3dae8b70	0.08522689
113	0xbca95d89	-0.020674484
114	0x3e0f1d8a	0.13976112
115	0x3dcd5496	0.10025899
116	0x3d848655	0.06470934
117	0x3d02b920	0.03191483
118	0x3e114dbc	0.1418981
119	0xbcc5618c	-0.024094366
120	0x3c55acca	0.013041684
121	0x3e07255c	0.13197845
122	0x3d4f7fc9	0.050658975
123	0x3df6b61e	0.12046455
124	0x3e23ec2a	0.16008058
125	0x3df9708d	0.121796705
126	0x3dca8ca9	0.0989011
127	0xbba0848a	-0.0048986124
128	0x3df4ac10	0.11946881
129	0x3c604ec3	0.013690653
130	0x3dc43530	0.09580457
131	0x3d892ebe	0.066983685
132	0x3e0e1e9d	0.13878866
133	0x3ca25710	0.019816905
134	0x3e05db1e	0.13071868
135	0x3e1939bc	0.1496343
136	0x3cee010f	0.02905324
137	0x3982fbef	0.00024983237
138	0x3c9271d0	0.017876536
139	0x3d9aa0a6	0.075501725
140	0x3e1b5358	0.15168512
141	0xbc1597ca	-0.009130428
142	0x3e1ca8b0	0.15298724
143	0x3da575d5	0.08079115
144	0xbb7b776f	-0.0038370749
145	0x3e0aef3b	0.13567822
146	0x3dc68df8	0.09695047
147	0x3d801305	0.06253628
148	0x3dfac185	0.12243942
149	0xbc33ef23	-0.010982308
150	0x3d4a444d	0.049381543
151	0x3cac1c2d	0.021009529
152	0x3dfff2ab	0.12497457
153	0x3d86271c	0.06550428
154	0x3e257dfa	0.16161337
155	0xbc3f7597	-0.01168575
156	0x3df0c2d5	0.11755911
157	0x3d69f5c4	0.057119146
158	0xbd9e9938	-0.07744068
159	0x3d0a01a7	0.033692982
160	0x3bdf1117	0.006807457
161	0x3dc6151c	0.09671995
162	0x3cde91e3	0.027169174
163	0x3db05254	0.08609453
164	0x3a09971f	0.0005248654
165	0xbdbc3c36	-0.09191172
166	0x3dfc8696	0.12330358
167	0xbcc6c98e	-0.02426603
168	0x3e194c2b	0.14970462
169	0xbba854d8	-0.0051370673
170	0x3dcbd491	0.09952653
171	0x3c8d8eea	0.01728006
172	0x3dd517ba	0.10404916
173	0x3d5fca34	0.054636195
174	0x3e1ba621	0.15200092
175	0xbd03f471	-0.03221554
176	0x3cd89d61	0.026442232
177	0x3cb686fb	0.02228116
178	0x3da8dbbe	0.082450375
179	0x3e08ad2b	0.13347308
180	0x3e1e5695	0.15462716
181	0x3dd46802	0.103714004
182	0xbc2534b2	-0.010083364
183	0xbcb12eb1	-0.02162871
184	0x3dfd6e84	0.12374595
185	0x3dd11e9e	0.10210918
186	0x3e006180	0.12537193
187	0x3b9023de	0.004398807
188	0x3df991c8	0.12186009
189	0x3e21e7e1	0.15811111
190	0xbab21d51	-0.0013589059
191	0x3e1dd0a0	0.15411615
192	0x3d7af4bd	0.061268557
193	0xbc1811e4	-0.009281609
194	0x3df150ca	0.117829874
195	0xbc8c0de1	-0.017096462
196	0x3dd2200a	0.10260017
197	0x3da28518	0.07935542
198	0x3bcebd80	0.0063092113
199	0x3df6268e	0.120190725
200	0x3df2c65c	0.1185424
201	0x3de61e0b	0.11236199
202	0x3b98f93f	0.0046683843
203	0x3bef9798	0.0073117726
204	0xbc83dcfe	-0.016096588
205	0xbc028529	-0.007966318
206	0x3c7da93a	0.015482241
207	0x3d8b78ad	0.068101265
208	0xbdda588a	-0.10661419
209	0xbdaff79d	-0.0859215
210	0x3d5a2f93	0.053268027
211	0x3c332adf	0.010935514
212	0x3d6e6659	0.058203075
213	0x3e17bab8	0.14817321
214	0x3e2b652b	0.16737811
215	0x3db38ad7	0.08766716
216	0x3dc8f141	0.098116405
217	0x3e164ef7	0.1467856
218	0x3db17efe	0.086668
219	0x3ae8624f	0.0017729494
220	0x3c08046c	0.0083018355
221	0xbe561781	-0.20907404
222	0x3dfcda9d	0.12346385
223	0x3d91b170	0.07113922
224	0xbcc23fbf	-0.023712037
225	0x3d36883b	0.044563513
226	0x3d7adcbc	0.061245665
227	0xbd1691d2	-0.03676016
228	0x3c032e79	0.008006685
229	0x3c941afc	0.018079273
230	0x3d1bb076	0.038010083
231	0xbd9db419	-0.077003665
232	0x3950af02	0.00019901621
233	0x3d7d73d6	0.061878048
234	0xbd2c3ce0	-0.042050242
235	0x38d83824	0.000103101396
236	0x3d4937a8	0.049125344
237	0xbdbc56fa	-0.09196277
238	0x3d9a2f0e	0.07528506
239	0xbd8b4b86	-0.06801514
240	0x3d8bbd3b	0.06823202
241	0xbab7a9a5	-0.001401235
242	0x3d19bdf0	0.037534654
243	0xbc03ea52	-0.008051472
244	0xbd5cb7a2	-0.053886063
245	0xbc09d540	-0.008412659
246	0x3cf2437b	0.029573193
247	0xbd5de72c	-0.05417554
248	0xbd9cbdee	-0.07653414
249	0xbd89d353	-0.0672976
250	0x3cf08e15	0.029364625
251	0xbc9a1e21	-0.018813195
252	0x3d49565a	0.049154617
253	0x3d8b98be	0.06816243
254	0xbd2f7acd	-0.04284172
255	0xbb9dd79d	-0.004816963

fc1.bias f4 [128]
0	0xbcc58a1f	-0.024113713
1	0xbe0da928	-0.13834059
2	0x3c4f3d44	0.012648884
3	0xbde71701	-0.112836845
4	0x3dc3f617	0.09568422
5	0xbdb2c93b	-0.08729788
6	0xbc862c55	-0.016378561
7	0xbd254eb1	-0.04035825
8	0x3c018b45	0.00790674
9	0xbdadabd4	-0.08480039
10	0x3bb99f31	0.005664729
11	0xbe3df937	-0.18552099
12	0x3d1f2850	0.038856804
13	0xbe247747	-0.16061126
14	0xbd97c7ae	-0.07411133
15	0x3d4c26e9	0.049841795
16	0x3ceace3b	0.028662791
17	0xbd112eb0	-0.035444915
18	0xbd535287	-0.051592376
19	0x3d7a9d02	0.06118489
20	0xbd3c451d	-0.04596435
21	0xbc52dafd	-0.012869594
22	0xbec41a0f	-0.3830113
23	0x3e39bbb2	0.18138006
24	0xbca8f027	-0.020622326
25	0xbdf936fa	-0.12168689
26	0xbdb1e8c2	-0.08686973
27	0x3ca69222	0.020333353
28	0xbd95c8ea	-0.07313712
29	0x3d2f22c0	0.04275775
30	0xbca17ca4	-0.019712754
31	0xbd1bbe80	-0.03802347
32	0x3c556d38	0.013026528
33	0xbdb55b5b	-0.08855315
34	0x3d94629d	0.072453715
35	0x3d189dae	0.03725975
36	0x3bac379a	0.0052556517
37	0x3d091b05	0.033473033
38	0xbdb9555b	-0.090494834
39	0x3bdc38d6	0.0067206426
40	0x3d357425	0.044300217
41	0xbdab5434	-0.0836567
42	0xbd67a892	-0.056557246
43	0xbd7bab51	-0.061442677
44	0xbd417010	-0.04722601
45	0xbdc225f4	-0.09479895
46	0xbd00f816	-0.031486593
47	0xbd018ca4	-0.031628266
48	0x3df65eaa	0.120297745
49	0xbdc8e623	-0.0980952
50	0x3db11617	0.086467914
51	0xbd0af841	-0.03392816
52	0xbd791eb3	-0.060820293
53	0xbcceff42	-0.0252682
54	0xbe1d3e86	-0.15355882
55	0xbe155f88	-0.14587224
56	0x3c31be67	0.010848618
57	0xbcf9157d	-0.030405754
58	0x3d5b63ad	0.053561855
59	0x3d119492	0.03554208
60	0xbd6496b2	-0.055807777
61	0xba39c6dc	-0.00070868223
62	0x3da4ea71	0.08052529
63	0xbc9e84cb	-0.01935043
64	0xbd95d9d6	-0.073169395
65	0x3c54e7c7	0.012994713
66	0xbd59aed6	-0.053145252
67	0xbd1fb5d7	-0.038991775
68	0x3d9abf66	0.075560376
69	0xbd8afaca	-0.067861155
70	0xbcada56f	-0.021197049
71	0xbc7bf498	-0.01537814
72	0xbe7b6909	-0.24551786
73	0xbcfc7d5c	-0.030821495
74	0xbdaf9b00	-0.08574486
75	0x3c8674d5	0.016413132
76	0xbd9c4fa9	-0.076323815
77	0xbd5acd58	-0.053418487
78	0xbde9cb8e	-0.11415778
79	0x3d72d3a9	0.059283886
80	0xbd0b2cb2	-0.03397817
81	0xbc593945	-0.013258283
82	0xbe09d977	-0.13461863
83	0x3d82631e	0.06366561
84	0xbd862ef2	-0.06551923
85	0x3e84480f	0.25836226
86	0xbe069d6a	-0.13145986
87	0x3d342060	0.043976188
88	0xbc0afc4a	-0.008483002
89	0x3d8b9618	0.068157375
90	0xbcb33036	-0.021873575
91	0x3c00c7d5	0.007860144
92	0xbc2f6bb5	-0.010706832
93	0xbd436c8f	-0.04771095
94	0xbd476eb2	-0.04868955
95	0xbcb8a49a	-0.022539426
96	0x3d4bed8a	0.04978708
97	0x3de7aca7	0.11312228
98	0x3d7ba87c	0.061439976
99	0xbbda1de2	-0.0066563943
100	0x3dc8dcc2	0.09807731
101	0xbd981fe2	-0.07427956
102	0x3e909c6c	0.2824434
103	0xbe9d32b7	-0.30702755
104	0xbca10ae8	-0.01965852
105	0xbd167dd3	-0.03674109
106	0x3e2607d9	0.16213931
107	0x3e1fab0e	0.15592596
108	0xbd292f00	-0.04130459
109	0xbcc21951	-0.023693712
110	0xbdc70ddd	-0.09719441
111	0xbd31c3ce	-0.043399625
112	0x3ddafbd3	0.10692563
113	0xbdc65836	-0.09684794
114	0xbc30640b	-0.01076604
115	0x3d53381a	0.051567174
116	0xbda20dd9	-0.079127975
117	0xbcf40a9f	-0.02979022
118	0xbaab7f1c	-0.0013084146
119	0xbcdeb5fe	-0.02718639
120	0xbcde3486	-0.027124655
121	0xbde8e4ee	-0.1137179
122	0x3da159b6	0.07878439
123	0xbbdaa768	-0.0066727884
124	0xbca8781f	-0.02056509
125	0x3cae2fa7	0.021262957
126	0x3e21b09b	0.15790026
127	0xbefd597b	-0.4948233

fc2.weight f4 [128, 128]
0	0x3ca0b1a8	0.019615963
1	0xbd2a4d1f	-0.041577455
2	0xbd0ab114	-0.03386028
3	0xbe166f49	-0.1469089
4	0xbd3e5cc7	-0.046475198
5	0xbd868b20	-0.06569505
6	0x3d6c0acf	0.057627495
7	0xbd0a12d9	-0.03370938
8	0x3ca625e9	0.020281749
9	0xbe0a8160	-0.13525915
10	0x3d8aaf50	0.067717195
11	0x3d15ce79	0.03657386
12	0x3c81a68b	0.015826484
13	0xbe1a7e89	-0.15087332
14	0xbd9550ea	-0.07290824
15	0xbc0b7fc8	-0.008514352
16	0x3d148188	0.036256343
17	0x3d0193fc	0.03163527
18	0xbe3030ee	-0.17206165
19	0xbe30a019	-0.17248572
20	0xbcf48162	-0.02984685
21	0x3d8e6560	0.069529295
22	0xbe900891	-0.28131536
23	0xbe0c91c4	-0.1372748
24	0x3d728ffe	0.059219353
25	0x3cf097fe	0.02936935
26	0xbc59c9de	-0.013292758
27	0xbe0e6b59	-0.13908137
28	0xbdd75c7d	-0.105156876
29	0xbdd7e615	-0.105419315
30	0xbea36790	-0.3191495
31	0x3c1ec162	0.009689661
32	0xbd7455d9	-0.059652183
33	0x3daa8bf5	0.08327476
34	0xbe197b4d	-0.14988442
35	0xbde0a057	-0.109680824
36	0x3d0c46b7	0.034247126
37	0x3ce12c61	0.027486982
38	0x3daa0400	0.08301544
39	0x3d1483a0	0.03625834
40	0xbe028d09	-0.12749113
41	0x3cf16507	0.029467119
42	0x3cfccd10	0.0308595
43	0xbd29e5e2	-0.041479
44	0xbb3cb756	-0.00287958
45	0xbdde0586	-0.10840897
46	0x3dc34e05	0.095363654
47	0xbd792869	-0.060829554
48	0xbdeeab8b	-0.11653813
49	0xbe25b1a1	-0.16181041
50	0xbdb624e4	-0.08893755
51	0xbe072c02	-0.13200381
52	0xbc15d2cf	-0.009144499
53	0xbdbd65f5	-0.092479624
54	0xbd334db8	-0.04377529
55	0xbd2077bf	-0.0391767
56	0x3cdae133	0.026718711
57	0xbc5f81a3	-0.013641748
58	0x3ceb5ba4	0.028730221
59	0xbc97bcdc	-0.018522672
60	0xbd83b040	-0.064301014
61	0x3cc834dc	0.024439268
62	0xbd90be4e	-0.07067548
63	0xbcd5c9c7	-0.026097191
64	0xbb2ff7a1	-0.002685048
65	0xbe358749	-0.17727388
66	0x3d24217b	0.040070992
67	0x3c26cc1b	0.0101804985
68	0x3cfeceae	0.031104412
69	0x3daf6fcf	0.08566248
70	0x3db2e5b7	0.08735221
71	0xbcb90d0d	-0.02258923
72	0xbdba3327	-0.09091788
73	0x3b8f6cff	0.004377007
74	0xbd517990	-0.05114132
75	0xbd75aa79	-0.05997703
76	0xbc9a9470	-0.018869609
77	0x3d99d2dc	0.07510921
78	0xbbe97e53	-0.0071256547
79	0x3c9b0de3	0.01892752
80	0xbd491a20	-0.04909718
81	0xbc606636	-0.013696244
82	0x3d04b47c	0.032398686
83	0xbda92697	-0.082593136
84	0xbd0a8039	-0.03381369
85	0x3d196d55	0.037457783
86	0x3d2b7488	0.04185918
87	0x3cde84ed	0.027162993
88	0x3d03feec	0.032225534
89	0xbd973aee	-0.07384287
90	0x3d20f015	0.03929146
91	0xbba3d0a8	-0.004999239
92	0x3dada2cc	0.08478317
93	0xbc4a54b3	-0.012349295
94	0x3c8943b1	0.01675591
95	0xbd801116	-0.06253259
96	0xbe916dab	-0.28403983
97	0x3d25177b	0.040305596
98	0x3d943dd1	0.07238353
99	0xbd2d7c95	-0.04235514
100	0x3cd2cdc8	0.02573289
101	0x3de49aa2	0.11162306
102	0xbeb0e827	-0.34552118
103	0xbda63196	-0.081149265
104	0xbdff396d	-0.12462125
105	0x3c212756	0.009836039
106	0xbeaf95d1	-0.34293988
107	0xbe4a2038	-0.19738853
108	0xbd9d6296	-0.076848194
109	0xbdbe6df5	-0.092983164
110	0xbcc665a8	-0.024218395
111	0xbd923593	-0.07139125
112	0xbec58920	-0.3858118
113	0x3b3ed114	0.002911632
114	0x3d7a418b	0.061097663
115	0xbc98421a	-0.018586207
116	0xbbb0f5db	-0.005400402
117	0x3d20a244	0.03921725
118	0xbe751fae	-0.23937866
119	0xbd8fc7c9	-0.07020528
120	0xbd9397bf	-0.07206678
121	0xbe9415a6	-0.28922766
122	0x3d45bd57	0.04827627
123	0x3ce2d70a	0.02769043
124	0xbc667844	-0.0140667595
125	0xbe20b3d4	-0.15693599
126	0xbd8021b9	-0.06256432
127	0xbde44af3	-0.11147108
128	0xbc491cf9	-0.012274974
129	0x3d584941	0.052804235
130	0x3cb041c4	0.021515734
131	0xbe07e2fb	-0.1327018
132	0xbe10bf6c	-0.14135522
133	0x3ca08e65	0.019599149
134	0x3d9c4358	0.07630032
135	0xbd23a912	-0.03995616
136	0xbdc82e11	-0.097744115
137	0xbe1bc6a3	-0.15212493
138	0x3d2c5268	0.042070776
139	0x3d5acccd	0.05341797
140	0x3d3904f1	0.045170728
141	0xbda19a50	-0.07890761
142	0x3d536b39	0.051615927
143	0xbe06b743	-0.13155846
144	0xbdff8d1f	-0.124780886
145	0x3d4f51ad	0.050615
146	0x3b0ef81a	0.002181536
147	0xbdcd4bc6	-0.10024218
148	0xbd4ca7e2	-0.049964793
149	0xbd8e5564	-0.06949881
150	0xbd02e447	-0.031955983
151	0xbd862ff3	-0.06552114
152	0xbc45b7b8	-0.012067728
153	0x3d4aa513	0.049473833
154	0x3d776a18	0.060403913
155	0xbd978581	-0.07398511
156	0xbd909c7b	-0.07061096
157	0x3d0ab22b	0.03386132
158	0xbde3189f	-0.110886805
159	0xbd423349	-0.04741219
160	0x3c42337c	0.011853095
161	0xbdbfe94c	-0.0937067
162	0xbdb0644d	-0.08612881
163	0xbd24b90d	-0.04021554
164	0xbdf154ea	-0.11783774
165	0x3d4c2b59	0.049846027
166	0xbd527534	-0.051381305
167	0xbd842d4c	-0.06453952
168	0xbd4b775d	-0.04967438
169	0xbc97981f	-0.018505154
170	0x3d295fdc	0.041351184
171	0x3d89b82c	0.06724581
172	0xbbe2c3cf	-0.006920315
173	0x3d0cb62c	0.03435342
174	0xbbdb8c14	-0.006700048
175	0xbc91bb3a	-0.017789472
176	0xbb2014dc	-0.0024426496
177	0xbc69937a	-0.014256353
178	0xbd839c83	-0.064263366
179	0xbcbaa189	-0.022782104
180	0xbe0b2728	-0.13589156
181	0xbde22f7e	-0.11044215
182	0xbdc509c7	-0.096210055
183	0xbd60289f	-0.05472624
184	0xbbcfba98	-0.0063393824
185	0xbd18ddd3	-0.037320923
186	0x3ca52710	0.020160228
187	0xbd5b60e5	-0.053559203
188	0xbdd900aa	-0.1059583
189	0xbcb08ca8	-0.021551445
190	0x3c48ebd0	0.012263253
191	0xbd4bd119	-0.049759958
192	0xbb976582	-0.004620255
193	0x3d1ae3e9	0.03781501
194	0xbdcf2b48	-0.10115677
195	0xbdf28233	-0.1184124
196	0x3d11cecf	0.03559762
197	0xbcaacaaa	-0.02084859
198	0xbe0a2795	-0.13491662
199	0xbd8a6dbe	-0.06759213
200	0x3bf8c442	0.007591755
201	0x3c1c7001	0.009548188
202	0xbd205c2b	-0.0391504
203	0xbddc9d7f	-0.107722275
204	0xbd960286	-0.073247
205	0xbd352e23	-0.044233453
206	0xbcf3cd39	-0.029760944
207	0x3c79b44e	0.015240742
208	0xbd9a8359	-0.07544584
209	0xbc09717c	-0.008388873
210	0x3b02d4aa	0.0019963183
211	0xbd91fd2e	-0.07128368
212	0xbdf4eb08	-0.11958891
213	0xbdee61c4	-0.11639741
214	0x3c91a508	0.017778888
215	0x3b2aa578	0.0026038568
216	0xbc22491f	-0.009905129
217	0xbbb857ab	-0.005625685
218	0xbdc93ced	-0.09826074
219	0x3d92e7a4	0.07173088
220	0xbd4edefe	-0.05050563
221	0xbda9091f	-0.08253693
222	0x3db462c7	0.08807903
223	0x3d48558c	0.04890971
224	0xbd325953	-0.043542217
225	0xbde4ec11	-0.111778386
226	0xbb4f4a89	-0.003163012
227	0xbd92872a	-0.07154687
228	0xbcd917ba	-0.026500572
229	0xbd2baa87	-0.041910674
230	0xbd84fdef	-0.064937465
231	0xbc9940bb	-0.018707624
232	0xbd024efd	-0.03181361
233	0xbe14a48c	-0.14515895
234	0xbe2b4089	-0.16723837
235	0xbd5a67d9	-0.053321693
236	0xbdcdebd0	-0.10054743
237	0xbce646e7	-0.02810998
238	0xbd7906d2	-0.06079752
239	0x3dad6ab2	0.08467616
240	0xbcb0f7dc	-0.021602564
241	0x3e057a69	0.13034977
242	0x3d98835c	0.0744693
243	0xbdd82544	-0.10553983
244	0xbd9dfaab	-0.07713827
245	0x3d8c75a9	0.068583794
246	0x3cad81d9	0.02118008
247	0xbda7e3c9	-0.081977434
248	0x3c03021f	0.007996111
249	0xbddb8dee	-0.1072043
250	0xbe1441f6	-0.14478287
251	0xbdbcecd5	-0.092248596
252	0xbd0b8cd9	-0.03406987
253	0xbcc3ee17	-0.023917241
254	0xbd9eda0d	-0.07756434
255	0xbd107fee	-0.035278253

fc2.bias f4 [128]
0	0xbb06c85e	-0.0020566205
1	0xbc5b2bbd	-0.013377127
2	0xbda68032	-0.0812992
3	0xbdf02c87	-0.11727243
4	0xbdcfc3b5	-0.1014475
5	0xbd910653	-0.070812844
6	0x3e8c2bc7	0.2737715
7	0x3e890fde	0.26769918
8	0xbd896281	-0.06708241
9	0xbd6b2efa	-0.057417847
10	0xbd75c513	-0.060002398
11	0x3db63d15	0.08898369
12	0xbd8f6efb	-0.0700359
13	0xbdf09a14	-0.11748138
14	0xbe1f6b95	-0.15568383
15	0x3eacfd4a	0.33786994
16	0xbdaa2588	-0.0830794
17	0xbe868610	-0.26274157
18	0xbd9750f7	-0.0738849
19	0xbd40e977	-0.04709765
20	0x3e63a497	0.22230755
21	0xbe446709	-0.1917993
22	0x3df5fcc3	0.12011101
23	0x3ee19e95	0.440663
24	0xbe851e7e	-0.25999826
25	0xbd41f036	-0.047348224
26	0x3e245729	0.16048874
27	0x3e52c120	0.20581484
28	0xbe97d5c7	-0.29655287
29	0xbd230cb8	-0.03980705
30	0x3f1dc83e	0.6163367
31	0xbd9f9537	-0.07792132
32	0x3e919d23	0.28440198
33	0xbe2ffe60	-0.1718688
34	0x3f0da671	0.55332094
35	0x3c798515	0.015229483
36	0xbddd4deb	-0.10805877
37	0x3e28e905	0.1649514
38	0xbe17e0c2	-0.14831832
39	0xbe4e1f9e	-0.20129248
40	0x3b94242e	0.0045209145
41	0xbe10d260	-0.14142752
42	0x3cfdd6d0	0.03098622
43	0x3eae6fb2	0.34069592
44	0xbde3915c	-0.111117095
45	0xbca6d91c	-0.020367198
46	0xbded740b	-0.11594399
47	0x3d844efb	0.06460377
48	0x3eae3a09	0.34028652
49	0x3e803134	0.2503754
50	0xbdab350a	-0.08359726
51	0x3c39891e	0.011324195
52	0xbe65ba80	-0.22434425
53	0x3e842d1c	0.25815666
54	0xbd944cd6	-0.07241218
55	0xbda03436	-0.078224584
56	0xbebebb69	-0.37252358
57	0x3df85ac8	0.1212669
58	0xbd97c99e	-0.07411502
59	0xbdc982c3	-0.09839394
60	0xbe0317cb	-0.12802045
61	0x3e39167c	0.18074983
62	0x3c19da19	0.009390377
63	0x3efb535a	0.4908703
64	0xbda48657	-0.08033436
65	0xbe74cf57	-0.23907219
66	0xbd967d98	-0.07348174
67	0x3c9a8627	0.018862797
68	0x3e124a76	0.14286217
69	0xbdd5c838	-0.10438579
70	0xbd9001ed	-0.07031617
71	0xbe467abc	-0.19382757
72	0x3d1878de	0.037224643
73	0x3d707df8	0.058713883
74	0xbdac7218	-0.08420199
75	0xbe100ab3	-0.14066581
76	0xbd9fe81e	-0.07807945
77	0x3d6dda14	0.058069304
78	0xbe85d9fe	-0.26142877
79	0x3e2d219c	0.16907352
80	0x3db5254d	0.08845005
81	0xbf0d2930	-0.5514097
82	0xbe2c9eb9	-0.16857423
83	0xbe16bdab	-0.1472079
84	0x3c33b9b5	0.010969569
85	0x3eaacff2	0.33361775
86	0xbea5871b	-0.3232964
87	0xbd1e6aba	-0.038676
88	0x3eac296a	0.33625346
89	0xbe3cc783	-0.18435483
90	0x3e924c20	0.28573704
91	0xbdbdbe54	-0.09264818
92	0xbdf6d3f9	-0.12052149
93	0xbd576b6e	-0.052592687
94	0x3cca8048	0.024719372
95	0x3ed2242a	0.41043216
96	0xbdeedbfd	-0.11663053
97	0x3e04f08d	0.12982388
98	0xbea89e07	-0.32933065
99	0x3ce8f9e0	0.028439462
100	0xbc1ef671	-0.009702311
101	0xbdb4d004	-0.08828738
102	0xbd9c7f77	-0.076414995
103	0xbe019733	-0.12655334
104	0xbe034f25	-0.1282316
105	0xbe12d9b8	-0.14340866
106	0xbe180d20	-0.14848757
107	0x3e4e9318	0.201733
108	0xbbb206d6	-0.005432944
109	0xbebaefad	-0.36510983
110	0xbdc0559e	-0.0939133
111	0x3e945e53	0.28978214
112	0x3d23474b	0.039862912
113	0xbd8292fe	-0.06375693
114	0x3e01253d	0.12611862
115	0xbd085075	-0.033279855
116	0xbc9bf8c8	-0.019039527
117	0x3ecfe4f8	0.40604377
118	0x3eb9a1cc	0.36256254
119	0x3ef394c4	0.47574437
120	0xbdb29bab	-0.087210976
121	0xbe3bd5eb	-0.18343322
122	0xbdb2f63a	-0.0873837
123	0x3eaf7681	0.342701
124	0x3e3e33b3	0.18574409
125	0xbdb624fd	-0.08893774
126	0xbdd59ecb	-0.10430678
127	0xbe6874e3	-0.22700839

fc3.weight f4 [64, 128]
0	0xbd09a689	-0.033606086
1	0x3c8ee9f8	0.01744555
2	0xbd140276	-0.03613516
3	0xbe85d637	-0.26139995
4	0xbd8722ee	-0.06598459
5	0xbd143387	-0.036181953
6	0x3e67ca79	0.22635831
7	0xbf190df9	-0.59786946
8	0xbd79d22f	-0.060991462
9	0xbdafbc53	-0.08580842
10	0xbded837f	-0.115973465
11	0xbe623d0d	-0.22093602
12	0xbeda9695	-0.4269301
13	0xbe612816	-0.21987948
14	0x3a2d0e87	0.0006601591
15	0xbeecff4f	-0.46288535
16	0xbd08f7bd	-0.033439387
17	0xbee23c7c	-0.4418677
18	0x3e346682	0.17617229
19	0xbb320480	-0.0027163327
20	0xbea85312	-0.32875878
21	0xbf427900	-0.7596588
22	0xbdcd0ac7	-0.10011821
23	0x3f3f7de4	0.7480147
24	0xbe516a05	-0.204506
25	0xbf178625	-0.59189063
26	0xbea466a1	-0.3210955
27	0xbe812990	-0.25227022
28	0xbe8dbb8e	-0.27682155
29	0xbddeb297	-0.10873907
30	0x3b634f33	0.0034684658
31	0xbea49fd0	-0.32153177
32	0xbeea5dea	-0.45774776
33	0xbd94d73a	-0.07267614
34	0xbfdbb412	-1.7164328
35	0xbe411b74	-0.18858129
36	0xbdf9a7de	-0.12190221
37	0xbdb99f7d	-0.09063623
38	0x3d1ebe7f	0.03875589
39	0x3ee9158e	0.45524257
40	0xbc421d93	-0.011847871
41	0x3cd1db74	0.025617339
42	0xbd9c9baf	-0.07646882
43	0xbe9410f4	-0.28919184
44	0x3c920851	0.017826231
45	0xbca901a2	-0.020630661
46	0xbf0675d2	-0.5252353
47	0xbf50a98d	-0.81508714
48	0x3e1e6bcc	0.15470809
49	0xbe163171	-0.14667298
50	0xbcdaa709	-0.026690977
51	0xbc8f7435	-0.017511467
52	0xbe820645	-0.25395408
53	0xbe7f754e	-0.24947092
54	0xbce9f607	-0.028559698
55	0x3d87fc56	0.06639926
56	0x3ebf377d	0.37347022
57	0x3eed431b	0.4634026
58	0xbd5a5928	-0.053307682
59	0x3d5c8904	0.053841606
60	0xbca9c14d	-0.020722056
61	0xbe97798c	-0.2958492
62	0x3eb8d825	0.36102405
63	0xbf344b09	-0.70426995
64	0xbba450a1	-0.0050144945
65	0x3e77d75c	0.24203247
66	0xbda570e9	-0.080781765
67	0x3d4ae543	0.049535047
68	0xbd8fa557	-0.07013958
69	0xbbf53ceb	-0.0074840686
70	0xbe134d65	-0.14384992
71	0xbe912721	-0.28350165
72	0x3d3aec8d	0.04563575
73	0xbf55b133	-0.8347351
74	0xbdcfaac2	-0.10139991
75	0xbeb10fe1	-0.34582427
76	0x3db1b3aa	0.08676846
77	0x3d54732c	0.05186765
78	0xbd4d3d1a	-0.0501071
79	0xbddafd5d	-0.106928565
80	0x3cae956d	0.021311486
81	0xbee4928f	-0.44643065
82	0xbe6efbf9	-0.23338307
83	0xbf1d7663	-0.6150877
84	0x3bc4e792	0.0060090506
85	0xbf863890	-1.0486012
86	0xbf00f14a	-0.5036818
87	0xbf37ab34	-0.7174561
88	0xbfa7f411	-1.3121358
89	0xbe32f819	-0.17477454
90	0xbecf552a	-0.40494663
91	0xbd110f61	-0.035415057
92	0x3d6444f0	0.055729806
93	0xbeb2e017	-0.34936592
94	0xbdac2a79	-0.084065385
95	0xbb480ce4	-0.0030525262
96	0x3ce6b6e2	0.028163377
97	0xbe30324c	-0.17206687
98	0xbf0acdbf	-0.54220194
99	0xbe98d14c	-0.2984718
100	0xbdeca071	-0.11554039
101	0x3d17c0b7	0.03704902
102	0x3d0d8ccb	0.0345581
103	0xbc14441f	-0.009049444
104	0xbbf5dc07	-0.007503036
105	0x3b0c9b58	0.0021454897
106	0x3c71d77c	0.014760848
107	0xbf59da01	-0.8509827
108	0xbee64aa3	-0.44978818
109	0xbcf17b17	-0.02947764
110	0xbc26fb9f	-0.010191827
111	0xbed81a96	-0.42207783
112	0xbddfdbce	-0.10930596
113	0xbfd96d9b	-1.6986574
114	0xbec61008	-0.38684106
115	0x3cf763c6	0.030198943
116	0x3da38d41	0.079859264
117	0x3c12cb25	0.008959566
118	0x3e26387c	0.16232485
119	0xbec233ae	-0.37930053
120	0x3d034bdd	0.03205477
121	0xbcaf2bdd	-0.02138322
122	0xbd1289fd	-0.035776127
123	0xbf062eb8	-0.5241504
124	0x3dcdcbb6	0.100486204
125	0xbd7a1266	-0.061052702
126	0xbefbcaf2	-0.49178272
127	0xbe482986	-0.1954709
128	0x3e0b3fd3	0.13598566
129	0x3c82d51e	0.015970763
130	0xbe60de5c	-0.21959823
131	0xbc30b43d	-0.01078516
132	0xbd07c9b3	-0.03315134
133	0x3c5eefee	0.013607008
134	0xbcf2bced	-0.029631102
135	0xbd0d8543	-0.034550916
136	0xbd64b085	-0.055832405
137	0x3f0beddb	0.54659814
138	0x3e19ab7f	0.15006827
139	0x3ebe9301	0.3722153
140	0x3dd67026	0.10470609
141	0x3e3678bf	0.17819498
142	0x3d039ada	0.0321301
143	0x3da9e839	0.08296246
144	0x3db02d33	0.08602371
145	0xbddda942	-0.10823299
146	0x3f546d23	0.8297903
147	0xbcb9ff74	-0.022704817
148	0xbea057a2	-0.3131686
149	0xbe45fa36	-0.19333729
150	0x3e168bb0	0.14701724
151	0x3f0e46c5	0.55576736
152	0xbe8bb721	-0.27288154
153	0x3e3711de	0.1787791
154	0xbe840540	-0.25785255
155	0xbe861c9b	-0.261937
156	0xbc483b31	-0.012221144
157	0x3d704911	0.05866343
158	0x3eca1b6a	0.3947404
159	0x3edab8db	0.4271916
160	0xbef09613	-0.46989498
161	0xbbcd2aea	-0.0062612193
162	0x3ee1baa4	0.44087708
163	0xbe2afe80	-0.16698647
164	0xbb855efc	-0.004070161
165	0xbebfafa1	-0.37438682
166	0x3d5dde8a	0.054167308
167	0xbda0e4ba	-0.07856126
168	0xbe706c58	-0.2347883
169	0x3cad40b5	0.021149019
170	0x3dc9020f	0.09814846
171	0x3d711dd0	0.058866322
172	0x3c9587f7	0.01825331
173	0xbdc993c4	-0.09842637
174	0x3ef42ccb	0.47690424
175	0x3cf38815	0.029727975
176	0x3e28ab61	0.16471626
177	0xba839b58	-0.0010040803
178	0x3cc84253	0.024445688
179	0x3cfd1ac1	0.030896546
180	0xbdafc0e1	-0.085817106
181	0x3dab59c0	0.08366728
182	0xbe26aeb3	-0.1627758
183	0x3cc22910	0.02370122
184	0x3e2fe5cd	0.17177506
185	0xbe0159b3	-0.12631874
186	0xbd8ca8c9	-0.06868131
187	0x3d7a6de0	0.06113994
188	0x3cf5c2e6	0.030000161
189	0x3e12f654	0.14351779
190	0x3e4d9194	0.20075065
191	0xbde06b6a	-0.109579876
192	0xbda015b6	-0.07816641
193	0x3df71409	0.12064368
194	0xbd37b3ef	-0.044849332
195	0x3cb0ed41	0.021597506
196	0x3e48f61f	0.19625138
197	0xbd24dbd1	-0.040248696
198	0xbed382b9	-0.4131067
199	0xbdad85f3	-0.084728144
200	0xbd276592	-0.04086835
201	0x3e85dcdf	0.26145074
202	0xbc6411d7	-0.013920269
203	0x3e2dda54	0.16977817
204	0x3be9804f	0.0071258913
205	0x3d6de2e2	0.0580777
206	0x3e3f81a3	0.18701796
207	0x3e7eaf43	0.24871545
208	0x3c35c317	0.011093876
209	0xbe0c03bf	-0.13673304
210	0xbe2cd9b1	-0.16879918
211	0x3c8bc47b	0.017061463
212	0x3d455a09	0.048181567
213	0x3e820548	0.25394654
214	0xbe8de29d	-0.27711955
215	0x3e3f352c	0.18672627
216	0x3c00473e	0.007829485
217	0x3e3106d1	0.17287757
218	0x3ea1d226	0.31605643
219	0xbdb68497	-0.08912008
220	0xbc4d39f0	-0.01252602
221	0xbdb54874	-0.0885171
222	0x3d3f3219	0.046678636
223	0xbe04a4b6	-0.12953457
224	0xbd9ba753	-0.07600274
225	0xbf272a74	-0.65299153
226	0xbd9f55cb	-0.077800356
227	0x3ea57a66	0.32319945
228	0x3db15fb6	0.086608335
229	0xbda1d1ef	-0.0790137
230	0x3c9f541f	0.019449292
231	0xbd4171f5	-0.04722782
232	0xbbea778b	-0.007155364
233	0xbd5cbd49	-0.053891454
234	0x3d03a9b1	0.032144252
235	0x3dacad47	0.084314875
236	0x3df02b52	0.11727013
237	0x3e02576d	0.12728663
238	0xbb102038	-0.002199186
239	0xbd44af00	-0.048018456
240	0x3d257fca	0.040405072
241	0x3e3b94b7	0.18318449
242	0x3da84479	0.08216185
243	0xbd368f55	-0.044570286
244	0x3d8cef08	0.06881529
245	0x3d73693a	0.059426524
246	0xbee663ee	-0.44998115
247	0x3ebd93af	0.37026736
248	0xbcb89015	-0.022529641
249	0x3da6129f	0.081090204
250	0x3d1bac6e	0.03800624
251	0x3b0dffe6	0.002166742
252	0x3e5e0fd4	0.21685725
253	0xbd93c291	-0.07214845
254	0x3e5e1ebe	0.21691415
255	0x3d760c1f	0.060070153

fc3.bias f4 [64]
0	0x3e8b01e9	0.27149895
1	0x3ed2ef82	0.41198355
2	0xbde66032	-0.112488165
3	0xbd7788b9	-0.060433123
4	0x3e828dba	0.25498754
5	0x3f1d093f	0.61342233
6	0xbe4cfdfd	-0.20018764
7	0xbe0ac8e6	-0.13553199
8	0x3d8031a4	0.06259468
9	0xbec51002	-0.38488775
10	0x3e169b32	0.1470764
11	0x3e51bb1b	0.20481531
12	0x3d9380bd	0.07202289
13	0xbe88057e	-0.2656669
14	0xbe340e75	-0.1758364
15	0xbc81f418	-0.015863463
16	0xbe775880	-0.24154854
17	0xbe61dde0	-0.22057295
18	0x3f2b1048	0.6682172
19	0xbeb708be	-0.35748857
20	0xbe87d415	-0.26528993
21	0xbf2ec675	-0.6827157
22	0xbe1b0a9d	-0.15140767
23	0xbd97f722	-0.07420184
24	0x3e8d093f	0.27546117
25	0xbf5b5cf3	-0.85688704
26	0xbe8d4f0f	-0.2759938
27	0x3ef5cd72	0.48008305
28	0xbe0b3c01	-0.13597108
29	0x3e8ab6a2	0.27092463
30	0xbe29425f	-0.16529225
31	0xbe2b5581	-0.16731836
32	0xbe5335dc	-0.20626014
33	0x3e378eed	0.17925616
34	0xbe25a063	-0.16174464
35	0x3d3baf9d	0.045821775
36	0x3ef2ebef	0.47445628
37	0xbe306335	-0.17225344
38	0x3d5ca7f7	0.05387112
39	0xbda5d76d	-0.0809773
40	0x3ec5d02a	0.3863538
41	0xbd679cdb	-0.056546073
42	0xbe350a50	-0.17679715
43	0x3e60cee4	0.21953923
44	0x3eef64b6	0.46756524
45	0xbe5659d6	-0.20932707
46	0x3e22e9bc	0.15909475
47	0x3f22ee01	0.63644415
48	0xbe60aca8	-0.21940863
49	0x3e991f45	0.2990667
50	0xbe551ff6	-0.20812973
51	0xbec45c09	-0.38351467
52	0xbe38de10	-0.1805346
53	0x3e5f8de9	0.21831478
54	0x3eb57890	0.35443544
55	0x3f1ad05a	0.6047417
56	0xbde2af22	-0.1106856
57	0x3c20e49d	0.009820131
58	0xbd8c6c09	-0.068565436
59	0xbe841e8a	-0.2580455
60	0x3e1f97a4	0.1558519
61	0xbed83bcd	-0.42233124
62	0xbdfd6173	-0.123721026
63	0x3e1d12cd	0.15339203

fc4.weight f4 [51, 64]
0	0x3f826ace	1.0188844
1	0x3dce2e7d	0.10067461
2	0x3f58fe6b	0.8476321
3	0x3ebeed79	0.37290552
4	0xbf0c82a8	-0.54886866
5	0x3e0e4688	0.13894093
6	0x3f87d2ef	1.0611247
7	0x3c7902f7	0.015198461
8	0x3ea866b4	0.32890856
9	0x3e753f61	0.23949958
10	0x3e83d9c2	0.25752074
11	0xbe3bc47a	-0.18336669
12	0xbe8df69c	-0.2772721
13	0x3e4fb387	0.20283328
14	0xbce35db3	-0.02775464
15	0xbea03899	-0.3129318
16	0x3c09961a	0.008397603
17	0x3b9bdfc7	0.004756901
18	0x3e566634	0.20937425
19	0x3f16088d	0.586068
20	0xbeac6886	-0.33673495
21	0xbedd3450	-0.43203974
22	0x3ba0aa1c	0.004903091
23	0xbe36d19c	-0.17853397
24	0xbe105db6	-0.14098248
25	0xbe9e4779	-0.30913904
26	0x3ebbf4c0	0.36710167
27	0x3e009664	0.1255737
28	0x3c5f1dbf	0.013617932
29	0xbe2c6545	-0.16835506
30	0xbe7dc71f	-0.2478299
31	0xbcb81862	-0.022472564
32	0x3f1a6369	0.6030794
33	0x3e327959	0.17429103
34	0xbc938507	-0.018007768
35	0xbe4a2b2f	-0.19743036
36	0x3dbbe4c2	0.091744915
37	0xbd6fd5ec	-0.05855362
38	0x3e371bc7	0.1788169
39	0xbe98600e	-0.29760784
40	0xbe286fa6	-0.1644884
41	0xbea02bb8	-0.31283355
42	0x3c873173	0.016503071
43	0xbebfe504	-0.37479413
44	0x3e853642	0.26017958
45	0xbdfdbb6a	-0.12389262
46	0xbe895589	-0.2682307
47	0x3e6f4a44	0.23368174
48	0x3f279f16	0.6547712
49	0x3e1120a4	0.14172608
50	0x3c314548	0.010819741
51	0x3eec118a	0.4610713
52	0x3bab8c38	0.0052352212
53	0x3eb5f131	0.35535577
54	0xbeda2087	-0.4260294
55	0x3e19a050	0.1500256
56	0x3e51dae2	0.20493653
57	0x3f4c1ac1	0.79728323
58	0x3f56b0bd	0.8386343
59	0x3a8c1c73	0.0010689631
60	0xbe0bbe34	-0.13646775
61	0xbe9c1562	-0.30485064
62	0x3e83eae7	0.25765154
63	0xbe6c46f2	-0.23073938
64	0xbd6179d0	-0.05504781
65	0x3da646b8	0.08118957
66	0x3db89e8a	0.09014614
67	0x3d5a0c04	0.053234115
68	0xbd45e348	-0.048312455
69	0xbd88c16e	-0.06677519
70	0xba961a00	-0.001145184
71	0xbd0e9138	-0.03480646
72	0x3dd8de1e	0.105892405
73	0xbc4b7a70	-0.012419328
74	0xbd4ff4e4	-0.050770655
75	0x3d97ace8	0.07406026
76	0x3d4bd284	0.04976131
77	0x3ce73f50	0.028228432
78	0x3db35944	0.087572604
79	0xbd75ff64	-0.060058013
80	0x3d41b4c8	0.047291547
81	0xbd90d356	-0.07071559
82	0xbcaee698	-0.02135019
83	0x3d414510	0.047185004
84	0xbda91aac	-0.082570404
85	0x3de38936	0.11110155
86	0x3be94620	0.0071189553
87	0x3dbe8438	0.093025625
88	0xbd93149e	-0.07181667
89	0x3c430670	0.01190339
90	0x3cf2cb18	0.029637858
91	0x3da0ce6c	0.07851872
92	0xbd41cc4c	-0.047313973
93	0xbdb6bed8	-0.08923119
94	0xbdfac4cc	-0.12244567
95	0x3dcce44a	0.1000448
96	0xbdaec250	-0.08533156
97	0xbde34562	-0.11097218
98	0xbdaced54	-0.08443704
99	0x3d6fb6b4	0.05852385
100	0x3d146800	0.036231995
101	0xbd9d09a6	-0.07667856
102	0x3d930bda	0.07179995
103	0xbc566710	-0.013086095
104	0x3dce0544	0.10059598
105	0xbc99b9d8	-0.018765375
106	0xbd8919a0	-0.06694341
107	0xbd6040f0	-0.05474943
108	0xbd9179ec	-0.07103333
109	0x3d0f7078	0.035019368
110	0xbd88c7b6	-0.06678717
111	0xbccb0da8	-0.024786785
112	0xbdca52c0	-0.098790646
113	0x3bfd1140	0.0077230036
114	0xbd24a8cc	-0.04020004
115	0x3d344d74	0.044019178
116	0xbd8d26d6	-0.06892173
117	0xbd9862aa	-0.07440694
118	0xbc2613b0	-0.01013653
119	0x3d68652c	0.05673711
120	0x3d7bd828	0.06148544
121	0xbdcffad2	-0.10155262
122	0xbd92f20c	-0.07175073
123	0x3ca8f9b0	0.020626873
124	0x3d16dfc8	0.03683451
125	0x3cb245c0	0.021761775
126	0xbde76730	-0.11298978
127	0xbc488610	-0.012238994
128	0xbded51b8	-0.11587852
129	0x3d6074b0	0.054798782
130	0x3da1f3dc	0.079078406
131	0xbd8973d2	-0.06711544
132	0x3cca3a08	0.024685875
133	0xbd81cb1c	-0.06337568
134	0x3c836d60	0.016043365
135	0x3c4ee1a0	0.012627035
136	0xbdd52f9c	-0.104094714
137	0x3d41da64	0.047327414
138	0x3d7894cc	0.06068878
139	0x3d80b9ae	0.062854156
140	0x3deeae22	0.11654307
141	0x3d9a52ac	0.075353
142	0x3dcc9590	0.09989464
143	0x3d098a68	0.03357926
144	0xbdc7794e	-0.09739934
145	0x3d9e2724	0.07722309
146	0xbddadba4	-0.106864244
147	0xbcce0698	-0.025149629
148	0x3ddd8550	0.10816443
149	0x3c2cac50	0.010539129
150	0x3d058020	0.032592893
151	0xbdaf1cf4	-0.08550444
152	0x3db7c652	0.089733735
153	0x3db87c74	0.090081125
154	0x3dd14e18	0.10219973
155	0xbd4984a8	-0.049198776
156	0xbcf0ac78	-0.029379115
157	0xbdad81d4	-0.084720284
158	0x3c766000	0.015037537
159	0x3d69fa8c	0.057123706
160	0xbdd99958	-0.10624951
161	0xbc8a2238	-0.01686202
162	0x3da07b38	0.07836002
163	0xbdae506c	-0.08511433
164	0xbd2acb78	-0.04169795
165	0xbd9239a4	-0.071399
166	0xbc84c760	-0.01620835
167	0xbdff385e	-0.12461923
168	0xbd8013c8	-0.06253773
169	0xbdef1e26	-0.11675672
170	0xbac1d180	-0.0014787167
171	0xbd3f6ca0	-0.046734452
172	0xbdc8a956	-0.09797923
173	0xbdece860	-0.115677595
174	0x3d2654fc	0.04060839
175	0xbd090318	-0.033450216
176	0xbd808bda	-0.062766746
177	0xbdcb53ae	-0.0992807
178	0x3c373040	0.011180937
179	0xbdce3260	-0.10068202
180	0x3d309dbc	0.043119177
181	0x3d461aa4	0.04836525
182	0xbd3f6010	-0.04672247
183	0x3bc41940	0.0059844553
184	0xbd34c380	-0.044131756
185	0x3dc1c8e6	0.094621465
186	0x3cd0b9c8	0.025479212
187	0x3dc73b0c	0.09728059
188	0x3d5d09c0	0.053964376
189	0x3c83aa18	0.016072318
190	0xbd233bac	-0.03985183
191	0x3cacb0a0	0.021080315
192	0xbdbae0b2	-0.091248885
193	0xbdaf6bbc	-0.085654706
194	0xbc96e248	-0.018418446
195	0x3daca0ac	0.08429083
196	0x3da64472	0.08118524
197	0xbdb68a98	-0.089131534
198	0x3dd9e3fc	0.10639188
199	0x3df7ca20	0.12099099
200	0x3d768354	0.060183838
201	0x3df3f46c	0.11911854
202	0x3ca1c208	0.019745842
203	0x3db46888	0.08809
204	0x3dc85fcc	0.09783897
205	0x3d7d2cb8	0.061810225
206	0x3d3f0d54	0.04664357
207	0x3cab06c0	0.020877242
208	0x3d908a9a	0.07057686
209	0x3d835bf6	0.064140245
210	0xbdbd1ec8	-0.09234387
211	0xbd65a264	-0.05606307
212	0x3df981bc	0.12182948
213	0xbd7e6428	-0.062107235
214	0xbdf5be36	-0.119991705
215	0xbd635c00	-0.05550766
216	0xbc1bceb0	-0.009509727
217	0x3df92632	0.12165488
218	0x3dc30864	0.09523085
219	0x3dd0410a	0.10168655
220	0x3d340f70	0.043960035
221	0xbce78e90	-0.028266221
222	0xbdc0493e	-0.0938897
223	0x3d2c8248	0.042116433
224	0xbdcf659a	-0.10126801
225	0x3d9dd89a	0.07707329
226	0x3dc5637e	0.09638117
227	0xbd8e29a2	-0.069415346
228	0x3dd99a78	0.10625166
229	0x3d392f0c	0.045210883
230	0xbc9c4488	-0.019075647
231	0xbdc5d986	-0.0966063
232	0x3d0446e0	0.032294154
233	0x3ddfd488	0.10929209
234	0xbdcb2d64	-0.09920767
235	0xbc853368	-0.016259864
236	0x3bbe1b20	0.0058015734
237	0xbc93ac80	-0.01802659
238	0x3d8f3588	0.06992632
239	0x3df52c2c	0.11971316
240	0xbdbd8582	-0.0925398
241	0x3d3dde70	0.04635471
242	0x3d8564a0	0.06513333
243	0xbcca7fb0	-0.02471909
244	0xbc99aee0	-0.018760145
245	0xbdcd9bce	-0.10039483
246	0x3cc19fd0	0.023635775
247	0x3df7e196	0.12103574
248	0x3d49c054	0.049255684
249	0x3df9b338	0.121923864
250	0xbbe35ce0	-0.006938562
251	0x3d43e7f4	0.04782863
252	0x3de36ecc	0.11105117
253	0x3d2c4840	0.04206109
254	0x3dc8b298	0.09799689
255	0x3cbb6568	0.022875503

fc4.bias f4 [51]
0	0x3f09f0f0	0.53883266
1	0x3dfda55e	0.12385057
2	0x3dd09886	0.101853415
3	0x3dc54f36	0.09634249
4	0x3dcc1b60	0.09966159
5	0xbc395de0	-0.011313885
6	0x3df0fb3e	0.11766671
7	0xbd9a22ba	-0.07526155
8	0x3d3e3a24	0.046442166
9	0xbde280cc	-0.11059722
10	0x3dcfd828	0.101486504
11	0x3b038d00	0.0020073056
12	0xbd905a82	-0.07048513
13	0xbdad6b06	-0.08467679
14	0x3c7196f0	0.014745459
15	0xbca9c908	-0.020725742
16	0xbd9f282e	-0.077713355
17	0x3d9c68ee	0.07637201
18	0xbbe491c0	-0.0069753826
19	0xbd915312	-0.070959225
20	0x3ceeb158	0.029137298
21	0x3d4ca774	0.049964383
22	0x3d969910	0.07353413
23	0x3def27da	0.11677523
24	0x3b1536c0	0.002276823
25	0xbdef14cc	-0.116738886
26	0xbd5a75f8	-0.05333516
27	0x3d72c3a0	0.059268594
28	0x3d748f88	0.059707195
29	0x3daa0f48	0.08303696
30	0xbd9ed392	-0.077551976
31	0xbd99cf3e	-0.075102314
32	0x3dce0fd2	0.10061611
33	0xbd30c684	-0.04315807
34	0xbd6fd354	-0.058551148
35	0x3db73f3c	0.08947608
36	0xbda9d73e	-0.08293007
37	0xbdcca27a	-0.099919274
38	0xbaecee00	-0.0018076301
39	0x3d7fb658	0.062429756
40	0x3c376e70	0.011195764
41	0xbdeb19e6	-0.11479549
42	0xbdedb546	-0.11606841
43	0x3ddf24ee	0.10895716
44	0xbc7d41b0	-0.015457556
45	0x3dbfad50	0.093592286
46	0xbd18ae00	-0.037275314
47	0xbdf04cc6	-0.11733393
48	0xbd8b15ba	-0.067912534
49	0x3dbc106c	0.0918282
50	0xbdd4b2c4	-0.10385659
