models/comparison_apache@airvata_comparison_2500ep_dqn/pointwise_dqn_2500ep_dqn.pt (torch, 144908 bytes, 8 tensors)

fc1.weight f4 [128, 56]
000000 a8 79 81 3b da c4 ca 3e b8 2f 63 be 1e ce 43 3f
       0.00395127 0.3960331 -0.22186172 0.76486385
000010 b3 81 80 3e f3 eb 9d 3e ae e7 5c be 34 09 9f 3e
       0.25098953 0.30844077 -0.21572754 0.3106171
000020 b1 d8 6b 3e 37 ee f8 3d e5 51 28 bd 0b dc 10 3c
       0.2303188 0.12154811 -0.041093726 0.008841525
000030 68 3d f5 bd 7c 5a d0 bd a3 0c 65 3d cc 81 22 be
       -0.11974603 -0.101735085 0.055920254 -0.15869826
000040 8e c0 bb 3d d8 91 d2 bd 4e 17 c9 bd 60 d7 aa 3d
       0.09167586 -0.10281724 -0.09818898 0.08341861
000050 01 ee 96 3c 80 05 17 be 32 7b fa bd 27 a1 69 bd
       0.018424036 -0.14748192 -0.12230529 -0.057038452
000060 a5 31 7b 3d 57 64 37 3d 0d 4c c7 bd 0e d8 d6 3d
       0.06132664 0.044773426 -0.097313024 0.10490428
000070 28 3c 97 3d 20 3b 88 3c da 26 29 be 50 a5 a0 bc
       0.07384521 0.016629755 -0.16518727 -0.019610077
000080 18 59 ec 3d 9f 46 e1 3e bd c9 1d be f0 4b 1a 3c
       0.11540431 0.43999192 -0.15408988 0.009417519
000090 7b 2f ee bd c5 c0 06 c0 eb 82 c5 bc 48 81 5c 3d
       -0.1163015 -2.1055157 -0.024110278 0.05383423
0000a0 22 17 a7 bf b3 77 10 3e b0 8f db bd b8 96 e8 bc
       -1.3053935 0.14108162 -0.107207656 -0.02839218
0000b0 f1 d3 48 bd df 01 05 be 57 36 5e bf df ca 43 bf
       -0.049030248 -0.12988995 -0.86801666 -0.7648143
0000c0 50 d9 01 be cd 31 c7 3d a5 f7 32 bd 79 9e 43 bd
       -0.12680554 0.097262956 -0.043693203 -0.047758553
0000d0 03 7a 50 3c a0 c9 87 bf 89 53 1a 3d d0 12 f0 bd
       0.012724402 -1.0608406 0.03767732 -0.11722338
0000e0 16 9b c7 bd cc 4a 7b bd 25 7a b2 bc 5d 24 9f bd
       -0.09746377 -0.06135063 -0.021786759 -0.077706076
0000f0 e3 d2 2d bd f8 ea d4 3d cf 09 03 3e 2b b0 61 3d
       -0.042437445 0.10396379 0.1279671 0.055099647
000100 a9 38 21 3e 17 53 02 3e 96 a1 b5 bc 25 2f d3 bd
       0.1574427 0.12727009 -0.022171777 -0.103117265
000110 3d 5f a2 bd cc 12 62 3d 19 cb 89 bd 83 f8 e6 3d
       -0.079283215 0.055193707 -0.06728191 0.112778686
000120 86 5d 03 3e 13 73 88 bd c9 f9 14 3e 0f f0 45 3d
       0.12828645 -0.06662574 0.1454841 0.04832464
000130 77 73 24 3d 84 07 07 3e 68 2d ac bd c1 0e 15 3e
       0.04014918 0.1318646 -0.08407098 0.1455641
000140 85 36 1d 3e 1f 34 b5 bd 6d 4d 01 3e fe be a8 3d
       0.15352829 -0.08847832 0.12627192 0.08239554
000150 4c ab ad bd 0d a0 59 bd 23 03 4f 3d 53 08 ca 3d
       -0.08479938 -0.053131152 0.0505401 0.09864869
000160 db cb 39 bd 1b 1f d1 bd 0c 55 81 3d 2f b8 8d 3d
       -0.045360427 -0.10211011 0.063150495 0.06919896
000170 84 90 78 bb aa 6e 20 bd fb 29 1a 3e f5 a0 55 bd
       -0.0037927935 -0.039168037 0.15055077 -0.052155454
000180 3e 7b 05 be ca d7 27 3b f6 7e 9d 3d 37 58 b7 3c
       -0.13035294 0.0025610798 0.076902315 0.022380931
000190 26 d9 11 3b 34 e5 99 bd 80 89 af 3d 09 30 1a bd
       0.0022254675 -0.0751442 0.08571148 -0.037643466
0001a0 76 e4 d7 bd d5 9b 9a bd a6 ca a1 bd c9 2b 1f 3c
       -0.10541622 -0.07549254 -0.0789998 0.009715029
0001b0 6a db 06 3e 7c d6 ac bd ff c4 c1 3d 59 5f ac bd
       0.13169637 -0.08439347 0.09461402 -0.084166236
0001c0 6e fa 39 3f 4a 21 1a 40 8c fc 8d 3f 0c d4 38 3f
       0.7264775 2.4082818 1.1092696 0.7219856
0001d0 5d 63 b9 3f a5 e9 de 3e c7 c4 0e 3f d2 cf 7f be
       1.4483448 0.43537632 0.5576901 -0.24981621
0001e0 64 e4 b3 3f ce 94 81 bf 0f 57 07 3f c3 b3 34 3f
       1.4054074 -1.0123537 0.52867216 0.70586795
0001f0 31 ad 1d 3f 13 f2 31 3f 79 2c 15 3f 28 f7 38 3f
       0.61592394 0.6951 0.58270985 0.7225213
000200 04 5f 57 3f 3e 83 54 3f 22 1f 25 3f cb bc 71 3f
       0.8412936 0.8301276 0.6450063 0.944287
000210 33 c1 10 3f 7e 23 ee 3e 95 0f 21 3f 94 4e 55 3f
       0.565448 0.46511453 0.629144 0.83323026
000220 37 9f 37 3f 7e 07 e0 3e 5d 6f 1b 3f 50 60 f7 3e
       0.7172732 0.43755716 0.607168 0.48315668
000230 d7 ed 16 3f 8c dc 23 3f c1 26 2b 3f 30 de e7 3e
       0.58956665 0.640084 0.6685601 0.45286703
000240 9f 56 27 3f 5c 60 62 3f 04 57 1d 3f 81 4c 08 3f
       0.6536655 0.8842828 0.614609 0.53241736
000250 ed c9 2d 3f ed 3c 9c 3f 03 7f 88 3f 9c 4d 80 3f
       0.6788624 1.2206093 1.0663761 1.0023685
000260 93 76 88 3e 47 a9 a0 3e 98 2b 18 3f 4a 70 1a 3f
       0.26652965 0.31379148 0.5944152 0.6032759
000270 88 a5 fc 3e 30 a3 0b 3f b1 92 7e 3e cf 13 b6 be
       0.4934504 0.5454588 0.24860646 -0.35561988
000280 71 46 f5 3e 59 36 08 3f 01 f8 13 3f 49 10 f8 3e
       0.47905305 0.5320793 0.578003 0.48449925
000290 45 89 02 3f 31 fa 1f 3e c0 8d f1 3e 76 e4 17 3f
       0.50990707 0.15622784 0.4717846 0.5933298
0002a0 fa 9b 81 bd 46 d6 98 3d de 3e af 3c 0f 79 28 bd
       -0.06328578 0.074627444 0.021392282 -0.041131075
0002b0 40 1c ee 3b 46 63 c3 3d 45 12 8f bd b3 83 46 3c
       0.0072665513 0.09540419 -0.069859065 0.0121163605
0002c0 5d 3b 2e bd ad f8 ab 3d ff c8 fc 3d b4 ad 20 3d
       -0.042537082 0.083970405 0.123430245 0.039228156
0002d0 01 b1 fd 3d 4e a7 82 3c 69 0b 98 bc 82 d6 fa 3d
       0.123872764 0.015948918 -0.018560128 0.12247945
0002e0 fd e4 a3 3c 99 77 19 3e b8 16 f7 3d d4 fc 14 3e
       0.020006651 0.14987029 0.1206488 0.14549571
0002f0 b9 85 b8 3d 82 aa b4 bd bb 22 99 bd dc cf 13 3e
       0.090098806 -0.08821584 -0.074773274 0.14434761
000300 11 87 16 3e 93 ba cd 3d 41 d0 c6 3d 69 4b 80 bd
       0.14699961 0.10045352 0.0970769 -0.06264383
000310 12 69 a8 bd 97 04 e3 3d 93 fa 28 3d 95 bf 38 bd
       -0.082231656 0.1108486 0.04125459 -0.045104582
000320 b7 e1 a7 3d bd 39 9e bd 48 57 d0 3d 5a 79 ce 3d
       0.081973486 -0.077258565 0.101728976 0.1008174
000330 10 f9 9a 3d f2 33 a3 bd 2f c7 70 3d c0 69 86 3d
       0.07567036 -0.07968892 0.058783706 0.06563139
000340 16 e3 5e 3d 79 67 4b bd 43 7c 20 bd 8c 10 e9 3b
       0.054415785 -0.049659226 -0.039181005 0.0071125682
000350 15 f6 1f 3e 82 83 a0 bd b3 d2 92 bd 62 a7 02 3c
       0.15621217 -0.07837583 -0.07169094 0.0079744775
000360 00 b3 36 3d b2 57 15 bd 1c 3b ad bd a6 12 56 bd
       0.0446043 -0.036460586 -0.0845854 -0.05226388
000370 91 2f 79 bd 72 c5 89 3d 8f f8 90 bd b2 47 a7 bc
       -0.06083638 0.06727113 -0.07078659 -0.02041993
000380 3d 3e e1 3d 5b e2 40 bc 0f 4c b7 bd e2 10 a2 bd
       0.10998199 -0.011772717 -0.08950054 -0.079133764
000390 6d 1e 8e bd 02 77 27 bd eb 0d f4 3d 1c a4 8a 3c
       -0.06939397 -0.04088498 0.11916717 0.016923957
0003a0 c4 52 d1 3c f9 1d 5b bd 7d 40 fc 3d 90 5c 63 bd
       0.025552161 -0.05349538 0.12316988 -0.055508196
0003b0 b6 cd 0c ba f1 e5 d4 3d 74 28 43 3d 7f b1 b7 3d
       -0.00053712295 0.1039542 0.047646 0.089694016
0003c0 a9 8e 42 bd 21 83 ad 3d 60 39 16 bd 6c 5f 91 bd
       -0.047499333 0.084722765 -0.03667581 -0.070982784
0003d0 f0 07 2f bc 6e 33 06 bd b7 f1 af 3d 84 2d 37 bd
       -0.010683045 -0.03276389 0.08591025 -0.04472114
0003e0 99 0c 1f 3d 22 a6 c9 bd 01 66 06 bd 36 9a a3 bb
       0.038830373 -0.098461404 -0.032812122 -0.0049927486
0003f0 45 66 6d bd 47 40 c3 bc 08 c8 01 bd 68 5c 00 be
       -0.05795886 -0.02383436 -0.031684905 -0.1253525

fc1.bias f4 [128]
000000 51 0a d7 bd 52 60 09 be ef be 0b bf 02 f2 76 bd
       -0.105000146 -0.1341565 -0.54588217 -0.06028939
000010 42 81 8d bd 5a 03 c1 3d 7b 7c c5 bd 02 a9 57 3e
       -0.069094196 0.094244674 -0.096428834 0.21060565
000020 9a b7 52 bd 02 58 a7 3d 02 76 b8 bd c7 5c fa 3c
       -0.051444627 0.08171083 -0.09006883 0.030561818
000030 ad 78 82 bd 65 50 b3 bd 5e be a6 bd 50 83 b9 3d
       -0.06370673 -0.087555684 -0.081417784 0.09058249
000040 aa 35 02 3d aa 85 af 3d 36 f2 86 3c fa 20 e5 3d
       0.03178946 0.08570416 0.016472917 0.111879304
000050 85 54 69 bc 02 03 cc bc 51 bc a7 3d 1d 45 84 bd
       -0.014241342 -0.024903778 0.081902154 -0.06458495
000060 7f 8c 18 3c 3e 60 a5 3d 45 7f 40 bd 68 8b ae bd
       0.009310841 0.08074997 -0.046996374 -0.085226834
000070 a1 a5 40 bd c8 94 16 be e7 67 9e 3d c3 e5 f8 bd
       -0.047032956 -0.14705193 0.077346615 -0.121531986
000080 ab 52 81 3d d0 27 ce 3b d6 23 5b bd 48 0b ab 3d
       0.06314596 0.006291367 -0.053500973 0.08351761
000090 d7 9f d1 3d 65 c7 38 3d 34 98 f7 bd 64 95 47 3d
       0.10235565 0.045112032 -0.12089577 0.048726454
0000a0 fc d2 5d bd 5a fb b9 bd b7 f0 b9 bc 8c 83 e2 bd
       -0.05415629 -0.09081145 -0.02269779 -0.11060247
0000b0 ff 3f 88 be 57 c1 fd bd f3 f2 8e 3c eb 72 51 3d
       -0.26611325 -0.12390392 0.017449832 0.051134985
0000c0 bf 39 ff 3d 52 b0 90 bd c1 b0 01 be 56 43 d1 bc
       0.12462186 -0.070648804 -0.12665083 -0.025544804
0000d0 f1 2b 70 bd 76 1d f9 bd 73 92 ff ba 4f 3d bc 39
       -0.058635656 -0.12163822 -0.0019498601 0.00035903833
0000e0 35 84 9d bd 2e af d3 3d df 1b ec 3d be 10 76 3b
       -0.07691232 0.10336147 0.115287535 0.00375466
0000f0 c7 40 1c bf e1 e1 80 3e af 89 79 3d b1 4b 74 be
       -0.6103634 0.25172332 0.06092232 -0.23856999
000100 45 cc a6 3d 9d a5 b1 3d b4 9d 07 bc f4 98 9c bd
       0.0814443 0.08674166 -0.008277345 -0.07646361
000110 0c 0e 47 bd 61 91 be bc 73 b1 27 be 60 36 02 be
       -0.04859738 -0.023262681 -0.16376285 -0.12716055
000120 50 4e 01 bf f7 d3 03 be 2b 48 9a 3d 6c 5d 17 bd
       -0.5051012 -0.12873827 0.07533296 -0.03695433
000130 74 0c b0 bd 7d 61 89 3d 8b ee 4c 3d 8a 80 dc 3c
       -0.08596125 0.067080475 0.05003218 0.026916761
000140 18 4f 3b bd 1d cf b1 bb e9 44 a6 bc 53 9c 9e 3d
       -0.045729727 -0.005426301 -0.02029653 0.0774466
000150 a3 5f e6 bd b9 5f 26 bd 4c 43 98 be f2 53 e1 bd
       -0.1124871 -0.040618632 -0.29738843 -0.110023394
000160 bd 3c d9 bd 0d 50 c8 bd 68 da 86 3d 83 d0 e9 3d
       -0.10607288 -0.097808935 0.065846264 0.114167236
000170 fb b2 b7 3d bf c4 ed ba b9 e3 3d bd c5 6a 82 3d
       0.08969685 -0.00181403 -0.04635975 0.06368021
000180 17 30 b1 3d 5d 47 d7 3d 90 f7 e8 ba 34 bd a9 bd
       0.086517505 0.10511658 -0.0017773975 -0.08288041
000190 02 2f 29 be e0 16 00 bf 94 aa 89 3d 60 99 91 bd
       -0.16521838 -0.50034904 0.06721988 -0.07109332
0001a0 66 09 df bd c4 08 c6 bc 52 49 63 3d cb f6 07 3c
       -0.108904645 -0.024174102 0.055489846 0.008298586
0001b0 4f 3d 4c 3d 9c e2 69 3d f8 e2 d4 bd 16 cd 88 bd
       0.049863156 0.057100877 -0.10394853 -0.06679742
0001c0 08 cb 00 be 5b 68 b8 be 0f b7 c9 bd 6f 14 d0 b9
       -0.1257745 -0.36017117 -0.09849369 -0.00039688076
0001d0 f8 0b 7e 3d 73 11 eb 3d a0 4d 86 bd ca 5c 93 3d
       0.062023133 0.114779375 -0.065577745 0.071954325
0001e0 3a c2 42 3d a9 fe e3 bc ae 03 9c bd 73 a6 cd 3c
       0.04754851 -0.027831392 -0.07617889 0.025103783
0001f0 2c a8 ac bd 41 0b 0f be a0 0e 57 bd 93 24 38 bd
       -0.08430514 -0.13969137 -0.05250418 -0.044956755

fc2.weight f4 [128, 128]
000000 55 8d 3c 3d cd 1c 92 3c 9f 4d 3d 3d bf 11 92 bd
       0.046033222 0.017835999 0.046216603 -0.07132291
000010 d4 8c 7e bd 43 71 54 3c b3 f9 2c 3d 9e e8 1c 3b
       -0.062146023 0.012966457 0.04223032 0.0023942362
000020 c4 9f 91 3d cd 7a d6 bd 80 fd 3b bd cd 18 b1 bd
       0.07110551 -0.10472641 -0.045896053 -0.086473085
000030 2a 5c 37 bc f6 06 ac bd 94 3a 1e 3d b0 0e a3 bb
       -0.011191407 -0.08399765 0.038630083 -0.004976116
000040 05 0b ad b9 5a 55 1d 36 9f 84 25 bd ff c8 ab bd
       -0.00033005342 2.3444504e-06 -0.04040968 -0.08387946
000050 a8 e1 90 3d 13 78 85 bd fe c4 75 3d 6e 70 76 3d
       0.070742905 -0.06517043 0.06000232 0.060165815
000060 41 ea c3 bd eb 00 35 bd cd db d7 bb 60 1e 6d bd
       -0.09566165 -0.04419033 -0.0065874816 -0.057890296
000070 d9 cf 7a 3d d4 e9 f4 bd f0 93 ad bd ef 44 fe 3c
       0.061233375 -0.11958662 -0.084754825 0.03103873
000080 14 2c 19 3d 87 cc 8a 3c af 90 81 bd 59 8a d5 bc
       0.03739555 0.01694323 -0.06326424 -0.026066946
000090 30 dd 4d 3c 68 c2 ac bd 4b 8f 1b 3d 51 97 bf bd
       0.012564942 -0.084355175 0.03797845 -0.09355033
0000a0 97 d0 06 3d f6 74 ea 3c f4 c8 a3 bd 09 2a 60 3d
       0.03291377 0.028620224 -0.07997313 0.054727588
0000b0 9f 3f 63 bd d3 0f ee 3b d7 09 cf bc a1 66 ec 3c
       -0.055480596 0.00726507 -0.025273247 0.028857531
0000c0 79 56 c5 3b 36 a1 4e 3d 2e be 97 3d c6 1b 93 bd
       0.0060222712 0.05044671 0.07409321 -0.07183032
0000d0 76 58 04 be 2b 79 c1 bd ee 4c 04 be 53 f9 32 3d
       -0.1292437 -0.09446939 -0.12919971 0.043694805
0000e0 29 a5 16 3d 05 be 88 bd 4f b8 ed bd 05 f1 da bb
       0.036778603 -0.06676868 -0.1160742 -0.006681564
0000f0 b7 e2 7d bd 65 8a 94 bd 1e 7e df bd ff 2a 47 3d
       -0.06198379 -0.07252959 -0.10912727 0.04862499
000100 03 1e 74 3d 23 3e bb bd ec 98 9c bd 19 13 16 bc
       0.059598934 -0.09142711 -0.07646355 -0.009159827
000110 c3 6d ab bd d3 df ec 3b fc 0a c1 3c ff cf 38 3d
       -0.08370545 0.0072288304 0.023564808 0.045120236
000120 c9 95 c2 bd e4 3d 49 3d b1 f5 87 bc 2a 46 3a bd
       -0.095012255 0.04913129 -0.016596647 -0.04547707
000130 da 1b b2 bd ca fa 15 bc 31 f1 fc bc 64 38 8b bb
       -0.086967185 -0.009154031 -0.030876728 -0.0042486656
000140 75 e7 2a bd 93 62 1f bd 7b b3 85 bd 29 4d a0 bd
       -0.04172464 -0.038912367 -0.06528374 -0.07827217
000150 39 dc 97 3d 1c 21 18 bd 97 29 72 bd 41 0f f0 bd
       0.07415051 -0.03714095 -0.059121694 -0.117216595
000160 26 0f 61 3c 95 07 f8 bd f6 0c c2 bd e6 30 01 3d
       0.013736522 -0.12110821 -0.09475128 0.031540774
000170 bf 48 54 bd ae d4 53 bc 9b df 6d 3d 86 77 2f 3c
       -0.05182719 -0.012929125 0.058074575 0.010709649
000180 c4 f1 d8 bd 17 75 cf 3c a9 d3 56 bd 89 fe 14 bc
       -0.10592988 0.025324387 -0.05244795 -0.009093889
000190 c1 8a 37 bc b5 93 18 3d 38 bb ba bd 9f 44 49 3c
       -0.011202515 0.03725024 -0.091177404 0.012284427
0001a0 2b 0d c6 bc 8e a4 a3 bd 35 2f 9a 3d 73 d0 a3 3d
       -0.0241762 -0.07990371 0.07528535 0.07998743
0001b0 ca 8f 54 3d 72 4a a2 bd 6e a5 8f bd 9e 90 55 bd
       0.05189494 -0.079243556 -0.07013975 -0.05213987
0001c0 4e 26 4c bc 34 2c 76 bd fd c4 cf bd 50 bd 05 bd
       -0.012460304 -0.06010075 -0.101449944 -0.032651246
0001d0 18 56 31 ba 83 7e d5 bd 41 35 cf bd 07 7a ab 3c
       -0.0006764843 -0.10424521 -0.10117579 0.02093221
0001e0 b4 8c 6b bd 7f 55 4e bc 5d b2 e4 3c 39 7a ea bd
       -0.05750723 -0.012593626 0.027917081 -0.11449093
0001f0 79 d5 de bd 04 a1 cb bc a8 02 49 3d ad 26 8a 3d
       -0.108805604 -0.024857052 0.0490748 0.06745658
000200 dd 7f 22 be 1a 9c 9f 3d 98 7a 4e bf 24 04 c3 bd
       -0.15869088 0.07793446 -0.80655813 -0.09522274
000210 9c fa 2b bd 4f ae 78 3d 95 3d 07 bd 0b c2 47 bf
       -0.041987047 0.06071311 -0.033017714 -0.7803046
000220 75 ea 07 3d 5b a9 19 3e ef 54 2c 3d 24 e4 38 3d
       0.03318258 0.1500601 0.042073186 0.045139447
000230 d4 0f 43 3e 4a 60 f6 bd 67 af 50 bd b5 41 eb 3b
       0.19049007 -0.120300844 -0.050948527 0.0071794637
000240 3c 2e f9 3d ae 50 99 3f 1e 68 cf be 7b ae 24 bc
       0.12167022 1.1977746 -0.40509123 -0.010051365
000250 ce 69 53 3d 15 7a 3b bd 0e a8 e0 3d de 29 e5 3c
       0.051614575 -0.045770723 0.10969554 0.027974065
000260 21 cf 83 bd b1 c1 1d 3d 65 5f 5a 3e a4 68 a5 bb
       -0.06435991 0.038514797 0.21325453 -0.0050478745
000270 26 4e 69 bd f4 d8 a8 3d 4b f9 d6 3c db b2 a8 3d
       -0.056959294 0.082445055 0.026241919 0.08237239
000280 6a 9d 00 bd 7e 31 fd 3c 8f 1b 54 3d e3 fe 8a bd
       -0.03140012 0.030907389 0.051784094 -0.06786897
000290 a7 7b ae 3e d0 f9 7f bc 8c ac a9 bd 13 82 7e bd
       0.34078714 -0.015623525 -0.08284864 -0.062135767
0002a0 1a 2d f8 3c 49 ad 2b 3b 3b be 96 3d 18 2d c7 bc
       0.030294944 0.0026195815 0.07360502 -0.024313495
0002b0 6b 72 62 be 2d 14 25 bd ef 68 22 3d 53 dc be 3d
       -0.2211396 -0.040302444 0.039650854 0.09319367
0002c0 02 be d8 3c dd 4e af 3d 26 fd eb bd a2 be 31 bd
       0.02645779 0.08559964 -0.115228936 -0.043394692
0002d0 8e 6a 59 bd be 1e c3 3c cc e3 d1 be a1 a8 28 3d
       -0.053080134 0.02381837 -0.40994108 0.041176442
0002e0 6b 34 2a 3d eb f1 bc be 3c 4a df bc 62 dd 5e bc
       0.041553896 -0.3690332 -0.027257077 -0.013602586
0002f0 7d 70 7c bf ca 19 f9 3c 16 24 52 3d 84 15 8f bd
       -0.98609143 0.030407805 0.051303945 -0.06986526
000300 b1 6d 17 3d f6 8a 08 3c 80 d5 1a 3d f9 0a a7 bd
       0.036969844 0.008333912 0.037801266 -0.0815639
000310 d1 22 02 3d b5 c5 ae 3d ad d3 ff 3d c6 f1 0b 3d
       0.031771485 0.085338034 0.12491546 0.03416612
000320 ca 3f 72 bf 08 b4 32 be 9e ed 99 bd 59 df 97 3d
       -0.94628584 -0.17451489 -0.07516025 0.07415647
000330 8a 4c 4b bd b9 03 3b 3c c0 b1 a7 3c f4 2f 14 3e
       -0.04963354 0.011414462 0.0204705 0.14471418
000340 9d 0a 62 bc a7 04 4f bd bd a7 9b bc b6 e3 3c 3e
       -0.013796476 -0.050541546 -0.019000882 0.1844624
000350 7e e6 40 3d 5a f7 89 be 03 90 22 be c8 de e5 3e
       0.047094814 -0.26946527 -0.15875249 0.4489653
000360 3b ae 3c bd 0e 19 12 be 4f e2 d0 3d f8 9b 16 3d
       -0.046064597 -0.1426737 0.10199415 0.036769837
000370 ee 03 26 3f 98 27 2d 3c 9e e2 a6 3d 62 3d 98 3d
       0.64849746 0.010568522 0.081486925 0.07433583
000380 9a 4f ea 3c 7a 9e a1 3c fb 4b 37 3c 3c b3 98 3d
       0.02860241 0.019728888 0.011187549 0.07456061
000390 45 46 ca bc 6c 31 08 bf be 17 9c bb 38 e5 b2 be
       -0.02469171 -0.5320041 -0.0047635725 -0.34940505
0003a0 e9 d7 91 3d 42 16 15 bd dc 36 9d 3c 33 50 17 bd
       0.0712126 -0.03639818 0.019191198 -0.03694172
0003b0 25 ff 0c 3b 54 c9 b5 ba 70 e6 9a 3c 66 7e 8a 3c
       0.0021514383 -0.0013869205 0.01890871 0.016905975
0003c0 fa 85 08 3d 31 38 8a be b9 1c 18 be f5 74 55 bd
       0.033330895 -0.26995996 -0.14854707 -0.052113492
0003d0 ab a6 c0 3d 7f 7f c3 3d 98 08 5c 3c 8a 0a 45 3c
       0.094067894 0.09545802 0.013429783 0.0120264385
0003e0 56 dd c1 3d c5 3c 17 bd 3e 6c 76 bd de de 8d 3d
       0.094660446 -0.03692319 -0.06016182 0.06927274
0003f0 cc 45 00 3e a1 4b ff 3b ba 6a 60 3d 6b 36 ae 3d
       0.12526625 0.007790998 0.054789282 0.08506473

fc2.bias f4 [128]
000000 5d 5c 06 bd 83 2a 08 3f 67 79 e1 3e 83 2b 30 3e
       -0.03280293 0.5318987 0.44037935 0.17204098
000010 f9 05 03 be 9a 39 85 bd 6f 32 d2 bc ea bf d2 3e
       -0.12795247 -0.06505127 -0.025658814 0.41162044
000020 6f b4 0a be 23 a0 21 bd 22 a9 ad 3e 6e 3d 11 be
       -0.13545392 -0.03945936 0.339181 -0.1418359
000030 cf ba 4f bd 66 31 15 be 08 ac ab bd db 00 b2 bd
       -0.050715264 -0.14569625 -0.08382422 -0.086915694
000040 52 f6 7c bd 34 0b 48 bd f5 aa 9e bd 9b f2 2a bd
       -0.061758347 -0.04883881 -0.07747451 -0.041735273
000050 89 cd c5 bd f0 56 93 bd d7 aa b9 bd 5f 34 f5 bd
       -0.09658343 -0.071943164 -0.09065788 -0.119728796
000060 0f e3 04 3e 1d 2f 8a bd c6 c0 17 bd dc be 94 bd
       0.12977241 -0.067472674 -0.037049077 -0.07262966
000070 18 65 8f bd c5 33 bd bc 0a b2 85 bd 10 38 d0 bd
       -0.07001704 -0.023095975 -0.06528099 -0.10166943
000080 bb 99 1a be bd 37 74 bd 1b e4 82 3b cd a1 1b 3e
       -0.15097706 -0.05962347 0.0039944774 0.15198441
000090 94 cc 73 3e f3 07 03 be b9 c7 07 bd 34 fe 04 3f
       0.23808509 -0.12796001 -0.033149455 0.51950383
0000a0 9d c3 17 3e ca 01 02 3e c0 9e 07 be da e9 59 bd
       0.14820714 0.12695995 -0.13244152 -0.053201534
0000b0 09 1f 88 3e c8 7e 71 3e 61 59 af bc 03 9a 72 3e
       0.26586178 0.2358352 -0.021404924 0.23691563
0000c0 2a 5d d8 3e 94 93 70 bd 9a 65 a1 bd 6c 0a a7 3e
       0.4225858 -0.05873449 -0.07880707 0.3262514
0000d0 b3 dc 00 be c8 a3 9c bd 77 7d 1b be f1 a0 06 bb
       -0.1258419 -0.07648426 -0.1518458 -0.0020542706
0000e0 10 5e a6 bd bc e0 70 bd 94 e1 17 bd e8 62 8a bd
       -0.0812341 -0.058808073 -0.037080362 -0.06757146
0000f0 41 5c f9 bb 50 b9 8a bd a3 5e ee bd 65 6a 0c be
       -0.0076098745 -0.06773627 -0.11639144 -0.13712461
000100 3d de 17 bd bd 98 c0 3d a2 df 51 3e fb 12 ff bd
       -0.037077177 0.094041325 0.20495465 -0.12454792
000110 65 ee 7a bd 49 e8 92 3e 46 43 1f bd b6 04 50 3e
       -0.061262507 0.28692845 -0.038882516 0.20314297
000120 ad 7e cb bc 6a b3 3a bc ac 99 e6 bd 09 03 f5 3a
       -0.024840677 -0.011395315 -0.11259779 0.0018692921
000130 28 6f 82 bd f2 11 77 bd b7 aa 07 be b4 de fd bd
       -0.063688576 -0.06031985 -0.13248716 -0.12395993
000140 71 90 ee bd 3b ac 09 be ac 49 06 3f 1f f1 d2 bd
       -0.11648644 -0.13444607 0.52456164 -0.102998964
000150 1b e7 d0 bc 9b 66 bf bd fe 24 bf bd c4 4f ec bd
       -0.025500825 -0.09345742 -0.093332276 -0.115386516
000160 99 73 19 bd 52 40 86 bd da 0c 15 bd e5 51 8e 3e
       -0.03746376 -0.06555237 -0.03638921 0.27796856
000170 dc bb 1f bc 87 94 6c 3e 71 61 2f bd 83 91 cf 3e
       -0.009749379 0.23103534 -0.042817537 0.40540704
000180 df dd dd bd 08 e1 35 bd a6 0c 62 3e cb e3 67 bd
       -0.10833334 -0.04440406 0.22075137 -0.056613725
000190 ce 8f 78 bd a6 58 b1 bd 91 fd b6 3e 0b 52 fc 3e
       -0.060684018 -0.086594865 0.3574033 0.49281344
0001a0 c9 4c d2 3d 26 db 91 bd 6c 25 1a 3e 9b 6d ae 3e
       0.10268552 -0.07121877 0.15053338 0.34067997
0001b0 1d c0 cd 3e fa 45 2b bc 24 b8 5b bd ac de a6 bc
       0.40185633 -0.010453695 -0.053642407 -0.02036985
0001c0 10 6b f3 3e cb 83 14 bc 48 85 c1 3e 90 b9 5f bd
       0.4754262 -0.009064625 0.37796998 -0.054620326
0001d0 9a 59 a0 bd 80 59 a1 3e 90 49 fc bd b7 d6 bf bd
       -0.0782959 0.31513596 -0.123187184 -0.093671255
0001e0 eb 49 38 bd 4e 02 32 bc b0 d7 5e bc fd af da 3e
       -0.04499237 -0.010864807 -0.013601229 0.42712393
0001f0 b8 8a 56 bd b6 ef 6c 3e 5f 19 b7 3e 74 f8 93 3e
       -0.052378386 0.23138317 0.35761544 0.28900492

fc3.weight f4 [64, 128]
000000 43 bd db bb cc bf f1 bc cb 8e 8f bd 1a d4 b2 bd
       -0.0067059114 -0.029510401 -0.070096575 -0.087318614
000010 46 48 e5 bb 8a 24 c1 3d b4 1f 4b bd 21 ab 11 bc
       -0.006997141 0.094307974 -0.04959078 -0.008890898
000020 4a 7b 3d bb a3 52 90 bd 10 84 9c 3d 1e e4 ad 3d
       -0.0028912597 -0.07047012 0.076423764 0.084907755
000030 be 2a 6a 3c 75 5b 9d 3d d1 e2 82 bd 87 2c 9b bc
       0.014292417 0.0768346 -0.06390918 -0.01894213
000040 69 83 84 bd 05 13 bd 3d a7 88 ef ba b9 c2 99 3d
       -0.06470377 0.09232143 -0.0018274979 0.075078435
000050 b3 50 53 3d 84 58 4e bd 9e a5 c6 bb 31 02 0a bd
       0.051590633 -0.050377384 -0.0060622236 -0.033693496
000060 1e 9e a2 bd 57 f2 6c 3c 33 b2 ae bd 28 b3 21 bd
       -0.07940315 0.014462075 -0.085300826 -0.039477497
000070 e2 37 78 3d 07 3a aa bd c8 73 67 3d 90 a0 67 bd
       0.06060017 -0.08311849 0.056506902 -0.05654961
000080 f2 d0 e0 3c a4 3c d1 bc 1b 03 35 3d 4c e0 cc bc
       0.027443383 -0.025541611 0.044192415 -0.025009297
000090 89 96 30 3d 8a 4b 9f 3d 2b 98 af bd f9 ee 7c bd
       0.04311231 0.0777808 -0.085739456 -0.06175134
0000a0 5b 9e 0e bd 21 7d 4b 3d db 0e 3a bd 15 2b 5e bd
       -0.03481899 0.04967988 -0.045424324 -0.054240305
0000b0 8c 10 bf bd 5b 1c c9 ba e9 7c 16 3d d6 6b aa bc
       -0.09329328 -0.0015343534 0.036740217 -0.020803373
0000c0 37 ec 96 3d 88 f9 a6 3d 1c 1b 2d 3d 63 7d 24 bd
       0.07369273 0.08153063 0.04226218 -0.04015864
0000d0 4e 07 4a 3d ef 99 90 bd 8a e4 13 3d cd 8c 97 3d
       0.049323373 -0.070606105 0.036106624 0.073999025
0000e0 00 7f 66 bc 15 3c 39 bc d6 55 4b bd 60 ed 22 bc
       -0.014068365 -0.011305829 -0.049642406 -0.00994429
0000f0 7b bb 85 3c 8a 40 6f 3d 21 20 9d bd d2 86 4d 3d
       0.01632475 0.05841116 -0.07672144 0.050177403
000100 11 b2 84 3d f1 d8 87 bc 1a 08 72 bc d4 dd 94 bd
       0.06479276 -0.016582938 -0.014772439 -0.07268873
000110 df ca f3 bc e6 2d 98 bc 6d 09 62 3d 03 ee 76 3d
       -0.029759822 -0.018576574 0.05518477 0.06028558
000120 65 12 af 3d c3 5e 8d bd 9b 35 8d bd 8a 10 b4 bd
       0.0854843 -0.0690284 -0.0689499 -0.08792217
000130 7a 92 0a 3d d0 44 70 bd 51 55 ab bc 04 cc 45 bd
       0.033831097 -0.058659375 -0.020914705 -0.048290268
000140 f7 97 95 bc 7c cc 94 3c 24 31 53 bd 20 51 66 3c
       -0.018260939 0.018163912 -0.051560536 0.014057428
000150 ba 67 b4 bd 38 e5 51 3b 5d 62 9e 3d df db 9f bd
       -0.08808847 0.0032027494 0.07733605 -0.07805609
000160 4a 92 a7 bd 6c 7a 87 3d 2e 07 34 3d fd 6a bb bc
       -0.08182199 0.06615147 0.04395216 -0.022878164
000170 ad c4 4c 3d 92 7a e1 3c 8a 5f 24 bd 66 b7 34 3d
       0.049992252 0.027524266 -0.040130176 0.044120215
000180 4c 2a f9 bc 51 51 df bc c0 88 6c bd 36 ee 40 3c
       -0.030415677 -0.027260454 -0.057747602 0.011775544
000190 73 8b 52 bb 56 b6 09 bd ec 5b 70 3d ba 56 bf bd
       -0.0032126575 -0.033621155 0.058681414 -0.09342714
0001a0 55 7a 19 bd 4a 77 f8 bb b9 bb a7 bd b4 98 2f bd
       -0.03747018 -0.0075825797 -0.08190102 -0.04287024
0001b0 1f d6 b1 bd ce a1 74 3d 62 ca 09 bd b4 2f 9a 3d
       -0.086834185 0.05972462 -0.033640273 0.0752863
0001c0 0d 3a 30 bd b0 ed 52 3d 2d ae 3a bd 48 1e a9 bd
       -0.04302411 0.051496208 -0.045576263 -0.08257729
0001d0 e0 b2 42 3d b0 d0 a6 bd d1 32 34 3d fa 2f 5e bd
       0.04753387 -0.08145273 0.043993775 -0.054244973
0001e0 42 73 7b 3d d9 83 93 3d 74 e0 aa b8 d2 14 99 3d
       0.061389215 0.07202882 -8.148039e-05 0.07474674
0001f0 82 f5 ea bb 5d f2 9b 3d c2 17 97 bd 1a 12 4f 3d
       -0.00717038 0.076145865 -0.07377578 0.050554372
000200 a6 d7 f6 3d 8b 73 7e 3e 30 99 57 3f 8e 04 bd 3d
       0.120528504 0.24848764 0.8421812 0.09229384
000210 e7 48 93 bc 3e 2b d9 3d 77 ab 8e 3d fe a2 34 3e
       -0.017979098 0.10603951 0.06966298 0.17640302
000220 e9 9b 7c bd 40 b8 90 bd 94 0f 1d 3e b0 6c 9e 3d
       -0.061672125 -0.07066393 0.15337974 0.07735574
000230 c0 f7 8b 3c 70 d0 30 3e a1 f6 f6 bc b9 d3 c5 3c
       0.01708591 0.17267013 -0.030146899 0.024148809
000240 9f 70 1b 3d 35 9a 46 bc cd 78 07 bd 97 e3 ef 3c
       0.0379492 -0.012121727 -0.03307419 0.029283328
000250 42 44 30 bd 12 8e 0f 3d ce 7b 99 3d 75 8c dd 3d
       -0.043033846 0.0350476 0.07494317 0.10817806
000260 8b 1e 34 bf 96 3b ed bc b5 11 20 bd f9 7a e7 3c
       -0.70359105 -0.028959077 -0.039079387 0.02825688
000270 c9 f7 95 bd 20 1c 6a 3b 79 15 35 bd 5b b0 8d bd
       -0.07322652 0.003572233 -0.04420993 -0.06918403
000280 e3 ea 38 bc 68 41 dc 3c eb dc 7d 3d 2d 09 b1 3d
       -0.01128647 0.026886657 0.061978262 0.08644328
000290 40 30 9b be 3e f3 d2 bd 23 5f 48 bd f7 48 6b 3e
       -0.3031025 -0.10300301 -0.048918854 0.22977053
0002a0 c8 11 68 3c 7f 48 ee bd 5d 6a a2 3c a8 d8 81 bd
       0.014164396 -0.11634921 0.019826109 -0.06340152
0002b0 d9 d0 16 3e c5 a1 2b bd 36 2d f1 3c c1 19 54 be
       0.14728107 -0.041902322 0.029440504 -0.2071295
0002c0 89 8a 1f 3e b1 22 a9 3d 34 01 be bd ad 71 87 3d
       0.1558019 0.0825857 -0.09277573 0.06613479
0002d0 eb 20 3b 3c cd c3 df bd c8 08 ac 3f c4 c1 65 3d
       0.0114214225 -0.10926018 1.344018 0.056092992
0002e0 e6 b0 8b bd d5 6d 80 bc a5 17 ca 3b ec c1 24 bd
       -0.0682085 -0.015677372 0.0061673694 -0.040224
0002f0 66 8e b0 3d 03 32 4b bc 44 0e b4 bd c6 a4 ff bc
       0.0862091 -0.01240206 -0.087917835 -0.0312065
000300 44 bb 3d bc 52 2f 1c 3f 2a 56 aa bf 78 6d 9b bd
       -0.011580292 0.61009705 -1.3307545 -0.07589239
000310 c5 83 a5 3d 45 7a 65 3e cf f7 a4 3d e6 fb 69 3d
       0.08081774 0.22409923 0.08055078 0.057124995
000320 47 ec fd bb ed 68 44 3c 03 71 41 3c 94 5b 5b bd
       -0.0077491137 0.011987907 0.011806729 -0.053554133
000330 9c e8 c3 bc 60 65 60 3d 22 a8 e5 3c 6b 24 b4 3a
       -0.023914628 0.05478418 0.028034274 0.0013743764
000340 af bf 51 bd f0 ce bb bd 70 b8 92 3e d2 a5 08 3c
       -0.051208194 -0.091703296 0.2865634 0.008340316
000350 ff fc 8b 3c aa b8 e9 bc ed 58 75 3d 9b 80 1b 3d
       0.017088411 -0.028530437 0.05989926 0.037964445
000360 3a 43 ac bd cb 44 74 3d 9e 66 e8 3d 06 b7 e2 3e
       -0.0841126 0.05963592 0.11347698 0.4428026
000370 90 90 c0 3d 1d 80 a4 bc 5c cc d9 bf b2 93 88 be
       0.09402573 -0.02008062 -1.701549 -0.26675183
000380 ac ce 2f bd ba 50 c7 bd ee 93 9c bd c0 0c ea 3c
       -0.042921707 -0.09732194 -0.07645403 0.028570533
000390 8d 90 6d bf 76 18 d1 3d 8d 69 63 3e ff 28 12 3e
       -0.9279869 0.10209744 0.22208233 0.14273451
0003a0 f9 e9 71 3e 2d f7 99 3d 17 13 d6 3e 10 02 cc 3d
       0.2362441 0.07517848 0.4181144 0.09961331
0003b0 02 27 3f 3e fd 09 a6 3d ac 67 03 3d a2 89 07 3c
       0.18667224 0.08107374 0.03208129 0.00827256
0003c0 d9 d7 1c 3e 50 f5 62 3d 2c e7 ae 3f 5a 33 cd 3b
       0.15316714 0.05540973 1.3664298 0.006262225
0003d0 0b a5 66 3c 56 3b c0 3d 27 09 d6 3d 20 03 85 3a
       0.014077435 0.093863174 0.104509644 0.0010148026
0003e0 75 7e 87 bd cf 95 74 bd 1d 4d a2 bd d3 3c aa 3d
       -0.06615917 -0.05971318 -0.079248644 0.083123825
0003f0 ab a7 f9 bb de 53 bb 3e 99 63 b3 3f 23 1f 23 3e
       -0.0076188645 0.36587423 1.401477 0.15929846

fc3.bias f4 [64]
000000 9d 7f 85 bd 35 6e 18 3f e6 79 3c 3f 58 6d f9 bd
       -0.06518481 0.5954316 0.736235 -0.12179059
000010 0a a0 81 bd 10 76 b5 bd d8 9c 0c 3f b3 93 0b 3f
       -0.06329353 -0.08860409 0.54926825 0.54522246
000020 16 7d 23 3f b8 d0 f8 bc 29 22 8e 3e 8b 30 85 3e
       0.6386274 -0.030372962 0.27760437 0.26013598
000030 1a 09 a2 bd d5 89 e0 bd 5f 2f 16 bd 81 92 2f bc
       -0.07911892 -0.109637894 -0.03666627 -0.010716082
000040 20 0a 17 3f ed 58 0c be d0 1b 1e 3f 54 49 8d bc
       0.58999825 -0.13705797 0.6176119 -0.01724688
000050 53 ce 77 bd 8e 5b 24 3f bb 5d c3 3e 85 79 13 3f
       -0.0604995 0.642022 0.38157448 0.576073
000060 a3 4e 19 3f fa ca 05 3f b1 e2 a6 bd c8 5b 81 be
       0.59885615 0.5226284 -0.08148707 -0.25265336
000070 b8 1c 30 be b9 a3 28 be e5 47 a1 3c a1 cd 23 3f
       -0.17198455 -0.16468705 0.019687602 0.6398564
000080 c4 72 eb bd 6b 48 28 3f b0 f0 15 3f af 09 14 bd
       -0.11496499 0.657355 0.58570385 -0.036142047
000090 f3 88 12 bd c8 2e 99 bd bc 2e 85 3c 03 39 16 3f
       -0.035775136 -0.07479626 0.016257636 0.5868074
0000a0 5b 79 15 be fb 95 06 3f 2e b9 b8 bb 4b fa 59 be
       -0.14597075 0.525726 -0.0056373095 -0.21286885
0000b0 d3 35 3c 3d 09 1a b6 bd 06 86 05 be 84 03 1d 3f
       0.04594977 -0.088916846 -0.13039407 0.6133349
0000c0 bd c8 ef bb 21 92 b8 bc 36 d1 ba bd b3 d4 4a 3d
       -0.007317631 -0.022530617 -0.09121935 0.049519252
0000d0 af ab e3 bd 03 0e b5 bd bd be 93 bc 4c 62 e3 bd
       -0.111167304 -0.08840563 -0.018035287 -0.11102733
0000e0 fd 68 88 bd 7d 2a 0b 3f a5 5a 17 3f 66 46 ad bd
       -0.0666065 0.54361707 0.5912269 -0.08460693
0000f0 c6 99 15 3c ea 68 77 bd b5 6f 24 3f 25 47 2a be
       0.009130901 -0.06040279 0.6423295 -0.16628702

fc4.weight f4 [51, 64]
000000 8a 39 0b 3c 41 37 a6 3e b7 6b 17 40 50 54 4c bd
       0.008497605 0.3246403 2.3659494 -0.049885094
000010 0f a8 5c bd 4d d7 bc 3b e0 36 b6 3e 38 3d af 3e
       -0.05387121 0.0057629705 0.3558874 0.34226394
000020 07 fd c6 3e 22 59 40 3c 13 9b 8a c0 a5 04 04 40
       0.3886492 0.011740001 -4.33143 2.0627835
000030 7e dd 30 3a 74 20 47 bd 28 89 66 bc b6 3a 8a bc
       0.0006746872 -0.048614934 -0.014070787 -0.016873699
000040 53 66 d5 3e 74 8c 50 3c 44 6e b8 3e 69 88 3e 3e
       0.4167963 0.012728799 0.36021626 0.18606724
000050 c0 52 06 bd 10 d7 d6 3e 22 20 1c c0 72 ed ad 3e
       -0.03279376 0.41960955 -2.4394612 0.3397022
000060 c5 75 c9 3e e9 85 a3 3e 8a d7 f4 b9 07 ab b5 bc
       0.39347664 0.31938103 -0.00046699896 -0.022176279
000070 36 10 7a 3a 9f f7 14 3b 29 6f 88 bd 61 75 c3 3e
       0.0009539159 0.0022730601 -0.06661827 0.3817549
000080 6d a7 e2 bc 1d 4b d7 3e 46 13 b6 3e 5d 36 6c 3b
       -0.027667725 0.42049494 0.3556158 0.0036043145
000090 67 97 a5 bc 69 77 42 3d f9 90 35 bd d3 ae a5 3e
       -0.020213796 0.04747716 -0.04432771 0.32359943
0000a0 05 c4 07 bd 70 a2 9e 3e 45 63 3d bd 92 e7 96 3c
       -0.033145923 0.30983305 -0.04623725 0.018420968
0000b0 20 bd 95 3c 8a e3 da 3b e8 4a f3 3c bf b8 b8 3e
       0.018278658 0.006679957 0.029698804 0.3607845
0000c0 a0 56 84 c0 b7 db 83 3b bd 58 d2 3c 81 ac 7d bd
       -4.1355743 0.004023995 0.02567708 -0.06193209
0000d0 9c be 82 bd 17 60 8d bc 6f 10 9f bc bf 1b 50 3c
       -0.06384012 -0.017257733 -0.019417016 0.012701928
0000e0 7d 50 7f 3d ef 78 bc 3e 2b 45 af 3e 92 a0 4a bc
       0.06233262 0.36811015 0.34232458 -0.0123673845
0000f0 af 61 b8 bd 98 38 11 bc 48 36 cd 3e 60 37 07 bd
       -0.09003007 -0.008863591 0.40080476 -0.033011794
000100 4e 3d be bd 78 dc c9 3d 9c 97 59 3d 20 e0 27 bd
       -0.09289037 0.09856504 0.0531231 -0.040985227
000110 e2 ca c0 bd 6c d9 5c 3d 58 04 d3 bd da 0f f7 3d
       -0.09413697 0.053918287 -0.10303563 0.1206357
000120 7c bb fe bd 38 65 84 3d a2 9b be bd 40 fb 38 3c
       -0.124381036 0.064646184 -0.09307028 0.011290371
000130 d8 d7 ce 3c ee dc f6 3d 30 de 9c 3c e4 5f 3b 3d
       0.025249407 0.12053858 0.019148916 0.045745745
000140 50 72 0b 3c 30 a9 9d 3d f8 3f bf bc 36 38 f2 bd
       0.008511141 0.076982856 -0.023345932 -0.11827128
000150 68 c4 eb bd 70 53 05 3c 18 bd 98 3d 60 7d c9 3d
       -0.11512071 0.008137569 0.07457942 0.098383665
000160 3c d5 53 bd e0 7e 87 3c 60 73 89 bb de 80 a8 bd
       -0.051717028 0.01653999 -0.004194662 -0.082277045
000170 68 49 10 3d b4 5c bd bd b0 62 c4 bc 36 ef ec bd
       0.035226256 -0.09246197 -0.02397284 -0.11569063
000180 90 3f 43 3d 80 ef 9a 3b 38 6c d3 3d c0 e9 a5 3c
       0.04766804 0.0047282577 0.103233755 0.020253062
000190 46 f1 b5 3d fc 3e f8 bd 3a e0 e1 3d 00 39 63 bb
       0.0888391 -0.12121388 0.11029096 -0.0034671426
0001a0 40 01 8e 3d 18 d2 de 3d 54 6f 82 bd 04 d6 33 3d
       0.06933832 0.10879916 -0.063688904 0.043905273
0001b0 40 9f 60 3c 7c c4 8f 3d bc 02 19 bd b8 ba 66 3d
       0.013709843 0.07019898 -0.037356123 0.056330413
0001c0 d8 db aa 3d 08 2e a0 bc 00 af b8 bb 20 a8 49 bc
       0.08342713 -0.0195532 -0.005636096 -0.0123081505
0001d0 9c 2f cc 3d 6c 3c 8b 3d 58 27 f7 bd d6 3d f5 bd
       0.09970018 0.06798634 -0.12068051 -0.11974685
0001e0 78 27 10 3d 90 08 8a bc fe 3c 89 3d 80 6a 6c bc
       0.03519389 -0.016849786 0.067010865 -0.014429688
0001f0 20 a7 21 3d 40 b2 04 3b 9c 33 a2 bd 34 a8 82 bd
       0.039466023 0.0020247847 -0.0792 -0.063797385
000200 58 40 71 bd 3c f9 10 bd 34 8f 5b bd a0 68 b6 bc
       -0.058899254 -0.03539394 -0.053603366 -0.022266686
000210 52 01 9d 3d 80 bd 28 3c ec b6 c9 bd ba b8 ca 3d
       0.076662675 0.010299087 -0.09849343 0.09898515
000220 16 64 d8 bd 1c 66 42 3d 30 d6 56 3d a4 aa 8e bd
       -0.10565965 0.04746066 0.05245036 -0.06966141
000230 a4 44 65 bd 7e 18 ad bd 9c 5d 70 bd 9e 1b e8 3d
       -0.055973664 -0.08451937 -0.058683023 0.113333926
000240 c0 1f 64 3d 6a 40 d2 bd a0 46 ae 3b 20 a0 63 bd
       0.05569434 -0.10266192 0.0053184777 -0.05557263
000250 00 15 a5 bb 74 9d db bd 56 68 d2 3d 08 0d f4 3c
       -0.005037904 -0.10723391 0.10273807 0.02979137
000260 24 6a 33 bd 00 02 ca ba 10 32 93 3d d8 e4 c4 3d
       -0.043802395 -0.0015411973 0.07187283 0.09613961
000270 a0 6c b1 bb c0 19 9f 3b a0 73 47 bc b0 33 83 bd
       -0.0054145604 0.0048553646 -0.012173563 -0.06406343
000280 80 d5 25 3c ac da 94 bd 20 fa 15 3d c4 a8 58 bd
       0.010121703 -0.07268271 0.03661549 -0.052895322
000290 48 55 d0 bc 5c af 5f bd 60 26 8a 3d e6 25 a8 3d
       -0.02543129 -0.054610595 0.06745601 0.082103536
0002a0 44 fd 83 bd b2 d2 c2 3d 3c f6 d7 bd 80 84 2c bb
       -0.06444791 0.09512843 -0.10545012 -0.0026324093
0002b0 50 ae 15 3d c8 3e eb bc 90 ee 56 bd d4 fe c6 bd
       0.03654319 -0.02871646 -0.052473605 -0.09716573
0002c0 ae 25 ae 3d 38 77 ee bd 78 b4 f0 3d 8a b1 ce 3d
       0.085032806 -0.11643833 0.11753172 0.10092457
0002d0 00 92 dd bc 70 cd ff 3d 0c ad 37 3d 18 25 a2 3d
       -0.027047157 0.12490356 0.044842765 0.07917231
0002e0 e8 c1 1b bd 80 55 c5 3a 5c 8c 50 3d d8 69 11 bd
       -0.03802672 0.0015055388 0.050915107 -0.03550133
0002f0 9c 21 59 3d ce cf e4 bd 80 d9 a5 bb 50 26 d0 bc
       0.053010568 -0.11172448 -0.0050613284 -0.025408894
000300 d0 5c 71 bc e4 80 89 3d e8 04 ef 3d dc 11 65 3d
       -0.014731601 0.06714037 0.11670858 0.055925235
000310 8e 55 c5 bd 94 43 6c bd d8 f3 cd bc 80 f7 62 3b
       -0.09635459 -0.057681635 -0.025140688 0.0034632385
000320 d8 2e 84 3d 64 7d ac 3d aa fc b5 bd e8 7e cd bc
       0.06454247 0.08422354 -0.088860825 -0.025084928
000330 24 b2 21 3d d8 42 7f bd 44 f8 62 bd a8 68 a8 3c
       0.03947653 -0.062319607 -0.055412546 0.020557716
000340 48 ed 5f bd 54 c1 18 3d b0 28 35 bd 42 82 f8 3d
       -0.05466965 0.037293747 -0.044228256 0.1213422
000350 b0 e7 93 bd b8 ec 82 bc 76 5e e1 3d a0 2c 9a 3d
       -0.07221925 -0.015982017 0.11004345 0.07528043
000360 dc f7 fe bd 00 11 53 ba b4 f3 f4 bd b0 00 b1 3d
       -0.12449619 -0.00080515444 -0.11960545 0.08642709
000370 de 69 ce bd 34 97 e4 3d 10 32 f3 bd 2e 4e bb 3d
       -0.10078786 0.11161652 -0.11874783 0.09145771
000380 f8 27 a4 3c da 0c ad bd fc 81 11 3d b0 ef c8 3c
       0.02003859 -0.08449717 0.035524353 0.024528354
000390 d0 2c 0d 3c 90 a3 f2 3c 0a 75 b8 3d c8 fe cd 3d
       0.008616641 0.029619008 0.090066984 0.10058361
0003a0 10 f5 fb 3d 70 be 2c bd c0 d9 c3 bd 70 19 ee 3c
       0.12302601 -0.042173803 -0.09563017 0.029064864
0003b0 56 4f 98 bd e2 35 c7 3d 00 78 60 ba cc 9f 59 3d
       -0.07437007 0.09727074 -0.0008562803 0.05313091
0003c0 30 0f a5 3c a0 20 bf bc 64 61 99 3d 50 b8 b1 bd
       0.020148844 -0.023330986 0.07489279 -0.08677733
0003d0 00 de 26 bb 40 95 1e 3d 36 22 95 3d 00 5a 5f ba
       -0.0025461912 0.038716555 0.07281916 -0.0008520186
0003e0 98 02 ef 3c 8a 3e c4 bd 02 6b d1 3d da 2a c2 3d
       0.029176041 -0.09582241 0.10225488 0.094808295
0003f0 88 9f dc bd 22 74 d3 bd cc 23 41 3d 60 63 2f 3d
       -0.10772616 -0.10324885 0.04715328 0.04281938

fc4.bias f4 [51]
000000 1f 41 49 3f c0 a2 46 3d 10 eb d1 3c ac 46 5a 3d
       0.7861499 0.048495054 0.025624782 0.053290054
000010 c6 21 ea 3d b0 31 73 bd e8 4e f2 bc 32 92 81 bd
       0.11432223 -0.059373558 -0.029578641 -0.06326713
000020 b4 99 e6 bd 20 35 ac bd b4 4c e9 3d f0 1a 67 bc
       -0.11259785 -0.0840857 0.11391583 -0.0141055435
000030 58 2a c7 bd 8c 68 73 3d 88 57 86 bc c8 c1 9a bd
       -0.09724873 0.059425876 -0.01639916 -0.07556492
000040 d8 3a e9 bd 3c 9a 07 bd ae e5 b3 bd e4 a4 25 bd
       -0.11388177 -0.033106074 -0.08784042 -0.040440455
000050 6a 48 81 3d 58 25 76 3d 90 8a 1e bd 70 3f 55 3d
       0.0631264 0.060094208 -0.038706362 0.05206245
000060 00 f3 52 ba 5a 7b c6 3d 70 d7 54 bc 98 cb 11 bd
       -0.0008047074 0.09691496 -0.012990817 -0.035594553
000070 f0 68 2b bc e0 a6 98 3d f6 99 cb bd 80 85 47 bc
       -0.010462031 0.07453704 -0.09941475 -0.012177825
000080 90 4b c6 3c ee 76 cf bd 02 43 9a 3d 00 d8 21 3d
       0.024205953 -0.10130106 0.07532312 0.039512634
000090 bc 1f 40 bd 30 0b da 3d 06 90 f1 3d 50 4c 47 3d
       -0.046905264 0.10646665 0.117950484 0.04865676
0000a0 90 c9 2a 3d c4 93 18 bd 96 7a fc bd 92 86 8a bd
       0.04169613 -0.037250295 -0.12328069 -0.067639485
0000b0 88 b2 5b 3d a6 55 ef bd d6 7d 95 bd 36 03 c4 3d
       0.053637058 -0.11686258 -0.07299392 0.09570925
0000c0 08 0a 20 3d 70 b3 d4 3c 8c b4 98 bd
       0.039072067 0.025964469 -0.074563116
