src/python/services/models/comparison_1000ep_dqn/best_pairwise_dqn.pt (torch, 160696 bytes, 8 tensors)

fc1.weight f4 [128, 112]
000000 d9 ca e0 3d e4 d4 bf 3d f6 be e6 3d 87 e9 29 3d
       0.1097619 0.093667775 0.11266892 0.041482475
000010 32 74 12 bd a5 c2 8a 3c 37 5f fe 3c 81 76 9e 3d
       -0.035755344 0.016938517 0.031051261 0.077374466
000020 65 5f 2a 3d aa 03 4d 3d 5f 6d b9 bc 2b 8e 8b 3d
       0.04159488 0.050052322 -0.02263516 0.06814226
000030 35 29 d4 3d a3 21 87 3d bd 49 87 bd 7f ab c5 bc
       0.10359422 0.065982126 -0.06605861 -0.024129627
000040 01 af 0a 3d 39 d2 b6 3d e3 7f 9e 3d 45 cf 33 3d
       0.033858303 0.089268155 0.07739236 0.04389884
000050 9f 6d d1 bc 30 a2 6d 3d 02 95 31 3c cd 63 c1 3d
       -0.025564967 0.058016002 0.010838749 0.094428636
000060 fe 10 8f bd c3 d2 ec bb d6 bf 99 3d b1 36 50 3d
       -0.06985663 -0.007227273 0.07507293 0.050833408
000070 55 4c ce bc 66 e4 14 3a 23 a0 d7 3c ca 6c 35 bd
       -0.025182882 0.0005679786 0.026321476 -0.044293202
000080 bf 81 37 bd 28 e5 48 3d 4e 74 bc 3d 6f c2 94 3d
       -0.04480147 0.049046665 0.09201871 0.07263648
000090 4a ad 3c bd 8b 21 2c 3d 62 ed 8e 3d 67 3f e4 3d
       -0.0460637 0.042024177 0.06978871 0.111449055
0000a0 9d bb f4 bd 73 c3 84 3d a9 8e 92 bc 19 13 08 bd
       -0.11949847 0.064825915 -0.017890291 -0.033221338
0000b0 6c 2d 89 bc d1 a7 be 3d 97 da ec 3c 2a a0 5a bd
       -0.016745292 0.09309352 0.028912826 -0.0533754
0000c0 98 c7 04 3c cc 1d ae 3c 6c 86 ac 3d 95 76 27 bd
       0.0081042275 0.021254443 0.084240764 -0.040884573
0000d0 b8 89 83 3c a6 c8 11 be ed c5 b7 3d 39 fc d2 3b
       0.01605688 -0.14236698 0.08973298 0.0064387587
0000e0 9b b1 6a bd 17 fc 0d bc 68 7c 32 bd 95 1d 96 bc
       -0.057298284 -0.00866606 -0.043575674 -0.018324653
0000f0 d9 99 42 bc 01 d2 bd 3d ca 55 56 3d 35 fa b2 bd
       -0.0118775 0.09268571 0.05232791 -0.087391295
000100 25 af 96 bd c0 f8 52 3d 88 80 33 3d 8c b5 aa 3d
       -0.07357625 0.051506758 0.04382375 0.083354086
000110 3a 90 bc 3d b7 99 51 3d 65 01 d2 3c c5 12 63 3d
       0.092071965 0.051171985 0.02563543 0.055437822
000120 0a 03 bf 3d 71 ff d5 3c c3 0b 71 bd 2c f0 8a bd
       0.093267515 0.02612278 -0.058849107 -0.067840904
000130 25 5b c4 3c 04 0b 31 bd 26 f2 a5 3d 44 65 34 bc
       0.023969242 -0.043223396 0.08102827 -0.011010472
000140 66 ba 11 3d 4d 4b b1 3c 6c c2 d7 3d f1 7e 32 3c
       0.035578154 0.021642352 0.1053513 0.010894523
000150 b0 f0 fc bc fc f5 81 3d 5e 44 8b bd 6e 68 45 bd
       -0.030876487 0.06345746 -0.068001494 -0.048195295
000160 0b e4 28 39 cd 23 77 3d 66 90 c5 3d fe 1b dd bc
       0.00016106681 0.060336877 0.096466824 -0.026990887
000170 87 55 3c bd e2 38 a4 3d 1b 27 56 3d fb 7a 51 3d
       -0.045980003 0.08018662 0.052283388 0.051142674
000180 cb 1e 34 be e0 b7 97 3d 08 3a 63 bd 98 85 a3 3c
       -0.17589872 0.07408118 -0.055475265 0.019961163
000190 4b e9 26 3d d3 33 5a 3d 3c 3b b6 bd 1b bd 30 bc
       0.04074983 0.05327208 -0.08898017 -0.010787274
0001a0 6c 46 84 bd 1b 8b 9a 3d 3d 63 09 3c 2e 0b dc 3c
       -0.064587444 0.075460635 0.008385477 0.0268608
0001b0 8e 75 08 bd 5d 61 55 be 57 dd 86 bd 26 e5 40 bc
       -0.033315234 -0.20837922 -0.06585186 -0.011773383
0001c0 dc d4 a8 bd 89 8d 69 3d 9c 79 54 bd fd 94 70 bc
       -0.08243725 0.057019744 -0.05187379 -0.014683959
0001d0 61 40 a7 3b c3 e9 2e bd 24 49 a0 bd 96 f1 c4 bc
       0.00510411 -0.0427034 -0.078264505 -0.024040978
0001e0 b1 f3 01 bd f8 77 8f 3d 31 13 90 bb d9 92 a0 3c
       -0.031726543 0.07005304 -0.004396819 0.019601272
0001f0 b6 c5 a9 3c 66 9b 4c bd 71 b0 bb 3c 51 7c c3 bb
       0.020724159 -0.049952887 0.022911282 -0.0059657474
000200 ad 13 4c 3d 05 22 bd 3d 4e cf 87 3d c4 61 85 3c
       0.04982345 0.09235004 0.06631337 0.01628197
000210 fe 0a 7e bd d2 e2 9a bd f1 0a c1 3d 42 95 c5 3d
       -0.0620222 -0.07562794 0.09425915 0.09647609
000220 bd 41 cd 3d 46 b6 85 bd bc e8 cd bb 2d ba 21 bd
       0.10022304 -0.065289065 -0.0062838476 -0.03948419
000230 50 45 67 3d c4 7b 59 bd cd 16 2a 3d d0 e5 17 3d
       0.056462586 -0.053096548 0.04152565 0.0370844
000240 4a 48 6e bc 76 0b 22 3d 93 b7 0e bd 8c 70 70 3d
       -0.014543602 0.03956171 -0.03484304 0.058701083
000250 0e b1 21 bd 84 b8 5e bd fa b0 64 3d 56 44 64 bc
       -0.039475493 -0.054375187 0.05583284 -0.013932308
000260 c2 4b d6 3c 61 20 66 bd 46 7a 96 3d d9 7d 86 3b
       0.026159171 -0.056183223 0.073475406 0.0041043577
000270 54 ba 63 bd 89 81 d6 3b 7e f2 67 bb 5e c9 ed bc
       -0.05559762 0.0065462035 -0.003539234 -0.029026683
000280 14 94 c7 3c 0d a3 70 3d 70 85 f6 bb ba 78 35 3d
       0.024362601 0.058749247 -0.007523231 0.044304587
000290 28 b4 ad 3c 20 4b 72 bd 12 70 9b bd f1 c0 8c bd
       0.02120407 -0.059153676 -0.07589735 -0.06872738
0002a0 49 7b e9 bc a3 2a 9f 3d 54 fc be 3c c8 e8 4e bd
       -0.02850117 0.07771804 0.023313679 -0.050514966
0002b0 ac c5 98 3d 17 31 a3 3c 92 0e 24 bd 53 98 76 bc
       0.07459578 0.019920869 -0.040052958 -0.015050965
0002c0 7d bb 2a bd 9e 5f ad bb 0b b9 1f 3d 39 a3 e3 bc
       -0.04168271 -0.0052909395 0.03899483 -0.027787792
0002d0 ac ed 85 3c cc b3 79 bc b5 cc 07 3a 32 d2 ad 3d
       0.016348682 -0.015240621 0.0005180345 0.08487357
0002e0 73 44 00 bd 40 0a 3f bd 25 15 59 bd 85 cb df 3c
       -0.03131528 -0.046640635 -0.05299868 0.027318725
0002f0 43 b8 62 3d 6a da a1 bd 35 98 ac bd 8d a8 a3 bd
       0.055351507 -0.07902987 -0.08427469 -0.07991133
000300 79 cd 44 3d 7e e8 98 3d 66 57 c1 3d d8 19 b8 bc
       0.048047516 0.07466219 0.09440498 -0.02247326
000310 4b 03 98 3d 37 ce ad 3d 6f 1c 92 3d c1 b4 82 3d
       0.07422503 0.08486598 0.071343295 0.06382132
000320 aa 78 49 3d 74 98 01 bc 48 d5 c2 3d 88 e0 42 3d
       0.04918734 -0.007909883 0.095133364 0.04757741
000330 c8 9c 66 bd b4 17 76 3c da 74 42 bd a9 e2 35 bd
       -0.056301862 0.0150203 -0.04747472 -0.044405613
000340 e6 83 2c bd 94 bd a9 bd 7d 14 99 bd 3e f6 69 bc
       -0.042117976 -0.08288112 -0.07474611 -0.0142799
000350 38 8d ec 3c 4a e3 20 bd 1b e7 9c 3d 12 3e 96 bd
       0.028875932 -0.03927926 0.07661267 -0.07336058
000360 d7 e9 94 bd c4 ed 9f ba df f2 17 bd 30 09 b3 3c
       -0.07271164 -0.0012201597 -0.037096854 0.021854967
000370 60 f2 d7 bc 37 76 9a 3d 05 5d b5 3d dc c5 91 bc
       -0.02636069 0.07542079 0.08855633 -0.017794542
000380 dc 64 34 3d 29 96 bb 3c 93 44 86 3b 15 2c 01 bd
       0.0440415 0.02289875 0.00409753 -0.03153618
000390 5d a7 d5 bd 84 ac 19 3d a0 4c b2 bd 84 54 9d bd
       -0.10432313 0.03751804 -0.08706021 -0.07682136
0003a0 1d 72 b0 3b 33 50 a4 3d 40 02 5f bd 95 28 48 3d
       0.005384697 0.08023109 -0.054445505 0.048866827
0003b0 f1 86 14 3d 5a 95 39 3d 77 a8 ac bd ce 52 c8 bb
       0.036261503 0.04530845 -0.084305696 -0.0061133867
0003c0 74 5c 0f bd 3b 2f 64 bd 62 4e d6 bd df 66 7f bd
       -0.03500028 -0.055709105 -0.10464169 -0.062353965
0003d0 51 f6 e5 3c a0 aa 65 3d a8 6e d1 bd a5 ca 01 bd
       0.028071554 0.056070924 -0.10226184 -0.031687398
0003e0 e9 e2 14 3d 4d 75 70 3d f4 22 8b bd 5e 72 30 bd
       0.03634921 0.058705617 -0.06793776 -0.04307782
0003f0 2c aa a0 3c 68 0e 9a bd 6c d2 7f bd a0 de b9 bd
       0.019612394 -0.07522279 -0.062456533 -0.090756655

fc1.bias f4 [128]
000000 72 d4 7c 3c 5b 9a 43 bc bb 77 d7 3d 12 a9 d7 bd
       0.01543151 -0.011938657 0.10520884 -0.105302945
000010 09 bb 37 3d b3 6e da bd 9e 07 e8 bd e9 3f 18 3d
       0.044856105 -0.106656455 -0.11329578 0.037170324
000020 03 97 a6 bc 60 ae 0d 3d b9 07 bc 3d 64 3c fc bd
       -0.02033568 0.034590125 0.091811605 -0.12316206
000030 6a eb 50 3d 02 2d 4a 3c 94 d2 70 bd 3d c5 90 bd
       0.05100576 0.012339832 -0.058794573 -0.0706887
000040 6f e8 e3 bd 62 8d 4f bc 1a 4f b0 bd 9e 64 b4 bd
       -0.111283176 -0.012667986 -0.086088374 -0.08808254
000050 c2 84 0e bd fc 04 b1 3d 01 fd 07 bc 8f 10 e0 3d
       -0.034794576 0.08643529 -0.008300067 0.10940658
000060 7e 6a e2 bd b6 c8 11 bd 85 0e 95 bc 71 0f 23 3d
       -0.11055468 -0.035591803 -0.0181954 0.039809648
000070 16 20 7a bd 14 fe e0 bc c6 e4 32 bd 68 ef fd bc
       -0.061065756 -0.027464904 -0.043675207 -0.030997947
000080 da 7c 90 bd db ce 28 3d 0e 43 a5 3d b2 ee 2c 3d
       -0.070550635 0.041212898 0.0806943 0.042219825
000090 03 8d 27 3d 7b 17 85 bd dc 1d f4 3c b6 9a a0 3d
       0.040905964 -0.06498619 0.029799394 0.07842009
0000a0 bf 32 77 bc 32 ad ba 3d 37 69 83 bc 62 52 c5 3c
       -0.015087782 0.09115066 -0.016041381 0.024087135
0000b0 ea ec e5 3c c3 3b 43 3d a9 a3 45 bd 46 48 67 bb
       0.028067071 0.047664415 -0.04825178 -0.003529088
0000c0 da b5 aa 3c 66 c6 11 bd 27 ce 34 bd a1 0c bd 3d
       0.020838667 -0.035589598 -0.044141915 0.092309244
0000d0 65 95 c0 bc 8f 53 c1 3d e4 86 ac 3d 23 8d ab bd
       -0.023508737 0.09439766 0.08424166 -0.08376529
0000e0 c2 03 da bd 91 69 33 bd 7b 98 5c 3d 41 8b 24 bd
       -0.10645248 -0.043801848 0.053856354 -0.040171865
0000f0 93 9f ca bd 5d a2 41 bd c3 26 aa 3c 04 1c c2 3d
       -0.098937176 -0.047273982 0.020770436 0.09478
000100 41 21 4d 3b ca 9b 0c 3d fb 42 b8 3c 27 4a 95 3d
       0.0031300338 0.03432826 0.022492876 0.07289534
000110 96 1a d3 bd b5 0d e6 3b 35 84 88 3d 02 d1 a3 3d
       -0.10307805 0.007020677 0.066658415 0.079988495
000120 c7 7e 6e 3d 6f 28 af bc 18 54 aa bd 49 05 12 be
       0.058226373 -0.021381585 -0.08316821 -0.14259829
000130 2b 19 f7 bd da 65 ce bd 79 9d 89 bd f4 79 df 3b
       -0.12065347 -0.100780204 -0.06719489 0.006819958
000140 fa fc ba bd fe 27 de bc 49 7e 84 bd 36 e9 44 3d
       -0.09130283 -0.02711868 -0.064693995 0.04807397
000150 3f 02 ba bd 3f 60 fc 3b f1 8b 67 ba e1 73 6f bc
       -0.0908246 0.007701903 -0.00088328036 -0.01461503
000160 e7 f4 38 3d 2a 50 95 3c 5e c1 50 bd 4a bb 4e 3d
       0.045155432 0.018226702 -0.05096566 0.05047158
000170 10 15 b6 3d f5 6d 95 3c a7 69 a7 3d 5f ca 95 3d
       0.08890736 0.018240908 0.081744485 0.0731399
000180 bc 14 bc bd 17 80 b4 3d af cc c7 3d 22 32 a8 3c
       -0.09183642 0.08813494 0.09755837 0.020531718
000190 25 b4 95 3c f4 dc a9 bd 81 a3 a1 3d 00 a5 b0 3d
       0.018274376 -0.082940966 0.07892514 0.08625221
0001a0 a3 56 07 bd 7f 8f cd 3d 41 df cc 3d 46 ec 86 bd
       -0.033041608 0.10037135 0.1000352 -0.06588034
0001b0 ba 8a 5a bd ae 8c 7f 3d 47 df 7f bd 86 a8 bd 3d
       -0.053354956 0.062390022 -0.062468793 0.09260659
0001c0 0a b1 56 be ce 44 98 bd af 12 ce bd 98 33 0c be
       -0.20965973 -0.074349985 -0.10062157 -0.13691556
0001d0 86 4b 36 3c de 9a 48 bd 92 04 08 bd 65 26 be bd
       0.011126405 -0.048975818 -0.033207484 -0.09284667
0001e0 3c 52 6e 3d 17 2e c6 bb bc b7 79 bd 4f 33 d6 bd
       0.058183894 -0.006047975 -0.06096624 -0.10459005
0001f0 aa 24 9b 3d 4a a5 aa 3c db aa 55 3d b1 b3 18 be
       0.075753525 0.02083077 0.052164894 -0.14912297

fc2.weight f4 [128, 128]
000000 98 f4 4d bd b5 8b 5f bd 54 a3 e0 bc 01 f2 af bd
       -0.05028209 -0.054576594 -0.02742163 -0.085910805
000010 0b 8e c2 3c ca a6 8f bd bb d3 da 3c bc e9 8f bd
       0.023749372 -0.07014234 0.02671229 -0.07027003
000020 ec 35 f3 bc 57 a4 d2 3c 2b 8e ca bd f2 f5 4c 3d
       -0.029688798 0.025713129 -0.09890398 0.05003924
000030 fc 9c 14 bd ee d1 96 bd 3b 8d 7b 3d 4d 0a b6 bd
       -0.036282524 -0.0736426 0.061413985 -0.088886835
000040 84 4c c9 bd 7b be 56 bd 4f 64 bb bd 37 cf d3 3c
       -0.09829047 -0.05242775 -0.09149992 0.025855644
000050 9b 0b b7 bd 9a 81 a5 bd da 16 af bb c3 ec 50 bc
       -0.089377604 -0.0808136 -0.0053433003 -0.012751761
000060 98 da c8 bd 48 3c aa bd 46 d5 95 3b da c4 8f bd
       -0.098073184 -0.08312279 0.0045725433 -0.07019968
000070 89 6c c0 bd 73 78 5b bd 47 cd 0b 3d 3e ab a4 3d
       -0.093957014 -0.053581666 0.034131315 0.08040474
000080 40 e0 b0 bb e5 55 a1 bd b8 b2 06 bd 92 40 85 3d
       -0.0053978264 -0.07877711 -0.032885283 0.065064564
000090 ad 11 86 3c d2 ff a5 bd e6 e6 02 bd b9 59 19 bd
       0.01636585 -0.081054345 -0.031958483 -0.03743908
0000a0 02 4a 9b bd 5b b5 37 3d 7b 1b 2e 3d 34 04 ae 3d
       -0.07582475 0.04485069 0.042506676 0.084968954
0000b0 fc 50 f4 bd be 32 fb 3c c6 68 eb 3c e9 d2 de bd
       -0.11929509 0.030663844 0.028736483 -0.10880072
0000c0 56 47 27 3c f5 c7 b2 bc 25 26 22 bd ff 9d f7 bb
       0.010209879 -0.021823863 -0.03958716 -0.0075566764
0000d0 e4 50 10 3d 26 52 75 bd 40 3c 3d 3d 7f 2a 45 bc
       0.035233393 -0.059892796 0.046200037 -0.012034058
0000e0 26 b8 30 3c 9b 1a da bc 8c ca 17 bd f4 68 28 3d
       0.010786092 -0.026624015 -0.037058398 0.041115716
0000f0 94 0e 03 3d 5a 4a 30 bc ea 55 e0 ba 1d 25 7d bd
       0.031996325 -0.010759914 -0.0017115448 -0.061802972
000100 c3 9e b7 bc a2 b2 6d bd d6 9a d7 bd 68 44 19 bc
       -0.02241457 -0.058031686 -0.105275795 -0.009354688
000110 41 d0 83 bd 9c 25 42 bd d6 a6 31 3d 47 0b c2 bd
       -0.06436206 -0.04739915 0.043371998 -0.09474807
000120 c2 a6 71 bc b3 d7 8f 3d c6 3d 3c bd 09 1d c1 bd
       -0.014749231 0.07023563 -0.04595735 -0.09429366
000130 ea 62 59 bd c0 27 79 bd c1 5f c4 3b 82 d0 28 bd
       -0.053072847 -0.060828924 0.00599286 -0.041214474
000140 34 6b f2 3c 19 07 cf bd d1 10 4e 3d bd 0c 2b 3d
       0.029592134 -0.10108776 0.050309006 0.041760195
000150 64 61 b1 bd 6b 44 e7 bd 92 ab 64 bd eb 03 9f bd
       -0.08661154 -0.112923466 -0.055827685 -0.07764419
000160 a1 b0 41 bd 01 9f 8b 3d e2 db 65 3d 25 4d a1 bd
       -0.047287587 0.06817437 0.0561179 -0.07876042
000170 05 77 54 bd 3e cd 52 bd 7b e8 79 bd 3e 76 a0 bc
       -0.05187132 -0.051465265 -0.061012726 -0.019587632
000180 ff bf b0 bd 52 d2 91 bd 0a a4 93 bd 28 97 4d 3b
       -0.0863037 -0.071201935 -0.07209022 0.0031370614
000190 95 4c 20 3d a5 4d 9d 3c 3c 8c 47 bd 08 6e 23 3d
       0.039135534 0.019202063 -0.048717722 0.039899856
0001a0 14 87 9a bd dc d6 dd bd f2 11 10 bd 6a ff b1 bd
       -0.07545295 -0.10831997 -0.035173364 -0.086912945
0001b0 1b db 64 3b f2 7b 88 3c 7f 7f b6 3c 7f 14 63 bd
       0.0034920636 0.016660664 0.022277592 -0.05543947
0001c0 84 02 12 3c 66 60 2b 3d b8 be 2b 3d 88 45 5c bd
       0.008911733 0.04183998 0.04192993 -0.053777248
0001d0 aa e6 a9 bd d0 9a 92 bd 60 a1 e4 bd ef 7e c0 3c
       -0.08295949 -0.071584344 -0.11163592 0.023498027
0001e0 99 6a cb bd 4e 7f 49 3d 8b 2b d7 bd 4f 68 35 bd
       -0.09932441 0.049193673 -0.10506352 -0.04428893
0001f0 a1 34 a3 bd 94 8b c2 3c 08 f1 ef bd d1 52 75 3d
       -0.079690225 0.023748197 -0.11715895 0.059893433
000200 a5 4d 37 bd bc 87 6f 3d 3d a1 4a be 8e f0 1e 3d
       -0.044751782 0.058479056 -0.1978807 0.03880363
000210 5b 56 93 bd 5d 7a c2 bd f7 7f e2 bd c0 25 6c bd
       -0.071942054 -0.09495995 -0.110595636 -0.05765319
000220 30 90 2a bc 74 73 a4 bd 29 3e bc bb 1f eb e3 3c
       -0.010410354 -0.080298334 -0.0057447148 0.027822075
000230 b4 a6 b0 bc a6 f7 e1 bd bc 3b a6 3d ae 95 ac 3c
       -0.021563865 -0.11033563 0.08116862 0.021067467
000240 fb 6f a3 bd bc 8d 6f 3c 66 26 88 bd 15 f6 98 bc
       -0.07980343 0.014621194 -0.06647949 -0.018672029
000250 d1 22 ca bd 07 eb 5f bd e8 c8 d1 bd 30 fe 14 3d
       -0.09869922 -0.0546675 -0.10243398 0.036375225
000260 09 66 a8 bc f9 ef 7b 3d 32 68 95 3d 75 0a 2d 3c
       -0.020556467 0.061508153 0.07295264 0.010561575
000270 cf 94 b8 bd d2 9c 18 bc 36 c3 ec bc dc 3a e8 bb
       -0.09012758 -0.009314733 -0.028901678 -0.0070870947
000280 97 cd 3b bd d0 ae 9f bc ed 18 05 bb 7c 55 58 bd
       -0.045850363 -0.019492537 -0.0020309046 -0.0528159
000290 df 8d 9f 3d 10 10 11 bd 7c 66 37 3b f8 40 c1 bb
       0.07790732 -0.03541571 0.002798467 -0.0058976375
0002a0 2a 53 cd bc 38 e3 0a 3c 60 0c 56 3d f2 a7 d0 bd
       -0.02506407 0.008477025 0.052257895 -0.10188283
0002b0 a6 24 58 bd 71 82 9a 3d 78 e9 7e 3d 01 a9 82 3b
       -0.052769326 0.07544411 0.062234372 0.003987432
0002c0 11 a4 70 bb 7a 99 5d 3c 80 03 08 3d a0 c7 1f be
       -0.0036718885 0.013525361 0.033206463 -0.15603495
0002d0 ef 7e 90 bd 81 6b 86 3c cd 3f 21 3d 00 1f 33 3d
       -0.07055461 0.016408684 0.039367486 0.043730736
0002e0 33 1a 80 bc 50 e1 77 bc a2 d7 cb 3b 75 2c 2c bd
       -0.015637493 -0.015129402 0.006220774 -0.042034585
0002f0 e8 ea 4a bc e0 54 2d 3d cf 49 b5 bd 05 af a1 bc
       -0.012385108 0.04231727 -0.088519685 -0.019736776
000300 f3 11 c4 bd d6 d5 ba 3d ce ba b2 bd 22 48 c7 bd
       -0.09573736 0.09122817 -0.087270364 -0.09730555
000310 04 4e 28 3d 87 d4 3a bd 27 18 01 be dd b0 b6 bd
       0.041090026 -0.045612838 -0.1260687 -0.08920453
000320 12 e0 95 bd 40 e8 47 bd 3a 69 7f bd 8c 16 bb 3c
       -0.07318129 -0.048805475 -0.06235621 0.0228379
000330 93 24 e1 bd 66 1a 8e bd 39 a7 9e 3d 5e 98 8e 3b
       -0.10993304 -0.06938629 0.07746739 0.0043516597
000340 f9 5d 91 3d 53 c1 82 b9 0e 16 a3 3d d0 3f 17 bd
       0.07098002 -0.0002493957 0.07963191 -0.03692609
000350 a5 fe 8b ba 88 c6 08 be fc 56 9f bd eb 29 5d bd
       -0.0010680748 -0.13356984 -0.07780263 -0.053995054
000360 ce e7 a8 3c 8c 47 1c bd 93 50 58 3d 81 28 07 3d
       0.020618346 -0.03815417 0.052811217 0.032997612
000370 83 48 1e be 60 03 88 bd e7 be 6b bd b1 09 d9 3b
       -0.15457349 -0.06641269 -0.057555106 0.0066234698
000380 80 9b 02 bd c2 a8 c6 bd d5 d5 0e 3d e7 70 80 bb
       -0.031886578 -0.09700157 0.034871895 -0.003919709
000390 5e 4f 9e 3c bd 75 89 bd 49 69 63 bd ae a4 06 bd
       0.019324955 -0.0671191 -0.05552033 -0.032871895
0003a0 8a 5c 00 be 2a f5 b3 ba 5c 9b 02 bd 84 96 d1 bb
       -0.12535301 -0.0013729681 -0.031886443 -0.0063961167
0003b0 99 21 28 3d 28 fd db bd 9e 08 a0 3d 49 83 06 3d
       0.041047666 -0.10741645 0.078141436 0.032840047
0003c0 91 48 89 bd da 75 44 3d 06 55 0b 3c fd 6c 87 bd
       -0.06703294 0.047963955 0.008504158 -0.06612585
0003d0 75 c4 1b 3d 84 ab 58 3d 7b d8 32 bd 71 4d bb bd
       0.038029153 0.052897945 -0.043663483 -0.0914563
0003e0 9d bd 9f bd 3c 0d a2 bd d6 c5 c0 bd e4 91 a3 3d
       -0.07799838 -0.079126805 -0.09412734 0.07986811
0003f0 72 f7 c4 bd 09 b6 fd 3c 20 ee c7 bd fb f0 2e bd
       -0.09617509 0.03097059 -0.097622156 -0.042710286

fc2.bias f4 [128]
000000 aa db 98 3c d6 43 57 3d 73 dd 54 3d 9a 13 c3 bb
       0.018659431 0.052554928 0.051969003 -0.0059532644
000010 57 c8 02 3d 4d a5 f0 3d 1c 39 b7 3d 61 01 a4 bd
       0.03192934 0.117502786 0.089464396 -0.080080755
000020 b7 ff e6 bc 1d 57 cb bc 75 8d d2 bb 53 1f 38 bd
       -0.028198106 -0.024821812 -0.0064255544 -0.044951748
000030 86 14 1c bd 39 24 19 3e 05 60 88 bd e9 fa 04 bb
       -0.03810551 0.14955224 -0.06658939 -0.0020291156
000040 be 0e 75 bc 46 ea 73 3c 26 a2 0b 3d 64 04 79 3d
       -0.014957128 0.014887398 0.034090184 0.060795203
000050 57 6b df 3d 81 ce 6c bd 5e 81 eb 3c 5c 5a df bd
       0.10909145 -0.057814125 0.02874821 -0.109059066
000060 ea 9d e4 bd a3 09 cb 3d 95 a1 91 bd fd 80 51 3d
       -0.11162932 0.099139474 -0.071108975 0.051148403
000070 89 83 1b bd f5 8f 30 3e 8f cf 00 be 59 b2 88 bd
       -0.03796724 0.17242415 -0.12579177 -0.06674642
000080 b2 c2 12 3d 08 69 40 3e 04 c8 48 3e 19 cb 6a 3d
       0.035830207 0.18790066 0.1960755 0.057322595
000090 26 5c 17 3b ba 77 9b 3c 31 54 e7 3c 18 a3 2e be
       0.0023095696 0.018977989 0.028238388 -0.17054403
0000a0 fa 0e f4 bd 59 10 2a be ed 3c 0a bd 0c 57 bd 3d
       -0.11916919 -0.16607799 -0.03374951 0.092451185
0000b0 7c 6c 96 3d f0 0e a7 3b 53 ca 94 bb 7b 8e a0 bd
       0.073449105 0.0050982162 -0.0045407205 -0.07839676
0000c0 58 1d ad bd ff a2 e2 3c b1 67 81 bd 4c 30 3e bd
       -0.084528625 0.027665613 -0.06318606 -0.04643278
0000d0 28 d6 5d bd 33 9e 6f bc 5a 50 47 3d 2d ce ab 3d
       -0.054159313 -0.01462512 0.048660614 0.08388934
0000e0 2b f8 66 3d e4 4f df bd 04 27 6b 3d 4b 6a 0d 3d
       0.056389015 -0.1090391 0.057410255 0.034525197
0000f0 1e 9a ae 3d d6 b7 94 3c d0 bb 34 be 4a 3b ed bd
       0.08525489 0.018154066 -0.1764977 -0.11583574
000100 00 6b b7 3d 3d 7d b4 bd 7d d7 05 be b0 da 7f bd
       0.089559555 -0.0881295 -0.13070484 -0.062464416
000110 b8 56 f0 3d 6c db 63 3d 34 3e c0 3d d2 6d fe bd
       0.1173529 0.05562918 0.09386864 -0.1242329
000120 ec 8b bb bd 46 20 5b 3d 8b 70 c7 3d d9 03 9e bd
       -0.09157547 0.053497575 0.09738263 -0.07715578
000130 38 76 ab bd c8 fc 28 3e df 64 a0 3c 20 f7 17 bd
       -0.08372158 0.16502678 0.01957935 -0.03710091
000140 22 c2 b2 bd 26 b2 fb 3d 5a 0a 68 3d 9c 1f ad bd
       -0.08728434 0.122898385 0.056650497 -0.08453295
000150 76 36 54 3e 4e 50 8e 3d 20 d3 35 bd e2 f4 bc 3d
       0.207239 0.06948911 -0.044390798 0.09226395
000160 f6 8e 2c 3d 46 6e bd 3d 48 2e 6a bd 14 50 ae 3d
       0.042128526 0.092495486 -0.057173043 0.085113674
000170 6c 85 24 3d fb 35 5f 3c 68 dd cc bd 97 7c 2a be
       0.040166304 0.01362371 -0.100031674 -0.1664909
000180 27 ba ca bd e1 45 17 3d e6 dd 4e bd 6a 32 39 3d
       -0.09898787 0.036931876 -0.050504588 0.045214094
000190 71 7c dd 3d 61 b7 7b 3d 4b 7a 67 3d 2d 58 53 bd
       0.10814751 0.06145418 0.056513112 -0.051597763
0001a0 f4 6d 23 bd 7a a2 73 3d 73 25 57 bd 4b c1 10 3d
       -0.03989978 0.05948112 -0.05252595 0.03534059
0001b0 25 88 4b 3d be 0a ad bd 0b 24 88 bd ec ff 64 bd
       0.049690384 -0.084493145 -0.066475 -0.05590813
0001c0 a4 3c 81 3d 54 ff 74 3d bc 4b c0 3a 3f ae ea 3d
       0.063103944 0.059813812 0.0014671008 0.11459016
0001d0 f3 f6 2f 3d 3b 98 15 3e 72 3a ea bb d4 29 13 bd
       0.04296012 0.14608853 -0.0071480805 -0.035928562
0001e0 18 7a cd bd 6e c8 7f 3d 5d da cd 3c e8 ba bd 3d
       -0.10033053 0.062447004 0.025128538 0.09264165
0001f0 8d ce f4 3c a7 66 f7 3d 38 1b e2 3d 63 86 d7 3d
       0.029883647 0.12080126 0.11040348 0.10523679

fc3.weight f4 [64, 128]
000000 5a c4 87 3c d1 e1 60 bd ea b7 84 bd 84 48 57 bd
       0.01657312 -0.054902855 -0.06480391 -0.05255939
000010 6c b0 82 bd 53 f4 89 bd 92 37 37 3d 84 8d 7b 3d
       -0.06381306 -0.06736054 0.04473073 0.061414257
000020 44 fc b4 bc be 22 e5 3c e0 ab 49 bd 20 a7 49 bc
       -0.022092946 0.027970668 -0.04923618 -0.012307912
000030 4c 4d ed bd 04 4f 82 bd 83 96 6d bd e1 96 3b bd
       -0.11587009 -0.06362727 -0.058004867 -0.045798186
000040 f8 64 99 bd 84 41 ad bc 35 c4 cd 3a 20 47 78 bd
       -0.074899614 -0.021149404 0.0015698733 -0.060614705
000050 e9 9a e6 bd b1 7f 6d bc 5d 3c b6 bc e9 11 98 bd
       -0.112600155 -0.014495776 -0.02224558 -0.07425291
000060 11 16 d8 bc 85 d4 f0 bd 1d 61 17 bc fb 2a 71 bd
       -0.02637771 -0.11759285 -0.009239462 -0.05887888
000070 81 5b 70 3c 52 9a 04 be e1 37 36 3c 44 9e 2a bd
       0.014670254 -0.12949494 0.011121721 -0.04165484
000080 0b 76 bd bd 9d b4 fc 3b 88 69 cc bc 54 91 25 bd
       -0.092510305 0.0077119605 -0.024952665 -0.0404218
000090 65 89 97 bb c6 e6 32 3b 1a d6 a4 bd 32 f8 dc 3c
       -0.004624533 0.0027298196 -0.08048649 0.026973817
0000a0 84 d3 6b 3d 00 7d 84 bd 65 fd 22 3c 28 6f a0 bc
       0.057574764 -0.06469154 0.009948109 -0.019584253
0000b0 3c 5d b2 bc e7 d9 69 bd d6 62 b8 bd 64 8d 82 bd
       -0.021772973 -0.057092573 -0.090032265 -0.06374624
0000c0 f5 9c 02 bd f3 41 3a 3d 1b b9 a4 3c cb 64 d1 bb
       -0.031887967 0.04547305 0.020107796 -0.0063901893
0000d0 e3 60 0a bc a5 0a 29 bd 16 50 80 3d d9 18 03 3d
       -0.008445951 -0.041269917 0.06265275 0.03200612
0000e0 04 94 0b bd e8 f2 5a bd 2d 23 2d bd dd 43 91 3c
       -0.034076706 -0.05345431 -0.042269874 0.017732555
0000f0 0f 46 b9 bc 98 f2 82 3d 2a 36 e0 3c 69 90 9e bd
       -0.022616414 0.06393927 0.027369577 -0.07742388
000100 f6 ed f1 bb 38 92 ef bc 60 a0 9c bd 1d f4 c7 bd
       -0.0073831035 -0.029244527 -0.076477766 -0.09763358
000110 b6 a7 17 bb 69 7a a3 bc f3 2d 66 3d 0b 8f ae 3d
       -0.0023140735 -0.01995583 0.056196164 0.08523377
000120 8c 53 b1 bb 70 3b c6 bd 54 a4 8d 3d 99 38 7b 3c
       -0.005411571 -0.096793056 0.06916109 0.015333318
000130 d6 1b 73 bd 22 37 5a bd 26 5d 01 bd 24 a1 8e 3d
       -0.05935272 -0.053275235 -0.031582974 0.06964329
000140 4f 53 c1 3c d7 56 7a bd 82 2e c0 bd 30 b7 cf bd
       0.023599295 -0.061117973 -0.09383871 -0.10142362
000150 8d 11 9b bd d7 90 6e bd fb 75 e4 bd f4 71 ec 3a
       -0.07571707 -0.0582436 -0.111553155 0.0018039332
000160 6d c2 b2 bd 84 7c c3 bd c8 9f b1 bc 74 25 92 bb
       -0.0872849 -0.09545234 -0.021682635 -0.004460031
000170 3d 0d 6c bd b1 46 3b 3c 1e 7d 7c bd 33 b6 80 3c
       -0.057629813 0.011430428 -0.06164276 0.01571188
000180 d3 d3 c4 bc 05 a1 2a bd 19 f5 89 bd b0 1d 73 bd
       -0.024026787 -0.041657466 -0.06736202 -0.059354484
000190 ed b3 ef bc 03 3d 00 bd 84 4e 61 3c 8c d6 44 3d
       -0.0292606 -0.031308185 0.01375163 0.04805617
0001a0 b7 9e a9 bd 8f 9f 1b bd 5b 6f 14 bd 55 e0 6d bd
       -0.082822256 -0.037993964 -0.03623901 -0.058075268
0001b0 e2 17 a2 bc fc 40 be 3b 1d ae 07 3d c2 93 de bd
       -0.019786779 0.0058060866 0.03312503 -0.10868026
0001c0 37 77 9b bd a2 eb c0 bd e9 ee 60 bc ab 72 34 3d
       -0.07591098 -0.094199434 -0.013728836 0.04405467
0001d0 a1 c1 50 3c 20 fd 21 3c c8 7b ba 3b 36 6d 58 3d
       0.012741477 0.00988701 0.0056910254 0.052838527
0001e0 f5 71 a9 3b 5b 21 e5 3c 71 ac ef bd e5 54 2f bd
       0.0051710554 0.027970007 -0.117028125 -0.04280557
0001f0 19 e8 08 3d a5 36 5c bd dd e5 20 3d 49 33 2b bd
       0.03342447 -0.05376305 0.039281715 -0.041796956
000200 a4 50 94 bd a8 7e 51 bd ff 0a 12 bd 46 be 31 bd
       -0.072419435 -0.05114618 -0.035655018 -0.04339435
000210 e6 32 24 bd 9d d5 5d 3d c4 95 c8 bc 80 bb 96 bd
       -0.040087603 0.054158796 -0.024485476 -0.073599815
000220 a8 b1 db 3d 63 31 c5 bd 0c 0d 24 3d d4 4e ae bb
       0.107272446 -0.096285604 0.040051505 -0.0053194556
000230 c9 0f 0b bd 64 a2 b2 bd b5 be 43 bd 82 e0 a9 be
       -0.0339506 -0.0872238 -0.047789294 -0.33179098
000240 f0 4c 53 3b d6 1b ae bd 18 19 91 bd 4a cf 09 3d
       0.0032241903 -0.08501403 -0.070848644 0.033644952
000250 99 fe 96 be 9a 78 a1 3c 35 61 0c 3d 4e 95 36 bd
       -0.29491118 0.019710828 0.03427239 -0.04457598
000260 94 17 a1 3d d7 11 a2 3c cb 7b fa bd ce 07 b4 bb
       0.07865825 0.019783897 -0.12230643 -0.0054940945
000270 4e 71 61 bd 86 df 34 bd 4c 31 57 bd 75 36 49 bd
       -0.055039696 -0.04415848 -0.052537248 -0.0491242
000280 08 17 5a bd 8b 8d b7 3c ca 9f eb bd b7 5a fd bd
       -0.05324462 0.02240636 -0.11505087 -0.12370818
000290 bd f7 3b 3c fd a2 b2 3d 15 51 a4 be 6e bb 11 3d
       0.01147264 0.08722494 -0.3209311 0.035579138
0002a0 9f 49 89 3d c1 c2 ae 3d e1 01 a0 bd cd 48 5d bc
       0.06703495 0.0853324 -0.078128584 -0.013506127
0002b0 01 95 08 3d 39 02 b7 bd 48 5b 28 be 5e 40 6f 3c
       0.033345226 -0.08935971 -0.16441071 0.014602749
0002c0 b2 24 37 3d c9 f5 39 3c da b3 57 3d 7b 73 41 bd
       0.04471273 0.011350104 0.052661754 -0.04722927
0002d0 89 ee a0 bd fe 6b 08 bd de 61 f0 3c bc 21 01 3e
       -0.07857997 -0.033306114 0.029343542 0.12610525
0002e0 2f d9 3b 3d a7 4f 04 3c c7 9f dd 3c 19 0a 75 be
       0.04586142 0.008075631 0.027053727 -0.23929633
0002f0 c4 78 7e bc 51 c8 9d bd b8 d5 0b bd 52 ea d4 3b
       -0.015531722 -0.07704223 -0.034139365 0.0064976597
000300 ca 67 0f bc e4 b4 19 bd b3 4c f8 bc 91 d5 69 bd
       -0.008752773 -0.037526026 -0.03031001 -0.05708844
000310 d0 0c 63 be a9 6a 60 bd 70 43 79 3c fa 1f 90 3d
       -0.22172856 -0.05478922 0.015213832 0.07037349
000320 d3 d1 07 3e 96 66 4a bd 94 17 37 bd d0 7f 06 3d
       0.13263635 -0.04941424 -0.04470022 0.032836735
000330 ce 8b 1c bc a6 f5 6c bd 11 ce 3c 3d a2 8b 86 bd
       -0.009554816 -0.057851456 0.046094958 -0.065696016
000340 0c 70 13 bd a5 73 2f bd 08 fc 64 bc 7f 57 9c bd
       -0.035995528 -0.042834897 -0.013976105 -0.07633876
000350 d5 5e 77 be a9 67 19 bd ca da cb 3d 22 52 9a bd
       -0.2415727 -0.037452374 0.0995384 -0.07535197
000360 4e f5 e1 3d c9 6f f4 3c 25 1d b8 bd e3 28 62 bd
       0.11033116 0.02983846 -0.08989934 -0.055214774
000370 9c 01 91 bd 29 fe af bd 33 c4 9b 3d 4b 54 12 3c
       -0.07080385 -0.08593399 0.076057814 0.00893123
000380 91 e3 d9 bd 00 aa 99 be cc 3a 4f bd 84 91 b9 3d
       -0.10639108 -0.30012512 -0.050593182 0.09060958
000390 6e 00 2f be 11 73 45 bd dc b7 a1 bd 60 2a 0b 3d
       -0.17090008 -0.04820544 -0.078963965 0.03397596
0003a0 78 0e cf 3c 69 3d 13 bd f5 96 50 3d fe 90 93 bd
       0.025275454 -0.035947237 0.050925214 -0.072053894
0003b0 62 e8 9c 3c a5 8b 3d bd 2d 0a a2 bc 40 86 c6 bc
       0.019153778 -0.046275754 -0.019780243 -0.024233937
0003c0 e9 db 94 bd 9f c0 81 bd 8d 06 96 bd 28 c4 37 3d
       -0.07268507 -0.06335568 -0.07325468 0.044864804
0003d0 e6 0d b0 bd c7 e4 9b bd 3f ce 89 bd 40 a6 3f 3c
       -0.08596401 -0.07611995 -0.067287914 0.011697352
0003e0 e5 dc ed 3c 2f 9b 9f be f5 ef ba bd e7 0a bd 3b
       0.029035995 -0.31173083 -0.091277994 0.005769122
0003f0 d0 bc 18 bb 8d 09 17 bd cc e3 0d be 49 27 4c be
       -0.00233059 -0.036874343 -0.13856429 -0.19936861

fc3.bias f4 [64]
000000 c6 46 bc bd ad 29 00 be a9 15 c5 3c dd 02 06 3e
       -0.091931865 -0.12515898 0.02405818 0.1308703
000010 d9 ec 24 3d 4e 14 a0 bd 3f 95 06 be 38 05 6d 3c
       0.040264938 -0.07816373 -0.1314287 0.014466576
000020 df 11 90 bd d6 4b 51 bd ed 42 c2 3d d6 8d fa 3c
       -0.07034659 -0.051097713 0.09485421 0.03058521
000030 14 83 8f bd 46 1b e3 3d 48 95 0a be d6 3d a7 3c
       -0.07007423 0.11089186 -0.13533509 0.020415228
000040 96 f7 34 bd 02 4a 80 bd fd 4d 7c bd b9 fc 93 3d
       -0.04418143 -0.06264116 -0.061597813 0.072259374
000050 05 0f 9b bd 5a 02 5c bc 87 05 18 3d 41 53 8f bd
       -0.07571224 -0.013428295 0.037114646 -0.06998301
000060 29 f7 05 bd 3a 85 34 3d 9c 69 7c bd 43 76 98 bd
       -0.032706413 0.044072367 -0.061624154 -0.07444432
000070 3a 59 86 3d ea 13 a7 3b 28 29 cd 3d cc 3a ca 3d
       0.06559987 0.0050988095 0.100176156 0.09874496
000080 c6 41 a1 bd 2b a7 a2 3d 95 9f 26 3e de 29 0a 3e
       -0.078738734 0.07942041 0.16271813 0.13492534
000090 d6 03 f5 bb 3d f4 5c 3c 90 ea 70 3e 36 93 af bd
       -0.007477264 0.013485965 0.23526978 -0.08573
0000a0 22 b0 6d bd cc 76 05 bc c3 69 c7 3d ad 83 1d 3e
       -0.0580293 -0.008145999 0.09736969 0.15382262
0000b0 4d 4f 7c bd 3b 0f 8f bd e6 c8 44 bd 6c 9a 2b 3c
       -0.061599065 -0.06985327 -0.048043154 0.010473829
0000c0 3b f6 8f 3b 9b 1e 1c 3d 8c 04 78 3d 2a 57 ca bd
       0.0043933666 0.038115125 0.06055121 -0.098799065
0000d0 f0 42 49 3d 1f e5 bd 3d 54 14 b9 39 73 8e 19 be
       0.049136102 0.09272217 0.00035301095 -0.14995746
0000e0 79 5b 0d 3e 14 3b 1f be 6b e3 08 3d c3 5f 2e 3e
       0.13804425 -0.1554988 0.033420008 0.17028718
0000f0 d2 5c dd 3c 9d f8 c1 3c 3b ac 58 bd 7d 4a 9f 3b
       0.0270218 0.023678118 -0.052898627 0.0048611746

fc4.weight f4 [2, 64]
000000 00 08 08 bc f6 16 9e 3d ea f6 50 3c 9f ad 08 3e
       -0.008302689 0.07719223 0.012754181 0.13347481
000010 12 de 0d 3f 93 e9 ce be 7f 97 23 bd 28 07 98 3d
       0.5541698 -0.40412578 -0.0399394 0.0742324
000020 17 8e e9 3d 46 a7 fd bd b5 1c 6b bd 06 ad f4 3d
       0.114040546 -0.123854205 -0.057400424 0.11947064
000030 02 a6 94 bc ae a0 d3 3d bf 1c f2 3c 9d 3a c7 3e
       -0.018145565 0.103333816 0.029554723 0.38911906
000040 46 c5 a6 3c 5a d4 99 bd a2 00 d2 3a f7 3d ac bc
       0.02035774 -0.07511206 0.0016021917 -0.02102564
000050 4e 05 21 bd 39 37 a6 3c db e4 ce 3d 18 9d cc bd
       -0.0393117 0.020290004 0.101022445 -0.09990901
000060 79 ed 83 3d 77 45 29 be d6 1a 31 bb dd 4b fc 3d
       0.06441779 -0.16530405 -0.0027024052 0.12319157
000070 cc 87 ff 3d 6c eb 6d 3e 15 a2 4e 3d ef c1 98 3e
       0.12477073 0.23234338 0.050447542 0.2983546
000080 ee 19 a3 bc a0 6d 8d 3d c1 1d 04 3f d6 cc 22 3e
       -0.019909825 0.06905675 0.516079 0.15898451
000090 49 19 24 3e d0 65 a6 bd ba f2 34 3e 79 61 93 bb
       0.1602527 -0.08124888 0.17670718 -0.0044977036
0000a0 47 c4 7b bd fe da 3f be 45 07 09 3e 9a 08 3a 3e
       -0.06146648 -0.18735883 0.1338168 0.18167344
0000b0 67 dc 04 3e a6 8d 96 bd bf 19 12 3e b8 46 cb be
       0.12974702 -0.07351236 0.14267634 -0.39702392
0000c0 ac c2 89 3c 39 c6 94 be 8d 4c b0 3c e5 63 80 bc
       0.01681646 -0.29057482 0.021520877 -0.015672633
0000d0 90 0c ca be 82 7f 54 3e 62 16 07 3e 11 e9 0a be
       -0.3946271 0.20751765 0.13192132 -0.1356547
0000e0 8d c0 60 3e 4d c1 8d bd a9 d1 8e 3e 36 9f a8 3e
       0.21948452 -0.06921635 0.27894333 0.32933968
0000f0 5a 16 83 3e c0 62 8a be e7 2b 08 bd c6 da e5 bc
       0.2560299 -0.27028465 -0.033244994 -0.02805842
000100 40 84 aa bc 50 fc 32 bc 08 81 ce bd 98 2c 87 bd
       -0.020815015 -0.010924414 -0.100832045 -0.066003025
000110 76 83 b6 3d 78 d6 8f 3d 48 c7 27 bd aa d3 8b bd
       0.08911793 0.070233285 -0.040961534 -0.06827481
000120 ce 9a b7 3d 20 4d b7 bd cc ea 43 bd 30 74 9c 3d
       0.089650735 -0.08950257 -0.04783134 0.076393485
000130 80 2b 31 bd e4 f2 b6 bd ba b8 f6 3d 46 0d f1 3d
       -0.043254375 -0.089330465 0.120469525 0.1177011
000140 1e 39 bb bd 9e 4b 8f 3d 6c e8 0d bd 80 4c bc 3d
       -0.091417536 0.06996845 -0.034645483 0.09194279
000150 cc da 25 bd 98 47 f4 3d 1c cf 35 3d 78 0e c4 3c
       -0.040491864 0.11927718 0.044386968 0.02393268
000160 88 52 b6 bd 02 46 a6 bd 84 86 00 3d 58 05 68 3d
       -0.0890246 -0.08118822 0.031378284 0.05664572
000170 78 98 83 3d 3a 42 8f 3d 7c 6d d3 3d 06 a5 c7 bd
       0.064255655 0.069950536 0.10323617 -0.097482726
000180 50 b5 38 bd de ce a8 3d 68 50 85 bd 32 dc cd 3d
       -0.045094788 0.08242582 -0.06509477 0.100517645
000190 ec 5f 16 3d fa 28 e3 bd 3c 75 0d bd 74 33 62 3d
       0.036712572 -0.110918 -0.03453563 0.05522485
0001a0 20 0a 93 bd 68 1a d8 3d 08 a7 ab bc f0 72 80 3c
       -0.071796656 0.105519116 -0.02095367 0.015679806
0001b0 74 84 cd 3d 38 9d b8 bd d8 f7 f7 bd 92 68 c7 bd
       0.10035029 -0.09014362 -0.12107819 -0.09736742
0001c0 40 1e df bd 80 e4 f4 3d 3c 31 e7 3d 1c 45 41 bd
       -0.108944416 0.119576454 0.112886876 -0.04718505
0001d0 b8 99 15 bd 48 60 c2 bc 12 13 d1 bd f0 e3 09 bd
       -0.03652355 -0.023727551 -0.102087155 -0.033664644
0001e0 34 9d 8b 3d 42 bf e0 bd 8c 44 45 bd ba 44 f9 bd
       0.068170935 -0.109739795 -0.048161075 -0.12171312
0001f0 26 7f fb 3d e8 35 b8 3d c4 29 16 3d 98 a6 b5 bd
       0.12280111 0.08994657 0.036660925 -0.08869666

fc4.bias f4 [2]
000000 5f ab 89 3d 7e 5e e7 3d
       0.067221396 0.1129732
