src/python/services/models/comparison_1000ep_dqn/best_pointwise_dqn.pt (torch, 131780 bytes, 7 tensors)

fc1.weight f4 [128, 56]
00000000: cd3c e73d 9c30 8fbd d94e a3bd c211 ebbd
00000010: 6f6f ed3d 0d71 a4bd 85ad 00be f6e1 cf3d
00000020: 96ca 763d d7ea 3bbd 4287 80bd b2a9 e53c
00000030: 23a2 bbbd caec f43c e7c0 c33d 09d0 d8bd
00000040: e28e 00be 90c2 9abd 8bdf 34ba efea 16bd
00000050: b175 c33d 4eb0 343d 43a4 da3d d054 c1bd
00000060: 74c6 2ebd 2999 07bd b177 d03d 2984 5ebd
00000070: bfd8 d2bd 5fa7 2fbd 1708 033d 5279 fe3d
00000080: 778b 603d 6109 78bd 3a4d 20bc 8c0d a63d
00000090: ffe3 1abd 22e3 74bd 3b40 073e d66a 9dbd
000000a0: 3a65 e73d 7cee d4bd aa87 053e f2ad a7bd
000000b0: 9011 6c3d 621d 93bd 808b e33d 87ce 033e
000000c0: 6db4 cfbb e47d bfbc 2b1a 1cbc 2e3d a73d
000000d0: fd31 ea3d df75 a73d b876 e5bd bfa6 2cbd
000000e0: e9e9 fd3c e6a6 d03d 754e 35bc bc96 ed3d
000000f0: f462 f53c adba 9c3d e3ec be3d 1189 fdbd
00000100: 22ca 803d d9d7 583d 8b4b b23d b511 c7bd
00000110: 8c0b cb3d 5eea 16bd f4ff 7c3d 7997 933d
00000120: b62c ddbd e0f8 e63a e14a 623c 9c65 80bd
00000130: 8eae ea3c 3fd5 d7bd 1427 953a ed2d 013e
00000140: 2271 1d3d 1ae2 40bd 7bd7 81bd 7b1e da3d
00000150: c29f 3cbc 5f5d 173d f8bc e0bd 2a44 2ebd
00000160: d149 8abd dfa7 d23d 1e28 f3bc 9d57 ea3d
00000170: a196 73bd 2517 443b f1d8 73bc 017c 7abd
00000180: fd0e 663d 6e44 d0bd f42b f13d 06d3 a8bd
00000190: 872f b73d 4580 03be 6d7b 063e 770f ee3d
000001a0: 3e4c d53d 28a7 873c e676 073d f757 87bd
000001b0: e610 b9bc d840 cfbd 80f4 8cbd 4af1 cd3c
000001c0: 189f 0fbd eea8 1fbd be29 80bd 2f21 9bbc
000001d0: 7d59 7dbd 62f2 e43d 006a 06bd a0e4 e4bc
000001e0: 1799 02be 66c8 b33d d6a4 9f3d 09c2 94bd
000001f0: c4f1 00be 3343 e13d cd6a a3bc c75a 4abd
00000200: b66e 0c3d b027 a0bd 817f ba3d b878 f23d
00000210: 559a b4bd 0369 f63d 3389 d0bd f4ca 2a3d
00000220: eb6b 843c 8810 0bbb 367f fcbd 9e93 ac3d
00000230: 643b a1bd bdd7 f53d b56e 2d3d b82a bb3d
00000240: 5da2 82bd dbdd ebbd d3cd a13d 1c07 f6bd
00000250: 8cec 9f3c 5056 ce3b b663 da3b f530 bebd
00000260: ad42 bcbd 8042 f0bd 36e6 00bb 858b 043e
00000270: e1da 3e3d 2531 ea3c 1f08 a23d ccd0 c3bd
00000280: 829f 4dbc 3d55 00be 0736 32bc f839 923d
00000290: 09f7 d3bd 1fea 2f3c 6394 06be d47f edbd
000002a0: 9c8c d7bd a396 b03c 6b6c 93bd 7016 05be
000002b0: f4a6 babd a644 88bd 0aac 153d 2960 cb3c
000002c0: 73c7 773d 68b2 613c 9733 e4bd 83ae 023e
000002d0: d8c4 dd3d 5d99 f23c 87e0 f93d 90a0 a63d
000002e0: 3d8e 60bd 557a 903d 8ae1 9a3c 62f9 8abd
000002f0: e29b 873d a831 5c3d 478c 01be c91f b5bd
00000300: eb2e d43d 904f 303d 9904 fd3c 8dfc b2bd
00000310: e9d0 913d babc 83bd 15df 9fbd a239 ba3d
00000320: e3ae cfbd 1754 8a3d 3ee5 ba3d 2aef 63bd
00000330: 9d15 5e3c 9a6a 7a3d e343 253d cc85 bebd
00000340: 07d5 5a3c 5a29 fc3d c01d 06bd 0051 7c3d
00000350: 5754 c23d 6010 203d ed17 3d3d 9598 a73c
00000360: d7e9 933d cf4f e63d d214 be3c 3aa7 e83d
00000370: 390e 733c a386 a8bd d288 debd b398 f03d
00000380: 971a fbbd 5e04 a1bb 6a3c 683d 79c0 2dbd
00000390: 8eb6 a93c 5701 85bd 36d2 bebc b09a 9fbd
000003a0: 9bad 9cbd b650 523d 6053 383b 9cc9 a1bd
000003b0: fa4c d5bc 7e88 313d 0918 00be ee7e 283d
000003c0: 88f9 c43d 3f3b 113d 1a8c 1a3d 3418 c13c
000003d0: 7e12 583d 20a6 f53d 4450 b7bb 081b ecbc
000003e0: 1139 7d3d c93b ca3d ee74 4ebd 27b8 debd
000003f0: 4ce0 af3c 95c7 1f3d 1597 a23d 9d22 053e
0.11290894 -0.069916934 -0.07974023 -0.114779964 0.1159352 -0.08029375 -0.12566192 0.101505205
0.060251795 -0.045878258 -0.062757984 0.028035019 -0.091617845 0.029898066 0.095582776 -0.105865546
-0.12554505 -0.07556641 -0.00068997656 -0.036845144 0.09543932 0.04411345 0.10675862 -0.09440005
-0.04266973 -0.03310505 0.10179079 -0.054325256 -0.10295247 -0.042884227 0.031990137 0.12425484
0.054820504 -0.06055582 -0.009784037 0.081080526 -0.03781509 -0.059786923 0.13208096 -0.07686393
0.11298604 -0.1039705 0.13040033 -0.08187474 0.057633936 -0.07183339 0.11110592 0.12871753
-0.006338647 -0.023375459 -0.009527723 0.08165966 0.11435316 0.08176779 -0.112042844 -0.04215121
0.030995326 0.10188083 -0.011066069 0.11601016 0.029954411 0.07652793 0.09322526 -0.12379659
0.06288554 0.052940223 0.08705815 -0.09720174 0.09914312 -0.036844604 0.061767533 0.072066255
-0.107995436 0.0017621778 0.013811798 -0.062693805 0.028647687 -0.1053872 0.0011379444 0.12615176
0.03843797 -0.047090627 -0.06339928 0.10650345 -0.011512699 0.03695428 -0.10973543 -0.042545475
-0.067523606 0.10285925 -0.029682215 0.11442492 -0.059469823 0.0029921022 -0.014883266 -0.061153416
0.056166638 -0.10169302 0.117759615 -0.082433745 0.08944612 -0.128419 0.1313302 0.116240434
0.10414933 0.016559198 0.033072375 -0.06608575 -0.022591066 -0.1011979 -0.06882572 0.02513947
-0.035063833 -0.038979463 -0.06257962 -0.018936722 -0.06185292 0.11179043 -0.032815933 -0.027941048
-0.12753712 0.08778457 0.07795112 -0.07263572 -0.12592226 0.10999145 -0.019948388 -0.04940298
0.03428527 -0.0782007 0.09106351 0.118394315 -0.08818499 0.12031748 -0.10182419 0.041697457
0.01616474 -0.002121957 -0.12328951 0.08426593 -0.07872656 0.120040394 0.042341907 0.09139007
-0.063786246 -0.11516925 0.07900586 -0.12013075 0.019521974 0.0062969103 0.0066647185 -0.092866816
-0.09192405 -0.11731434 -0.0019668466 0.12943847 0.046595458 0.028587887 0.07911705 -0.09561309
-0.012550237 -0.12532516 -0.010877139 0.07139963 -0.103498526 0.010736971 -0.13142543 -0.11596647
-0.10524866 0.021556204 -0.071984135 -0.1299684 -0.09113875 -0.06653719 0.036541022 0.024826126
0.060492944 0.0137754455 -0.111426525 0.12761883 0.108285606 0.029614145 0.12201028 0.081360936
-0.05482315 0.07054583 0.018906374 -0.06785847 0.06621529 0.053758293 -0.12651168 -0.08843953
0.103605114 0.043044627 0.030885981 -0.087395765 0.071199246 -0.06432481 -0.078062214 0.09093024
-0.10140779 0.0675432 0.09125756 -0.055648006 0.013554958 0.06113682 0.040347945 -0.093028635
0.013356454 0.12312575 -0.032743216 0.061600685 0.09488743 0.039078116 0.046165396 0.020458499
0.07222336 0.11245691 0.023203287 0.11360021 0.014834934 -0.08228805 -0.1086594 0.11747875
-0.12260931 -0.0049138507 0.05669824 -0.042419884 0.020716932 -0.06494396 -0.023293596 -0.07793176
-0.076503 0.051346503 0.0028125867 -0.07899782 -0.026037682 0.04334306 -0.12509169 0.041136675
0.09617907 0.035456892 0.037731268 0.023571111 0.05275201 0.119945765 -0.005594285 -0.028821483
0.061822 0.09874684 -0.05040448 -0.10874968 0.021469258 0.039008696 0.07938973 0.13001485

fc1.bias f4 [128]
00000000: 0b7d be3d 6491 863d f55b 2abc a4dc 98bd
00000010: 872e bd3d c13a 983d c469 913d 178c a83c
00000020: 9aff bbbd 42bb f23d 1c5d 063e ffeb f13d
00000030: 4941 c3bd 4f78 cfbd 753f 9dbc f083 033e
00000040: 6841 f73d c035 c63d d3f0 1fbc 73d5 ac3d
00000050: 48fd 41bd 4fc2 44bd 7566 393c 0872 0abd
00000060: 76fa 483d c55a 363d 7f35 02be 9284 09bd
00000070: 90bd edbc 649b 04be 5988 043c 2e10 c2bd
00000080: 3717 1c3d 8cb2 a43d 7ed8 90bb 6341 20bd
00000090: f107 b83c e9cd cd3d 2717 353d 15f6 f63c
000000a0: 6a49 d83d 1b3b bdbc 2525 b1bd a547 1f3d
000000b0: e96e 3abd 5d19 bd3d 3295 803d 0312 e03c
000000c0: 00b6 d3bd 85e4 a83d 0f1c 51bd b49d 9c3d
000000d0: 4ea5 193c 869e e0bc 7c06 f4bd 5a76 053e
000000e0: 8935 83bd cb82 99bc e84c 703d fe0a d3bd
000000f0: eed1 f7bd 02ce aabd 7c04 01be 993a dfbb
00000100: 9e70 f63d e669 23bd c440 cfbc cf1c 6ebd
00000110: e5a1 763d 5438 9c3d a6c0 b1bd 5360 3f3c
00000120: f62e b7bc 90dd 773c b60a b93d 4526 593d
00000130: 4ad5 f23d 91b4 46bc f996 f4bd f57f 553d
00000140: 3c5a 18bd ffa1 07bd 7f2b c43d f950 b9bd
00000150: 0ac2 6c3d 5654 d53d d9ab 97bc 3026 f4bd
00000160: 794b 8ebc 1f3f 973d f755 3dbc 03a4 00be
00000170: 240f 2cbd d895 bf3c ea8a 6c3d 9dee 75bd
00000180: a48c ee3d db1a 08be 5b1d a33d f91e a23d
00000190: 9252 b7bd e5e2 073e ceb5 a4bd 171a 98bb
000001a0: bc01 6fbd a15c 92bd ae4f 82bd 5c3f b63d
000001b0: c6b0 853c a82b e43d f606 dcbd 84fa c4bd
000001c0: 5b8c c43d 7e47 c1bd 4da9 c3bb a5a3 9dbb
000001d0: 1c7f e8bd 4cee db3d 2f12 92bd 1e81 1dbd
000001e0: dd6f 923d a59e 8abd 8558 86bd 9e4d cdbd
000001f0: c2b0 e0bd ff81 063e acc8 fc3d 73ba 953d
0.09301194 0.065707 -0.010397901 -0.07463959 0.0923739 0.074330814 0.07100251 0.020574613
-0.091796115 0.11852123 0.13121456 0.11812591 -0.095339365 -0.10130369 -0.019195298 0.12843299
0.12073022 0.09678221 -0.009762007 0.0843915 -0.04736069 -0.04803687 0.011315932 -0.033800155
0.049066983 0.04452016 -0.1271572 -0.033573695 -0.029021055 -0.12949902 0.008089148 -0.09475742
0.038108077 0.080418676 -0.004420339 -0.039124858 0.022464724 0.1004904 0.044211533 0.030146638
0.105608776 -0.023099473 -0.08649663 0.038886685 -0.04551593 0.09233353 0.06278457 0.027352339
-0.10337448 0.08246712 -0.05105215 0.07647267 0.009377791 -0.02741934 -0.11915299 0.13033429
-0.064066954 -0.018739125 0.058667094 -0.10304831 -0.12100588 -0.08340074 -0.12599367 -0.0068124053
0.12033199 -0.039895914 -0.025299437 -0.058132943 0.06021299 0.07627931 -0.08679323 0.01168068
-0.02236126 0.015128508 0.09035246 0.053015012 0.11857088 -0.012128011 -0.11942858 0.052123982
-0.03719543 -0.033113476 0.09578609 -0.090486474 0.057802238 0.104164764 -0.01851456 -0.11921346
-0.017369973 0.07385086 -0.01155614 -0.12562566 -0.042006627 0.02338688 0.057749666 -0.060042012
0.11647919 -0.13291495 0.079645835 0.07916064 -0.08951296 0.13270147 -0.08042489 -0.004641782
-0.058351263 -0.07146574 -0.06362854 0.088988036 0.016319644 0.11141139 -0.10743515 -0.096180946
0.09597083 -0.09437464 -0.00597111 -0.0048107677 -0.11352369 0.10738811 -0.071323745 -0.038453214
0.071502425 -0.0676854 -0.065598525 -0.1002457 -0.10971214 0.13135527 0.123429626 0.07310953

fc2.weight f4 [128, 128]
00000000: c34e ff3b 4097 14bc 38d4 96bd deef 8cbd
00000010: 2b1e 4bbd f3a2 e2bc 3349 d0bc ab7a 77bd
00000020: 5f2b 0c3d 2cf3 84bc 09e4 9f3d c45f 68bd
00000030: 8e6e 9b3c 94c6 47bd 8086 77bd 02aa e93c
00000040: b26a 1cbd c5be 8abb 1894 ae3d d307 4c3d
00000050: 0c30 18bd 45a7 0ebd 9ab3 ad3c f6fc 5abd
00000060: 4b86 89bd e840 2b3d 39c4 96bd fc96 753c
00000070: 0eff 05bd 5182 6e3d 8c4b 663d 867a dc3c
00000080: d037 5cbc b370 23bd 1043 3e3d 261d 963d
00000090: d433 223c 0d92 6ebb ab41 51bd 90cb b4bd
000000a0: 2a57 d03c 7a42 64bd 3603 933d 29c3 b9bc
000000b0: e419 88bb 363e aa3d 19e9 be3b 51ae 5c3d
000000c0: 6b97 18bd 8a9d 59bd 22a6 aebd 8ad1 adbd
000000d0: f88c 8dbc d1c3 503d 4f99 e3bc f7c0 52bd
000000e0: 8518 473c bc24 33bd 6ffe 033d 8c62 933d
000000f0: e36b 80bd a6b8 9bbd 15c9 2f3d 7dbc 76bd
00000100: 17a4 623d 0798 8fbd abd0 27bd 073e 3dbd
00000110: 6b9c 52bd 0763 0d3b c320 a6bb 5a41 883d
00000120: 3f3d 1bbd e083 44bd 66d4 a8bb e21d 9abc
00000130: 5556 a43c 6ef4 80bd b369 01bd 67ba 823d
00000140: d4af cebb c309 a0bd 271c 0b3d 304e 163d
00000150: 19d6 073a 2f4a 5ebb 5066 8cbd da9b a0bc
00000160: 2d41 543c 02ce e4bc a43c 4dbc 089f ca3c
00000170: 86ef 2cbd b94a 24bd c2af 87bc 0692 733d
00000180: b7cf a73d cdb8 833d 691c a23d 584b 47bd
00000190: 3c55 10bd 1203 87bc 9e0a 913c 13f0 1e3c
000001a0: 536f 4abd 0eb5 063d 2fa6 adbd fccd b43d
000001b0: 6630 36bd 86dc 95bd 7823 023d 74a2 83bd
000001c0: 4ae1 8bbd a991 553d b851 1b3d 9d89 d8bc
000001d0: fc71 803d b256 86bd 4f19 913d 0172 363d
000001e0: ebde 28bb 97c4 713d 6e96 85bd 4f54 16bd
000001f0: 6eca 86bd e6a8 05bb 0370 eb3c 9b1d 253d
00000200: 4f07 0cbc 1066 943d 3eb0 823d 1023 293c
00000210: 2bd4 87bd 7db7 0abd bdd7 8e3d 29ee 40bd
00000220: ed46 6fbd b524 1d3d 70b1 20bc 4574 08bc
00000230: 29c4 afbd c613 a63d 1e55 0bbb 49b5 0bbb
00000240: 9828 3b3d 3328 4bbd c0ea 813d 87b7 8cbd
00000250: 1719 f23c 0f5b 8fbd 5cb1 64bd 9750 953d
00000260: 2009 b1bc 258b a4bc 4c62 53bd 9273 853d
00000270: cc8e 9e3d 4961 88bc d851 a5bd 8e73 203d
00000280: a0ff a43d 795c 3a3d 21b8 883d 8f6a 8cbd
00000290: f924 a0bd e84f 08bd 3360 8f3d be3f 0a3d
000002a0: ea55 933d 9188 8cbd e031 583d 36a6 e8bc
000002b0: 4210 79bd 8b4f 253c 5e43 2e3a a526 073c
000002c0: 956c 163d c434 ab3d 7c81 553d 2bd1 ac3d
000002d0: 1cf6 9f3d 25e8 303d 7bb7 843d e684 debc
000002e0: 788f 0abd e433 f3bc ec41 27bd 1d84 36bc
000002f0: c05c 88bd ad6b 3c3d 3772 a5bc efa2 613d
00000300: a5d2 73bd 8779 583d fa8e 48bc 9f51 213d
00000310: 8f59 633d 833d 8e3d 2cd3 803c 9baa 6dbd
00000320: fd92 42bc 9952 87bd b5cb a5bd c48b 92bd
00000330: f020 113d 9394 233d 3628 6d3d c2cb 203d
00000340: 246a 96bd 5a5c 89bc 48b7 013d e579 3cbd
00000350: 5c9c a43d e0ae 2dba 66ce 15bd 8f04 953d
00000360: beb2 07bb a80c a5bc 7607 173d bc76 853d
00000370: c6f3 a2bd 3c16 0a3d d547 b63b 9c9c a7bd
00000380: ee66 5f3d 737b dc3c 3276 55bd b699 9b3b
00000390: 69f3 353d 9aa4 93bd 4b8b 2e3d 4f36 88bd
000003a0: b92d 0aba 5922 29bd e821 b13d 3509 2abd
000003b0: dc1a 22bc c830 bfbc 2285 af3d f29b 753d
000003c0: 6f77 9c3d 1e4f 883d 93cb 3a3d d39a d03a
000003d0: 130f 45bd 4ee4 7b3d d423 6cbd 4d71 6ebd
000003e0: 186e b43c f393 013d d69f eabc 62d7 2cbd
000003f0: 6a34 cebc 96b8 533d ebeb a23c 52d8 2abc
0.0077913716 -0.009069264 -0.07364696 -0.068816885 -0.049589317 -0.02766559 -0.02542553 -0.06041972
0.03422105 -0.016229235 0.07807166 -0.056731954 0.018973615 -0.048773363 -0.060431004 0.028523449
-0.03818769 -0.0042341673 0.085243404 0.04981215 -0.037155196 -0.03482749 0.021203805 -0.0534639
-0.067150675 0.041809946 -0.07361645 0.014989611 -0.032713942 0.05822975 0.05622439 0.026913892
-0.013441041 -0.0399024 0.046450675 0.073297784 0.009900052 -0.003640297 -0.051088016 -0.08827889
0.025432188 -0.05572746 0.07178347 -0.022676067 -0.004153477 0.08312647 0.0058261272 0.05387718
-0.03725378 -0.053128757 -0.08527781 -0.08487232 -0.017279133 0.050967995 -0.027783064 -0.051453557
0.012151842 -0.043736205 0.03222507 0.07196531 -0.06270578 -0.07603578 0.042916376 -0.06023835
0.05533227 -0.07011419 -0.040970486 -0.046201732 -0.051418703 0.0021573917 -0.0050698235 0.0665309
-0.037900206 -0.04797733 -0.005152273 -0.018813077 0.020060698 -0.06296621 -0.031594943 0.0638321
-0.0063075814 -0.07814362 0.033962395 0.03669566 0.00051817443 -0.0033918729 -0.06855452 -0.019605566
0.012954992 -0.027930263 -0.012526665 0.024734035 -0.042220615 -0.040110324 -0.0165633 0.05946543
0.08193915 0.06431732 0.07915575 -0.048655838 -0.035237536 -0.016480956 0.017705258 0.009700793
-0.049422573 0.03288751 -0.08478963 0.08828351 -0.04447975 -0.07317452 0.031772107 -0.0642747
-0.0683008 0.052140865 0.03791973 -0.026432807 0.06271741 -0.065595046 0.07084905 0.044542316
-0.0025767635 0.059025373 -0.06522833 -0.036701497 -0.06581579 -0.002039486 0.028739935 0.040311437
-0.008546664 0.072460294 0.06381272 0.010323301 -0.06632265 -0.033866394 0.069747426 -0.047102127
-0.05841725 0.038365085 -0.009807929 -0.008328502 -0.085823365 0.0810924 -0.002126045 -0.0021317771
0.04569301 -0.049598884 0.06343603 -0.068709426 0.02955298 -0.0699979 -0.055833206 0.07290762
-0.021610796 -0.02008588 -0.051607415 0.06516184 0.0774208 -0.016647952 -0.08072251 0.0391727
0.08056569 0.045498345 0.06675745 -0.06856262 -0.07819552 -0.03327933 0.070007704 0.033752196
0.07194121 -0.068619855 0.05278194 -0.028399568 -0.06080652 0.010089765 0.0006647612 0.00824896
0.036724646 0.083596736 0.05212544 0.08438333 0.078106135 0.04319014 0.064803086 -0.02716298
-0.03382823 -0.02968783 -0.040834352 -0.011139897 -0.06658316 0.046001125 -0.020196063 0.055087026
-0.05952706 0.052850273 -0.0122411195 0.03938448 0.05550533 0.06945326 0.015725695 -0.05802403
-0.011875865 -0.06607551 -0.08095495 -0.071555644 0.035431802 0.039936613 0.057899676 0.03925682
-0.073444635 -0.01676767 0.03166893 -0.046014685 0.08037636 -0.00066254847 -0.03657379 0.0727626
-0.0020705904 -0.020147637 0.03687235 0.065167874 -0.07956652 0.03371261 0.0055627623 -0.08184168
0.05454152 0.026914334 -0.052114673 0.0047485484 0.044421587 -0.0720913 0.04261331 -0.066509835
-0.00052710954 -0.041292522 0.08649045 -0.041512687 -0.009894099 -0.02333869 0.08570315 0.059963174
0.07639968 0.066557154 0.0456043 0.0015915282 -0.04811008 0.061497025 -0.057651356 -0.05821352
0.022025153 0.031635236 -0.028640669 -0.042197593 -0.025171477 0.051689707 0.019887885 -0.010427551

fc2.bias f4 [128]
00000000: d87a a53d 189e e13c e5d7 5ebd 9676 7abc
00000010: b776 013d a691 233d 79b4 b4bc 451a a63d
00000020: 268e 6e3d abd6 8abd 36d3 8f3d ed9f 0d3d
00000030: 7e6c 553d bc12 73bd 6e87 9d3d b312 933d
00000040: 9bbf 8e3d bd98 6f3c 7806 c73c dc8d 90bd
00000050: dbe5 9bbc 425c 9cbd abd7 8ebd 8126 7a3d
00000060: dbd1 0bbd 45a1 063c 403f b1bd d88d 2ebd
00000070: b19b dc3c cb7a a4ba 5951 9cbd 5a88 523d
00000080: 7f20 783d 2e0b d7bb a994 883c 36df 2bbd
00000090: 44f9 9bbd 501f b43d 6143 b4bb 65d2 3cbd
000000a0: 9267 6bbd 922e 803c 5e50 523d ebb3 bdbb
000000b0: e913 5d3d e6f1 ac3c 2e24 a83d 5f99 36bd
000000c0: 6a0b 8c3d ceb8 68bd e242 5ebd 3c78 5cbd
000000d0: 9b69 f33b 7f64 31bd 8da7 48bc 2988 b1bc
000000e0: c9c4 c4bc feee 76bb 4fed 773d 0486 94bb
000000f0: fb83 083d 1c70 9ebc f9e6 a83d 07af a6bd
00000100: 7952 293d bc4f 7dbd 8f7d 43bd 5144 c7bc
00000110: 2425 943c 1551 9dbd 6193 113d 7b39 2b3d
00000120: ffbf be3b 53a6 87bc b0af 43bd 9eff 8e3d
00000130: 1bd2 623c 1113 a73d 482c 6c3b 95b7 a4bc
00000140: 0268 81bd 341d 993c 3c7d a33d dc0a 353d
00000150: 0a07 2a3d dae2 953d 3048 60bb 026f 08bb
00000160: 360c 65bd c8ef 643d 94cb 88bd 6db9 05bc
00000170: b503 773d 5d78 903d d508 883c 09ad 99bb
00000180: df44 a63d dfb8 913d dab6 863d a1bf 45bd
00000190: 7829 583a ca5c 833d 3475 263d f133 aebc
000001a0: a172 b33c a557 603d bd50 53bd 35c7 3f3d
000001b0: 3f54 8e3d dfae 77bd b1fe aa3d b02d a7bd
000001c0: 413c b4bd 4257 60bc 64de 81ba 044d ffbc
000001d0: 5e92 18bd bc05 243d 13ec 4a3d 1d42 573c
000001e0: 3303 a9bd f174 08bd 8291 5dbd e7ab d9bc
000001f0: e874 26bc 4209 7f3d 4955 e93c af78 4ebd
0.08080071 0.027541205 -0.05440511 -0.015287062 0.031607356 0.039933823 -0.022058712 0.08110479
0.058241032 -0.06779226 0.07022707 0.034576345 0.05210542 -0.05934404 0.07691847 0.07181301
0.069701396 0.014623818 0.024295077 -0.070583075 -0.019030502 -0.07634784 -0.06974729 0.061071876
-0.03413568 0.008217161 -0.08654642 -0.04261574 0.026929708 -0.0012548802 -0.07632703 0.051399566
0.060577866 -0.006562612 0.01667245 -0.041960917 -0.07615903 0.08795035 -0.0055011963 -0.046099085
-0.05747182 0.015647206 0.051346175 -0.00578927 0.053974066 0.02111144 0.08210026 -0.04457986
0.068381146 -0.05681687 -0.054263003 -0.053825602 0.0074283606 -0.04330873 -0.0122469785 -0.021671372
-0.024019616 -0.0037679072 0.06052905 -0.0045325775 0.03332899 -0.019340567 0.082471795 -0.081388526
0.041338418 -0.06184362 -0.047727164 -0.024324568 0.018084116 -0.07681481 0.035540942 0.041802865
0.0058212276 -0.016558802 -0.04777497 0.06982349 0.013844038 0.081579335 0.0036037136 -0.02010707
-0.06318666 0.018690683 0.07982871 0.04419981 0.04151062 0.07318659 -0.0034222715 -0.002081812
-0.05591985 0.055892736 -0.066794544 -0.008161885 0.06030627 0.070542075 0.016605774 -0.004689817
0.08118605 0.071153395 0.06577845 -0.048278455 0.00082459254 0.064141825 0.040639117 -0.021265002
0.021905245 0.054771084 -0.05159067 0.046820838 0.069496624 -0.060469504 0.0834936 -0.08163011
-0.08800555 -0.013692679 -0.0009908197 -0.031164654 -0.03724896 0.04004453 0.049541544 0.013138321
-0.08252563 -0.03331465 -0.054093845 -0.026571227 -0.010159709 0.06226469 0.02848305 -0.05040806

fc3.weight f4 [64, 128]
00000000: 6d87 0ebd 9931 3bbd cfe3 2f3d 0e23 eebc
00000010: 7ff7 183d 279c b0bd 41f6 733d bbf6 8fbd
00000020: d40f 8c3d 688b 9abd d4b0 b03d c1f9 65bc
00000030: 9227 cbbc 6a49 e63c e4ab 7d3d 424a 26bd
00000040: 8b3c ec3c fc07 a4bd 084a 66bd e284 a93d
00000050: a550 00bd 973d f73c cf2e 10bd da7d 7bbd
00000060: f694 04bd 971b cc3c 3e5c 9ebc 6565 28bd
00000070: 1690 56bd 8a1e 913d be09 fd3c fb06 68bd
00000080: 0f0f aebd b4e5 1f3d 36fc e0bc 9cab 733d
00000090: 2c97 083d 6549 20bd f73a 4a3d c32e 2ebd
000000a0: 3cff ad3d 2b5e 5fbd 30a2 9dbc bc99 603d
000000b0: 4802 343c 18c5 9abd 97eb 98bd 976d 9fbd
000000c0: b7dd 413d 9354 333d 7290 92bd c889 813d
000000d0: 15be 953d d57a 363d c848 383d deb2 a43d
000000e0: f2b9 723d fde0 8dbd e65d 903d c3e2 acbd
000000f0: ccd3 79bd 99e2 a8bd 589f 243d 43b9 6ebd
00000100: 06e5 70bd 6644 9abc bd5a 863d b61d 4ebd
00000110: 608c fabc f86f 1fbc a7a7 24bd 402a abbd
00000120: a81f 84bb 5386 90bd bcd9 5d3d e439 103c
00000130: 4d90 b8bc ba8c 633d 2676 3cbd a585 78bd
00000140: b0b2 ddbb e9ab a53a 0346 96bc 4a19 333d
00000150: b9ec 07bb d9ec 893b 1434 be3a ecb2 95bd
00000160: c0e2 fabc 4d56 fabc 7d74 8bbd 389b 9f3d
00000170: c3fd 7dbd d057 d73a 02de 16bd 3937 97bd
00000180: 7146 68bd 0d02 7fbd 3223 8bbd 22eb 683b
00000190: f54c 8cbc d36f 88bd 9ce0 d8bb e52b a1bd
000001a0: c25c e0bc 5853 f5bc aed9 243c b8a3 f8bb
000001b0: afd3 43bd db5c 3dbc e32f adbd 25c6 48bd
000001c0: 8f0b 303d e2b3 173d 30d1 903c 33f1 073d
000001d0: adc9 75bc 5be9 1e3d 103f 0bbc edf5 29bd
000001e0: 659e 2c3d 101a 1e3d de3f 2b3d 77df 83bd
000001f0: 403f 4fbd 2e58 bfbc 61b9 493c 6328 a33d
00000200: fe52 cf3b 9597 8f3d 6d6a d13c 0fab 1dbd
00000210: 1763 84bd 54fb d73c dce9 e6bc 9e12 b33c
00000220: 2997 ed3c 4efa 093d 7202 0a3d dd82 f33c
00000230: deb2 993c a412 0fbd 71ff 9dbd 2554 5f3c
00000240: 8e23 9ebd f0d1 d83c 719e 51bd 637d 893b
00000250: a5a8 503d 5471 6dbd 21c7 8ebd d43c 0c3c
00000260: ce8d 7fbd e030 adbd 056f e7bc 4b70 343d
00000270: 35cc 89bc a34e 06bd b6f9 dcbc 4624 723d
00000280: dea6 99bc f01f 913d 2c30 743c 0a40 80bd
00000290: 2400 96bb abf0 a93d dbae 56bd 71eb cfbc
000002a0: 371d 933c 5026 a7bd 53ae 0fbc e1f7 b33d
000002b0: 2ac4 5bbd affe afbd 8595 5f3d 1a3a 48bd
000002c0: 8271 4d3d b79c fc3b 2c9b 8abc 6ea3 9f3d
000002d0: b0ac d73c b7cf a43c f0c3 2a3d 1a5b b63c
000002e0: 0015 9abc 0638 913d 3e05 77bd 3d07 613d
000002f0: 9414 1f3c c01a 653d 10b2 9f3d 61a8 6cbd
00000300: e048 f03c 9988 0e3d 93f5 0f3d dd6b fbbc
00000310: 6b60 a7bd 8892 a33d acec 203d 54a3 7bbd
00000320: 2682 873d 5899 b73c f647 5f3d fa21 3d3d
00000330: 731a 0b3d cba6 97bd 8f04 93bd 9efa 3d3d
00000340: 31f3 54bc f34d 69bc abb5 9c3d 2146 cb3c
00000350: 4164 4e3d ade8 b23c 196b ed3c 1266 5e3c
00000360: 368f 373d 15b2 f8bc 70e1 93bb 3d15 c9bc
00000370: 5dab 523d 19ce 533d 3647 9cbd 53e9 3bbd
00000380: 7ee6 acbd fb84 d2bc 19fa 94bd 1aef 313d
00000390: 797d a33b 1ebd 593d f62b 9dbd a510 60bd
000003a0: 497b 3ebd 97c8 0ebd f2e9 a03d 1801 5bbd
000003b0: 3cda b33d ee58 653d bf9f 1fbc f716 3c3b
000003c0: 2cfb 88bd 4a99 e7bc 1619 803d 98c7 91bb
000003d0: 802e 53bd 2743 9c3a 6ee2 943d 9b9b 7b3d
000003e0: 8379 8ebd 5d5f fe3c e147 443d c9da ad3d
000003f0: fefa ad3d 9956 1abd 2b91 b73b 12e8 6abd
-0.03479712 -0.045701597 0.042941865 -0.02906945 0.037345406 -0.08623534 0.059561018 -0.07029482
0.068389565 -0.07546121 0.08627477 -0.014036597 -0.024799142 0.028111178 0.061931506 -0.04059816
0.028837463 -0.080093354 -0.056222945 0.082772985 -0.03132691 0.030180736 -0.03520089 -0.06139932
-0.032368623 0.0249155 -0.019331094 -0.041112322 -0.052383505 0.07085903 0.030888434 -0.056647282
-0.08498966 0.03903742 -0.027464014 0.05948983 0.033347294 -0.039132494 0.04937264 -0.042525064
0.08495948 -0.054533165 -0.019242376 0.054834113 0.010986872 -0.07557124 -0.0746681 -0.077845745
0.047330584 0.043781828 -0.07156457 0.06325108 0.07311646 0.044550736 0.044991285 0.08041929
0.059259363 -0.06927679 0.0704916 -0.08441689 -0.060993 -0.08246345 0.040191025 -0.058282148
-0.058812164 -0.018831443 0.06560276 -0.050321303 -0.030584514 -0.009731285 -0.04019895 -0.08357668
-0.004032094 -0.0705687 0.054162726 0.008802865 -0.022529745 0.05555413 -0.046011113 -0.06067433
-0.006765686 0.0012639734 -0.018343931 0.04372529 -0.0020740463 0.0042091426 0.001451137 -0.07309517
-0.030625701 -0.03055873 -0.06809328 0.077932775 -0.062009584 0.0016429368 -0.036832817 -0.0738358
-0.056707803 -0.062257815 -0.06793822 0.003554054 -0.01712654 -0.06661954 -0.0066185724 -0.078697
-0.02738798 -0.029946968 0.0100616645 -0.007587876 -0.0478093 -0.011557783 -0.08456399 -0.04901709
0.042979773 0.037036784 0.017677873 0.03318901 -0.015001697 0.038796764 -0.008498922 -0.0414943
0.042143244 0.038599074 0.041808955 -0.06439107 -0.05059743 -0.023357477 0.012312264 0.079666875
0.006327032 0.07011334 0.025563443 -0.038493212 -0.064642124 0.02636496 -0.028187685 0.021859463
0.029002743 0.033685975 0.03369374 0.029725486 0.018762048 -0.034929886 -0.07714737 0.013630901
-0.07721625 0.026467294 -0.051176492 0.0041958555 0.050942082 -0.057969406 -0.069715746 0.008559424
-0.062391095 -0.08456588 -0.02825118 0.044052403 -0.016821006 -0.032789838 -0.02697454 0.059116624
-0.018756326 0.0708617 0.014904063 -0.062622145 -0.0045776535 0.08297857 -0.05241285 -0.025380822
0.017958267 -0.081616044 -0.0087695895 0.087875135 -0.053653874 -0.08593499 0.054585952 -0.048883535
0.050157078 0.0077091116 -0.016919695 0.077948436 0.026327461 0.020118577 0.041690767 0.022260237
-0.018808842 0.07090764 -0.060307734 0.054938544 0.009709496 0.055933714 0.077976346 -0.057777766
0.029331625 0.03479824 0.035146307 -0.030691082 -0.08172687 0.07986933 0.039288208 -0.06143506
0.06616621 0.022411987 0.054511987 0.04617498 0.03396077 -0.0740486 -0.07178604 0.046381585
-0.0129974345 -0.014239776 0.07651838 0.024813714 0.05038858 0.021839464 0.028981732 0.01357414
0.04481431 -0.030358354 -0.004512958 -0.02454626 0.051432956 0.051710222 -0.0763077 -0.045876812
-0.084424004 -0.025698176 -0.07274265 0.043440916 0.0049893227 0.05315887 -0.076744005 -0.054703373
-0.046504293 -0.034859266 0.078571215 -0.05346784 0.08781859 0.055993013 -0.009742676 0.0028700212
-0.06688532 -0.028271336 0.06254785 -0.0044488423 -0.051558018 0.0011921868 0.072697505 0.061427694
-0.0695677 0.031051332 0.04792011 0.084889956 0.084951386 -0.037680242 0.005602022 -0.057350226

fc3.bias f4 [64]
00000000: c9e1 ec3c 07f7 08bd b38f b03d b684 03bb
00000010: 79b3 1cbd 036e bfbc 43e7 a5bd 946d a4bc
00000020: d0cf 90bd 7a6c 69bd 097e 9cbd 0e1e 45bd
00000030: 64b7 7d3d 2023 b7bb 7e23 873d d2fa 1a3d
00000040: f74b 0ebd 5efc 14bd 8443 22bc 1eb9 ee3c
00000050: 3301 8ebd 158f 1f3c 60e8 563d 541a a2bd
00000060: af12 833d 0db8 34bc f2d1 22bd 1491 20bd
00000070: f495 56bd 8ace a0bd e1d5 15bd d5bf 973d
00000080: df03 d6bb d415 973d 5a2d 2b3c c412 a73b
00000090: 7eb6 3dbd e7ff 10bd 9fbb a5bc 9353 bdbb
000000a0: 9404 d6bb 67dd 173d bc0f 7a3d c186 efbc
000000b0: a063 b33c 0231 be3c 046b 243d e68a 83bc
000000c0: 2804 13bc 02ce 05bd d0c9 78bd cb6d b63c
000000d0: f93b 803d eb52 07bd 8152 563d 30b4 af3d
000000e0: 28b1 8abb 211a 85bd 2383 98bd d45d 9a3d
000000f0: 0061 b43d 698b b13a d75d aebc ed70 af3d
0.028916257 -0.03343871 0.086211585 -0.0020068116 -0.038257096 -0.023367887 -0.0810075 -0.020071782
-0.07070887 -0.056988217 -0.07641227 -0.048124366 0.061942473 -0.005588904 0.065985665 0.037836857
-0.034740414 -0.03637349 -0.009903792 0.029141005 -0.069338225 0.009738703 0.052467704 -0.07915178
0.06400048 -0.011030209 -0.039751 -0.039200857 -0.0523891 -0.07851894 -0.036580924 0.07409636
-0.006531223 0.0737721 0.010447824 0.0050986726 -0.046316616 -0.035400297 -0.020231066 -0.005777785
-0.0065313075 0.03707638 0.06105016 -0.02923906 0.02189809 0.023216728 0.04014112 -0.016057443
-0.008973159 -0.032667167 -0.06073934 0.02226915 0.06261439 -0.03303806 0.052324776 0.0857929
-0.0042325445 -0.06499124 -0.07446887 0.075374275 0.08807564 0.0013545576 -0.02128498 0.08566461

fc4.weight f4 [1, 64]
00000000: 929b ca3d f816 75bd 165b 9ebd 66dd e03d
00000010: 00df 72bb dc78 7f3d 9824 37bd aed3 ebbd
00000020: 5c29 a6bd c2ec a03d bc4e 493d fed0 adbd
00000030: 30c4 dd3d 0a9f ea3d d049 56bd f8af 40bd
00000040: 58e6 5e3d da3e d33d 40dc bdbb 4cbe 7dbd
00000050: f0f8 1a3d c0df 513b 86be c93d 3025 1e3c
00000060: 4adc c2bd 5490 f8bd 008a c93a e815 2fbd
00000070: 7cde 733d 0c16 eabd 6437 41bd 9847 df3d
00000080: cc2e 03bd c421 d0bd f851 243d 0cf1 143d
00000090: dc78 ff3d 8882 70bd f01b aa3c cc29 f1bd
000000a0: 8c60 e3bd f090 4bbc 2477 23bd 8cf9 0c3d
000000b0: 20a3 123d 809c 713b 8057 acbc 6ed0 b3bd
000000c0: 28b3 26bd fcc0 50bd 6c42 ed3d fc4a 153d
000000d0: 2050 893d 4090 763d 18f3 cbbd ca78 bc3d
000000e0: 2012 83bc acb1 afbd 2603 a3bd 64c5 d53d
000000f0: 00cb e9bb a009 39bc a07e 19bd 60b2 eb3c
0.09892954 -0.059836358 -0.07732217 0.109797284 -0.0037059188 0.06237112 -0.044712633 -0.11514984
-0.081133574 0.07857658 0.049147353 -0.08487128 0.108284354 0.114561155 -0.052316487 -0.047042817
0.05441889 0.10314722 -0.005794078 -0.06194906 0.03783506 0.0032024235 0.098507926 0.009652421
-0.09514673 -0.121369034 0.001537621 -0.0427455 0.05953835 -0.11429986 -0.047171965 0.10902327
-0.03202705 -0.1016269 0.040117234 0.036362693 0.12474224 -0.058718234 0.020765275 -0.1177555
-0.11102399 -0.0124246925 -0.039908543 0.034417674 0.0358001 0.0036866963 -0.021037817 -0.08779989
-0.0406982 -0.050965294 0.115849346 0.036448464 0.06704736 0.06019616 -0.09958476 0.09202726
-0.015999854 -0.0857881 -0.07959585 0.1043804 -0.007134795 -0.011293799 -0.037474275 0.02877158
