models/comparison_apache@curator_2500ep_dqn/best_pairwise_dqn_apache@curator_2500ep_dqn.pt (torch, 193840 bytes, 8 tensors)

fc1.weight f4 [128, 112]
000000 51 f5 cd 3d 16 09 08 3e 87 d8 47 3e 59 f0 f9 3d
       0.10056556 0.13284716 0.19516192 0.12204046
000010 b1 ee 7e 3d 57 37 6a 3d d9 cc 05 3e c4 a0 35 3e
       0.062239353 0.057181682 0.13066424 0.17737108
000020 df cb 81 3d b8 48 a7 3d b2 fe 0d 3e ce c4 1a 3e
       0.063377135 0.08168167 0.1386669 0.15114138
000030 aa 95 97 3d 2e e8 fa 3d ef ec 75 3e 25 04 1d 3e
       0.07401593 0.12251316 0.24016164 0.15333612
000040 54 ff 34 3e e4 f9 6f 3e 09 91 05 3e 75 00 75 3e
       0.17675525 0.2343517 0.13043608 0.23925956
000050 6d 82 65 3e 12 95 13 3e 6b b9 13 3e 6b db c1 3d
       0.22413035 0.14412335 0.144262 0.09465679
000060 97 1c a5 3d 59 e2 5e 3e 8b f2 33 3e 93 34 93 3d
       0.08062094 0.21766032 0.17572992 0.07187762
000070 09 d4 09 3e c5 88 32 3e dd aa 0e 3e 1d 95 01 3e
       0.13459791 0.17434986 0.13932367 0.12654538
000080 6b fd 70 3e 81 d6 4e 3e cc 61 00 3e 3f a1 1e 3e
       0.23534171 0.20199014 0.12537307 0.15491198
000090 7c 0d 6c 3e 03 39 84 3d 87 55 66 3e 44 84 e3 3d
       0.23052019 0.064561866 0.22493564 0.11109212
0000a0 30 da 9c 3e bc 10 55 be b4 53 98 3d 22 27 35 3e
       0.30635214 -0.20807165 0.0743784 0.17690709
0000b0 a9 50 ec 3d 5c 89 d9 3d f9 df 1b be 52 e1 c8 bc
       0.11538822 0.10621902 -0.15222158 -0.024521504
0000c0 da 27 62 3e 0d f6 f7 3d ef 5c 6c 3e d9 73 19 3e
       0.22085515 0.12107477 0.23082326 0.14985599
0000d0 56 3b 0e 3e b8 f0 3a bc f5 61 fb 3d 77 17 1e 3e
       0.13889822 -0.011409931 0.12274543 0.15438639
0000e0 9e b6 71 3e 80 bd 26 3e c3 c1 24 3e d5 8f ae 3d
       0.23604819 0.16283226 0.16089539 0.085235275
0000f0 d4 60 38 3e 21 8e 16 3d 6e ca 30 3e e6 a0 1b 3e
       0.18005687 0.03675664 0.17264721 0.15198097
000100 d7 7e 4b 3e db 63 44 3d 0d ce 78 3d e0 59 75 3e
       0.19872604 0.047946792 0.06074338 0.23960066
000110 9b d6 41 3e e0 6f e1 3d 68 83 23 3e a7 8e 65 3e
       0.18929522 0.110076666 0.15968096 0.22417699
000120 00 82 37 3e d4 7b 2c 3e 22 3f 6f 3e 69 61 1d 3e
       0.17920685 0.16844112 0.23363927 0.1536919
000130 79 c4 e3 3d dd db 71 3e f5 94 86 3d d6 c9 03 3e
       0.111214586 0.23619027 0.0657138 0.12869963
000140 c8 6a 9f 3d 45 39 03 3e 9c e2 16 3e f6 ce 56 3e
       0.07784039 0.12814815 0.14734882 0.20977387
000150 84 c9 88 3d ae 79 60 3e ed d0 16 3e 18 a0 36 3e
       0.06679061 0.21921417 0.14728136 0.17834508
000160 1f d9 ef 3d a0 71 1f 3e 3a ac d6 3d 79 6e 4d 3e
       0.117113344 0.15570688 0.10482068 0.20061673
000170 68 66 17 3e 39 15 30 3d 5a bb 5f 3e 42 8d c3 3d
       0.14785159 0.04298899 0.21848813 0.09548427
000180 a2 d7 56 3c b2 42 4b bd a1 2f 74 3d 1e ec 42 3e
       0.013112934 -0.049624152 0.059615735 0.19035384
000190 63 62 88 3d b1 4b 0c 3e 7f 17 40 be ee eb 3a 3e
       0.06659391 0.13700749 -0.18758963 0.18254063
0001a0 9b f5 10 3e 61 88 fa 3d 97 71 eb 3d 40 37 24 3e
       0.14156191 0.122330435 0.11496275 0.16036701
0001b0 7a 82 07 3e c8 dd b4 bd 36 5d 1b 3e b1 e4 59 3e
       0.13233367 -0.08831364 0.15172276 0.21278645
0001c0 d6 89 27 be 89 9a 3a be 62 7b 23 bd de a2 22 be
       -0.16361174 -0.18223013 -0.03991259 -0.15882441
0001d0 5b e8 f8 bd 96 c6 e1 bd 35 a6 0c bd fc 92 3f be
       -0.12153693 -0.110242054 -0.034338195 -0.18708414
0001e0 ac 0f 12 be 33 9b 37 be fe 90 d8 bd eb fc d5 bd
       -0.14263791 -0.17930298 -0.1057453 -0.10448631
0001f0 c2 48 15 bd d0 c3 fe bc a0 03 fa bd 61 75 51 bd
       -0.03644634 -0.03109923 -0.12207723 -0.051137332
000200 60 da c4 bd ea f0 de bc 16 38 90 bd 77 9f 85 bd
       -0.09611964 -0.027214486 -0.070419475 -0.06524556
000210 42 b8 c3 bd 6e 2f 22 bd ce 18 dc bc 96 ec 6f bd
       -0.09556629 -0.039596014 -0.026867297 -0.058575235
000220 f1 47 40 be cd 6a ad bc f1 1d 49 bd 90 60 e5 bc
       -0.18777443 -0.02116909 -0.04910082 -0.028000146
000230 17 e6 bb bc 18 21 44 be e8 89 eb bd fd 59 fb bd
       -0.022936864 -0.1915325 -0.11500913 -0.12273023
000240 52 3b d2 bc e9 45 c7 bd ea 30 22 be 76 1d 42 be
       -0.025663052 -0.09730131 -0.15838972 -0.18956551
000250 80 64 49 bb 66 89 8d bd 30 a6 40 bd b2 e8 37 be
       -0.0030730069 -0.06910972 -0.04703349 -0.1795986
000260 fb 58 99 be 60 35 f0 be 5a 4e f7 bd 96 cf b0 bd
       -0.299507 -0.46915722 -0.12075491 -0.08633344
000270 ef ab 18 bd b5 70 48 bd 75 0f 21 bf 6e 29 92 bd
       -0.037273344 -0.04893561 -0.6291421 -0.07136808
000280 28 27 c6 bb 22 8f 13 bd 41 e2 26 bd 68 ca 8c bd
       -0.0060471483 -0.036025174 -0.040743116 -0.068745434
000290 7a 83 ba bd 8f 2f fa bd d2 64 b2 bc 51 74 a7 bd
       -0.091071084 -0.12216102 -0.02177659 -0.081764825
0002a0 25 b9 2f be 2e 19 b9 bd 0f 46 0a bd aa 81 ee bd
       -0.17160471 -0.09038006 -0.03375822 -0.11645825
0002b0 f7 e8 d2 bd 36 c8 3a bd 26 30 f1 bd 20 76 63 be
       -0.10298341 -0.045601092 -0.11776762 -0.2221303
0002c0 06 d1 37 bd 11 a2 0b be 82 25 2d be dd 30 3b be
       -0.044877075 -0.13636042 -0.1690884 -0.18280359
0002d0 92 3b 80 bd 44 18 02 be 92 df e0 bc 0d 54 bc bd
       -0.06261362 -0.12704569 -0.027450357 -0.09195719
0002e0 0e 63 21 be cf 9c c0 bd 1f f1 e2 bc c1 b4 36 be
       -0.15760443 -0.09404909 -0.027702866 -0.1784239
0002f0 6e 7e 0e bd d6 65 1f be 56 84 d5 bc 5d 9b b5 bd
       -0.03478854 -0.15566191 -0.02606408 -0.08867524
000300 07 de 38 be a2 a0 0c be e4 35 14 be 97 7d 47 bd
       -0.18053447 -0.13733152 -0.14473683 -0.048703756
000310 ed 0a 16 be 91 60 33 be af 9d 2a bd c3 c7 33 be
       -0.14652605 -0.17517306 -0.041654285 -0.17556672
000320 ce ba f3 bd ac 14 1d be 50 8d b8 bd 3e 79 0b bd
       -0.119008645 -0.15339917 -0.09011328 -0.034051172
000330 6e 7e 6e bd 1f 56 24 bd 44 82 0b be db 19 35 bd
       -0.05822604 -0.040121194 -0.13623911 -0.04421411
000340 a4 8c 96 3d 48 01 6c 3e 05 14 0c bd 98 dd 7e bc
       0.07351044 0.23047364 -0.03419878 -0.015555762
000350 7b e6 1c be bc 87 3b be 85 a6 70 bd ee 3c 5a 3e
       -0.15322296 -0.18313497 -0.058752555 0.21312305
000360 f4 be 39 be 09 7c 12 be 3d df 27 be e1 17 0b be
       -0.18139249 -0.14305128 -0.16393752 -0.13583328
000370 3c f0 10 be 67 10 5b 3e 86 0f 1c be be 47 ba bd
       -0.14154142 0.21392976 -0.15240297 -0.09095715
000380 72 26 59 3d 20 5a d6 bb e9 4d 97 3d 88 d9 98 3c
       0.05301518 -0.0065415055 0.07387907 0.018658414
000390 29 75 c3 3d 9e 20 06 3e 5f e9 a0 3d 86 e1 a2 3d
       0.09543831 0.1309838 0.07857012 0.079531714
0003a0 47 0c 75 3b 0d fc e9 3d 34 f8 a2 3b 82 99 2e 3d
       0.003739135 0.11425028 0.004973436 0.042626865
0003b0 09 5b 8b 3d 2d 54 88 3d ff 9b ee 3d b1 76 9b 3d
       0.06804473 0.0665668 0.11650848 0.07590998
0003c0 c6 45 b7 3d 2d 06 d8 3d 6f ed 2c 3d 31 34 36 bd
       0.08948855 0.10548053 0.04221862 -0.044483367
0003d0 92 94 23 3d 4e 74 fa 3d 87 5b 0c 3d 0c e0 ac bc
       0.03993661 0.122292146 0.034266975 -0.021102928
0003e0 b7 6a 0a 3e 94 a9 b5 3c de cc d4 bc ee ce da 3d
       0.13517271 0.022175588 -0.025976595 0.10684
0003f0 ce de 94 3d 66 24 83 3d 1d 84 c9 3b bb 20 cb 3c
       0.07269059 0.06403427 0.0061497823 0.02479588

fc1.bias f4 [128]
000000 ed 4d 53 be d2 90 30 3e 89 d0 02 be c7 3a a6 bd
       -0.20635195 0.17242745 -0.12774862 -0.0811668
000010 ff 65 10 be 86 aa 2e be ac d8 c7 3d 06 67 5c bd
       -0.14101408 -0.17057237 0.09758124 -0.05380919
000020 99 6f f4 bd 92 7e 7f 3d 93 b6 db bd e4 69 c1 3a
       -0.11935348 0.062376566 -0.10728183 0.0014756289
000030 7f e8 07 bd fd cd c8 3c 39 a0 cf bd de 46 33 bb
       -0.03318071 0.024512285 -0.10137982 -0.0027355473
000040 39 0d da 3c 34 81 d8 bc 57 3d 19 bd 63 9a 8d 3d
       0.026617633 -0.026428796 -0.037412014 0.069142126
000050 e9 0c b4 bd 36 bf 5c 3b f3 d7 40 3e 57 ff b7 bd
       -0.08791525 0.0033683307 0.18832378 -0.08984249
000060 a3 aa 37 3c 03 9f 8b 3d 12 a0 77 bd 93 14 cb bd
       0.011210117 0.068174385 -0.06045539 -0.099160336
000070 28 99 6f 3c 70 5c 52 be 82 cb 6d 3d eb 70 cb 3d
       0.014623918 -0.20543075 0.05805541 0.09933647
000080 cb 35 43 be 25 b1 8b 3c cb 0b bd bc 52 9d db 3c
       -0.19063489 0.017052243 -0.023076912 0.026808415
000090 1e ab 52 3d 74 58 e3 bc 27 3f 95 3d 29 45 01 3d
       0.05143272 -0.027752139 0.07287436 0.031560097
0000a0 2d 98 b1 3d 78 3c b8 bd 57 6d 05 bd b6 50 b1 3d
       0.08671603 -0.089959085 -0.032574978 0.086579725
0000b0 dd cf 63 bd e7 df bf 3b e4 fa 82 bd 24 28 ef 3b
       -0.055618156 0.0058555487 -0.0639551 0.0072984863
0000c0 25 e4 15 be e3 85 8f bc 0d bc 78 bd c8 a1 b1 bd
       -0.14637811 -0.017519897 -0.060726214 -0.086734354
0000d0 7d 6f 91 be 65 c6 ee bd ea 11 10 3d b2 73 5a bc
       -0.2840537 -0.116589345 0.035173334 -0.013333248
0000e0 ac 55 06 be a1 99 ae bd b8 98 26 bd 5d 67 6f be
       -0.13118619 -0.08525396 -0.040672988 -0.23379274
0000f0 e6 f7 c4 bd 23 d7 a9 bd 3b 93 f6 bd 3f 7e 80 be
       -0.096175954 -0.08292987 -0.12039801 -0.25096318
000100 03 c5 34 bd 5e ab 24 be 39 c2 b5 bd 49 84 49 be
       -0.044133198 -0.16080996 -0.08874936 -0.19679369
000110 f0 4f 18 be 9f 06 02 bd db c3 82 be f7 5e 1b bb
       -0.14874244 -0.031744596 -0.2554005 -0.0023707727
000120 de 21 09 be f7 d9 ae bc e7 4c 90 be 04 66 cc bc
       -0.13391826 -0.021344168 -0.28183672 -0.024950989
000130 bd d5 cc bd 23 d1 a3 3d a8 84 87 bd 9d 6e 92 be
       -0.10001705 0.07998874 -0.06617099 -0.28600016
000140 58 a6 0d bd cd 32 58 bd a2 ac 84 bd 53 5c f0 bc
       -0.034582466 -0.052782822 -0.064782396 -0.029340899
000150 39 66 82 3d 35 96 6e bd 0f a3 5a bc a7 dd 63 bd
       0.06367154 -0.058248717 -0.01334454 -0.055631306
000160 0b d8 01 bd 79 8b ce bd 23 11 d9 ba cb fb 9a bd
       -0.031700175 -0.10085196 -0.0016560893 -0.07567557
000170 bf 2a 36 bd 3e 82 e5 3b 6a e5 47 be b2 5b 7e bd
       -0.04447436 0.0070040515 -0.19521108 -0.062099166
000180 05 d6 a8 bd 62 af d7 3d e7 04 bb bd 75 97 58 3c
       -0.08243946 0.105314985 -0.091317944 0.013219704
000190 8f d0 1e be 4f 47 cf 3d c5 08 8f 3d 6c 07 04 bd
       -0.15509246 0.10121023 0.069840945 -0.03223364
0001a0 0b d8 30 3c 3a d2 03 bc f3 0f 7b be b6 fa a0 bd
       0.010793696 -0.008045727 -0.24517803 -0.07860319
0001b0 1d 24 b3 3c ab 2e ff bd 84 b2 89 3c 0b c9 0a 3d
       0.021867806 -0.12460073 0.016808756 0.033883136
0001c0 8b a2 69 be d7 bd 88 ba 97 bb 4c 3d 0c b0 ce bd
       -0.22815911 -0.0010432553 0.049983587 -0.10092172
0001d0 db 53 7a bd 38 9f e4 3d aa 69 63 be 61 16 80 bd
       -0.061115127 0.11163181 -0.22208276 -0.062542684
0001e0 cf 09 13 be e5 c1 bb 3d 52 ff 97 bd 64 4c f6 bc
       -0.1435921 0.09167842 -0.07421745 -0.030065723
0001f0 cb d0 0f be 6d ee 1f be e4 96 8a bd 8a b5 87 be
       -0.14044492 -0.15618296 -0.06767061 -0.2650569

fc2.weight f4 [128, 128]
000000 9f 0a 9d 3c 83 96 0c bf ee f7 13 3e 3c 52 14 be
       0.019170104 -0.5491716 0.14450046 -0.14484495
000010 cb 86 0d 3d 0c 2e b2 bd 6e 4d 8f 3d 68 0f 01 3e
       0.034552377 -0.08700189 0.069971904 0.12603533
000020 c3 bb 83 be 11 20 1f bf d2 e8 ea 3d 16 32 a5 be
       -0.25729188 -0.62158304 0.11470188 -0.32264775
000030 bc e1 80 bd 66 43 cc be 60 fa c3 3c 19 71 bc bd
       -0.062930554 -0.3989517 0.023923099 -0.09201259
000040 73 b1 69 3d ac 5c 9b 3c d1 0a 4c 3e 95 8b c9 bc
       0.057053994 0.018965088 0.19926001 -0.02460269
000050 2b 93 a3 be 33 7d 1e be 28 a6 61 bd d9 1c 3f 3e
       -0.31948218 -0.15477447 -0.0550901 0.18663348
000060 6a c4 43 3c 99 09 c6 3d 29 f0 d6 be 2d b9 9a bd
       0.011948684 0.09669799 -0.41980103 -0.07554851
000070 d6 7e 17 be 51 17 ca 3d 4f 23 ad 3e eb 94 41 be
       -0.14794478 0.098677285 0.33816 -0.18904464
000080 a1 26 4f be 57 e7 3c bd 21 87 4b 3d a7 1d 8a be
       -0.2022958 -0.04611906 0.049689416 -0.26975748
000090 15 e5 85 be cb ea 5d 3e c8 36 af be f0 c5 80 bc
       -0.26151338 0.21671598 -0.34221482 -0.015719384
0000a0 d5 45 47 bd 57 a3 97 3d 3f 51 a0 3d 3d 99 94 3b
       -0.04865058 0.074042015 0.078279965 0.004534869
0000b0 0c 1c 45 3e b0 ab b7 bd fc cc 25 be 0c f3 df be
       0.1924898 -0.08968294 -0.16191477 -0.43740118
0000c0 72 f3 d3 bd e1 c3 c0 bd 7f 5b 84 3e fc 71 91 bd
       -0.10349168 -0.09412361 0.25851056 -0.07101819
0000d0 23 0b 18 3e 31 9f 82 3e 84 e3 91 3d 1a 65 0a bf
       0.14847998 0.25512078 0.07123473 -0.5406052
0000e0 f4 8f af bc 58 fa a8 be e9 da 75 be 76 c8 10 3e
       -0.021430947 -0.33003497 -0.24009289 0.1413897
0000f0 fa e7 19 be f8 c5 d7 bd 9e c8 f9 bd f9 62 92 be
       -0.15029898 -0.105358064 -0.12196468 -0.28591135
000100 1a 62 d1 bd 1a 90 b7 3d cc 9d 1e be 25 fd 60 3c
       -0.102237895 0.08963032 -0.15489882 0.013732229
000110 cd 7b be bc 02 fc eb bd a2 c4 54 be ce cc 01 3e
       -0.023252392 -0.11522676 -0.20778134 0.12675783
000120 d3 b4 fa bc 35 f2 31 3d 31 17 b9 be ca 65 a7 bd
       -0.030603802 0.043443877 -0.36150506 -0.081737116
000130 1b e6 b5 3d 03 a0 51 3d c4 f3 a7 bd f8 87 3d 3e
       0.0888178 0.05117799 -0.082007915 0.18508899
000140 e1 73 1b 3d eb b2 32 3d 80 e7 07 be df 27 f9 3b
       0.037952308 0.04362766 -0.13271904 0.00760363
000150 e7 30 00 bf 11 31 14 be 6a b5 b2 bd d0 80 e2 3c
       -0.5007462 -0.14471842 -0.08726008 0.027649313
000160 9f 16 93 3d d3 db e1 3d 8e 3d c2 3a a1 cb bd 3d
       0.07182049 0.11028256 0.001481937 0.09267355
000170 3f e9 e9 bd 6d 8d 34 bd b6 3c 78 3d 52 dd 96 3d
       -0.11421441 -0.044080187 0.060604773 0.07366432
000180 8a c2 be 3d a6 11 1a bd 1a df eb 3d bf e6 77 bc
       0.09314449 -0.037614487 0.115171626 -0.015130698
000190 a6 ce bd bd e2 6f 40 bd a5 bf 74 3c b3 05 27 3e
       -0.09267931 -0.0469817 0.01493827 0.16310768
0001a0 d0 50 fe bd 97 81 28 3d 02 ce b4 3d 7d eb 45 be
       -0.124177575 0.04113921 0.08828355 -0.19328113
0001b0 04 c9 34 bd db 22 05 3e 42 16 af bd 10 32 87 3c
       -0.044137016 0.13001578 -0.08549167 0.016503364
0001c0 b5 1f 54 3e 69 de f2 be 82 cd 65 bd e2 81 28 bd
       0.2071522 -0.4743531 -0.05610419 -0.04113949
0001d0 63 27 1e be b9 7f 86 3d 51 34 d9 3d f2 0b 00 bd
       -0.15444712 0.0656733 0.10605682 -0.031261392
0001e0 be 8b fb bc 0d c1 15 bf 55 60 a6 bd 8a e8 39 3a
       -0.030706283 -0.584977 -0.081238426 0.0007091841
0001f0 17 d4 84 be b6 03 01 3d ff ea 6a bd 15 60 49 3d
       -0.25943062 0.03149768 -0.057353016 0.049163897
000200 d2 69 3e be 08 3c 5f 3e f7 c1 2f bd d9 dd 74 3d
       -0.18595055 0.21800244 -0.04290959 0.059781883
000210 d9 cc b1 be dc 14 b8 bd f6 42 9e bc b1 5c 8a bd
       -0.347266 -0.089883536 -0.019319039 -0.06755961
000220 bd d2 13 bd df 3a e0 be 3a 0f 57 bc e4 12 27 3d
       -0.036089648 -0.43794915 -0.013126189 0.0407895
000230 0b 8c 06 3d 44 1d 48 3d 45 d2 9c 3d 9b 6a a3 bc
       0.0328484 0.048856035 0.07657293 -0.019948294
000240 72 f1 1e bd 89 81 f3 be 28 51 ff bd ba f0 27 3d
       -0.03880448 -0.47559765 -0.12466651 0.04100106
000250 f1 ef 79 be 48 26 31 3d 51 6d de 3c d2 91 5d 3e
       -0.24407937 0.0432494 0.027151735 0.21637657
000260 05 67 bd bc 03 d7 5f 3d c7 1c b5 bd eb f3 a6 be
       -0.023120413 0.05464841 -0.088433795 -0.3260797
000270 8d 7f 76 3e 16 86 92 ba 09 0e b3 bd 27 69 4d 3e
       0.24072094 -0.0011178877 -0.08742911 0.20059644
000280 a8 1b 1d be 47 e8 58 3d 65 5c 1c 3d 3e 04 0f be
       -0.15342581 0.052955892 0.03817405 -0.13966462
000290 14 68 92 bd 66 3e e4 bc b3 ff 2c be e5 6b d1 3b
       -0.071487576 -0.027861785 -0.16894417 0.006391036
0002a0 ad 71 c9 bd 37 1f 9e 3d e8 05 ed 3b 22 23 a3 3d
       -0.09836135 0.077207975 0.00723337 0.079656854
0002b0 cb b5 18 be 73 de 07 bd 0e eb 91 be ac c5 8b be
       -0.14913099 -0.03317113 -0.28499645 -0.2729925
0002c0 04 b0 74 be a1 5f 08 3d 5e 99 04 be 11 b2 a3 bd
       -0.2389527 0.033294324 -0.1294913 -0.07992948
0002d0 0f 03 73 bc f7 51 c1 be 1a 2d 7c 3d 4c ad 3c 3e
       -0.014832272 -0.37757847 0.06156645 0.18425483
0002e0 09 3a d8 bb 55 c8 be 3c 97 27 a2 bd f5 21 00 bf
       -0.006598715 0.023288885 -0.079177074 -0.50051814
0002f0 21 d5 1a be 39 8d 38 be 42 9e 96 bd 9a b1 c5 3d
       -0.15120365 -0.18022622 -0.07354404 0.096530154
000300 a7 8c de bc ab f3 21 bf f9 bc a1 3c 02 da e2 bd
       -0.027166678 -0.6326243 0.01974343 -0.11076738
000310 7d 48 5c 3d fa 0c 1c be d9 ec 15 be ee a3 bd 3d
       0.053780068 -0.15239325 -0.14641131 0.09259783
000320 44 05 88 3d 77 6e d2 bc 16 00 12 bb 32 3d 75 3e
       0.06641629 -0.02568744 -0.0022277883 0.23949125
000330 c1 68 8d be 6f c6 32 be 40 1a fd 3c 42 ab 44 be
       -0.27618983 -0.17458509 0.030896306 -0.19205955
000340 15 5b d9 bd 57 e4 97 bd 61 f7 a8 bd d2 6d 5f be
       -0.10613076 -0.07416599 -0.08250309 -0.21819237
000350 d7 41 1b 3e 8e 43 f2 3c fc 24 47 3d 1a 94 d4 bd
       0.15161835 0.029573228 0.048619255 -0.10379811
000360 46 63 df be 93 38 3c bd 94 1f ff bc 72 76 6a 3c
       -0.43630427 -0.04595239 -0.031142987 0.014310466
000370 f3 7a b5 be 82 a5 02 be 47 9d 91 be 49 84 07 bf
       -0.35445365 -0.12758449 -0.28440306 -0.52936226
000380 02 d8 82 3c 60 78 74 be 80 cf f6 bc 17 0a 8e 3d
       0.015972141 -0.23874044 -0.03012824 0.06935518
000390 3c dd d3 3c 93 50 cf be f3 db b7 3d 0a 76 36 3d
       0.025862329 -0.4049116 0.08977499 0.044546165
0003a0 7e 4a cd be 66 3d 26 3b 6a d0 91 be 94 56 00 3d
       -0.40095896 0.0025366186 -0.2847932 0.031332567
0003b0 21 90 54 bd 26 f8 93 ba 7c bb 01 3e 24 69 a2 3c
       -0.051895265 -0.0011289164 0.12669176 0.019825526
0003c0 b5 92 3c bf 13 b2 a9 3d 52 72 79 bd 37 f8 61 bc
       -0.7366136 0.08285918 -0.06090004 -0.013792089
0003d0 4f 9f cd be ae f2 eb be d6 07 0f bf e6 f5 95 3d
       -0.40160605 -0.46083587 -0.5587133 0.07322292
0003e0 bf b1 0f 3d 27 9c ef be 2e 64 ac 3d bd 7c 4d bd
       0.03508162 -0.46798822 0.08417545 -0.050167788
0003f0 56 f7 33 be 72 83 a9 bd e5 9e d2 bb 43 a7 62 3c
       -0.1757482 -0.08277024 -0.006427633 0.013833824

fc2.bias f4 [128]
000000 9d 40 69 3e ab fb 9e bd 4f 14 a3 bd 69 90 9c bd
       0.22778554 -0.077628456 -0.07962858 -0.076447316
000010 ce 0f 68 bd 41 c1 30 bd 03 98 80 3d 44 96 6c bd
       -0.056655698 -0.04315305 0.06278994 -0.057760492
000020 65 e6 4c be f4 5d aa 3d 60 74 69 3e 85 a3 d8 3d
       -0.20009764 0.083187014 0.227983 0.10578064
000030 46 6c 14 bd 4e 24 81 3c 38 bc 39 3d 93 c8 c5 3b
       -0.03623607 0.015764382 0.045345515 0.006035873
000040 9c 49 01 3c 53 1b aa bd b3 99 22 3e b3 62 b0 3e
       0.007891085 -0.08305993 0.15878944 0.34450302
000050 fd 93 f1 bd 5e ad 42 3e 49 06 31 bd 10 10 97 3e
       -0.11795805 0.19011447 -0.043218885 0.29504442
000060 92 30 be 3c 99 45 36 be c9 4a 8d bd 53 65 07 3d
       0.02321652 -0.17799987 -0.0689903 0.033055615
000070 8b 27 ef bc 16 44 47 be 5e e3 fe 3d 2f 76 6e 3d
       -0.02919366 -0.19459566 0.124457106 0.058218177
000080 f3 df 84 bd b7 cb b4 be 27 0c 73 3d ba db 9b bd
       -0.064880274 -0.35311672 0.05933776 -0.07610269
000090 4b a4 38 be 27 cd 1b 3e f3 bb f6 bd 24 6a 2a 3e
       -0.18031423 0.15214978 -0.12047567 0.16642052
0000a0 71 3c 5f bd 20 79 6f bd 38 8c 15 be aa f3 8b 3e
       -0.054501 -0.058465123 -0.1460427 0.27334338
0000b0 eb 2b 05 3d 20 a9 5d bc ee 21 ae be 44 e3 ae 3d
       0.032512587 -0.013529092 -0.3401026 0.08539441
0000c0 8d 62 ba be b9 85 be bd 40 80 a8 be 5e 29 30 be
       -0.36403313 -0.09302849 -0.32910347 -0.1720328
0000d0 89 c9 5b 3e b9 67 bc bd 2d a0 1b 3e 3d b1 66 3e
       0.21463598 -0.09199471 0.15197821 0.22528549
0000e0 01 c0 25 3e 33 51 b8 bc b4 16 4c 3e 1b 68 ea 3c
       0.16186525 -0.022499656 0.19930536 0.028614094
0000f0 15 8d 96 bd 0b e5 9a be 48 b2 69 bd df 72 15 be
       -0.07351128 -0.3025287 -0.057054788 -0.14594601
000100 40 24 da bc c5 ad a3 be d8 82 1b be 35 e7 93 3c
       -0.026628613 -0.31968513 -0.15186632 0.018054584
000110 e6 c7 b1 3d 5a 8b 89 3d 0f 28 bf 3e 74 fc 92 3e
       0.08680706 0.06716032 0.3733525 0.2870823
000120 1c 0b 51 3e 79 be 4a be 7d c1 1a bd 9f 25 92 bd
       0.20414394 -0.19799222 -0.03778218 -0.07136082
000130 18 ad 93 bd 88 d4 f0 bb b8 5e 79 3e 4e 21 34 be
       -0.072107494 -0.0073495544 0.24352539 -0.1759083
000140 bb 76 92 3d 40 36 ce bd 90 68 53 bd c7 31 61 be
       0.07151552 -0.10068941 -0.05161339 -0.21991645
000150 37 b5 43 bd 6d f1 86 3e 31 3f d7 bd 14 fa c9 bd
       -0.04778024 0.26356068 -0.105101 -0.09862152
000160 ac ed e1 bd 56 35 36 bc ea 0a d9 3d 7e b9 06 be
       -0.110316604 -0.011121115 0.10597785 -0.13156697
000170 fd 9c 84 bd 5e 1f 5b be 6a 39 11 3e 32 a3 82 bd
       -0.06475256 -0.21398684 0.14182058 -0.06378783
000180 40 e3 4f 3e 00 09 33 bd 12 44 ae bd 8d ed 30 3d
       0.20301533 -0.043709755 -0.08509077 0.043195296
000190 c1 b2 45 be c9 c7 0b bd 87 3b f7 bb 5f 19 cf bd
       -0.1930647 -0.034126077 -0.007544938 -0.10112261
0001a0 c4 e0 3e bd 32 37 55 bc 13 72 a2 bc df 87 56 bd
       -0.046601072 -0.013013648 -0.019829785 -0.05237567
0001b0 7e 1b 30 be a5 cf bf 3d 0f 36 ea 3d ae a4 df bc
       -0.17197987 0.09365777 0.11436092 -0.027300205
0001c0 ca 0d 3c 3e f0 4c 60 39 f6 3e 49 be 99 24 b7 bd
       0.18364635 0.00021390966 -0.19652924 -0.08942527
0001d0 31 33 2b be d9 f7 df bd 36 d9 2d bd e1 35 2b 3d
       -0.16718747 -0.10935945 -0.042443477 0.04179943
0001e0 34 0d d1 3c 92 3e f4 bc f3 79 12 3c fb 7f aa bd
       0.025518991 -0.029814992 0.008940208 -0.083251916
0001f0 9c 6e 7e 3d 80 a0 79 bc 6f 9d 19 3e a6 56 2c bd
       0.062117204 -0.01523602 0.15001462 -0.042074822

fc3.weight f4 [64, 128]
000000 9e 20 c8 3d a4 38 98 be 87 0d fc 3d 1f 9e 43 3d
       0.09771846 -0.29730713 0.12307268 0.047758218
000010 2e cc 48 be b7 78 46 be 7a 7b bc 3c 60 70 b1 3d
       -0.19609138 -0.19381987 0.023008097 0.08664012
000020 ed af 50 be b3 10 71 bf 62 44 be ba 88 0f 05 bd
       -0.2037961 -0.94166106 -0.0014516229 -0.032485515
000030 ae 45 cb be c9 19 ac 3d 57 b5 0b bd 46 64 f2 ba
       -0.397016 0.08403356 -0.034108486 -0.0018493019
000040 2f 5a 04 3e 2a a1 c1 ba bd 02 20 be 6f a5 f0 bc
       0.12925027 -0.0014772762 -0.15626045 -0.02937576
000050 c2 ce 50 3e 25 ab 0e 3e b8 2a 02 3d c2 32 3f bd
       0.20391372 0.13932474 0.03177902 -0.046679266
000060 54 31 6c 3d de ef 4a 3d b2 6b 68 be d5 f4 65 bc
       0.05766423 0.04954516 -0.22697333 -0.014035423
000070 c8 21 01 3e 1d b2 29 3e c3 5d b3 3c ed 87 50 be
       0.12610543 0.16571851 0.021895295 -0.20364352
000080 08 67 29 3e ec 87 0c bf 79 37 a8 3c d7 9b 7e bd
       0.1654321 -0.548949 0.020534264 -0.06216034
000090 cc 77 02 bd 56 c3 84 bc c3 15 50 bd 74 56 c4 3d
       -0.03185253 -0.016206425 -0.050802004 0.09586802
0000a0 9b c1 99 be ec ad 03 be d9 f4 0b bd a7 8a 89 3e
       -0.30030522 -0.12859315 -0.03416905 0.26863596
0000b0 08 c5 f8 bc c4 f6 29 3d 31 fe 79 3e 8d 59 06 bf
       -0.03036739 0.0414951 0.24413373 -0.52480394
0000c0 58 55 18 be 2b d9 73 bd 58 2e 7e bd 10 de 87 bc
       -0.14876306 -0.05953328 -0.062055916 -0.01658538
0000d0 80 90 19 be 5e c8 c7 3d 9a 99 d0 3d b8 05 25 be
       -0.14996529 0.09755014 0.10185547 -0.16115463
0000e0 1a 10 f2 be 43 19 94 be 91 68 ba bd c7 9b d7 bc
       -0.4727791 -0.28925523 -0.09101976 -0.026319398
0000f0 36 a7 58 bd 08 bd 9b bc 08 a1 c5 bd cd 2c 77 be
       -0.05289384 -0.019011036 -0.09649855 -0.24138184
000100 70 0c 43 be 40 42 f6 bd ce 1c 1b 3e 4b 6a e3 3d
       -0.19047713 -0.12024355 0.15147707 0.11104258
000110 ce ce 5c be 23 85 e5 3d 7c b0 8c be 07 f8 d7 bd
       -0.21563265 0.112070344 -0.27478397 -0.10545354
000120 4d 6a c9 3e 0e 0a 26 3e d2 8a bd be fc d2 8d 3b
       0.39338914 0.16214773 -0.37019974 0.00432813
000130 20 0f bb bd df bb bb bd f9 0a 55 be 13 a2 48 3e
       -0.09133744 -0.09166693 -0.20804967 0.19593076
000140 dc 31 b1 3e 4e f5 3a bc cb 4c 82 3d 13 b8 1d bf
       0.34608352 -0.011411024 0.06362303 -0.61609
000150 37 c4 1e bc d7 db c9 be 15 a6 cb 3c 48 84 29 bd
       -0.009690336 -0.39425537 0.024859468 -0.04138592
000160 79 36 12 bd 96 f8 99 3c b7 8c 05 be 1f 03 40 3e
       -0.03569648 0.018795293 -0.1304196 0.1875119
000170 d1 49 6f bc 4b 01 30 be 66 16 53 be 34 e1 fc bb
       -0.014605002 -0.17187993 -0.20614013 -0.007717276
000180 da 33 f7 3e 83 4c 52 3d 56 fd 1b 3d 2e ff ba 3d
       0.48281747 0.0513425 0.038083397 0.09130703
000190 b4 ca d0 bc a2 07 22 3d 93 95 d5 3d 32 c7 4a be
       -0.025487281 0.03955806 0.1042892 -0.1980255
0001a0 68 08 8e bd 82 1b 4a bd c1 16 80 3d 0e 8c dc 3d
       -0.06935197 -0.04934264 0.0625434 0.10768901
0001b0 87 57 86 be 05 ec 7b be 52 ac 77 3e d2 da 92 bd
       -0.26238653 -0.24601753 0.24186829 -0.07170643
0001c0 5d 52 d4 3e f8 b8 5d 3e 75 aa 47 be 52 4d 83 3e
       0.41469088 0.21652591 -0.19498618 0.25644928
0001d0 0d 0e 7b 3c 47 32 a6 bb 9c a5 8f 3d 5c 84 07 bf
       0.015323174 -0.0050719115 0.07014009 -0.5293634
0001e0 32 29 f9 bd fb 19 97 be c3 b7 00 be 5a 13 87 3d
       -0.121660605 -0.2951201 -0.125701 0.06595488
0001f0 83 6c e0 bd b5 cf 36 3e c6 a1 6f be 0c fc 91 3c
       -0.10958197 0.17852671 -0.23401555 0.01782038
000200 ca 58 3f 3c 9a 7c aa 3c 98 e7 5f 3d 88 86 9d 3b
       0.011678884 0.020811368 0.054664224 0.004807297
000210 45 63 b2 bd bd eb 06 bf 29 be 08 3e 2f 24 5e 3d
       -0.087103404 -0.5270346 0.1335379 0.054233726
000220 0d be 30 be e3 a8 9d 3e 04 6c f8 bc be 69 dc 3e
       -0.17259999 0.30792913 -0.030324943 0.43049425
000230 5e 3a 9c bd ca a8 c4 bc 1f 41 0a 3e b7 68 18 be
       -0.0762832 -0.024006266 0.13501404 -0.14883696
000240 6f 2f a6 bc 3a 8d c2 3c 32 e2 c8 be 04 86 f1 be
       -0.02028629 0.023748983 -0.39235073 -0.47172558
000250 4c 5b d0 bd af 19 ab 3e 98 29 5b 3d f6 61 57 be
       -0.101736635 0.33418033 0.053506464 -0.21033463
000260 d9 70 d0 bd 4b 73 2c bd 17 a4 b2 be f6 16 c3 3d
       -0.10177774 -0.04210214 -0.34890816 0.09525864
000270 c6 61 27 be 30 9a 41 bd 02 04 bb 3d c2 50 7c be
       -0.16345891 -0.047266185 0.09131624 -0.24640182
000280 62 5c fd 3d ff 81 86 bd 23 13 3e 3e b2 1d 2c be
       0.12371136 -0.065677635 0.18561988 -0.16808203
000290 aa e8 d2 bc 0a 96 de bd 23 7e 45 3d eb e7 b3 be
       -0.025745708 -0.108684614 0.048215996 -0.35137877
0002a0 70 6b 73 be 11 ed 79 be d9 a3 02 3e f4 f3 61 be
       -0.23771453 -0.2440684 0.12757815 -0.22065717
0002b0 98 16 b7 bd 21 26 98 3e 43 01 91 bd d3 42 50 3d
       -0.08939856 0.2971659 -0.07080319 0.05084498
0002c0 7a 91 7b bd 7e cb 2b bd d0 58 97 3c 0b 5e 05 3e
       -0.061418034 -0.041942112 0.018474966 0.13024156
0002d0 7f 6c 31 3e 16 ce b6 3e c4 e7 14 bf 7b 42 6b 3d
       0.17326544 0.35704106 -0.58166146 0.057436448
0002e0 14 9c 4d bf 22 ee a4 be 5e d1 72 bd 1b 2c 4e 3e
       -0.8031628 -0.3221293 -0.0592817 0.20134012
0002f0 23 2e 6c bc 86 8c 14 bf f7 fa 46 bc 10 2b 93 bd
       -0.014415297 -0.5802692 -0.012144796 -0.07185948
000300 ea 4e 4f be 1c 3c 1e bf 44 d0 18 3e d2 b7 7d 3e
       -0.20244947 -0.6181047 0.14923197 0.24777153
000310 34 59 31 be c4 02 86 3e dd 63 27 be c0 d6 5e be
       -0.17319185 0.26173985 -0.16346689 -0.21761608
000320 ad e8 58 bf 6c 28 c1 3d 6b a5 75 bd ca a3 11 3d
       -0.84730035 0.09431538 -0.059972208 0.035556592
000330 5c 1b d6 3d 13 ee d1 36 b1 9f 10 be 14 11 3d 3c
       0.10454437 6.256401e-06 -0.14123417 0.011539716
000340 ed 16 09 3e b5 f7 b7 bd 31 99 88 3e c6 56 30 be
       0.13387652 -0.08982793 0.26679376 -0.17220601
000350 75 46 0c 3d f7 8f 15 bf 61 ca aa bd e0 86 44 3d
       0.03424688 -0.584228 -0.08339382 0.04798019
000360 d6 34 b2 bc 18 c5 81 3c 1c f3 e9 bd 52 a7 4b be
       -0.02175371 0.015841052 -0.114233226 -0.19888046
000370 02 3d 14 ba 83 10 b3 be 32 3a b3 be fd 55 58 3d
       -0.0005654843 -0.34973535 -0.35005337 0.05281638
000380 a5 ae a2 3e 42 cb fe bd 0a 31 32 3c 5e 68 29 be
       0.31773868 -0.12441112 0.01087595 -0.16543719
000390 9b d5 32 be 02 31 5f bd 21 01 3c bd e3 a5 51 be
       -0.17464297 -0.054490097 -0.045899514 -0.20473437
0003a0 e4 d9 50 3e 4b 6d 18 bd c8 cd d5 bd 5b 77 04 bd
       0.20395619 -0.037213605 -0.1043964 -0.03234039
0003b0 c7 9d 1e 3d 0b 7d 06 be 4e a5 4f 3d 6a 88 b1 3d
       0.038724687 -0.13133638 0.050694756 0.08668597
0003c0 aa 1f bd 3e 03 e3 89 be 9e b8 a3 be c2 1e 33 bd
       0.3693822 -0.2693101 -0.3197679 -0.043730505
0003d0 ac eb 92 3d 51 3e a1 3d a0 21 43 3d 66 48 3b bd
       0.07173857 0.07873214 0.04763949 -0.04572334
0003e0 13 d3 09 3f a9 2a 17 be 79 7d 98 3c fd 56 a2 bb
       0.538377 -0.14762367 0.018614518 -0.0049542175
0003f0 01 c5 93 bd 9b c1 3c bf ce ff a1 be 1a 20 76 3d
       -0.0721531 -0.7373292 -0.31640476 0.06008921

fc3.bias f4 [64]
000000 06 82 1f bc a2 67 06 be 90 0c 40 be 84 1a 51 bc
       -0.00973559 -0.1312547 -0.18754792 -0.0127626695
000010 bc f4 bb bd 7e df b0 be 4e 9e fc bd 73 c9 f1 3d
       -0.09177539 -0.3454551 -0.12334882 0.118060015
000020 c4 55 14 be 55 80 a8 bd 0d 12 b1 be 71 cd 2a be
       -0.14485842 -0.082276024 -0.34584084 -0.16679932
000030 be 50 30 be 5a 34 1c be 0b 04 64 be b0 b2 4e 3e
       -0.172183 -0.15254346 -0.22267167 0.20185351
000040 22 bf b5 bd 0e ee bb bd 67 0f a2 be 8e e1 98 3d
       -0.08874346 -0.09176265 -0.31652376 0.07464896
000050 87 07 87 be bc c9 79 3e 02 a6 0a be 19 b3 f3 bc
       -0.2637293 0.24393362 -0.1353989 -0.029748486
000060 49 ae 99 be a8 4b aa 3d de 36 f3 3d f1 0f 94 3e
       -0.30015782 0.083152115 0.118756995 0.28918412
000070 a2 72 b6 3e cd bb 81 3d ab 6f 16 3d c0 67 10 3e
       0.35634333 0.06334648 0.03672759 0.14102077
000080 7b 79 fc bc 65 ce bc bd 45 48 c0 bd e0 c6 16 be
       -0.030819645 -0.09219054 -0.09388784 -0.14724302
000090 f9 23 75 bd 0e f2 ac bd bf a6 75 bd 95 b5 29 3e
       -0.05984876 -0.08444606 -0.059973475 0.16573174
0000a0 99 b6 8a 3e b0 cb de bd 84 bb db bd 4c 6a 0c be
       0.27092436 -0.10878694 -0.10729125 -0.13712424
0000b0 60 4b 5a 3e 6b d2 7c bd e4 47 5c 3b 69 dd e0 bd
       0.21317816 -0.061724108 0.0033612186 -0.10979731
0000c0 69 23 ed 3e 43 6b d5 be 0d c6 06 be 59 80 d0 bd
       0.46316078 -0.41683397 -0.13161488 -0.101807304
0000d0 11 3b 22 3e 48 9c 2d 3e 39 c8 98 be 61 2e 46 be
       0.15842845 0.16954148 -0.29840258 -0.1935363
0000e0 15 16 06 be ae ab 81 bb 1b 31 25 3e c0 1e 8e bc
       -0.13094361 -0.0039572334 0.16132013 -0.017348647
0000f0 ba d0 8a be c6 a0 08 3e 46 9d 99 be 84 79 3a 3e
       -0.2711237 0.1334258 -0.30002803 0.18210417

fc4.weight f4 [128, 64]
000000 18 25 8c 3e 45 93 c0 be 24 11 59 bc 74 ba 18 be
       0.2737205 -0.37612358 -0.013248716 -0.14914876
000010 2d 1f 20 be 79 68 5e be 5b e0 f7 ba 60 38 2c 3f
       -0.15636893 -0.2171954 -0.0018911468 0.6727352
000020 f5 d9 fa bc 6d 32 d8 3d bb d6 f1 bd b6 ce 88 bc
       -0.030621508 0.10556493 -0.11808535 -0.01670013
000030 c8 24 04 3c 79 01 c9 bc b0 40 af 3a 40 e3 62 be
       0.00806541 -0.024536835 0.0013370719 -0.22157001
000040 ac 51 0e bb 5f 77 96 bd b8 7d e5 3b 5a b9 4e be
       -0.002171616 -0.07346987 0.0070035122 -0.20187894
000050 1b 65 43 bd 04 32 35 bf be 5a 7a 3c 06 c6 8a 3e
       -0.047703844 -0.7077944 0.015280424 0.27104205
000060 0e de 10 be ad ad 78 3e 0f 4e 46 3e a3 6d 08 3e
       -0.14147207 0.24285002 0.19365714 0.13323073
000070 da a5 30 3e 2f d8 14 be aa 76 0d 3f 40 ad 05 3f
       0.17250767 -0.14535592 0.5525919 0.52217484
000080 4f da 2b be cd c2 e2 3e 3e 84 e6 bd 2d 45 00 bd
       -0.16782497 0.44289246 -0.11255692 -0.03131597
000090 72 f1 50 3c 22 27 10 3d 52 0a 2c be 46 0b 84 3e
       0.012752878 0.03519357 -0.16800812 0.2578985
0000a0 6f 24 db 3d 2f 7e e1 bc 4b 3c e9 bc 17 a9 9e bc
       0.107003085 -0.02752599 -0.028471133 -0.019367738
0000b0 cf fe f3 3e b8 7b f0 3c ff f2 66 3e 50 d1 f2 3d
       0.4765534 0.029355869 0.22553633 0.118563294
0000c0 21 b5 7c 3e d2 00 ab bc 84 1c 3b 3e d8 f3 07 bc
       0.2467847 -0.020874415 0.18272597 -0.008297883
0000d0 f7 93 92 3e 72 53 87 3e 09 d5 85 3d df 70 99 3e
       0.28628513 0.2643085 0.06534774 0.29968926
0000e0 de 17 e8 bb c2 90 0e 3e 61 6c 82 3e 96 f3 8d be
       -0.0070829233 0.13922408 0.25473312 -0.27724904
0000f0 1d b5 6e be b6 6b 0c 3f 9d b5 f5 bd ba 6c c0 3d
       -0.23311277 0.54851854 -0.119975306 0.09395738
000100 60 b6 a1 3b 50 a6 d2 bd 70 0b ea bd 80 3a 1f 3b
       0.004935071 -0.10285628 -0.11427963 0.0024296343
000110 80 1a 70 bd f8 99 a7 3c b8 f5 11 3d 08 61 66 3d
       -0.058619022 0.02045916 0.035634726 0.05624488
000120 28 00 1f 3d 54 7c e1 3d b0 d6 5c bd 90 9a 18 bd
       0.03881851 0.11010042 -0.05391568 -0.037256777
000130 9c d4 a5 bd 9c 82 b8 bd 8c ab 67 bd 9a 40 d4 3d
       -0.08097193 -0.09009287 -0.056560084 0.10363884
000140 90 3f 38 bc d0 d4 5c 3c 38 ae 84 3d f4 8a 45 bd
       -0.011245623 0.013478473 0.06478542 -0.04822822
000150 c8 33 fd bc 6c 17 0a bd 60 4e c0 3b 74 98 75 bd
       -0.03090848 -0.033713743 0.005868718 -0.059959844
000160 c0 77 e5 3b 5e ed 90 3d d0 54 47 3d e4 e0 80 bd
       0.0070028007 0.07076524 0.048664868 -0.062928945
000170 a4 2c 2e 3d b8 c5 a8 3d 72 82 be 3d ec e6 3f 3d
       0.04252304 0.08240837 0.09302224 0.046851084
000180 ba 30 a1 3d 36 24 b2 3d a4 cd fc 3d e0 c1 e9 bb
       0.07870622 0.08698313 0.1234391 -0.0071337074
000190 94 77 70 3d 78 cc 26 3d 00 95 5f 3d 00 14 c4 39
       0.05870779 0.04072234 0.054585457 0.00037398934
0001a0 50 a7 55 3d 04 c3 ab 3d ee 50 b7 3d 8e 3a e0 3d
       0.052161515 0.08386806 0.08950983 0.109486684
0001b0 cc b5 3b bd 58 a4 cd bc 4c 1e 92 bd 7c a7 7e 3d
       -0.045827672 -0.02510278 -0.07134685 0.062171444
0001c0 a4 94 49 bd e4 7c 68 bd fe 10 fd 3d 32 28 e5 bd
       -0.04921402 -0.05675973 0.12356757 -0.11189307
0001d0 46 7f ef 3d 6a d2 93 bd f8 6f 68 3d 28 df 42 3d
       0.11694197 -0.07217868 0.056747407 0.0475761
0001e0 00 21 f0 bd aa 31 c3 bd b8 d1 fa 3d 9a 13 ad 3d
       -0.11725044 -0.09530957 0.12247032 0.08451004
0001f0 34 7b fc bd d6 27 ea bd 5e 7a 83 bd 2c 2b e6 3d
       -0.12328187 -0.11433379 -0.06419824 0.11238703
000200 e0 4b e1 3d 84 82 e3 bd 00 b5 23 bd 6c 24 11 bd
       0.110008 -0.11108878 -0.039967537 -0.035435125
000210 00 40 08 b8 20 67 2c bd 48 32 b1 3c 98 98 8e bc
       -3.248453e-05 -0.042090535 0.021630421 -0.017406747
000220 70 72 40 bc ec 3b 09 bd 80 2d db ba 40 50 fa 3c
       -0.011746034 -0.03350441 -0.0016721934 0.030555844
000230 aa 17 df 3d c6 3e b6 3d 9a 58 df 3d e0 78 5a 3d
       0.108931854 0.08898692 0.10905571 0.05333793
000240 ca d1 a7 3d 60 19 ed bd 7c 9e 1c bd 30 63 26 bc
       0.08194311 -0.115771055 -0.03823708 -0.010155484
000250 ce 83 e0 3d b8 20 ee bc d0 7e 2a bd 68 2d a7 bd
       0.1096264 -0.029068336 -0.041624844 -0.081629574
000260 ea b8 92 3d 04 ef df 3d 1a 87 9c bd f8 ff cf bd
       0.07164176 0.109342605 -0.07642956 -0.10156244
000270 48 46 ae 3d e0 40 b2 bb f0 cf 19 3d 6c 53 35 bd
       0.08509499 -0.0054398626 0.03755182 -0.04426901
000280 d4 fb 60 bd 52 78 b0 3d d8 20 a1 3c 3c 38 7d bd
       -0.054927662 0.08616699 0.019668981 -0.061821207
000290 6c 54 cc 3d 9c d8 d5 3d d0 c4 51 3d d4 1f c6 3d
       0.0997704 0.104417056 0.051213086 0.096740395
0002a0 dc df 92 bd bc 52 4e 3d b0 df 15 bc 0c eb 48 bd
       -0.07171604 0.05037187 -0.00914757 -0.049052283
0002b0 14 1c 76 bd ba 51 a1 bd 54 2e f4 3d dc 52 b3 bd
       -0.06008537 -0.07876916 0.11922899 -0.087560385
0002c0 54 18 8a 3d f0 e4 69 3d dc 67 c4 3d 64 11 bf bd
       0.067429215 0.057103097 0.09590122 -0.09329489
0002d0 6a e8 be 3d 06 4c a9 bd a0 13 5c 3c 94 19 62 bd
       0.09321673 -0.082664534 0.013432413 -0.055200174
0002e0 00 5f 59 bd 0e ff b2 3d d4 c6 34 3d 9a c3 ac bd
       -0.053069115 0.08740054 0.04413493 -0.084357455
0002f0 a0 6c f2 3c 7a 05 98 3d 06 15 c9 bd 80 43 78 3b
       0.029592812 0.074229196 -0.09818463 0.003788203
000300 68 b5 91 3c 52 f8 b6 3d a0 cf e5 3b ae 85 b8 3d
       0.017786697 0.08934082 0.007013276 0.090098724
000310 94 61 e5 bd 80 bb dd ba b8 35 30 3d 80 71 9a 3b
       -0.11200252 -0.0016916841 0.04301998 0.0047132373
000320 e0 50 b8 bd 00 fe 27 ba 78 50 c3 bc f4 4b ca bd
       -0.08999801 -0.00064083934 -0.023842081 -0.09877768
000330 66 59 a9 bd 78 57 f5 3c c0 e9 13 3d f4 2a 88 bd
       -0.082690045 0.029948935 0.036111593 -0.06648818
000340 00 ad 42 3a 98 88 4e bd 70 71 d6 3d b0 b5 68 3d
       0.00074262917 -0.050423235 0.10470855 0.056813896
000350 00 d3 65 3d 00 02 9c 3b 38 f9 f6 3d 00 2d c6 3c
       0.05610943 0.0047609806 0.120592535 0.02419138
000360 f8 92 9b bd 68 09 9a 3d 80 62 d6 ba 14 1d 6b 3d
       -0.075963914 0.07521325 -0.001635626 0.057400778
000370 60 28 b7 bc 16 af bd bd d8 e2 2b bd 5a 97 bd 3d
       -0.02235812 -0.092619106 -0.041964382 0.09257384
000380 2e 35 c0 bd 4e 15 ae 3d b4 45 ff 3d 96 d8 89 bd
       -0.09385143 0.08500157 0.12464467 -0.067307636
000390 98 4a 1f bd 40 d0 52 3d 00 88 ac 3c 38 4c bc 3d
       -0.038889498 0.051468134 0.021060944 0.09194225
0003a0 00 46 3b 3d d6 2c 83 3d 6a cd 8e bd b4 12 7a 3d
       0.045721054 0.06405036 -0.069727734 0.061052993
0003b0 d0 40 d6 3c 68 ce fb bc 58 c1 10 3d e2 f5 bf 3d
       0.026153952 -0.03073807 0.035340637 0.0937307
0003c0 60 ea 2a 3d a0 2e f2 3d 50 12 87 3c 22 f7 ee bd
       0.041727424 0.11825299 0.016488224 -0.116682306
0003d0 3a c6 f0 3d 30 7f df bc b8 ff b3 bc ea 78 a9 3d
       0.11756559 -0.027282327 -0.021972522 0.08275016
0003e0 e4 43 43 bd e0 08 af bb f0 29 5c bc 0c 3c 8e bd
       -0.047672167 -0.005341634 -0.013437733 -0.06945047
0003f0 fe 50 d2 bd 5a 15 9c bd 60 d2 e3 3c 88 b8 a7 bd
       -0.10269354 -0.0762126 0.027810276 -0.081894934

fc4.bias f4 [128]
000000 29 c7 6b 3d 80 8a e8 3a 8a 14 f4 3d 00 f5 56 bb
       0.05756298 0.0017741472 0.1191798 -0.003279984
000010 5c a5 fa 3d 80 74 7b bb a6 0b 89 3d 10 93 af bd
       0.12238571 -0.0038369 0.06691675 -0.08572972
000020 6e 67 84 bd 80 cc b2 ba 88 82 9e bd 42 f3 e3 bd
       -0.0646504 -0.0013641268 -0.077397406 -0.11130382
000030 64 21 1f 3d 08 25 51 3d 50 58 86 bc da 61 eb bd
       0.038850203 0.051060706 -0.016399533 -0.11493273
000040 88 0c 34 3d ec a6 68 3d 00 e1 06 3a 08 5d d2 bc
       0.043957263 0.056799814 0.0005145222 -0.025679126
000050 ae a6 fb 3d 18 91 62 3d be d8 9b 3d 68 2a 78 3d
       0.12287651 0.055314153 0.076097 0.060587317
000060 68 a7 5c 3d f0 9d 90 3d ca be ea bd 90 a8 5f bd
       0.05387059 0.07061374 -0.114621714 -0.054604113
000070 b0 97 ae 3c 82 d5 db 3d a2 2b a6 3d c2 3f e1 bd
       0.021312565 0.10734083 0.08113791 -0.10998489
000080 48 5d 43 bd fe c3 a8 3d 74 51 ed bd ea b0 b7 3d
       -0.04769638 0.082405075 -0.115878016 0.089692906
000090 80 b4 e5 bb 04 57 bf bd c0 10 59 3b 70 ce eb bd
       -0.0070100427 -0.09342769 0.0033121556 -0.11513984
0000a0 b8 81 74 bd 80 f3 05 3d 32 4a fb 3d a0 78 a7 bd
       -0.059694022 0.032702923 0.12270011 -0.08177304
0000b0 82 4a b8 bd 86 94 f7 3d d8 1f 9b bc 40 ab e1 bb
       -0.08998586 0.120888755 -0.018936083 -0.0068868697
0000c0 94 a8 65 3d 54 bf fa 3d cc 38 69 bd 66 b0 dd 3d
       0.05606897 0.12243524 -0.05693893 0.10824661
0000d0 68 77 ec 3c 60 df ba bc ae b8 bf 3d 9e 63 fa bd
       0.028865531 -0.022811592 0.09361397 -0.12226032
0000e0 e4 8f 31 3d f4 88 90 3d 40 6e 32 bb ec 6b ab 3d
       0.043350115 0.07057372 -0.0027226359 0.08370194
0000f0 3c f6 d5 bd 68 91 75 3d e4 df cb bd 82 45 a2 3d
       -0.10447356 0.059953123 -0.09954813 0.07923414
000100 14 ea 75 3d a8 21 9c 3c 48 4c b7 3d ec 47 0a bd
       0.060037687 0.019059017 0.08950096 -0.033759996
000110 4a 0a bb bd 00 68 1f bc ac 2c 81 3d 40 fb 57 bc
       -0.09132822 -0.009729385 0.063073486 -0.013182461
000120 c8 2d df bc 64 17 91 bd 40 1b 76 bb 88 f8 99 bd
       -0.02724351 -0.070845395 -0.0037552863 -0.07518107
000130 1c bb ce 3d 78 39 5f 3d f6 66 bf bd 78 d0 f7 bd
       0.10094282 0.054498166 -0.0934581 -0.12100309
000140 28 80 18 bd c4 e0 72 bd 44 e1 01 bd 26 92 f6 3d
       -0.037231594 -0.059296384 -0.03170897 0.12039594
000150 e0 eb a4 3d 42 3c d1 bd 40 e7 4d bb 18 30 26 3d
       0.08052802 -0.102165714 -0.0031418353 0.04057321
000160 ec 85 36 bd f2 17 b7 3d 3a 49 bc bd 3c b2 0e 3d
       -0.04456131 0.08940114 -0.09193654 0.034837946
000170 ca 61 f8 3d 10 0f 20 3d 00 55 94 3b 20 3c d7 3b
       0.12128027 0.039076865 0.0045267344 0.0065684468
000180 b4 b1 51 3d 74 36 e3 3d 74 53 ab 3d 0c 78 c6 bd
       0.05119486 0.110943705 0.08365527 -0.09690866
000190 58 0b 9a 3d 98 e4 73 3d 66 c5 90 3d ca 2e f9 3d
       0.07521695 0.059544176 0.07068901 0.121671274
0001a0 12 7a cd 3d 3e 40 b1 3d 60 3e 0e bd da 55 e8 3d
       0.10033049 0.08654831 -0.034727454 0.113445
0001b0 4c 9a 95 bd 32 97 99 bd a4 61 3b bd 94 b9 07 3d
       -0.073048204 -0.07499541 -0.045747414 0.033135965
0001c0 b8 e3 f2 bc f6 f9 e5 3d 78 59 84 3c d8 3e d0 bc
       -0.0296496 0.11229317 0.016155943 -0.025420591
0001d0 10 69 dc 3d c2 94 ee 3d 68 3e ba bd d8 b6 6e 3d
       0.107622266 0.11649467 -0.09093934 0.058279842
0001e0 48 bb ac 3d ac f2 67 bd 1e 46 dd 3d cc cc e1 bd
       0.084341586 -0.056627914 0.108043894 -0.1102539
0001f0 54 4f 4d bd bc c3 fc bd 4c 5e ac 3d 10 e4 f6 3c
       -0.05012448 -0.12342021 0.08416423 0.030138046
