models/comparison_apache@curator_2500ep_dqn/pairwise_dqn_apache@curator_2500ep_dqn.pt (torch, 193780 bytes, 8 tensors)

fc1.weight f4 [128, 112]
000000 51 f5 cd 3d 16 09 08 3e 87 d8 47 3e 59 f0 f9 3d
       0.10056556 0.13284716 0.19516192 0.12204046
000010 b1 ee 7e 3d 57 37 6a 3d d9 cc 05 3e c4 a0 35 3e
       0.062239353 0.057181682 0.13066424 0.17737108
000020 df cb 81 3d b8 48 a7 3d b2 fe 0d 3e ce c4 1a 3e
       0.063377135 0.08168167 0.1386669 0.15114138
000030 aa 95 97 3d 2e e8 fa 3d ef ec 75 3e 25 04 1d 3e
       0.07401593 0.12251316 0.24016164 0.15333612
000040 54 ff 34 3e e4 f9 6f 3e 09 91 05 3e 75 00 75 3e
       0.17675525 0.2343517 0.13043608 0.23925956
000050 6d 82 65 3e 12 95 13 3e 6b b9 13 3e 6b db c1 3d
       0.22413035 0.14412335 0.144262 0.09465679
000060 97 1c a5 3d 59 e2 5e 3e 8b f2 33 3e 93 34 93 3d
       0.08062094 0.21766032 0.17572992 0.07187762
000070 09 d4 09 3e c5 88 32 3e dd aa 0e 3e 1d 95 01 3e
       0.13459791 0.17434986 0.13932367 0.12654538
000080 6b fd 70 3e 81 d6 4e 3e cc 61 00 3e 3f a1 1e 3e
       0.23534171 0.20199014 0.12537307 0.15491198
000090 7c 0d 6c 3e 03 39 84 3d 87 55 66 3e 44 84 e3 3d
       0.23052019 0.064561866 0.22493564 0.11109212
0000a0 30 da 9c 3e bc 10 55 be b4 53 98 3d 22 27 35 3e
       0.30635214 -0.20807165 0.0743784 0.17690709
0000b0 a9 50 ec 3d 5c 89 d9 3d f9 df 1b be 52 e1 c8 bc
       0.11538822 0.10621902 -0.15222158 -0.024521504
0000c0 da 27 62 3e 0d f6 f7 3d ef 5c 6c 3e d9 73 19 3e
       0.22085515 0.12107477 0.23082326 0.14985599
0000d0 56 3b 0e 3e b8 f0 3a bc f5 61 fb 3d 77 17 1e 3e
       0.13889822 -0.011409931 0.12274543 0.15438639
0000e0 9e b6 71 3e 80 bd 26 3e c3 c1 24 3e d5 8f ae 3d
       0.23604819 0.16283226 0.16089539 0.085235275
0000f0 d4 60 38 3e 21 8e 16 3d 6e ca 30 3e e6 a0 1b 3e
       0.18005687 0.03675664 0.17264721 0.15198097
000100 d7 7e 4b 3e db 63 44 3d 0d ce 78 3d e0 59 75 3e
       0.19872604 0.047946792 0.06074338 0.23960066
000110 9b d6 41 3e e0 6f e1 3d 68 83 23 3e a7 8e 65 3e
       0.18929522 0.110076666 0.15968096 0.22417699
000120 00 82 37 3e d4 7b 2c 3e 22 3f 6f 3e 69 61 1d 3e
       0.17920685 0.16844112 0.23363927 0.1536919
000130 79 c4 e3 3d dd db 71 3e f5 94 86 3d d6 c9 03 3e
       0.111214586 0.23619027 0.0657138 0.12869963
000140 c8 6a 9f 3d 45 39 03 3e 9c e2 16 3e f6 ce 56 3e
       0.07784039 0.12814815 0.14734882 0.20977387
000150 84 c9 88 3d ae 79 60 3e ed d0 16 3e 18 a0 36 3e
       0.06679061 0.21921417 0.14728136 0.17834508
000160 1f d9 ef 3d a0 71 1f 3e 3a ac d6 3d 79 6e 4d 3e
       0.117113344 0.15570688 0.10482068 0.20061673
000170 68 66 17 3e 39 15 30 3d 5a bb 5f 3e 42 8d c3 3d
       0.14785159 0.04298899 0.21848813 0.09548427
000180 a2 d7 56 3c b2 42 4b bd a1 2f 74 3d 1e ec 42 3e
       0.013112934 -0.049624152 0.059615735 0.19035384
000190 63 62 88 3d b1 4b 0c 3e 7f 17 40 be ee eb 3a 3e
       0.06659391 0.13700749 -0.18758963 0.18254063
0001a0 9b f5 10 3e 61 88 fa 3d 97 71 eb 3d 40 37 24 3e
       0.14156191 0.122330435 0.11496275 0.16036701
0001b0 7a 82 07 3e c8 dd b4 bd 36 5d 1b 3e b1 e4 59 3e
       0.13233367 -0.08831364 0.15172276 0.21278645
0001c0 11 a7 68 be f5 fa c0 be 31 c1 e6 bd f8 20 a3 be
       -0.22719981 -0.37691465 -0.11267317 -0.3186109
0001d0 31 4d 53 be dc 48 7c be 5d e4 e7 bd 87 1d 9e be
       -0.20634915 -0.24637169 -0.11322854 -0.30881903
0001e0 4b b3 62 be f4 a4 8f be 4c b6 28 be 47 a8 2a be
       -0.22138707 -0.28055537 -0.1647579 -0.16665755
0001f0 db 55 c8 bd 81 58 c0 bd 67 87 38 be 2e c0 e1 bd
       -0.09782001 -0.09391881 -0.18020402 -0.110229835
000200 9e ba 22 be 4d 57 b7 bd bd ab 09 be e5 48 02 be
       -0.15891501 -0.08952198 -0.13444419 -0.1272312
000210 c5 fa 20 be 07 a4 ca bd 1d 5c b1 bd bb 30 fa bd
       -0.15720661 -0.09894567 -0.08660147 -0.12216326
000220 6a 21 80 be aa f9 a1 bd 76 48 e5 bd d4 05 b3 bd
       -0.25025493 -0.07908948 -0.111954615 -0.08741346
000230 64 e6 a4 bd a8 82 80 be fc 9a 36 be 3d 4e 40 be
       -0.08051756 -0.25099683 -0.1783256 -0.18779846
000240 d2 95 ae bd dd 1d 0d be e2 7e 5f be 68 a0 6a be
       -0.0852467 -0.13780923 -0.21825746 -0.22912753
000250 ba 4c 9d bc 3f 73 88 3d e0 8e ab bd 4f 88 5e be
       -0.019201625 0.066626064 -0.083768606 -0.21731685
000260 9d aa 02 bf 3c 62 2f bf 7e d6 37 be 5e 97 14 be
       -0.51041585 -0.6850927 -0.17952916 -0.14510867
000270 05 1e c5 bd 5e 44 dc bd 06 7b d4 bf eb 05 12 3e
       -0.096248664 -0.107552275 -1.6600044 0.1426007
000280 e8 19 85 bd f8 7e c2 bd 17 39 cc bd a8 b7 02 be
       -0.06499082 -0.094968736 -0.099718265 -0.12765372
000290 ef 79 19 be 6d 4c 3d bf 5e de a2 bd 70 f6 0e be
       -0.1498792 -0.7394474 -0.079525694 -0.13961196
0002a0 7a 27 6e be 7e 2f 1f be 41 1f c3 bd 97 8e 34 be
       -0.23257247 -0.1554546 -0.095274456 -0.17632519
0002b0 0e 66 23 be fe 19 e8 bd e8 f8 38 be fb 1b 8e be
       -0.159569 -0.113330826 -0.180637 -0.27755722
0002c0 8f 12 c6 bd 2d c9 4b be 9f 8d 69 be 32 55 77 be
       -0.096715085 -0.19900961 -0.2280793 -0.24153593
0002d0 1d 42 f8 bd a6 40 3e be 13 9c ae bd f0 12 19 be
       -0.12121985 -0.18579349 -0.085258625 -0.1494863
0002e0 7b c8 5b be 55 8e 1a be ab 28 ae bd 8f 36 74 be
       -0.21463196 -0.15093358 -0.085038505 -0.23848937
0002f0 5f 22 bf bd 82 a9 5b be 84 61 ac bd a8 54 19 be
       -0.09332728 -0.21451381 -0.08417037 -0.149737
000300 20 8f 76 be 40 8f 48 be a2 c7 51 be 9f ea dc bd
       -0.24078035 -0.19585896 -0.2048631 -0.10786938
000310 b3 1a 50 be 5b ca 6f be 7f ac d4 bd 11 a1 70 be
       -0.20322685 -0.23417036 -0.103844635 -0.23498942
000320 8d cd 36 be fa 28 56 be 0c 80 19 be 35 2e 8a bd
       -0.17851849 -0.20914069 -0.14990252 -0.067470945
000330 e6 33 cc bd 9b d6 18 3d 14 d6 42 be cf 84 ca bd
       -0.09970836 0.03731404 -0.19026977 -0.098886125
000340 b8 8a c0 3e a0 76 91 3e ab a8 be bd 26 7a 98 bd
       0.37605834 0.28410816 -0.093095146 -0.07445173
000350 61 4a 59 be 81 ce 77 be 85 c6 e3 be e4 b4 0d 3f
       -0.2121978 -0.24199869 -0.44487396 0.5535414
000360 0e 16 76 be e4 d3 4e be 23 43 64 be 70 69 47 be
       -0.2403185 -0.20198017 -0.22291236 -0.19473815
000370 c2 ff 4c be 95 52 12 3e 50 46 57 be 8d 61 18 be
       -0.20019439 0.14289315 -0.21022916 -0.14880963
000380 72 26 59 3d 20 5a d6 bb e9 4d 97 3d 88 d9 98 3c
       0.05301518 -0.0065415055 0.07387907 0.018658414
000390 29 75 c3 3d 9e 20 06 3e 5f e9 a0 3d 86 e1 a2 3d
       0.09543831 0.1309838 0.07857012 0.079531714
0003a0 47 0c 75 3b 0d fc e9 3d 34 f8 a2 3b 82 99 2e 3d
       0.003739135 0.11425028 0.004973436 0.042626865
0003b0 09 5b 8b 3d 2d 54 88 3d ff 9b ee 3d b1 76 9b 3d
       0.06804473 0.0665668 0.11650848 0.07590998
0003c0 c6 45 b7 3d 2d 06 d8 3d 6f ed 2c 3d 31 34 36 bd
       0.08948855 0.10548053 0.04221862 -0.044483367
0003d0 92 94 23 3d 4e 74 fa 3d 87 5b 0c 3d 0c e0 ac bc
       0.03993661 0.122292146 0.034266975 -0.021102928
0003e0 b7 6a 0a 3e 94 a9 b5 3c de cc d4 bc ee ce da 3d
       0.13517271 0.022175588 -0.025976595 0.10684
0003f0 ce de 94 3d 66 24 83 3d 1d 84 c9 3b bb 20 cb 3c
       0.07269059 0.06403427 0.0061497823 0.02479588

fc1.bias f4 [128]
000000 ed 4d 53 be 70 f4 6c 3e 89 d0 02 be 88 1d ac bd
       -0.20635195 0.2314012 -0.12774862 -0.0840407
000010 dd cf 75 be 52 ca 8d be bb b0 81 3d 06 67 5c bd
       -0.24005075 -0.2769342 0.06332537 -0.05380919
000020 4a cf bf be 74 1b d2 3d 23 35 33 be 08 72 9c 3d
       -0.37462837 0.102591425 -0.17500739 0.07638937
000030 7f e8 07 bd 30 0d d6 3d 39 a0 cf bd 76 e1 81 bc
       -0.03318071 0.10451734 -0.10137982 -0.015854578
000040 17 60 18 3b 96 46 a5 3d 19 bf 15 be 63 9a 8d 3d
       0.0023250633 0.08070104 -0.14623679 0.069142126
000050 0c fa 5e be 35 19 f6 bd a5 0f 02 3e 30 f1 67 be
       -0.21775073 -0.120165266 0.1270128 -0.226506
000060 a3 aa 37 3c 03 9f 8b 3d ae ae 58 be 8a ed b3 be
       0.011210117 0.068174385 -0.21160385 -0.35142165
000070 8e 6e 11 be a9 27 ca be fe 03 8a be dc 37 f8 3d
       -0.1420233 -0.39483383 -0.2695617 0.12120029
000080 80 bb 62 be 9a 0b dd bd cb 0b bd bc f2 d3 54 be
       -0.22141838 -0.107932284 -0.023076912 -0.20783976
000090 b4 82 19 3d 26 24 94 be 6e be 8c bd 29 45 01 3d
       0.037478164 -0.2893383 -0.06872259 0.031560097
0000a0 d5 b6 9e 3b 78 3c b8 bd 6d 07 82 bd b6 50 b1 3d
       0.0048435726 -0.089959085 -0.063490726 0.086579725
0000b0 23 e4 86 bd e7 df bf 3b a7 54 89 be 18 63 7c be
       -0.065864824 0.0058555487 -0.26822397 -0.24647176
0000c0 d2 bc c9 be 94 66 38 bd a7 53 06 be 2d 5d d0 bd
       -0.3940187 -0.0450197 -0.13117848 -0.10174022
0000d0 7d 6f 91 be 83 80 54 be ea 11 10 3d b5 5b 12 bd
       -0.2840537 -0.20752148 0.035173334 -0.03573199
0000e0 ac 55 06 be 61 4e be be 5e 1d 65 be 88 c7 00 bf
       -0.13118619 -0.37169173 -0.22374484 -0.5030446
0000f0 b3 13 cf bc 87 5d d1 bd 44 d8 b7 be 45 c9 0d bf
       -0.025277948 -0.10222917 -0.35907185 -0.5538524
000100 03 c5 34 bd e1 cb 54 be ad 79 be bd 2c 27 9b be
       -0.044133198 -0.20780899 -0.093005516 -0.30303323
000110 da 4a dd be 9c 63 f1 bc a9 20 13 bf f7 5e 1b bb
       -0.4322117 -0.029466443 -0.5747171 -0.0023707727
000120 de 21 09 be f7 d9 ae bc b1 7d 02 bf 8a a4 9f bc
       -0.13391826 -0.021344168 -0.5097304 -0.019487638
000130 50 eb 2b be a3 b6 9d 3d a8 84 87 bd 1b 14 2c bf
       -0.16788983 0.07700851 -0.06617099 -0.6721818
000140 58 a6 0d bd cd 32 58 bd a2 ac 84 bd 35 9f fb bd
       -0.034582466 -0.052782822 -0.064782396 -0.12286226
000150 22 40 95 be 35 96 6e bd 0f a3 5a bc a7 dd 63 bd
       -0.29150492 -0.058248717 -0.01334454 -0.055631306
000160 7b c7 2f bf 79 8b ce bd 23 11 d9 ba cb fb 9a bd
       -0.6866376 -0.10085196 -0.0016560893 -0.07567557
000170 0d 17 53 bd 0d ba ab bd 6a e5 47 be 34 66 63 be
       -0.051535655 -0.08385096 -0.19521108 -0.22206956
000180 05 d6 a8 bd 51 6a 21 3e b5 06 26 be 75 97 58 3c
       -0.08243946 0.15763213 -0.16213496 0.013219704
000190 a7 cd 3e be 9b 82 e2 3d c5 08 8f 3d bb 22 53 bd
       -0.18633138 0.11060067 0.069840945 -0.051546793
0001a0 03 4f 3b bd 3a d2 03 bc a1 10 7e be b6 fa a0 bd
       -0.04572965 -0.008045727 -0.24811031 -0.07860319
0001b0 1d 24 b3 3c ab 2e ff bd be 07 78 3d 93 73 34 3d
       0.021867806 -0.12460073 0.06055426 0.044055533
0001c0 01 5b d1 be 51 39 31 be 23 f3 63 bc 0c b0 ce bd
       -0.40889743 -0.1730702 -0.013912949 -0.10092172
0001d0 9b 03 e8 bd 60 8c 2b 3e 8f 9c f3 be 61 16 80 bd
       -0.11328813 0.16752768 -0.47580382 -0.062542684
0001e0 cf 09 13 be 4b 43 4c 3d 52 ff 97 bd 64 4c f6 bc
       -0.1435921 0.049868863 -0.07421745 -0.030065723
0001f0 bb e6 03 bf 6a de e4 be e4 96 8a bd 80 85 f9 be
       -0.5152394 -0.44700938 -0.06767061 -0.48734665

fc2.weight f4 [128, 128]
000000 9f 0a 9d 3c d4 00 bf bf ee f7 13 3e 3c 52 14 be
       0.019170104 -1.4922128 0.14450046 -0.14484495
000010 e9 60 6d 3d b3 1c 65 be 62 61 23 bf 68 0f 01 3e
       0.05795375 -0.22374229 -0.6382047 0.12603533
000020 eb 62 99 be eb b0 a6 bf 69 a6 d2 3d a2 4b 74 be
       -0.2995828 -1.3022741 0.102856465 -0.23856977
000030 bc e1 80 bd 20 9e 22 bf 60 fa c3 3c e2 07 44 bf
       -0.062930554 -0.6352253 0.023923099 -0.7657453
000040 73 e8 af 3d 14 5e 04 be ae cc 20 3e 95 8b c9 bc
       0.08589258 -0.12926513 0.15703079 -0.02460269
000050 2b 93 a3 be 7f f2 82 bf 15 0a 3b 3e 0c ae 8c be
       -0.31948218 -1.0230254 0.18265565 -0.27476537
000060 6a c4 43 3c 99 09 c6 3d b7 80 53 bf 26 30 a1 3e
       0.011948684 0.09669799 -0.8261828 0.31482047
000070 14 46 24 be df da aa 3d 71 79 0c 3e 0d 3a 24 bf
       -0.16042358 0.083425276 0.13718201 -0.6415108
000080 a1 26 4f be c2 3e 92 bd 21 87 4b 3d 0f bf b3 3e
       -0.2022958 -0.07140876 0.049689416 0.35106704
000090 9a 2f 77 bf 90 48 5e 3f 03 96 70 bf f0 c5 80 bc
       -0.9655701 0.8682947 -0.939789 -0.015719384
0000a0 99 c7 28 be 57 a3 97 3d 3f 51 a0 3d 3d 99 94 3b
       -0.1648239 0.074042015 0.078279965 0.004534869
0000b0 83 d9 bb be b0 ab b7 bd 32 6a 06 3d 19 b6 02 bf
       -0.36689386 -0.08968294 0.03281612 -0.5105911
0000c0 66 62 43 3e c6 cd 45 bf 1a 2b 84 bf 3d e7 87 be
       0.19080505 -0.7726711 -1.0325654 -0.26543608
0000d0 23 0b 18 3e a2 05 16 bb 84 e3 91 3d 4f c2 d9 be
       0.14847998 -0.002289154 0.07123473 -0.42531058
0000e0 f4 8f af bc 1f 64 98 be 1d 21 5b bf 1b 4e 7d 3e
       -0.021430947 -0.29763886 -0.855974 0.24736826
0000f0 0e aa 3e bf f8 c5 d7 bd fa 6b 2d bd 30 7b 92 be
       -0.7447823 -0.105358064 -0.042339303 -0.2860961
000100 1a 62 d1 bd ce 00 0a 3e cc 9d 1e be 1b 77 2d 3e
       -0.102237895 0.1347687 -0.15489882 0.16939966
000110 4a 58 b7 bd 4b 99 2f bf 99 61 0f be ce cc 01 3e
       -0.08952387 -0.6859328 -0.14002074 0.12675783
000120 d3 b4 fa bc 35 f2 31 3d de 57 94 be ca 65 a7 bd
       -0.030603802 0.043443877 -0.28973287 -0.081737116
000130 41 57 38 3e 6c 7f e6 be c4 f3 a7 bd 1d f9 4e be
       0.18002035 -0.4501909 -0.082007915 -0.20212217
000140 e1 73 1b 3d eb b2 32 3d 80 e7 07 be ba 71 75 bf
       0.037952308 0.04362766 -0.13271904 -0.9587666
000150 f8 a8 1d bf 11 31 14 be 6a b5 b2 bd d0 80 e2 3c
       -0.6158595 -0.14471842 -0.08726008 0.027649313
000160 ab 9c 03 bf d3 db e1 3d 8e 3d c2 3a a1 cb bd 3d
       -0.5141093 0.11028256 0.001481937 0.09267355
000170 84 b3 df 3e bb 75 4b bf b6 3c 78 3d 8d 74 0a bf
       0.43691647 -0.7947652 0.060604773 -0.5408409
000180 8a c2 be 3d cd cb 04 bf 88 64 0e 3e bf e6 77 bc
       0.09314449 -0.51873475 0.13905537 -0.015130698
000190 a6 ce bd bd c2 21 52 bf a5 bf 74 3c 0c 40 df 3d
       -0.09267931 -0.8208276 0.01493827 0.10900888
0001a0 40 17 cb be 97 81 28 3d 02 ce b4 3d 7d eb 45 be
       -0.39666176 0.04113921 0.08828355 -0.19328113
0001b0 04 c9 34 bd db 22 05 3e 42 16 af bd 45 e8 af be
       -0.044137016 0.13001578 -0.08549167 -0.34356895
0001c0 c9 29 ee 3d 6a 53 00 bf 6a 46 dc bc e2 81 28 bd
       0.11629064 -0.5012728 -0.026889045 -0.04113949
0001d0 cf 6b b8 be 68 7b 95 bf 83 e2 53 bf f2 0b 00 bd
       -0.3601975 -1.1678286 -0.82767504 -0.031261392
0001e0 be 8b fb bc 90 cf a1 bf 55 60 a6 bd 8a e8 39 3a
       -0.030706283 -1.2641468 -0.081238426 0.0007091841
0001f0 23 e6 4b bf fe bb 59 3e ff ea 6a bd e3 03 2a 3e
       -0.79648036 0.2126312 -0.057353016 0.16603045
000200 d2 69 3e be 5f cd 75 be f7 c1 2f bd 58 e4 9c 3f
       -0.18595055 -0.24004124 -0.04290959 1.2257185
000210 df 8e a3 be fd 6b b7 bd d6 57 30 be b1 5c 8a bd
       -0.3194494 -0.08956144 -0.17221007 -0.06755961
000220 9a f2 c7 3c 16 65 98 be 58 79 c3 3c 3a 25 2f 3f
       0.024407674 -0.29764622 0.023861572 0.6841618
000230 0b 8c 06 3d 51 cd 8b 3f 45 d2 9c 3d 11 a2 8e 3e
       0.0328484 1.0922033 0.07657293 0.27858022
000240 53 a6 e0 bd 8c 56 93 bf 98 95 0d be ba f0 27 3d
       -0.10969224 -1.1510787 -0.13826597 0.04100106
000250 f6 ec 70 3e 77 d9 1c 3f 46 63 8d bf 2d 73 96 3e
       0.23527893 0.61269325 -1.1045921 0.29384747
000260 05 67 bd bc 03 d7 5f 3d 7e 4d 37 be 66 dc a1 be
       -0.023120413 0.05464841 -0.17900655 -0.31613463
000270 fd cb ee 3e 16 86 92 ba d6 e2 e2 be f9 e4 14 bf
       0.46640006 -0.0011178877 -0.44313687 -0.58161885
000280 94 f5 fe bd ab ba 2b be 65 5c 1c 3d 3e 04 0f be
       -0.12449184 -0.16770427 0.03817405 -0.13966462
000290 3b 9e ac be d1 16 0e bf e5 c1 9d 3c e5 6b d1 3b
       -0.3371447 -0.55503565 0.019257495 0.006391036
0002a0 cb a4 40 bf 37 1f 9e 3d e8 05 ed 3b 22 23 a3 3d
       -0.75251454 0.077207975 0.00723337 0.079656854
0002b0 fe 73 a4 3d 73 de 07 bd 67 29 4f be ac c5 8b be
       0.08029936 -0.03317113 -0.20230637 -0.2729925
0002c0 a5 0d 99 be c4 bf 3a be 97 96 75 bf 30 9c 1b be
       -0.29893222 -0.18237215 -0.95932907 -0.151963
0002d0 0f 03 73 bc 2f 90 32 be 1a 2d 7c 3d 01 62 2a 3e
       -0.014832272 -0.17437814 0.06156645 0.16638948
0002e0 09 3a d8 bb 41 58 ee be 4a e1 b2 be 1c 55 cb be
       -0.006598715 -0.46551707 -0.34937507 -0.3971337
0002f0 40 b5 fe be 39 8d 38 be 4a 60 58 3e 47 52 5d 3d
       -0.49747658 -0.18022622 0.21130481 0.054033544
000300 a7 8c de bc 5b 3f 3e bf f9 bc a1 3c 02 da e2 bd
       -0.027166678 -0.7431542 0.01974343 -0.11076738
000310 46 77 c8 3d e4 b3 0d bf bd ec f2 be ee a3 bd 3d
       0.097883746 -0.55352616 -0.47446242 0.09259783
000320 44 05 88 3d 77 6e d2 bc c7 88 65 bf 3b be a3 3f
       0.06641629 -0.02568744 -0.8966183 1.2792429
000330 f5 b1 9b be 56 7b a4 be 40 1a fd 3c e9 05 06 bf
       -0.30409208 -0.32125348 0.030896306 -0.5235277
000340 15 5b d9 bd 57 e4 97 bd 61 f7 a8 bd c8 90 e1 be
       -0.10613076 -0.07416599 -0.08250309 -0.44055772
000350 44 c8 04 3e 8e 43 f2 3c fc 24 47 3d 1a 94 d4 bd
       0.1296702 0.029573228 0.048619255 -0.10379811
000360 98 88 5f bf 93 38 3c bd 94 1f ff bc 72 76 6a 3c
       -0.873178 -0.04595239 -0.031142987 0.014310466
000370 b2 06 af 3b 55 9e 47 bf 47 9d 91 be cd 44 3b bf
       0.0053413743 -0.7797597 -0.28440306 -0.73151857
000380 02 d8 82 3c 3d 81 31 bf 7a 42 ed 3c 17 0a 8e 3d
       0.015972141 -0.69337827 0.028962363 0.06935518
000390 19 a4 fc bb a4 a7 24 bf f3 db b7 3d 0a 76 36 3d
       -0.0077099917 -0.643183 0.08977499 0.044546165
0003a0 bf b3 4d bf 66 3d 26 3b eb d9 b7 be 94 56 00 3d
       -0.80352396 0.0025366186 -0.35908446 0.031332567
0003b0 21 90 54 bd 26 f8 93 ba 52 8f 75 3f 87 db a9 ba
       -0.051895265 -0.0011289164 0.95921814 -0.0012959101
0003c0 1d 3c 38 bf 92 af 77 3d e2 95 74 3b 37 f8 61 bc
       -0.71966726 0.06047017 0.0037320782 -0.013792089
0003d0 5e ad cb be 5f 6f cc be 71 31 50 bf e6 f5 95 3d
       -0.39780706 -0.3992872 -0.8132544 0.07322292
0003e0 bf b1 0f 3d 4c bc a1 bd 2e 64 ac 3d bd 7c 4d bd
       0.03508162 -0.07897243 0.08417545 -0.050167788
0003f0 e6 17 eb be 46 9b 33 bd e5 9e d2 bb 81 ab 5b be
       -0.4591667 -0.043849252 -0.006427633 -0.21452142

fc2.bias f4 [128]
000000 b6 5c 88 3d bb de 5d bf 6e 56 cb be 9f 16 36 be
       0.06658308 -0.86667985 -0.39714378 -0.17782067
000010 c0 fc 17 bf 7a fe 8f bd af e5 4d be 4b 01 15 be
       -0.5937004 -0.070309594 -0.20107149 -0.14551274
000020 62 8c c0 3e 10 24 8f 3d b1 3c 92 3e 8f 0a 7b 3e
       0.37607104 0.069893 0.2856193 0.24515747
000030 f1 84 a9 3e 6e c8 99 be 8f 68 de 3c 14 24 bc bd
       0.3310924 -0.30035728 0.027149467 -0.09186569
000040 ad df c1 bc ee af ec bd 4c 1f 41 3f f8 b7 85 3e
       -0.023666227 -0.115569934 0.7543838 0.2611692
000050 fa 03 c1 3e ce 4f 45 3f 7f 92 d9 bd 16 2c dd bd
       0.37698346 0.770749 -0.10623645 -0.10799424
000060 56 6f 22 3f 3e 43 ee be 1e cf cd bd ee 05 5f bd
       0.63451135 -0.46535677 -0.1004927 -0.054449014
000070 1a f7 ca bc 01 f2 01 3f e9 35 4d bc 43 f6 39 3f
       -0.02477603 0.50759894 -0.01252506 0.7264139
000080 ff 50 09 3e f3 6f 8d be 7f d3 fd bd 7e 8d 76 3e
       0.13409804 -0.27624473 -0.12393855 0.24077412
000090 52 e7 75 be 27 3c 94 bb f3 bb f6 bd f8 c6 21 3e
       -0.24014023 -0.0045237723 -0.12047567 0.15798557
0000a0 44 51 59 3c 4b 09 30 3e 41 d2 32 be f8 da 83 3f
       0.013264004 0.17191045 -0.17463018 1.0301199
0000b0 69 51 a6 bd 43 3a 06 3f 3b 56 16 be 39 00 9c 3d
       -0.081209965 0.5243265 -0.14681332 0.0761723
0000c0 4f 69 ad bf 1e ec 58 3e 3b 81 ea be df 07 6f be
       -1.3547763 0.21183822 -0.4580172 -0.23342846
0000d0 e0 30 0b 3f 55 9f a3 bd c6 e1 2f 3f 0e 03 af 3e
       0.5437145 -0.079893745 0.6870388 0.34182018
0000e0 5d f4 05 3f e5 6a 1a bf f2 61 09 3f 3a 85 07 be
       0.52325994 -0.6031936 0.5366508 -0.13234416
0000f0 15 8d 96 bd 32 c7 3b bf 27 09 83 be ba 90 bc be
       -0.07351128 -0.7335082 -0.2559292 -0.36829168
000100 94 84 20 bd 42 5d d3 be df 25 63 3e 66 62 6b 3e
       -0.039188936 -0.41282088 0.22182415 0.22986755
000110 bf dc 0b 3e 46 27 06 3f 58 44 72 3f 03 39 9f bd
       0.13658427 0.52403677 0.94635534 -0.07774546
000120 1c d5 0d 3e 71 d1 d2 be 34 5e 4a be 9f 25 92 bd
       0.13850826 -0.41175416 -0.19762498 -0.07136082
000130 a9 4d 4f be 9e 97 2f be 2a 24 2f 3f 79 a5 4d be
       -0.20244469 -0.17147681 0.68414557 -0.20082654
000140 21 56 51 3e 40 36 ce bd 39 28 ae bd b2 99 64 bf
       0.20443012 -0.10068941 -0.085037656 -0.8929702
000150 37 b5 43 bd 5a d3 38 be b3 b5 08 be 9f db 04 be
       -0.04778024 -0.18049374 -0.13350563 -0.12974404
000160 71 90 de 3c ac 84 e1 3e 88 96 21 3f 22 93 a5 be
       0.027168484 0.44046533 0.6312032 -0.32338816
000170 fd 9c 84 bd 80 15 17 3d 28 51 9a 3e 0e 04 db bd
       -0.06475256 0.03688574 0.30140042 -0.10694133
000180 7f cb 48 3e 00 09 33 bd 12 44 ae bd 38 b6 f1 3e
       0.19608878 -0.043709755 -0.08509077 0.47209334
000190 86 84 f7 bd 17 1e c7 bd 87 3b f7 bb f9 c9 0a 3e
       -0.12085824 -0.09722536 -0.007544938 0.13553609
0001a0 b1 59 3f be e1 76 4e be 13 72 a2 bc df 87 56 bd
       -0.18686558 -0.20162536 -0.019829785 -0.05237567
0001b0 29 45 76 bd 7d a0 00 3f bf 09 65 3e 80 a1 71 bd
       -0.06012455 0.50244886 0.22366999 -0.05899191
0001c0 5c 50 b5 3e b5 3a 4a 3e f9 54 25 bf 26 b0 36 bf
       0.35412872 0.19748957 -0.64582783 -0.7136253
0001d0 fd 7c 7e be ed a0 01 be a3 37 97 bd e2 5b 6f be
       -0.24852367 -0.12659045 -0.07383659 -0.23374894
0001e0 67 02 af 3d f8 8b 61 be ec e7 32 3e d2 3d eb bd
       0.0854538 -0.2202605 0.17471284 -0.11486401
0001f0 05 b6 15 3e a3 8f 84 be 38 20 bd bc 84 de 96 bd
       0.14620216 -0.25890836 -0.023086652 -0.0736666

fc3.weight f4 [64, 128]
000000 25 b3 7e 3e 25 41 c9 be 26 1a 11 3f 1f 9e 43 3d
       0.24873026 -0.39307514 0.56680524 0.047758218
000010 d1 c9 57 bf 55 6a c1 be 64 25 d1 bd 60 70 b1 3d
       -0.8429232 -0.37776437 -0.1021221 0.08664012
000020 7e 28 35 bf 4f ca 74 bf 86 5e 19 3e 4f d5 32 be
       -0.7076491 -0.956212 0.14977464 -0.17464183
000030 61 e0 46 bf b6 9a a2 be a9 3d 5d 3d 6b 68 ea bc
       -0.77686125 -0.3175866 0.05401388 -0.028614243
000040 2f 5a 04 3e 2a a1 c1 ba 2e e8 8b 3e 0d 2b 7e 3d
       0.12925027 -0.0014772762 0.27325577 0.062052775
000050 18 e4 21 3f 55 6f 0c be b8 2a 02 3d 32 aa 46 bd
       0.6323867 -0.13714345 0.03177902 -0.048502155
000060 0d fd 8d be 64 c9 39 bf a1 7e 38 bf 29 9c ae bc
       -0.27732125 -0.7257292 -0.7206822 -0.021314697
000070 97 7a f5 bd 6b 0e 8a be 72 c8 98 bd 9e c9 c2 3d
       -0.11986273 -0.26964125 -0.07460107 0.09511112
000080 08 67 29 3e aa 9c 55 bf 17 58 e6 bb 54 9a 3d bf
       0.1654321 -0.83442175 -0.007029544 -0.7406361
000090 3e 5a ba bd df ba 12 bf c3 15 50 bd 69 57 7a 3e
       -0.090992436 -0.5731639 -0.050802004 0.24447407
0000a0 5c 08 d7 be 1c e6 a2 3c d9 f4 0b bd 62 71 b4 bd
       -0.41998565 0.019885115 -0.03416905 -0.088106886
0000b0 08 c5 f8 bc 87 32 0d 3f be 10 2b 3e 47 23 39 bf
       -0.03036739 0.55155224 0.16705605 -0.72319454
0000c0 fd 57 88 bf 44 d6 9c be 58 2e 7e bd 10 de 87 bc
       -1.0651852 -0.30632222 -0.062055916 -0.01658538
0000d0 ab 0e e9 bd ca c4 f3 bd ba ad 0b 3f 50 45 df be
       -0.11379751 -0.11902769 0.5456196 -0.4360757
0000e0 86 02 41 bf ae 12 cc be 22 6c 8f be 51 54 36 be
       -0.75394475 -0.39858 -0.28012186 -0.17805602
0000f0 36 a7 58 bd 51 2d b1 be 8d 56 cc bd d8 65 82 be
       -0.05289384 -0.34604886 -0.09977446 -0.25468326
000100 71 00 56 be 5a ea 40 bf 89 67 8d 3d 62 c2 1b 3e
       -0.20898606 -0.7535759 0.069045134 0.1521087
000110 b8 58 12 bf 37 f0 32 be 81 72 f9 be 77 84 b9 be
       -0.57166624 -0.17474447 -0.48720172 -0.36233875
000120 6e 07 a7 3e 5c b3 7d be 28 dc 4b be fc d2 8d 3b
       0.32622856 -0.24775451 -0.19908202 0.00432813
000130 3f c4 1a bf 5f 16 95 be 94 3f 48 bf 1c f4 8a be
       -0.604557 -0.2911863 -0.7822201 -0.27139366
000140 30 48 4c 3e 4e f5 3a bc e5 26 ef be 35 e2 36 bf
       0.19949412 -0.011411024 -0.46709362 -0.71438915
000150 37 c4 1e bc fb c0 fb be 15 a6 cb 3c 48 84 29 bd
       -0.009690336 -0.4917067 0.024859468 -0.04138592
000160 79 36 12 bd f7 aa 21 be 43 bb 4c bf a1 8e ce 3e
       -0.03569648 -0.15787874 -0.7997324 0.40343192
000170 d1 49 6f bc bc f6 50 be 8d 00 dd be 34 e1 fc bb
       -0.014605002 -0.20406622 -0.43164483 -0.007717276
000180 5f d5 08 3b 83 4c 52 3d 56 fd 1b 3d a8 5c 54 bd
       0.0020879132 0.0513425 0.038083397 -0.051846176
000190 b4 ca d0 bc a2 07 22 3d 93 95 d5 3d 58 f2 0d bf
       -0.025487281 0.03955806 0.1042892 -0.5544791
0001a0 68 08 8e bd cb b2 38 be c1 16 80 3d 0e 8c dc 3d
       -0.06935197 -0.18036954 0.0625434 0.10768901
0001b0 6d f3 10 bf cb 6b 91 3e 81 f8 6d bc d2 da 92 bd
       -0.5662144 0.28402552 -0.01452458 -0.07170643
0001c0 ff d4 40 3e 89 13 d4 3e 7c 6c eb be 32 e4 4c bd
       0.18831252 0.41421154 -0.45981205 -0.05002231
0001d0 0d 0e 7b 3c 47 32 a6 bb 9c a5 8f 3d 95 4a 4b bf
       0.015323174 -0.0050719115 0.07014009 -0.7941068
0001e0 89 ce d4 bd 10 48 33 bf e3 e2 4b be 5a 13 87 3d
       -0.10390956 -0.70031834 -0.19910769 0.06595488
0001f0 93 64 b4 be b3 ca 4c 3e 90 ee 01 bf 0c fc 91 3c
       -0.35232982 0.19999199 -0.5075464 0.01782038
000200 bd ac b2 bd 8b 49 2e bd a8 69 58 bd 88 86 9d 3b
       -0.087243535 -0.042550605 -0.052835137 0.004807297
000210 f1 34 05 bf 0d 14 b0 be 1d 81 24 3e 2f 24 5e 3d
       -0.5203391 -0.34390298 0.16064878 0.054233726
000220 45 10 ac be 73 8e 0c be c5 e1 10 bf 90 86 2c 3c
       -0.33606163 -0.13726215 -0.56594497 0.010530129
000230 68 ae d7 be da f8 89 3e ae 68 ab 3e b7 68 18 be
       -0.4212525 0.2694767 0.33478302 -0.14883696
000240 6f 2f a6 bc bd cc b2 bc f8 05 31 be a0 0d f7 be
       -0.02028629 -0.021826142 -0.17287433 -0.48252583
000250 a9 fa 5c bf 77 7b 74 3e 98 29 5b 3d bf d3 08 bf
       -0.8631998 0.23875223 0.053506464 -0.534481
000260 8c c0 f5 be f8 23 cf 3e 41 1f 29 bf f6 16 c3 3d
       -0.47998464 0.4045713 -0.66063315 0.09525864
000270 65 4e 22 bf 95 c4 a3 be 72 23 2c be 5a 30 af be
       -0.6340087 -0.31985918 -0.16810396 -0.34216577
000280 62 5c fd 3d 09 1d 98 be d1 d3 c8 3d 45 d0 ad bc
       0.12371136 -0.29709652 0.09806026 -0.021217475
000290 b4 c9 5b be 19 92 50 be 23 7e 45 3d b5 1d 5e bf
       -0.21463662 -0.20368232 0.048215996 -0.8676408
0002a0 25 99 e5 bd 1c 13 a4 be d9 a3 02 3e 7d 2d 44 bf
       -0.112108506 -0.3204583 0.12757815 -0.7663191
0002b0 14 1b bb bd 9d fd 9a 3e 61 0d 99 bc ee 1e 3d be
       -0.09136024 0.30271617 -0.018683137 -0.1846883
0002c0 1f e8 61 be f6 3b 94 3c cb 3a 38 bd 0b 5e 05 3e
       -0.22061203 0.018094998 -0.044977944 0.13024156
0002d0 31 4c 9e bd 35 58 a4 3e a7 87 3b bf f4 12 d3 be
       -0.07729376 0.32098547 -0.73253864 -0.41225398
0002e0 7c cf b5 bf f9 fe ef be 04 be 57 3d ef 39 35 3e
       -1.4203944 -0.46874216 0.052671447 0.17697881
0002f0 23 2e 6c bc 37 78 8f bf 0b 29 86 bb 10 2b 93 bd
       -0.014415297 -1.1208562 -0.004094248 -0.07185948
000300 e5 10 87 3e 7d b0 5c bf 1b 07 58 3e 36 44 c3 3e
       0.26380077 -0.862068 0.2109646 0.38137978
000310 52 bc fe be cb ed f4 bc 1c 5d 04 be b7 35 22 bd
       -0.49753052 -0.029898545 -0.12926143 -0.039602008
000320 c1 97 69 bf 98 80 f3 bd 23 b3 e3 3e ca a3 11 3d
       -0.91247183 -0.11889762 0.44472608 0.035556592
000330 6b c2 c9 be 14 da e8 bc 22 e6 97 be 91 69 1c be
       -0.39406142 -0.0284243 -0.29667765 -0.15274645
000340 0a 2a 03 3f b5 f7 b7 bd 73 79 3b 3e 90 30 3a be
       0.5123602 -0.08982793 0.18308048 -0.18182588
000350 75 46 0c 3d 35 8c 14 bf 61 ca aa bd e0 86 44 3d
       0.03424688 -0.5802644 -0.08339382 0.04798019
000360 ce 23 7b 3e 77 b1 93 3e 4b dd 0c bd 74 cf 1c bf
       0.24525377 0.28846332 -0.03439073 -0.6125405
000370 02 3d 14 ba c1 ff 21 bf d8 ed 18 bf fd 55 58 3d
       -0.0005654843 -0.63280874 -0.5973792 0.05281638
000380 e3 e1 6f 3e 42 cb fe bd 0a 31 32 3c dc 1a 99 be
       0.23426013 -0.12441112 0.01087595 -0.29903305
000390 7c c3 bf bc 02 31 5f bd 21 01 3c bd 33 db 8e be
       -0.023408644 -0.054490097 -0.045899514 -0.2790161
0003a0 e4 d9 50 3e b1 90 87 3e c8 cd d5 bd 5b 77 04 bd
       0.20395619 0.26477578 -0.1043964 -0.03234039
0003b0 79 d0 fa 3d e5 6c 04 bf a2 f7 5d bd 6a 88 b1 3d
       0.12246794 -0.5172866 -0.05419124 0.08668597
0003c0 ac 9f 5f 3e 86 14 e1 be 45 3e 94 bf 19 1c c4 bd
       0.21838254 -0.4396097 -1.1581503 -0.09575672
0003d0 ac eb 92 3d ad e5 41 3d a0 21 43 3d 71 3e 19 be
       0.07173857 0.047338177 0.04763949 -0.14965226
0003e0 6d 77 77 3e b3 e1 18 bf fc 5e 3a be fd 56 a2 bb
       0.24166651 -0.5971939 -0.18200296 -0.0049542175
0003f0 fd 23 1c bf ab db 41 bf 87 9d 93 be 1a 20 76 3d
       -0.60992414 -0.7572581 -0.2883112 0.06008921

fc3.bias f4 [64]
000000 b9 c2 86 bc d3 33 99 3c a9 a9 8d be de 0a 0a bf
       -0.016450273 0.01870147 -0.27668503 -0.5392283
000010 57 bd c4 be 7a df 65 bf 58 21 80 be b6 24 4c 3d
       -0.38425705 -0.89794123 -0.2502544 0.049839698
000020 1e 4b 54 be 5d e6 42 bf ac 7e 03 bf 99 58 7f be
       -0.2073178 -0.76132756 -0.5136516 -0.24936141
000030 56 fe a4 be 8b 92 86 be ce 28 bd be f6 c4 85 3e
       -0.32225293 -0.26283678 -0.36945194 0.26126832
000040 5f 0d ba be 89 a5 03 bf f9 58 1b bb 1e 9b 97 3e
       -0.36338326 -0.5142446 -0.0023704155 0.29610533
000050 f6 78 1a bf 02 68 80 3e e5 4c 23 be 13 b8 b7 be
       -0.6034082 0.25079352 -0.15947302 -0.35882625
000060 b1 50 22 bf 55 85 9b be 29 67 7a be 92 60 1a 3e
       -0.63404375 -0.30375162 -0.24453415 0.15075901
000070 a0 20 d9 3e 70 3b cd be 3c 7e 9f be 51 af 7a be
       0.42407703 -0.4008441 -0.31150997 -0.2448094
000080 69 fa 9a bc 75 b9 a6 be c7 e4 fa be b2 6b ec bd
       -0.018918233 -0.32563367 -0.49002668 -0.11543979
000090 31 49 9e 3d bd 53 5e be 6d c5 93 be 89 7d 5f be
       0.07728804 -0.21711631 -0.2886156 -0.21825232
0000a0 3e 2d fd 3e 0d d4 44 be 5a 77 c0 be 58 1b 84 be
       0.4944858 -0.19221516 -0.37591058 -0.25802112
0000b0 b7 3b e7 bd 84 17 56 be 3a f4 86 3d 5e f1 da be
       -0.112906866 -0.20907408 0.06589551 -0.42762274
0000c0 3b af 98 3f ce 41 1a bf 0f 71 36 be 70 f4 30 be
       1.1928476 -0.6025666 -0.17816566 -0.17280746
0000d0 76 ad 02 be f8 dc e3 be 5d 73 e9 be 93 3b c4 be
       -0.12761483 -0.44504523 -0.45595828 -0.38326702
0000e0 ee 23 5f 3e b9 05 5d 3d 98 ec 9b bd c6 e0 81 bc
       0.2179105 0.053960536 -0.07613486 -0.01585425
0000f0 72 7d d1 be e6 09 ad 3c b3 c1 4d bf b1 d5 6b 3e
       -0.4091602 0.021122884 -0.80373687 0.23030736

fc4.weight f4 [128, 64]
000000 7e 3c 4e 3e fd 24 a4 be 43 e0 22 bc 7f ae 75 bd
       0.20140263 -0.3205947 -0.0099411635 -0.059980866
000010 c9 ee a9 be 34 b7 2b bd 4b f0 15 3a bd 62 a7 3e
       -0.3318999 -0.041922763 0.00057197054 0.3269252
000020 c7 88 73 3c 93 8d a1 3e f9 28 cb 3e 78 3b cb bd
       0.014864153 0.31553325 0.39679697 -0.09923452
000030 c1 58 83 3e f4 19 82 3e c8 4b 07 3e 80 da 28 bf
       0.2565365 0.25410426 0.13212502 -0.65958405
000040 bb 11 94 3e 9b 89 05 bd 4f 51 04 3f 58 1d 1e be
       0.28919777 -0.032601934 0.5168657 -0.15440881
000050 ec b8 aa be d2 fa c9 be 30 f0 a9 bd 4e 68 b6 3c
       -0.3334421 -0.39449173 -0.08297765 0.022266533
000060 13 45 9c be a0 26 8c 3e 57 7f b4 bc 3f a2 f3 3d
       -0.3052145 0.2737322 -0.022033377 0.1189618
000070 35 3a c0 3e e0 b6 20 bd 13 bb 8f 3e 90 48 0a 3e
       0.37544408 -0.039236903 0.28072414 0.13504243
000080 bd 8b 80 be 30 50 4f 3e e6 27 10 be f2 0e 3e be
       -0.25106612 0.20245433 -0.1407772 -0.18560389
000090 26 07 47 be 7e 24 7c be b5 ba 71 be 1f da 38 bc
       -0.1943632 -0.24623296 -0.2360638 -0.011282473
0000a0 5e 43 da 3e 3c 86 68 3c 08 36 89 3e 87 7d 81 3c
       0.42629522 0.01419216 0.26799035 0.015806926
0000b0 fa fb 91 3e 89 96 13 3d 8b df 3f 3e 1e 87 2e 3f
       0.28512555 0.036032233 0.18737619 0.6817492
0000c0 7b a8 5d 3e 9d d9 66 3c b4 8c 39 be ac 01 4e be
       0.21646301 0.014089969 -0.1812008 -0.20117825
0000d0 e8 83 4e bd 5e 27 61 3e 71 be cb 3d cf 7c d0 3d
       -0.050418764 0.21987674 0.09948433 0.10180055
0000e0 65 68 c1 3e f8 98 4f be 0d 3c 13 3e df cf c7 be
       0.3777496 -0.20273197 0.14378376 -0.3902578
0000f0 35 d1 e8 be 8c 26 6b 3e 43 13 52 3e a0 93 03 3e
       -0.45472112 0.22963923 0.2051516 0.12849283
000100 60 b6 a1 3b 50 a6 d2 bd 70 0b ea bd 80 3a 1f 3b
       0.004935071 -0.10285628 -0.11427963 0.0024296343
000110 80 1a 70 bd f8 99 a7 3c b8 f5 11 3d 08 61 66 3d
       -0.058619022 0.02045916 0.035634726 0.05624488
000120 28 00 1f 3d 54 7c e1 3d b0 d6 5c bd 90 9a 18 bd
       0.03881851 0.11010042 -0.05391568 -0.037256777
000130 9c d4 a5 bd 9c 82 b8 bd 8c ab 67 bd 9a 40 d4 3d
       -0.08097193 -0.09009287 -0.056560084 0.10363884
000140 90 3f 38 bc d0 d4 5c 3c 38 ae 84 3d f4 8a 45 bd
       -0.011245623 0.013478473 0.06478542 -0.04822822
000150 c8 33 fd bc 6c 17 0a bd 60 4e c0 3b 74 98 75 bd
       -0.03090848 -0.033713743 0.005868718 -0.059959844
000160 c0 77 e5 3b 5e ed 90 3d d0 54 47 3d e4 e0 80 bd
       0.0070028007 0.07076524 0.048664868 -0.062928945
000170 a4 2c 2e 3d b8 c5 a8 3d 72 82 be 3d ec e6 3f 3d
       0.04252304 0.08240837 0.09302224 0.046851084
000180 ba 30 a1 3d 36 24 b2 3d a4 cd fc 3d e0 c1 e9 bb
       0.07870622 0.08698313 0.1234391 -0.0071337074
000190 94 77 70 3d 78 cc 26 3d 00 95 5f 3d 00 14 c4 39
       0.05870779 0.04072234 0.054585457 0.00037398934
0001a0 50 a7 55 3d 04 c3 ab 3d ee 50 b7 3d 8e 3a e0 3d
       0.052161515 0.08386806 0.08950983 0.109486684
0001b0 cc b5 3b bd 58 a4 cd bc 4c 1e 92 bd 7c a7 7e 3d
       -0.045827672 -0.02510278 -0.07134685 0.062171444
0001c0 a4 94 49 bd e4 7c 68 bd fe 10 fd 3d 32 28 e5 bd
       -0.04921402 -0.05675973 0.12356757 -0.11189307
0001d0 46 7f ef 3d 6a d2 93 bd f8 6f 68 3d 28 df 42 3d
       0.11694197 -0.07217868 0.056747407 0.0475761
0001e0 00 21 f0 bd aa 31 c3 bd b8 d1 fa 3d 9a 13 ad 3d
       -0.11725044 -0.09530957 0.12247032 0.08451004
0001f0 34 7b fc bd d6 27 ea bd 5e 7a 83 bd 2c 2b e6 3d
       -0.12328187 -0.11433379 -0.06419824 0.11238703
000200 e0 4b e1 3d 84 82 e3 bd 00 b5 23 bd 6c 24 11 bd
       0.110008 -0.11108878 -0.039967537 -0.035435125
000210 00 40 08 b8 20 67 2c bd 48 32 b1 3c 98 98 8e bc
       -3.248453e-05 -0.042090535 0.021630421 -0.017406747
000220 70 72 40 bc ec 3b 09 bd 80 2d db ba 40 50 fa 3c
       -0.011746034 -0.03350441 -0.0016721934 0.030555844
000230 aa 17 df 3d c6 3e b6 3d 9a 58 df 3d e0 78 5a 3d
       0.108931854 0.08898692 0.10905571 0.05333793
000240 ca d1 a7 3d 60 19 ed bd 7c 9e 1c bd 30 63 26 bc
       0.08194311 -0.115771055 -0.03823708 -0.010155484
000250 ce 83 e0 3d b8 20 ee bc d0 7e 2a bd 68 2d a7 bd
       0.1096264 -0.029068336 -0.041624844 -0.081629574
000260 ea b8 92 3d 04 ef df 3d 1a 87 9c bd f8 ff cf bd
       0.07164176 0.109342605 -0.07642956 -0.10156244
000270 48 46 ae 3d e0 40 b2 bb f0 cf 19 3d 6c 53 35 bd
       0.08509499 -0.0054398626 0.03755182 -0.04426901
000280 d4 fb 60 bd 52 78 b0 3d d8 20 a1 3c 3c 38 7d bd
       -0.054927662 0.08616699 0.019668981 -0.061821207
000290 6c 54 cc 3d 9c d8 d5 3d d0 c4 51 3d d4 1f c6 3d
       0.0997704 0.104417056 0.051213086 0.096740395
0002a0 dc df 92 bd bc 52 4e 3d b0 df 15 bc 0c eb 48 bd
       -0.07171604 0.05037187 -0.00914757 -0.049052283
0002b0 14 1c 76 bd ba 51 a1 bd 54 2e f4 3d dc 52 b3 bd
       -0.06008537 -0.07876916 0.11922899 -0.087560385
0002c0 54 18 8a 3d f0 e4 69 3d dc 67 c4 3d 64 11 bf bd
       0.067429215 0.057103097 0.09590122 -0.09329489
0002d0 6a e8 be 3d 06 4c a9 bd a0 13 5c 3c 94 19 62 bd
       0.09321673 -0.082664534 0.013432413 -0.055200174
0002e0 00 5f 59 bd 0e ff b2 3d d4 c6 34 3d 9a c3 ac bd
       -0.053069115 0.08740054 0.04413493 -0.084357455
0002f0 a0 6c f2 3c 7a 05 98 3d 06 15 c9 bd 80 43 78 3b
       0.029592812 0.074229196 -0.09818463 0.003788203
000300 68 b5 91 3c 52 f8 b6 3d a0 cf e5 3b ae 85 b8 3d
       0.017786697 0.08934082 0.007013276 0.090098724
000310 94 61 e5 bd 80 bb dd ba b8 35 30 3d 80 71 9a 3b
       -0.11200252 -0.0016916841 0.04301998 0.0047132373
000320 e0 50 b8 bd 00 fe 27 ba 78 50 c3 bc f4 4b ca bd
       -0.08999801 -0.00064083934 -0.023842081 -0.09877768
000330 66 59 a9 bd 78 57 f5 3c c0 e9 13 3d f4 2a 88 bd
       -0.082690045 0.029948935 0.036111593 -0.06648818
000340 00 ad 42 3a 98 88 4e bd 70 71 d6 3d b0 b5 68 3d
       0.00074262917 -0.050423235 0.10470855 0.056813896
000350 00 d3 65 3d 00 02 9c 3b 38 f9 f6 3d 00 2d c6 3c
       0.05610943 0.0047609806 0.120592535 0.02419138
000360 f8 92 9b bd 68 09 9a 3d 80 62 d6 ba 14 1d 6b 3d
       -0.075963914 0.07521325 -0.001635626 0.057400778
000370 60 28 b7 bc 16 af bd bd d8 e2 2b bd 5a 97 bd 3d
       -0.02235812 -0.092619106 -0.041964382 0.09257384
000380 2e 35 c0 bd 4e 15 ae 3d b4 45 ff 3d 96 d8 89 bd
       -0.09385143 0.08500157 0.12464467 -0.067307636
000390 98 4a 1f bd 40 d0 52 3d 00 88 ac 3c 38 4c bc 3d
       -0.038889498 0.051468134 0.021060944 0.09194225
0003a0 00 46 3b 3d d6 2c 83 3d 6a cd 8e bd b4 12 7a 3d
       0.045721054 0.06405036 -0.069727734 0.061052993
0003b0 d0 40 d6 3c 68 ce fb bc 58 c1 10 3d e2 f5 bf 3d
       0.026153952 -0.03073807 0.035340637 0.0937307
0003c0 60 ea 2a 3d a0 2e f2 3d 50 12 87 3c 22 f7 ee bd
       0.041727424 0.11825299 0.016488224 -0.116682306
0003d0 3a c6 f0 3d 30 7f df bc b8 ff b3 bc ea 78 a9 3d
       0.11756559 -0.027282327 -0.021972522 0.08275016
0003e0 e4 43 43 bd e0 08 af bb f0 29 5c bc 0c 3c 8e bd
       -0.047672167 -0.005341634 -0.013437733 -0.06945047
0003f0 fe 50 d2 bd 5a 15 9c bd 60 d2 e3 3c 88 b8 a7 bd
       -0.10269354 -0.0762126 0.027810276 -0.081894934

fc4.bias f4 [128]
000000 7d 52 08 3d 80 8a e8 3a 8a 14 f4 3d 00 f5 56 bb
       0.033281792 0.0017741472 0.1191798 -0.003279984
000010 5c a5 fa 3d 80 74 7b bb a6 0b 89 3d 10 93 af bd
       0.12238571 -0.0038369 0.06691675 -0.08572972
000020 6e 67 84 bd 80 cc b2 ba 88 82 9e bd 42 f3 e3 bd
       -0.0646504 -0.0013641268 -0.077397406 -0.11130382
000030 64 21 1f 3d 08 25 51 3d 50 58 86 bc da 61 eb bd
       0.038850203 0.051060706 -0.016399533 -0.11493273
000040 88 0c 34 3d ec a6 68 3d 00 e1 06 3a 08 5d d2 bc
       0.043957263 0.056799814 0.0005145222 -0.025679126
000050 ae a6 fb 3d 18 91 62 3d be d8 9b 3d 68 2a 78 3d
       0.12287651 0.055314153 0.076097 0.060587317
000060 68 a7 5c 3d f0 9d 90 3d ca be ea bd 90 a8 5f bd
       0.05387059 0.07061374 -0.114621714 -0.054604113
000070 b0 97 ae 3c 82 d5 db 3d a2 2b a6 3d c2 3f e1 bd
       0.021312565 0.10734083 0.08113791 -0.10998489
000080 48 5d 43 bd fe c3 a8 3d 74 51 ed bd ea b0 b7 3d
       -0.04769638 0.082405075 -0.115878016 0.089692906
000090 80 b4 e5 bb 04 57 bf bd c0 10 59 3b 70 ce eb bd
       -0.0070100427 -0.09342769 0.0033121556 -0.11513984
0000a0 b8 81 74 bd 80 f3 05 3d 32 4a fb 3d a0 78 a7 bd
       -0.059694022 0.032702923 0.12270011 -0.08177304
0000b0 82 4a b8 bd 86 94 f7 3d d8 1f 9b bc 40 ab e1 bb
       -0.08998586 0.120888755 -0.018936083 -0.0068868697
0000c0 94 a8 65 3d 54 bf fa 3d cc 38 69 bd 66 b0 dd 3d
       0.05606897 0.12243524 -0.05693893 0.10824661
0000d0 68 77 ec 3c 60 df ba bc ae b8 bf 3d 9e 63 fa bd
       0.028865531 -0.022811592 0.09361397 -0.12226032
0000e0 e4 8f 31 3d f4 88 90 3d 40 6e 32 bb ec 6b ab 3d
       0.043350115 0.07057372 -0.0027226359 0.08370194
0000f0 3c f6 d5 bd 68 91 75 3d e4 df cb bd 82 45 a2 3d
       -0.10447356 0.059953123 -0.09954813 0.07923414
000100 14 ea 75 3d a8 21 9c 3c 48 4c b7 3d ec 47 0a bd
       0.060037687 0.019059017 0.08950096 -0.033759996
000110 4a 0a bb bd 00 68 1f bc ac 2c 81 3d 40 fb 57 bc
       -0.09132822 -0.009729385 0.063073486 -0.013182461
000120 c8 2d df bc 64 17 91 bd 40 1b 76 bb 88 f8 99 bd
       -0.02724351 -0.070845395 -0.0037552863 -0.07518107
000130 1c bb ce 3d 78 39 5f 3d f6 66 bf bd 78 d0 f7 bd
       0.10094282 0.054498166 -0.0934581 -0.12100309
000140 28 80 18 bd c4 e0 72 bd 44 e1 01 bd 26 92 f6 3d
       -0.037231594 -0.059296384 -0.03170897 0.12039594
000150 e0 eb a4 3d 42 3c d1 bd 40 e7 4d bb 18 30 26 3d
       0.08052802 -0.102165714 -0.0031418353 0.04057321
000160 ec 85 36 bd f2 17 b7 3d 3a 49 bc bd 3c b2 0e 3d
       -0.04456131 0.08940114 -0.09193654 0.034837946
000170 ca 61 f8 3d 10 0f 20 3d 00 55 94 3b 20 3c d7 3b
       0.12128027 0.039076865 0.0045267344 0.0065684468
000180 b4 b1 51 3d 74 36 e3 3d 74 53 ab 3d 0c 78 c6 bd
       0.05119486 0.110943705 0.08365527 -0.09690866
000190 58 0b 9a 3d 98 e4 73 3d 66 c5 90 3d ca 2e f9 3d
       0.07521695 0.059544176 0.07068901 0.121671274
0001a0 12 7a cd 3d 3e 40 b1 3d 60 3e 0e bd da 55 e8 3d
       0.10033049 0.08654831 -0.034727454 0.113445
0001b0 4c 9a 95 bd 32 97 99 bd a4 61 3b bd 94 b9 07 3d
       -0.073048204 -0.07499541 -0.045747414 0.033135965
0001c0 b8 e3 f2 bc f6 f9 e5 3d 78 59 84 3c d8 3e d0 bc
       -0.0296496 0.11229317 0.016155943 -0.025420591
0001d0 10 69 dc 3d c2 94 ee 3d 68 3e ba bd d8 b6 6e 3d
       0.107622266 0.11649467 -0.09093934 0.058279842
0001e0 48 bb ac 3d ac f2 67 bd 1e 46 dd 3d cc cc e1 bd
       0.084341586 -0.056627914 0.108043894 -0.1102539
0001f0 54 4f 4d bd bc c3 fc bd 4c 5e ac 3d 10 e4 f6 3c
       -0.05012448 -0.12342021 0.08416423 0.030138046
