models/comparison_apache@curator_2500ep_dqn/pointwise_dqn_apache@curator_2500ep_dqn.pt (torch, 165120 bytes, 8 tensors)

fc1.weight f4 [128, 56]
00000000: 9de9 39bd c2d4 93bd 8c08 013e 411f 71bd
00000010: aa72 abbd 3e74 86bd 1235 163e 5015 8fbb
00000020: 4ad1 a3bd da2d 813b de2d cbbd b9be dcbd
00000030: 5e1a 1ebc 3051 013e 973c e1bb 11a2 553c
00000040: a6b7 c9bd 3921 acbd f89b 073e 8dff 1b3e
00000050: 1ebb d93d 107d 37bd 1323 c1bc 862d 843d
00000060: 15ba 4abd 2a8a ebbc 2df8 643d 5512 863d
00000070: b70d 69bd 302c a93d 1fee 373d 421b f43d
00000080: cb4c 4ebc 490c d53d d460 3d3d 061b bc3d
00000090: a3fa dd3d 9a8d 053e ae03 bdbd 87c5 0c3e
000000a0: 06c2 6c3d 6cb7 0cbe 4262 fd3d 225b aebc
000000b0: dee1 cbbd 2d3a 553c 3445 073e 9c38 bbbd
000000c0: 0653 493d 2a8f 0bbd 3880 a83d dc5d c33d
000000d0: 644a 86bd 4e05 cabd 90df b9bd 4008 e33d
000000e0: 4489 ed3d ca76 a83d c4c9 84bd bd59 f73d
000000f0: 10ac f93d 5035 47bd effa 3cbd 2aff 16bc
00000100: a14e d1bc 8520 143c 4c93 ff3d 1fee 10bd
00000110: a1a2 e73c 4236 d3bb 3e28 d8bd e30f 103e
00000120: a9ce dabd fe26 033e 3869 72bd 5886 f1bc
00000130: 1ba4 f93c bfa9 0abd aeb9 f43d af51 133c
00000140: db6f 233a e7cf b1bd 088f 80bd 4c29 c23c
00000150: 6396 d3bd cc0c 80bd c84c c63d 8764 5fbd
00000160: 9991 1a3c 7a35 c6bc cd2a 983d f1c4 893d
00000170: faa0 b83d a633 bfbc 7cd8 c43d 7ac3 8ebc
00000180: 7b20 c1bd 83c0 453d 5dfc f7bd b141 bfbd
00000190: 3a4b e23c 8db6 b93d 6cc5 d2bd deca 07be
000001a0: 2e8d 96bd 480c d3bd 553c c9bd 8010 b53c
000001b0: b215 cc3d c273 cf3d 885b e43c eb5a f4bb
000001c0: b397 223e 521e 63bd cef7 2a3d 89a9 85bd
000001d0: 3804 873e a9af 24be 12f7 293d c69f 333e
000001e0: 88b1 6e3e c524 bb3c 6645 81bd 6066 993d
000001f0: 7e62 0b3d 0a3e adbd 1bae 513c 3edd 263e
00000200: b2b2 11bc 290b 683d 0988 f2bc 168f 563c
00000210: 9300 86bc 6241 313e aae6 263e d4c9 7e3a
00000220: 5655 013e 6ac7 743c c3d8 873d 3bda ae3c
00000230: 8955 e23b b0c4 193e 9d0d c23c 8963 4b3d
00000240: 09c9 ea3d 45a0 893e d8d8 70bd 4b00 48bd
00000250: 3b1e d5bc b914 febe 43ef bcbc 1650 b6bc
00000260: ebd0 68bc 2bd3 133e 2378 60bd 7c4f 8ebd
00000270: 4466 423d b0dd 15bd b0c3 833f e511 38be
00000280: d415 3ebd cc54 2e3d f85a 9f3d f33d d13d
00000290: 55b2 60bc 84cf cebe 26d6 ba3d ab49 f43c
000002a0: fa4c d23d 0834 7abc 804c 1ebd 1ec0 8cbb
000002b0: 358d 813e 13ca 2c3c f8ce 373e 41d4 cf3d
000002c0: 0e4f cb3c 8001 323d 58c5 42bd af1a d53c
000002d0: c276 463e 78ad 823d 23fa ee3c b747 f4bc
000002e0: 93f2 b03c d6ca 773b 9ae9 e5b9 2b06 393e
000002f0: ad56 3f3e ece1 393e 8117 72bd 0c1e c73d
00000300: 6001 a23d a7fd 9a3d 1e1a cc3d 7e3f 033e
00000310: 60d2 df3d 28e6 843d 7e76 323d 4716 a73d
00000320: 75a2 a83c 0593 053e 5c24 cd3d 1950 d3bd
00000330: aafb e9bc bbff fcbc f760 f33d 7bf3 293e
00000340: fb4a 29be 3383 0d3e 456c c33d a574 2a3e
00000350: 9d3b c5bc e60a ffbb 71b2 12be c540 8abd
00000360: e9ba b5bc 0745 a7bc 82f7 e1bc c8f2 1b3e
00000370: 0c7a 05bc c9ba f7bd 5654 703d 505a 0a3e
00000380: d7f4 ce3b c7db 183d 4247 ce3b 4dd1 113e
00000390: 7e0f 3ebd f6c6 c6bd 4b4a 96bc 06e3 b4bd
000003a0: 10c1 163e b9b5 a13c f09c 9ebd 8b29 6f3d
000003b0: a042 cb3d b464 f43d 77e1 9e3d 5132 113e
000003c0: ca64 653d 77cb 6b3d e3c1 69bd f960 de3d
000003d0: 1b67 babc d061 dfbc 7daa 1e3e c4df 173b
000003e0: a86a fc3d 3830 4b3d c5f1 a0bd 7b38 b8bd
000003f0: a714 1a3e 2cc5 c6bd bd8a 87bd 0455 bc3d
-0.045388807 -0.07218315 0.12600917 -0.058867697 -0.0837148 -0.0656514 0.14668682 -0.0043665543
-0.07998903 0.0039422335 -0.09920858 -0.10778565 -0.009649841 0.12628627 -0.006873678 0.013039128
-0.09849481 -0.08404774 0.13243091 0.15234204 0.10631393 -0.044797003 -0.023576295 0.064539954
-0.049493868 -0.028752405 0.05590074 0.06546465 -0.056897845 0.08260381 0.044904824 0.119192615
-0.012591551 0.10402734 0.04623492 0.09184842 0.10838821 0.13042298 -0.092292175 0.13747226
0.057802223 -0.13741845 0.12372257 -0.02128369 -0.0995519 0.0130143585 0.13209993 -0.09141657
0.049151443 -0.03407208 0.08227581 0.09539387 -0.06557158 -0.09864293 -0.09075844 0.11085558
0.11598447 0.08225782 -0.06483796 0.12077663 0.121910214 -0.048634827 -0.046137746 -0.009216109
-0.025550188 0.009040956 0.124792665 -0.03538334 0.02827579 -0.006445677 -0.105545506 0.1406856
-0.106839485 0.12807843 -0.059182376 -0.029483005 0.03047376 -0.03385329 0.11949478 0.008991643
0.00062346243 -0.08682232 -0.06277281 0.023701333 -0.10331418 -0.06252441 0.096826136 -0.05453923
0.009434127 -0.024195421 0.074300386 0.06727017 0.09015079 -0.023340058 0.096116036 -0.017427195
-0.09430023 0.048279297 -0.12108681 -0.093387015 0.027623761 0.09068022 -0.102915615 -0.13260981
-0.07351147 -0.10305077 -0.098259605 0.022102594 0.099650756 0.10129501 0.027875677 -0.0074571273
0.15878181 -0.055448838 0.04174023 -0.06526477 0.26370406 -0.16082634 0.04149539 0.17541417
0.2330991 0.022844682 -0.06312065 0.074902296 0.034029476 -0.08459099 0.012797858 0.16295335
-0.008892702 0.05665127 -0.029605882 0.013095638 -0.016357696 0.17310098 0.16298929 0.0009719406
0.1263021 0.014940122 0.06633141 0.021344295 0.0069071692 0.15016437 0.023688132 0.04965547
0.11464126 0.26880088 -0.05880055 -0.048828404 -0.026015392 -0.49625185 -0.023063308 -0.022254985
-0.014209966 0.14436023 -0.05480207 -0.06948754 0.04746081 -0.03658837 1.0294094 -0.17975576
-0.046407536 0.042561337 0.07781023 0.10216894 -0.013714393 -0.40392697 0.09122877 0.029820284
0.10268588 -0.015271194 -0.038647175 -0.004295363 0.25303045 0.010546225 0.17950046 0.10147906
0.02481797 0.04345846 -0.047551483 0.0260137 0.1938124 0.06380743 0.029172009 -0.029819353
0.021600043 0.0037810109 -0.0004385233 0.18068759 0.18685408 0.18152589 -0.059104446 0.09722528
0.079104185 0.075679116 0.09965919 0.12817189 0.10928798 0.06489211 0.043570034 0.08158546
0.020585278 0.13044365 0.100167006 -0.10318012 -0.028562386 -0.03088366 0.11883729 0.16596787
-0.16532509 0.1381958 0.09542135 0.16646059 -0.024076277 -0.0077832816 -0.14325882 -0.06750635
-0.022183852 -0.020418657 -0.027583841 0.15229332 -0.008146774 -0.12096173 0.05867418 0.13511014
0.0063158083 0.03731897 0.0062951157 0.14239998 -0.046401493 -0.097059175 -0.018345973 -0.08832364
0.14722085 0.019739972 -0.07744777 0.058389228 0.09924817 0.1193327 0.07757848 0.1417935
0.056004323 0.057567086 -0.05706967 0.1085834 -0.022754243 -0.02726832 0.15494724 0.0023174146
0.123250306 0.04960653 -0.07858614 -0.08995148 0.1504694 -0.09705576 -0.06618259 0.09195903

fc1.bias f4 [128]
00000000: afd6 cf3d 2a83 6dbb 0bfc 0cbd 2970 6abd
00000010: 110c 0abe fa3f a83d c693 71bc 7bf4 bdbc
00000020: e712 89be 9616 7fbd 161e 8c3d 906e 48bd
00000030: 6843 c53b 4fd2 84be a549 873c a81f 8d3d
00000040: 9691 bcbd fd98 9fbd c958 22bd 74c7 0f3d
00000050: 5d1c b13d 9a69 15bf 5467 ce3c c2be af3d
00000060: 5e71 4cbd 00ad 093d 805d 913d db0e 3c3d
00000070: 162e e1be 6791 c1be c833 02bd 75f6 3fbe
00000080: 57b5 9f3d cb06 20bd a4d5 a03d db1e 513d
00000090: 4404 933d fb4f 47bd 3a9b 8cbd 94ac 9bbe
000000a0: c977 0d3d af70 a4bc 1243 c33c 3a35 c5be
000000b0: 8051 243d fd92 a7bd a259 b7be 53a0 763e
000000c0: aec2 99bd 74d2 c43d 4440 aa3d 49e4 85bd
000000d0: e16f 2e3c c38e 4d3c 9196 14bd c4dd e1bd
000000e0: c5e8 c0bd a27e a13d 9609 4ebd ba50 8e3d
000000f0: 771f 2c3d 2f51 b3bd e436 f43c d46b 8ebd
00000100: 131d bebd 5be2 96bb 3542 41bc 574f 0b38
00000110: 5212 a8bc 3b6a 69bd b8f2 65bd 9787 93bd
00000120: 6338 9dbf 9a78 7ebd bd09 62bb 4928 5cbd
00000130: aed6 d93d 7507 143d b47e 94bf 453d a9bf
00000140: 5450 65be 57c3 7c3d fbf1 8abd c49a 33be
00000150: 8dad 2fbe 5bd2 8ebd 2577 bdbd dc60 f1bb
00000160: eb22 f03b 0776 efbd 7501 71bd 8eb8 ffbd
00000170: 1bc0 c43d f181 61bb b870 3a3d 126e a03d
00000180: 7824 fabd 2241 c2bd cbaa bb3c ced5 843c
00000190: c1f7 dc3c c0a7 37bb 04eb 2dbd cf64 7fbd
000001a0: 5cf6 603c 3f0e 333b a0a3 4abd 91b1 b4bd
000001b0: b934 983c 2fb7 77bf be92 12bd 2593 75bc
000001c0: 9342 9bbd 8f36 c6bd 5079 9fbe 54c4 f9bd
000001d0: fff6 d9bd e7cc 7abd 053e 7abe 4fc0 2b3b
000001e0: bcc2 62bf 9fa4 8ebd 4b52 853d 8c40 a2bc
000001f0: f90a 03bd d265 82be 3abb 87be 91d3 99bd
0.101483695 -0.003624151 -0.034420054 -0.05723587 -0.13481165 0.082153276 -0.014744705 -0.023187866
-0.26772234 -0.0622774 0.06841676 -0.048933566 0.0060199983 -0.25941703 0.016514609 0.068908036
-0.09207456 -0.07792852 -0.039635453 0.035102323 0.08647988 -0.5836426 0.025195755 0.08581306
-0.049912803 0.03361225 0.07097912 0.045912605 -0.43980473 -0.37806246 -0.031787664 -0.1874636
0.0779826 -0.03906898 0.07853249 0.051054817 0.07178548 -0.04866026 -0.068655446 -0.30405104
0.034538064 -0.020073263 0.023835693 -0.3851717 0.040116787 -0.08182333 -0.35810572 0.24084596
-0.07507835 0.09610453 0.08313039 -0.065376826 0.010646791 0.012546244 -0.036276404 -0.110286266
-0.09419397 0.078854814 -0.05030211 0.06948991 0.042022195 -0.08755719 0.02981133 -0.0695416
-0.09282889 -0.0046046204 -0.01179557 3.3214073e-05 -0.020516548 -0.056986075 -0.056139678 -0.07203596
-1.2282833 -0.062126733 -0.0034490668 -0.053749356 0.1063665 0.036139924 -1.1601167 -1.3221823
-0.22393924 0.061709728 -0.06784435 -0.17539507 -0.17156048 -0.06973716 -0.09251241 -0.007366283
0.0073283813 -0.11692434 -0.05883928 -0.12486373 0.09606954 -0.0034409727 0.045517653 0.07833494
-0.12213987 -0.09485079 0.022908589 0.016215231 0.026973607 -0.002802357 -0.042460456 -0.062351998
0.013730612 0.0027321724 -0.04947245 -0.088229306 0.018579828 -0.9676389 -0.035784476 -0.014988695
-0.075810574 -0.09678375 -0.31147242 -0.1219565 -0.10642814 -0.061230566 -0.24437721 0.0026207154
-0.8857839 -0.06964993 0.06509837 -0.019806169 -0.031992886 -0.25468308 -0.2651003 -0.07511056

fc2.weight f4 [128, 128]
00000000: f265 74bd 3cff 263d 6753 8abd a7af e7bd
00000010: 7583 003d 5a64 3cbd 01b6 e5bc 4c33 98bd
00000020: d93d 09bd f428 05bc 002d 37bd 72dd 9f3d
00000030: 2438 84bd 037b f9bc 8340 053c 2971 a43b
00000040: 92a7 af3d 395f f33c e2dd dfbd 71ae 84bd
00000050: ef97 ebbd 0d12 963d 1e1c 403d 7e79 913d
00000060: fb57 263d 6d16 013d 1c94 813d 1981 abbc
00000070: 5171 7cbc 3237 2f3d e5fa 9abd 39e5 8dbb
00000080: 4b56 6d3d 316c debc 8c19 0abd 3352 183c
00000090: 8633 233c a93e 3fbd 66ac 18bc 9d12 6abd
000000a0: abd4 6f3d 474f 3f3b 0578 053d 06a4 293c
000000b0: 4203 07bd 26fe ac3d 7816 ac3d 0be0 9abd
000000c0: f2a8 28bd 46c5 e9b9 709e 973c 52fa 9abd
000000d0: b047 cd3c cca4 553d 5b03 3e3d 4c39 2dbd
000000e0: 755a 5a3d 8b31 0f3d 1cf4 b9bd c6b4 b2bd
000000f0: 48fb 6dbd 59b5 57bd 72a2 b8bd 311e 8fbd
00000100: 0083 81bb c3f7 20bd 4f7b a8bd 98a4 2abd
00000110: adfb 7ebd 0b04 743d aee5 17bd ce24 3f3d
00000120: e260 2b3c 65e6 5f3d 03c4 133d ea69 7e3d
00000130: ed80 92bd 2069 c637 3cac 72bd 0d09 6bbd
00000140: ef8d fcbc 4f16 a7bd b7db d6bb 00ef 51bd
00000150: f74b 4b3d 0053 d7bd 02e2 8f3c f5a6 bfbb
00000160: aa15 85bd e45e 3e3d 2447 d5bc f19b 15bd
00000170: 6d40 9abd 7a8e cdbc 0859 543d 3f0c 0ebc
00000180: e794 723c acb7 d23b b679 b93c 374a 95bc
00000190: 2746 dc3c 93b5 fdbb 9bf9 31bd 333c 38bd
000001a0: 8bb3 133d 6b84 3f3d cd29 063d 2b9e 3e3d
000001b0: 8de4 843c ca07 48bd c03d a33d 65a6 86ba
000001c0: 3d23 f8bc c2ec 8a3d 334a 2bbd d788 43bd
000001d0: 757d 543d d79a 1f3c 34ab a33d 86b2 78bd
000001e0: 3685 223d 35a0 c1bc 7336 ad3d 0715 a63d
000001f0: ca00 a53d 623d 893d d1ec e73c 894e 583d
00000200: 07e8 98bd 9d24 7dbc 1661 88bd 10f5 dcbd
00000210: 47f3 bbbc 1a73 e73b 1a51 a33c 46a9 9abd
00000220: 18c2 5e3d b9c2 95bd 4e62 55bd faa3 eabc
00000230: bf1d 9e3a eb4c 8bbd 2821 1ebc fd34 aebd
00000240: da92 a1bc a0f2 44bd 982d ffbc 4a5f 293d
00000250: 3f79 51bd 4caa a0bd a957 67bd 9e80 1dbd
00000260: 6176 193d bcc0 4f3d 4a71 b0bd 75f4 a5bd
00000270: 1921 dbbd b11a ecbc 3a17 263d 7435 4ebd
00000280: 0027 63bc 0b3e 793d 7663 96bd 291e a7ba
00000290: be33 b3bd 9c58 f03c c447 79bd 010a efbd
000002a0: 5030 16bc 1474 453d acf3 123d e21c 0abd
000002b0: 2638 87bb 2b9c a7bd 7197 7dbd fc10 a23c
000002c0: a9a3 03be 79f5 4b3d 71f6 953d d7fb 863d
000002d0: 8fbe 9dbc f301 c23a 4d61 973d 26ec 22bb
000002e0: 5f29 a73c 05e3 4dbd cbbe bcbd b6d2 e6bd
000002f0: 7271 9b3d e26b 103d 9044 473d d2de b0bc
00000300: 9c84 89bd 3d88 9abb 7637 313d 0ad5 97bb
00000310: 933c 6ebc 7808 12bc 0eef c03c 94c7 ccbd
00000320: 4cc3 303c dd6c 90bd 8ca2 a7bd 7993 863d
00000330: 0801 333d fcae 97bd 762b a93c 9511 54bd
00000340: 0bb4 cdbd aba1 2bbd b505 1f3d 3541 2f3d
00000350: 44c1 de3c 57f8 3f3d a131 11bd c53e 99bc
00000360: 3af9 6c3d c37a 2abd 351e 2a3d e9cd 0bbd
00000370: 1da0 9a3d 17de c7bd e137 903d d439 c2bd
00000380: 53f9 8a3d 5289 89bc 6cd1 12bd 338d cdbd
00000390: 16cf 983d 6ff6 293d 1eae 193d 8732 6dbc
000003a0: 88d2 56bd f375 3abc d47f 87bc 2056 933d
000003b0: 3a9b e5bd a915 9abd 5ab6 16bc cc45 93bc
000003c0: 20e2 1a3c 673d f33c b153 5dbc 1b07 95bc
000003d0: c2a1 9fbd ba12 b03d 5532 4f3c 5bac 9f3d
000003e0: 38a9 9cbd 6d85 c93c 3203 673d 8e4f 213d
000003f0: 3a2f d2bd 35c5 f6bc ab18 64bd d39b fc3c
-0.059667535 0.040770754 -0.06754189 -0.113128 0.031375367 -0.04599414 -0.028040888 -0.07431659
-0.03350625 -0.00812744 -0.04472065 0.07805909 -0.064560205 -0.030454164 0.008133057 0.0050183726
0.085768834 0.029708492 -0.10930993 -0.064785846 -0.115035884 0.07327662 0.046901815 0.07103251
0.04061125 0.031515528 0.06327078 -0.020935582 -0.015407876 0.042777248 -0.075673856 -0.004330304
0.057943624 -0.027151199 -0.03371577 0.009296942 0.009961015 -0.046690617 -0.009318447 -0.057146657
0.058552425 0.002919154 0.032585163 0.010354048 -0.03296209 0.084469125 0.08402723 -0.07562264
-0.041176744 -0.00044588203 0.018508166 -0.07567276 0.025058597 0.052159116 0.04638992 -0.04229097
0.053308923 0.034959357 -0.09079763 -0.08725886 -0.05810097 -0.05266318 -0.09015359 -0.069881804
-0.003952384 -0.039298784 -0.08226644 -0.041660875 -0.062251735 0.05957417 -0.037084274 0.04666596
0.01046011 0.05466308 0.036075603 0.062112726 -0.07153497 2.3652392e-05 -0.059246287 -0.05738168
-0.030829398 -0.08158552 -0.006556954 -0.05125332 0.049632993 -0.10513878 0.017563824 -0.0058487603
-0.06498273 0.046477214 -0.026034899 -0.03652567 -0.075318195 -0.025092352 0.05184272 -0.008669912
0.014806009 0.006430587 0.022641044 -0.018223865 0.02688892 -0.0077425926 -0.043450933 -0.044979285
0.036059897 0.046757143 0.032754708 0.04653756 0.016222263 -0.048835553 0.07970762 -0.0010272978
-0.03029024 0.06783439 -0.04181881 -0.047737923 0.051877458 0.009741507 0.07991639 -0.06071713
0.03967782 -0.023635963 0.08457651 0.081094794 0.08056791 0.06701161 0.028311165 0.052809272
-0.07466131 -0.015450624 -0.06659143 -0.107889295 -0.022943152 0.0070632817 0.019936133 -0.075518176
0.05438432 -0.07312531 -0.052095704 -0.028642643 0.0012063308 -0.0680178 -0.00965146 -0.085062005
-0.019723345 -0.048082948 -0.03114967 0.04135064 -0.05114102 -0.078449816 -0.056480084 -0.038452737
0.03746641 0.050720915 -0.08615358 -0.08103267 -0.10699672 -0.028821321 0.040549494 -0.050343946
-0.013864279 0.060850184 -0.073431894 -0.0012750077 -0.087501034 0.029339127 -0.060859457 -0.1167183
-0.009166792 0.048206404 0.035876915 -0.03371895 -0.0041265665 -0.081840836 -0.061912004 0.01978349
-0.128554 0.049794648 0.073223956 0.065910034 -0.019255904 0.0014801606 0.073916055 -0.0024859994
0.02040547 -0.05026533 -0.09216078 -0.11270659 0.07589997 0.035259135 0.04864937 -0.021590624
-0.06714746 -0.004715948 0.043265782 -0.0046335505 -0.014540809 -0.008913152 0.02355149 -0.09999004
0.01078875 -0.07052014 -0.081853 0.06571097 0.043702155 -0.074064225 0.020650607 -0.05177458
-0.10044106 -0.041902225 0.038823802 0.042786796 0.027191766 0.046867695 -0.03544772 -0.018706689
0.05785487 -0.04162098 0.041532714 -0.034131918 0.075500704 -0.09759157 0.07041908 -0.09483686
0.06785836 -0.016789112 -0.03584425 -0.10036697 0.074613735 0.041494783 0.037519567 -0.014477379
-0.052446872 -0.01138066 -0.016540445 0.071941614 -0.11211248 -0.075236626 -0.009198749 -0.017977618
0.009453326 0.029692365 -0.013508723 -0.018191865 -0.07794525 0.08597322 0.012646277 0.07796546
-0.076494634 0.024599755 0.05639953 0.03938251 -0.10262914 -0.030123333 -0.055687588 0.030836022

fc2.bias f4 [128]
00000000: faec 5fbd 2da2 c9bd 38bb c6bd a56d efbd
00000010: f1c7 b03e 7d34 11bb b8e6 abbd 7bd7 09bd
00000020: 170c 78bd a92c 81bd 2c62 a7bd 4dd8 cdbd
00000030: ca15 cabd 4db1 c23c ce4e bf3e 9b3e 6cbc
00000040: 9af1 6dbd a3fc c2bc 0ea7 20be accd cfbd
00000050: 697a d3bc ab85 77bd e1f1 5fbd 5b04 f33d
00000060: 962b aabd 6d9d 57bd a9a9 e23e 83eb 02be
00000070: 04f0 bb3e 6f72 233f 727a 51bd b333 03be
00000080: 46af 8a3d b447 2cbd d59c 19be 10ab a73c
00000090: fa71 77bd 6547 dbbd 9bb4 a7bd f8b6 773e
000000a0: c7e6 7d3e a5f3 563d 10e6 9dbd f603 73be
000000b0: f063 553c fee2 e7bc 967e a13e f3ea 43bb
000000c0: 642c d73e 1634 71bd 6214 343f 68bc 12be
000000d0: a659 82bd 2254 57bd 5486 01bd ccd9 d4bd
000000e0: c24f 07be c3dc a5bd 9a12 f8bd 0b85 23be
000000f0: eaf0 92bd 511f c3bd 62d0 06be f93e 503d
00000100: c29b d2bd a74b 6dbd 2bb0 86be 2f86 59bd
00000110: 5105 0abe 2250 10bd f87b e8bd 6c79 68bd
00000120: 2b3b 2d3c 0490 82bc ae9e ebbd a2a4 be3e
00000130: 3e4b 8e3d d0a5 f5bc cbd1 aa3e 9311 48bd
00000140: 1ef3 c6bd 605d f23c 3710 323e 0770 0fbe
00000150: 6dc5 a6bd 345b d8bd 4e52 9dbd 3f27 3fbd
00000160: a506 b2be 3a79 3fbe 3c27 13bd 216e cf3d
00000170: 6fed 6ebd 5a41 283f d811 e8bd d48e c7bd
00000180: 03da b23e 1fc2 96bb a461 693a 1559 13bd
00000190: c9a8 b9bd 1eba 0f3f a75e 943e 552e 923e
000001a0: 64bf 8cbd 54b8 15be 84b5 97bd 1162 f3bd
000001b0: 3d41 99bc 74cc 19bd 0c80 66bd 86df 3bbe
000001c0: 5699 ed3e 7df4 db3e b6c8 82bd 7691 32be
000001d0: c289 04be 348e e3bd 1e8e ff3e bc55 1ebe
000001e0: dd05 bcbc aad9 37be fc82 85bd 471c 89bd
000001f0: 9b5b c2bd 2580 393f 11ce 22bd 5a87 353e
-0.054669358 -0.09845386 -0.09703678 -0.11690835 0.34527543 -0.002215653 -0.083936155 -0.033652764
-0.060558405 -0.063073464 -0.08173022 -0.10051022 -0.09867437 0.023766184 0.3736481 -0.014419223
-0.058091737 -0.023802107 -0.15688726 -0.10146651 -0.025815206 -0.06043021 -0.054674033 0.11866065
-0.083090946 -0.052640367 0.44270065 -0.12785153 0.36706555 0.63846487 -0.051142164 -0.1281269
0.06771712 -0.04206057 -0.15001233 0.020467311 -0.06041143 -0.10706977 -0.08188745 0.24190891
0.24795066 0.05247845 -0.077098966 -0.2373198 0.013024315 -0.02830648 0.3154189 -0.002989468
0.42026055 -0.058887564 0.703436 -0.14329684 -0.06364755 -0.05257047 -0.031622246 -0.10393104
-0.13214019 -0.080987476 -0.12112923 -0.1596872 -0.07174857 -0.095274575 -0.13165429 0.050841305
-0.10283615 -0.057933476 -0.2630628 -0.053106483 -0.1347859 -0.03523267 -0.1135177 -0.056756422
0.010573189 -0.015937813 -0.11504875 0.3723498 0.06947945 -0.029986292 0.33363184 -0.048844885
-0.0971434 0.02958554 0.17388998 -0.14007579 -0.08143125 -0.105642706 -0.07681714 -0.046668287
-0.34770694 -0.18698588 -0.03592609 0.10128427 -0.058331903 0.6572472 -0.113315284 -0.09744039
0.34931955 -0.0046007778 0.0008902794 -0.035973627 -0.09065396 0.5614337 0.28978464 0.28550974
-0.06872442 -0.14621097 -0.07407668 -0.11883939 -0.018707866 -0.037548497 -0.05627446 -0.18346986
0.4640605 0.42959967 -0.06385939 -0.17438301 -0.12943175 -0.111111075 0.49913114 -0.15462393
-0.022952015 -0.17954126 -0.06519124 -0.066948466 -0.094901286 0.7246116 -0.0397473 0.17727414

fc3.weight f4 [64, 128]
00000000: 6371 d63d 74cf 1e3d f9b1 8fbc 9222 f93c
00000010: f705 b6bf 3542 393d a7f9 5cbd 7d8f bbbd
00000020: 4ba1 40bc 4d87 39bd 3f2a ba3c c89d b1bd
00000030: d512 b6bd 62f0 14bd 8b59 bb3d ba09 e7bc
00000040: 396f 50bd ae92 113d 1888 84bd 3619 b7bb
00000050: 00fb a7bd ee34 c2bd 1945 debd fefa 973f
00000060: 9c3b 72bd 698d 2e3c 5ddb ccbf 1eb9 033d
00000070: a9bb b83e 91f5 eb3d 59dc 5c3c af23 473c
00000080: d6ea 8c3f c22a 063d 38f3 d2be cc25 8b3c
00000090: e4f2 c93d 1766 88bc 7e20 88bf 71f5 8f3e
000000a0: 47c3 613f a4dd c2bd 77b1 3d3d 47af 79bd
000000b0: ff20 9bbe 7b66 903d fe61 803f 27d9 cc3c
000000c0: aa93 f03f 0c5b 8ebd 087c ce3e 4f2e afbd
000000d0: c49a 2d3d 22c5 163d a0fa 293c 4877 5d3d
000000e0: 74e2 923d 5838 21bd ce98 aabc 90ec 533d
000000f0: a697 b6be 4e71 6a3d 24e6 b33d 11ff 2a3c
00000100: 4e97 75bd 6293 aa3d 12fe bc3f 0bd4 d53d
00000110: a458 d0bd a97e 883d 32bb 8e3c fe7b 473d
00000120: ec3f b33c b341 bebb 465f 91bf 9951 133e
00000130: aa62 fabc 1c34 803d 7808 8cbb 5786 a7bc
00000140: 7aac 163d d09d 68bd 3148 973f 5eda 4dbd
00000150: b63e 123d e150 b33d de46 a23d 81c3 e9bd
00000160: 053e 61bf 6e41 4f3c a2a6 a6bd 4c2a 4abf
00000170: 19d4 bcbd 4ebb f43e 3dbc ab3b 7383 84bd
00000180: bb0d 55be eefc d33a 8a53 68bd 9d5b 18bd
00000190: 0475 8c3c e78d 8a3d b4ba 513d 727b 13bf
000001a0: ac38 b03c 1939 24bc ef53 953d 304d 81bd
000001b0: 5613 75bd 23c7 3b3d 3dee 93bd 1b34 0dbf
000001c0: 13be 0f3d f679 54bf adbb aebd e78e 3e3c
000001d0: 7778 02bb aa53 49bd 462f 0d3e 1862 adbd
000001e0: 4630 30bd 0fc1 a63d 5547 d03c 9fd5 9cbb
000001f0: 3fcd de3c c518 1f3f d03a 76bd 4e0f d63e
00000200: e74d 6e3c aae6 2ebd 47ea 143a af91 9fbd
00000210: 525d 713d 2e1e 693d 65ee 9f3d ddc4 f43c
00000220: f19a 163d d0e3 a03c fec2 a83d b090 b1bb
00000230: f8f1 733d e9a0 76bd 056f 853d d85c 463d
00000240: fa8d 61bd 3d5c a8bd 652d 693d 8b01 ab3d
00000250: 9c03 99bc 063e ae3d 7876 6f3c 00a3 82bd
00000260: 9e33 c23c 67b5 2b3d da1c 27bd ad89 5e3c
00000270: 06ac 8b3c fe1f 8bbd 5a10 85bd e2e9 b73b
00000280: e414 723d 26a5 c73b dcbc b2bd 5088 a7bd
00000290: 128f 873d 5423 533c 5710 a4bc 04da c0bd
000002a0: 142e d5bc 0cc8 883d 19ea d23c cf64 bebc
000002b0: c453 e9bd fcb3 61bd 756e aebd 9512 1d3d
000002c0: 893b a2bd b964 123d 5c0a f3bc 1430 d33c
000002d0: 10bc 2d3c fbbf 653b 072d 3ebc b799 15bd
000002e0: d41c 133d c2e3 75bc fe94 983d 24a9 94bc
000002f0: 4812 1abd 6b58 853d e685 57bd bca0 353d
00000300: c09b d3bc df89 1b3d b244 6a3d 7039 42bd
00000310: 44ec 833d 3cb8 9d3d 590d 7ebd c090 64bc
00000320: d5e1 49bd 3685 863d 2ba5 463d d212 023d
00000330: 5cf3 b03d d5e2 bebd 739a e2bc 8215 cdbc
00000340: 9d14 9fb9 32f1 09bd c43c 6f3b 907d b23d
00000350: 876c 53bd b3e7 92bc 885c c43c 3ff4 473a
00000360: db92 0c3d 22bf abbd 19f0 933d 62b1 27bd
00000370: f8a3 1abc f9a9 8bbd 4c94 6d3c d0a7 79bb
00000380: 947c 4abc 7ac7 343c 5c5f 6abb 909b 74bc
00000390: b070 a1bc 62d9 86bd 6356 103d 7940 593b
000003a0: a9c8 a8bd 869d 2abd 5b6b 07bd d588 8ebd
000003b0: ec0e 3abd 9afe 973b 929f 443d d232 88bd
000003c0: 954d 79bd 42cd acbd e1c7 dd3c a0d9 51bd
000003d0: 254b 84bd 0681 d5bb 20d2 9dbc 6921 4fbd
000003e0: c5f4 bdbc ae20 43bd 2605 a53d 30f8 49bd
000003f0: 6ed1 b4bd ff97 7cbd ebeb 16bb 4da0 bfbc
0.104708456 0.03877206 -0.017540919 0.030411992 -1.422057 0.045229156 -0.053949025 -0.091582276
-0.011757205 -0.04529505 0.022725223 -0.086726725 -0.08890311 -0.03636206 0.09147938 -0.02820288
-0.05088732 0.035540275 -0.0647127 -0.005587722 -0.08202171 -0.09482752 -0.10853023 1.1873472
-0.05913888 0.010653832 -1.6004444 0.032158963 0.36080673 0.115214474 0.013480269 0.012154504
1.1009166 0.03275562 -0.41201186 0.016985796 0.09860781 -0.016650243 -1.0634916 0.28116944
0.88188595 -0.09514931 0.04631182 -0.060958173 -0.30298612 0.070507966 1.0029905 0.02500589
1.8795063 -0.069509596 0.40329003 -0.085537545 0.042383924 0.036809094 0.010374695 0.054068834
0.07172099 -0.039360374 -0.020824816 0.051739275 -0.35662574 0.057236962 0.0878413 0.010436789
-0.05995875 0.08328892 1.4765036 0.104408346 -0.10173157 0.066647835 0.017423246 0.048702233
0.021881066 -0.005806172 -1.13572 0.14386596 -0.030564625 0.06259939 -0.0042734705 -0.0204498
0.03678558 -0.056791127 1.1818906 -0.05025708 0.035704337 0.08755661 0.07923673 -0.114142425
-0.8798526 0.012649877 -0.081372514 -0.7897079 -0.09220142 0.47799152 0.0052409456 -0.064703844
-0.20806019 0.0016173401 -0.056720294 -0.037196744 0.017145641 0.06765347 0.051203445 -0.5761024
0.021511398 -0.010023379 0.072914 -0.063135505 -0.059832893 0.04584421 -0.07223175 -0.5515763
0.03509338 -0.829986 -0.0853189 0.01163075 -0.0019908228 -0.049152054 0.13787565 -0.084659755
-0.043014787 0.08142292 0.025424639 -0.004786208 0.027197478 0.6214717 -0.06011468 0.41808552
0.014544941 -0.042700447 0.0005680662 -0.07791459 0.058926888 0.056913547 0.07809142 0.029879028
0.036768857 0.01963988 0.08240317 -0.0054188594 0.05955693 -0.06021205 0.06515316 0.048428386
-0.05506704 -0.08220718 0.056928057 0.08349904 -0.018678479 0.08507924 0.0146156475 -0.06378746
0.023706254 0.041921046 -0.040799 0.013582629 0.0170498 -0.067932114 -0.064972594 0.005612598
0.059101954 0.0060926853 -0.08727428 -0.081802964 0.06619085 0.012886841 -0.020027323 -0.09416583
-0.026022948 0.06678781 0.025746392 -0.023241429 -0.1139293 -0.055103287 -0.08517162 0.0383478
-0.07921512 0.035740588 -0.029668026 0.025779761 0.01060392 0.0035057056 -0.011607415 -0.036523547
0.035916165 -0.015007915 0.07450293 -0.018147059 -0.03761509 0.06511005 -0.05261793 0.04434274
-0.025831103 0.03797328 0.05719442 -0.047418058 0.064415485 0.077011555 -0.062024448 -0.013950527
-0.049287636 0.06568377 0.04849736 0.03175623 0.08640167 -0.093206085 -0.027661538 -0.02503467
-0.000303422 -0.033677287 0.0036504725 0.087153554 -0.05161717 -0.017932748 0.023969904 0.0007627643
0.03431974 -0.08386065 0.07223529 -0.04094065 -0.009438507 -0.06819529 0.014500689 -0.0038094409
-0.012358803 0.011033887 -0.0035762405 -0.014929667 -0.019707054 -0.06584431 0.035238635 0.003315
-0.08241398 -0.041654132 -0.033061367 -0.069596924 -0.045424387 0.004638505 0.04800374 -0.06650318
-0.060865004 -0.08437587 0.027072849 -0.051232934 -0.06459645 -0.006515625 -0.019265234 -0.05056897
-0.023188004 -0.047638588 0.080576226 -0.049308956 -0.08829008 -0.061668392 -0.0023028802 -0.023391867

fc3.bias f4 [64]
00000000: b39a 603f 4f88 95bd 9fa0 503f 7abf e1bd
00000010: d547 6cbe 0a5b e2bd 42ef c2bc 0d26 903e
00000020: 0db1 9c3c 15f0 ddbd f233 843f 2728 803f
00000030: 1698 273c 5ff0 90bd d98b bd3d 15d2 c0bd
00000040: 3507 7cbd 4521 3dbe b6a0 a1bd aa39 82bd
00000050: ea77 cbbd 580f dabd c46c 3ebd c65a ffbd
00000060: c828 793f 302c 843f 47fd 02bd fa81 6c3c
00000070: a4b4 0abf c5e2 d53c 2eb8 743f 2366 823f
00000080: 2f55 a1bd ba66 a8bc a9b4 c2bd 8ef3 8a3f
00000090: 25da f8bc d0f0 583f dc02 6e3f 8dd8 f5bd
000000a0: 1c4e 873f 6580 22be e292 553f e7e3 823f
000000b0: 4552 493f de0d e0bd f4e7 41bf cfd3 983b
000000c0: a70c 793f c193 66bd 2b21 853f 0131 7e3f
000000d0: fc64 853f 7a24 833f 804c 843f 9305 83bd
000000e0: a191 1bbd c8f6 09bd b853 16be 73f0 753f
000000f0: cdac 10be 3097 3f3c 5208 6c3d 318b 2fbe
0.8773605 -0.073013894 0.8149509 -0.110228494 -0.23074277 -0.110525206 -0.023795728 0.2815403
0.019127393 -0.10836808 1.0328352 1.0012254 0.010229131 -0.07077097 0.092551894 -0.0941507
-0.06153031 -0.18469723 -0.07891981 -0.06358655 -0.09934981 -0.10647458 -0.046490446 -0.124684855
0.9732785 1.0325985 -0.031979825 0.014435286 -0.54181886 0.026109109 0.95593536 1.018742
-0.078775756 -0.020556796 -0.095071144 1.0855577 -0.030377457 0.8474245 0.92973113 -0.120041944
1.0570712 -0.15869291 0.8342725 1.02258 0.7864116 -0.10940145 -0.7574456 0.0046639214
0.9728493 -0.056293253 1.0400747 0.99293524 1.0421443 1.0245507 1.0335846 -0.063975476
-0.03798068 -0.033682615 -0.14680374 0.9607002 -0.14128418 0.011693761 0.057625122 -0.17142941

fc4.weight f4 [128, 64]
00000000: c2d2 3d3f 2feb f43b 0269 0cc0 2f18 66bc
00000010: 9a23 82bf 469c 453c 163d 2fbd 0b04 3d40
00000020: d25b ec3c c9ba 39bd 9cfc 283f 0a29 413f
00000030: 6423 5bbd e145 743b acc4 ac3c 08bd 623d
00000040: 6592 d23c 9e08 e6bc b884 dabb ffc2 de3c
00000050: 6828 a83d ed36 44bb 7b5e 26bc ac4a ab3c
00000060: ad72 2a3f 85ee 523f 5a85 cf3b e6f7 c2bc
00000070: 914a b8bf 352e 2dbc 751d 363f 47de 2e3f
00000080: e3b1 09bd 3dd5 dcbc 386b 1b3c 4e36 233f
00000090: 40b1 a4bd 3c10 07c0 8729 1f3f 56c6 77bc
000000a0: abcd 2e3f e843 5cbb 6167 0bc0 a881 683f
000000b0: 48ea 04c0 d87a f73c 0cc2 13c0 9825 9a3c
000000c0: f2ef 4d3f 728f 423c d207 233f 9743 683f
000000d0: b18d 263f c21c 223f 3eb2 1b3f fad8 9fbc
000000e0: f214 edbc 4a71 59bb a140 f73c 3b39 193f
000000f0: c27d 683c 02cb 0739 a0a3 49bb fb5b 9ebd
00000100: 80e6 edba 045c e93d d44b 733d 7afc cf3d
00000110: 5639 cdbd 80b0 a1ba aeee b13d c0f6 cebd
00000120: 2488 a83d 28d9 b8bd 1478 efbd c2cf d5bd
00000130: b8f9 c2bc 527f debd 00d9 b5ba 14d4 623d
00000140: c02d 4abb 988c b7bc 7867 3d3d 96a6 81bd
00000150: c0ff 333d 0c2f 87bd 36b8 d3bd 5a95 bf3d
00000160: 98bc 0a3d 6ed0 c7bd 18cf bebc 182d 18bd
00000170: e8b1 8b3d 1860 e53d 7cff 8d3d 3073 5bbc
00000180: 36cb ba3d ca05 b13d 7010 af3d 6e1b 9bbd
00000190: 7025 933d a0b2 963d 707d f2bd 6ca4 ee3d
000001a0: 640b b63d 38b8 ecbd 4067 54bb 20bb f6bd
000001b0: 6437 513d 00d2 b7bc c2e4 f4bd e093 17bd
000001c0: 4474 973d aecf f43d ace0 acbd c0e2 b4bc
000001d0: 481d 3abd 2cc1 0b3d 5066 573d c45e d2bd
000001e0: d812 1ebd a869 3abd c85e c4bd a06a d43c
000001f0: 74c8 9f3d 284f b4bc 2013 ed3c 2c01 fcbd
00000200: a686 e23d c0cb 483b 86dc f53d 9026 c9bc
00000210: 08b2 c33d 88a6 aebd 148e 543d 8489 fd3d
00000220: 8085 263c 1c2d 7c3d 28e0 dabc a040 86bc
00000230: 000e c83a 30b5 873d 7e9b d5bd 78ee f53c
00000240: 00a2 f839 8052 3f3d 38b0 2fbd 4ca5 a1bd
00000250: 4a3d b33d c003 c5bd 2051 9cbc aeea a8bd
00000260: c02f 06bb 44b7 78bd 8832 ddbd 98c4 2fbd
00000270: a89c 803d 6493 023d 6ceb 91bd d481 693d
00000280: fc51 5fbd 6c1d 80bd 80c3 9c3d c0e1 6cbc
00000290: 4689 cd3d d417 bf3d 368b 953d 84bf 56bd
000002a0: 2818 9ebc 468a f23d a024 423c 78d4 e1bc
000002b0: 1cfd 9fbd 34ee 11bd 7a9c f43d 0034 e43d
000002c0: 94f2 913d 0637 8dbd c0be 673d a831 e8bc
000002d0: ca27 83bd 6ab9 eebd 6c0d c0bd fe94 ab3d
000002e0: 2059 ff3c a4a8 f13d e8c2 2ebd 18b0 8e3c
000002f0: e0a2 bbbc 0c3b 15bd f0d0 fc3d 006f 57ba
00000300: f81b cd3d 2ac1 c4bd a09a cebc d078 bfbd
00000310: 444a 803d 6ed7 dc3d 400a 69bb f87a f13d
00000320: f6bd a43d 2c1c 3abd 3c48 693d 987c 83bd
00000330: 944a ac3d 504a b73d 18c7 113d 7017 e6bc
00000340: 88d0 703d cec7 b03d e866 ccbc f20d 913d
00000350: a000 8cbb c030 e93d 0066 f53b 8001 193d
00000360: 8cd6 9d3d 88aa a1bd 78f9 bc3d a2a4 f73d
00000370: b4f0 27bd 56ee cb3d 500c bebc 8ad4 a93d
00000380: ec6c 793d a025 a83d 8086 49bb 8090 933d
00000390: 4201 bdbd 249f cfbd c8ce 893d 600c 253d
000003a0: a0bd 85bc 30f5 193d 60d2 a93d f43c d43d
000003b0: 928d aa3d 4426 adbd 40e7 69bc 84db 943d
000003c0: eabd b1bd 5877 d7bd b8c7 283d 74b7 bb3d
000003d0: c8e8 fdbd 7454 ecbd 4083 10bb 7870 723d
000003e0: 1843 b93c 949e 333d 80a8 77bd 544c 34bd
000003f0: 1820 e63d 4648 d7bd 38f7 0a3d 5cec 413d
0.74149716 0.007474325 -2.1939092 -0.014043852 -1.0167115 0.012061184 -0.042782865 2.9533718
0.028852377 -0.045344148 0.6601045 0.75453246 -0.053500548 0.0037273096 0.021089874 0.055356055
0.025704572 -0.02808028 -0.0066686533 0.02719259 0.08210832 -0.0029939965 -0.010154362 0.02090963
0.6658123 0.823952 0.0063330354 -0.023799848 -1.4397756 -0.010570099 0.711387 0.6830792
-0.03361691 -0.026957149 0.009486012 0.6375474 -0.0804162 -2.1103659 0.6217274 -0.015122971
0.68282574 -0.0033609811 -2.1781847 0.9082284 -2.0767994 0.030209944 -2.3087187 0.018816754
0.8044425 0.01187502 0.6368381 0.90728134 0.65059954 0.6332513 0.6081885 -0.019512642
-0.028940652 -0.0033179098 0.030182185 0.5985295 0.014190139 0.0001295023 -0.0030767694 -0.07732388
-0.0018150359 0.11394504 0.059398487 0.10155578 -0.100207016 -0.0012335926 0.08688103 -0.101056576
0.08229092 -0.09025794 -0.11692825 -0.10440017 -0.023800716 -0.10864128 -0.0013873875 0.055378035
-0.0030850023 -0.022405908 0.046241254 -0.06330602 0.043945074 -0.0660077 -0.1033787 0.093546584
0.033871263 -0.09756552 -0.02329211 -0.03715238 0.06821042 0.11199969 0.069334954 -0.013394162
0.09120791 0.08643682 0.08548057 -0.07573591 0.07184875 0.07358289 -0.118403316 0.11652455
0.08888891 -0.115585744 -0.0032410175 -0.1204741 0.051078215 -0.022439003 -0.119576946 -0.03700626
0.07395223 0.11953674 -0.0844129 -0.02208078 -0.04543808 0.03411977 0.052587807 -0.10271981
-0.03859219 -0.045510918 -0.095883906 0.025929749 0.07801905 -0.0220104 0.028939784 -0.12304911
0.110608384 0.0030639023 0.12004952 -0.02455452 0.09555441 -0.08527857 0.05189331 0.12379745
0.010163665 0.061566457 -0.026718214 -0.016388237 0.0015262961 0.06626356 -0.104300484 0.030020937
0.00047422945 0.046709538 -0.042892665 -0.07892856 0.08751924 -0.09619856 -0.019081652 -0.082478866
-0.0020475239 -0.06072165 -0.10800654 -0.042912096 0.0627988 0.031878844 -0.07124981 0.05700858
-0.054521546 -0.06255612 0.07654476 -0.01445812 0.100359485 0.09330717 0.07301943 -0.052428737
-0.019298628 0.1184278 0.011849552 -0.027567133 -0.07811949 -0.03562756 0.11943908 0.11142731
0.07126346 -0.068952605 0.056578398 -0.02834399 -0.064040735 -0.11656459 -0.0937756 0.083780274
0.031170428 0.11799744 -0.042666346 0.017417952 -0.022904813 -0.036433265 0.12344539 -0.00082181394
0.100151 -0.096071556 -0.025220215 -0.09349215 0.06264165 0.107832775 -0.0035559088 0.117910326
0.08044045 -0.045437023 0.056953654 -0.06420249 0.08412662 0.08949721 0.03559026 -0.028087348
0.05879262 0.0863186 -0.024951413 0.07082738 -0.0042725354 0.113862514 0.007488966 0.037354946
0.07706937 -0.078938544 0.0922727 0.12091948 -0.041001037 0.09957568 -0.02319923 0.08292492
0.06089489 0.082103014 -0.0030750334 0.072052956 -0.092287555 -0.101377755 0.067288935 0.040295005
-0.016325772 0.037587345 0.08292079 0.103631884 0.08327784 -0.08454564 -0.014276326 0.07268432
-0.08678801 -0.1052081 0.04120609 0.0916585 -0.12397915 -0.11539546 -0.0022050887 0.05918929
0.022615 0.043852404 -0.06046343 -0.044018105 0.1123659 -0.10511832 0.033927172 0.04734455

fc4.bias f4 [128]
00000000: 4cca 883f 2811 d23c 0e23 e43d 7c57 273d
00000010: d4b5 e63d 94c1 9c3d 3c34 073d d025 1abd
00000020: b0fa b4bc c892 e2bd 76f1 9e3d 7003 453d
00000030: 22c7 943d 48b4 f6bc 8894 993c d0a4 533c
00000040: 6c15 f2bd 5c57 533d 9a2d a43d 70be 4a3c
00000050: ec21 2a3d ac7f e5bd 5082 14bc a0e0 583d
00000060: 602c b7bd 60b5 9bbb 6e61 93bd b850 763d
00000070: c605 953d 2e31 e93d 163b f6bd 1059 163c
00000080: 6ca0 fdbd 1c3f f13d 8e2b efbd 3ec5 95bd
00000090: 60c4 50bc ac74 a5bd 0c3f f2bd 60db 3c3c
000000a0: c8ec 6a3d 98a7 fb3d ae23 d13d d405 abbd
000000b0: 16a3 e13d 96dc bbbd a45d c53d 6032 2dbd
000000c0: 7640 dbbd 40ce 78bd 4013 37bb a6db e2bd
000000d0: 20f3 5cbd 087e 84bc 8034 a6bb 04d8 4abd
000000e0: 64f5 063d e400 aabd e01a e4bd 98c3 d6bd
000000f0: f84d d83c b873 cfbd 1c72 c2bd bc45 adbd
00000100: e4ec d63d ac57 b8bd e8eb acbc da60 823d
00000110: d810 44bd a265 8abd 7cc8 c43d 4070 60bb
00000120: e029 e3bc 0040 fcbd 144f 123d e015 bdbd
00000130: 7009 0f3c 5e57 fcbd 245a c5bd c4e8 babd
00000140: 060d a6bd de69 ee3d 9050 8d3d 2085 d43d
00000150: 420b b63d 6087 ec3d 4024 d3bc 065a c23d
00000160: 405a 8f3d 08be 103d 9edb 993d 082f 90bc
00000170: 68f1 e6bc 7895 2f3d 181a e6bd 906e 993c
00000180: 74a7 e33d 54c0 d63d b836 bebd bea3 82bd
00000190: 1c31 e73d 78ed 843d fc34 64bd ac76 19bd
000001a0: 6010 17bc 7263 ebbd 2087 f93b 70e8 863c
000001b0: e8fa 973c 66d2 82bd b80a dbbd b887 fcbc
000001c0: a87e fabc d0f0 383d 325a d83d ca30 bb3d
000001d0: 00d2 09bb 54e9 a13d 40df dbbb 5ebe b8bd
000001e0: f0d1 42bc 204a c53d b45c 8a3d 7cff a13d
000001f0: eac5 e3bd 60af e23b 4674 bfbd b00c 173c
1.0686736 0.025642946 0.11139499 0.040854916 0.1126515 0.076541096 0.0330088 -0.037633717
-0.022092193 -0.110631526 0.07760899 0.04809898 0.07264544 -0.030115262 0.018747583 0.012917712
-0.11820492 0.051596984 0.0801651 0.012374505 0.041536257 -0.11205992 -0.009064272 0.052948594
-0.08944011 -0.004751846 -0.071963176 0.060135573 0.07276492 0.113863334 -0.120229885 0.009176508
-0.12384114 0.11779615 -0.11678229 -0.073130116 -0.012742132 -0.08078894 -0.118284315 0.011526912
0.05735472 0.12287825 0.102118835 -0.08350721 0.11017434 -0.09172933 0.09637001 -0.04228437
-0.10705654 -0.06074357 -0.0027935058 -0.11077051 -0.0539428 -0.016173378 -0.0050721765 -0.049522415
0.032948866 -0.08300951 -0.111379385 -0.10486525 0.026404366 -0.101294935 -0.09494421 -0.084605664
0.10494402 -0.09001097 -0.021108583 0.06366129 -0.047867626 -0.06757666 0.09608552 -0.0034246594
-0.027729928 -0.123168945 0.035719946 -0.09232688 0.008730277 -0.123213515 -0.096363336 -0.09126428
-0.08107953 0.11641286 0.06900132 0.10376954 0.08888866 0.11549258 -0.025774121 0.09489827
0.06999636 0.035337478 0.07512592 -0.017600551 -0.028191283 0.042867154 -0.11235446 0.018729478
0.111159235 0.104859024 -0.092877805 -0.063788876 0.11288664 0.06490606 -0.055714592 -0.03746669
-0.009220213 -0.11493577 0.007614985 0.016468257 0.018552259 -0.063877866 -0.10695404 -0.030826434
-0.030577973 0.04515153 0.105640784 0.09140165 -0.002102971 0.07905832 -0.006709963 -0.09020685
-0.011890873 0.09633279 0.06755963 0.07910058 -0.111217335 0.006917879 -0.09348349 0.0092193335
