src/python/services/models/2000_episodes/best_dqn_test_prioritization_2000.pt (torch, 439258 bytes, 6 tensors)

fc1.weight f4 [128, 684]
00000000: 1253 1f3d f08e 82bb 5d75 333d 037b 953c
00000010: c88c 983d 468f 4ebb c78d ff3c cd50 423d
00000020: a399 32bd e751 773c 4ce1 563c 3c27 afbd
00000030: 7300 cdbc 88a0 003c 3d91 cbbb 6415 7b3d
00000040: bf9a 423d e8fd dc3d 7512 0d3d 881b 143d
00000050: 1cfd 993d a914 133e 3629 953c 77ba 023d
00000060: 6cbe e83c 1b10 43bd 05c7 743c 03a5 cbbb
00000070: daa1 9c3c 990c 30bb e8c5 c03c 6ba0 513c
00000080: a378 51bd 5269 24bd 4f0d 383d dd2f 5a3d
00000090: f1cc 903d 7f51 243d 7a52 993d 7d9d 83bb
000000a0: d00a 813c d404 1d3d 1a75 813c 6059 6f3a
000000b0: a16e d1bc 882c af3d 30b1 5e3d 30a8 27bd
000000c0: 9e37 c4bb dbed 973c 8b44 9abc 5b68 233d
000000d0: 0db7 8d3c d28a d63c 8b10 713c 9836 1b3d
000000e0: 41bb 84bc d3dd 083d 77f1 003d 6e40 083d
000000f0: fe15 e1bc d51f e0bc 6ab6 74bc 3b65 8ebd
00000100: dc1f 773c e0a1 eb3c 9650 a2bc 80b5 60bc
00000110: 82ee 1c3d 1821 093d 6f47 013c eb17 223d
00000120: 5885 963d 0afd cc3c a5df 443d 8bc2 3f3d
00000130: 3cbf b53c 5cee bc3c 1445 cbbc 9109 8f3c
00000140: 72b8 143c 3d9d f33c 2252 103d 009b a6bc
00000150: 52fa c2bc 0c2f 5abd 5ec8 f1bc faf6 e73b
00000160: 2798 e3bc 8da8 64bd 926a e73c 3cb6 bb3c
00000170: 26ba 943c b8f1 69bb dac5 233c 8eed 27bc
00000180: 6121 dfbc a705 a53c 97fc d7bc 096a ef3b
00000190: 031d 01bd 8ddf a6bc 5845 163c 24f8 663d
000001a0: 317d 2fbc 08a5 12bd 7377 963c fd57 b73c
000001b0: 29f7 e9bc 16e1 f8bc 3650 7c3c 4fe9 043b
000001c0: fae1 743c 37ec a8bd f458 86ba 0892 abb9
000001d0: efe8 6f3c 5704 1a3c 15c5 c8bc f39d 5b3d
000001e0: 71fe 853d 0839 17bc 5049 923d a971 bf3c
000001f0: bf05 fcbb 445d 623c 974f 1b3d e366 ddbc
00000200: c1a6 ee3c d0aa 733c 19fe 97bd e224 3fbe
00000210: 9bd5 77bc a261 90bc d431 cdbc 1343 5dbd
00000220: 7ab9 ac3c 75c7 87bc 8523 c73c 7740 93bc
00000230: 834e 5b3a 1cb6 5abc d062 5bbd 3b19 873c
00000240: e89a 45bc f093 3a3d 22b7 373d f0b5 0fbd
00000250: e2df 1fbe c6a1 dabc f20b 10bc 8af3 a4bc
00000260: b931 24bd 7ae1 20bd 922e 1ebd 23cf 753b
00000270: 339a cebc 8087 e3bb fcb8 14bd e1f9 df3c
00000280: b90e b6bc ae1d a73c a7e1 12bd 426d 8bbc
00000290: 64fb a53b b944 1bbb 1569 42bc dc6c 2bbc
000002a0: 77d7 413b 5804 503d 0485 1ebd fa3c 7f3c
000002b0: a583 e53c 59c2 01bd 5292 9f3c 927a b03c
000002c0: 2448 40bc 7273 ebbb 1b21 1c3c 72ad 093d
000002d0: b696 59bc 352c 34bc 3d55 5a3d 35b9 193c
000002e0: 8bdf d33c 8ccc 92bc 15b3 983c a870 1dbd
000002f0: dd88 e7bc 4496 9bbc 1309 52bd e5e5 4ebd
00000300: 9d80 85ba e15c b73c 6dbd 43bb 1dc9 cf3c
00000310: 3bea b93c 5784 10bd 5f42 04bd 61ca 33bc
00000320: 4469 ddba ac58 8fbc 78ae 6d3c beeb 4c3d
00000330: 4aad 4fbd 1239 89bb 9542 883b 6dea a6bc
00000340: 0459 c93b c14b 493c 1fa5 9abc 53f4 85bc
00000350: ab4c 953c 8620 173d a900 b9bc ea79 8b3c
00000360: db0a ed3c a016 bb3b e420 3abd b4a8 88bd
00000370: 4cd9 a9bb 7fd0 e3bc 45ee 7dbb e549 973c
00000380: 62d3 e2bc a71b 9cbc ffde 97bc 188c 04bd
00000390: 5a26 c83b a5ad 193d de40 8fbc fb89 363b
000003a0: 54ca d8bb 291b 363c 3b1e 943c b533 34bd
000003b0: b52d 8bbd 15cb 453c 8294 1e3c a961 e9bc
000003c0: 55bf 59bd a230 5bbd 8a83 18bd a42b 343c
000003d0: bd6c 46bc 589a 763a 0312 89bc 3196 abbc
000003e0: 2aae d539 378b cebc 4e4f e1bc 46b8 e93c
000003f0: 3211 df3b b8fe f03b bca0 51bc 0334 8ebb
0.03889758 -0.0039843246 0.0438131 0.018247133 0.07448727 -0.0031518503 0.031195534 0.04744034
-0.04360355 0.015095211 0.013115238 -0.08552405 -0.025024628 0.007850774 -0.006212382 0.061299697
0.04751086 0.10790616 0.03444143 0.03615907 0.0751898 0.1436335 0.018208127 0.031916108
0.028411113 -0.04762278 0.014940028 -0.0062147393 0.019120146 -0.0026862978 0.023531869 0.012794594
-0.05114044 -0.040139504 0.044934567 0.053268302 0.070703395 0.040116783 0.07486434 -0.004016577
0.015752226 0.038334683 0.015802909 0.00091304444 -0.025565447 0.085534155 0.054368198 -0.04093188
-0.0059880754 0.018546036 -0.018831512 0.039894443 0.0172992 0.026189242 0.014713417 0.03789386
-0.01620257 0.033414673 0.03148028 0.03326457 -0.027476307 -0.027358929 -0.014936069 -0.06952902
0.015083279 0.028763711 -0.019813817 -0.013715148 0.038313396 0.033478826 0.007890566 0.03957359
0.07349652 0.025023002 0.048064847 0.04681639 0.022185914 0.023062877 -0.024813212 0.017460616
0.009077178 0.029738063 0.035234578 -0.020337582 -0.023801003 -0.053267524 -0.029514488 0.0070790024
-0.027782513 -0.055824805 0.028249059 0.022914045 0.018155169 -0.0035697054 0.009995902 -0.010249509
-0.027237596 0.020144297 -0.026365561 0.0073063415 -0.03152181 -0.02037027 0.009171806 0.05638899
-0.010711 -0.035801917 0.018367505 0.022380823 -0.028560238 -0.030380767 0.015399983 0.0020280664
0.014946455 -0.082481794 -0.0010249899 -0.00032724463 0.014642938 0.009400449 -0.024508039 0.05361743
0.065426715 -0.009229906 0.071428895 0.023369627 -0.0076911147 0.013816182 0.0379177 -0.0270266
0.029132249 0.014872268 -0.07421512 -0.18666413 -0.015126611 -0.01762468 -0.025048174 -0.054019045
0.021084536 -0.0165746 0.02430893 -0.017975075 0.0008365886 -0.013349082 -0.05356103 0.016491523
-0.012060858 0.04555124 0.044852383 -0.03508562 -0.15612748 -0.026688468 -0.0087919105 -0.02013566
-0.04008648 -0.03927753 -0.03861863 0.0037507496 -0.025220012 -0.006943643 -0.036309227 0.027340831
-0.022223817 0.020399895 -0.03585973 -0.017019872 0.0050653685 -0.0023692085 -0.011865874 -0.010462966
0.002957789 0.050785393 -0.038701072 0.015578503 0.028016875 -0.031679485 0.01947895 0.021542821
-0.01173595 -0.007185393 0.009529377 0.033612676 -0.013280561 -0.010996868 0.053303946 0.009382536
0.02586343 -0.017919801 0.01864008 -0.038437515 -0.028263504 -0.01899255 -0.051278185 -0.050512213
-0.0010185424 0.022383155 -0.0029867545 0.025364453 0.022694698 -0.03528246 -0.03228986 -0.010973544
-0.0016892334 -0.017498337 0.014506929 0.05002951 -0.05070237 -0.0041877115 0.004158328 -0.020375455
0.0061446447 0.012286128 -0.018877564 -0.016351854 0.018225035 0.03689625 -0.022583323 0.017025907
0.02893584 0.005709484 -0.045441523 -0.066728026 -0.0051833745 -0.02780938 -0.0038746756 0.018467853
-0.027688686 -0.019056154 -0.01853895 -0.032360166 0.0061080875 0.037519116 -0.017486986 0.002785324
-0.0066159163 0.011114874 0.018080821 -0.043994624 -0.06795827 0.012072344 0.009678962 -0.02848895
-0.053160984 -0.053513177 -0.03723482 0.010996733 -0.012110886 0.0009407154 -0.016732221 -0.02094564
0.00040756288 -0.025212867 -0.027503636 0.028530251 0.0068074698 0.0073545836 -0.01279467 -0.0043396964

fc1.bias f4 [128]
00000000: 6976 553c 55d0 f0bc 54ae 15bd c38e 9b3c
00000010: 9961 523c fa9a 0a3c 9193 8d3c 450d bd3c
00000020: 7902 803d 08ec 7c3c 7fbd 3fbb 2aad 6abd
00000030: a7dc 993a b634 c63b c01a 813c e272 3b3d
00000040: 9419 4b3d 5c68 16bc 5c7a e73c 825e debc
00000050: 9b01 0dbd e005 5ebd e566 5fbd 99ac 273c
00000060: aa36 b3bb 2aae aa3c f432 c3bc 4d57 a43c
00000070: 9f82 34bd 561c cfba 12ea ae3c e03a 633c
00000080: ecca 573b 275c 303d 3c4a 8b3c be9e 07bd
00000090: e319 183c 5ec3 13bc cefd 0f3d 0eed 9b3c
000000a0: 5c2f 5abb 22ec 253d f46b e5bc 994b d7bb
000000b0: 2d33 133c 38bb b03c fc5b 1ebd a03d 743c
000000c0: cd0f 4b3c 4e46 f0bb 423c 5cbd f59f 0fbd
000000d0: 5504 123c bf15 113d 596b 1fbd 87b8 00bb
000000e0: e355 19bd cef5 233b 3b06 d6bb fad4 03bd
000000f0: d85c 21bd 6aa3 b1bc 2c40 15bd 712b bbbc
00000100: 07ee 5a3c f03e 913d 0921 3d3d ef19 6dbc
00000110: de39 c23b 2180 3f3d bfe1 b23c 97fc 08bc
00000120: 2df8 d23c df99 163b 5471 2abd a899 d5bc
00000130: e8dd 23bb 8c34 b93c 5bbc 933c 188f 913d
00000140: 3c13 a23c 44bb b63b 5c22 2bbd a381 07bd
00000150: 84ce 8c3d 3ad9 703c 13a5 043d 3c14 23bc
00000160: 6590 10bc 4681 873c 3a4e 863c d241 f63b
00000170: 57c5 cebc 195c 8a3d f917 e0bc 8f08 c33c
00000180: 7c57 fcbc d408 3abd 1bbe 143c 88cb 943b
00000190: 553b 3fbd 1a33 77bc 4ecd 1fbc 79ce cabb
000001a0: d125 073d 1173 49bc c9e1 debc f3a8 2ebd
000001b0: e8d2 103d 279b b4bb 0a5d fbbc 0d7e ffbc
000001c0: d740 6fbc 5dc4 853c 7b02 70bc 93da 66bc
000001d0: 9360 e83c 5817 dfbc bc54 d8bc f7c7 2b3d
000001e0: d376 093d 9758 ab3c 1bbd 99bb 585d 19bd
000001f0: afd9 c83b 2073 db3c a202 8c3c 1bcf 9f3c
0.013028719 -0.029396215 -0.036543205 0.018988973 0.012840652 0.008459801 0.01728228 0.023077616
0.062504716 0.015437134 -0.0029257236 -0.05729405 0.0011738733 0.006048764 0.015759826 0.045763858
0.04958494 -0.009180155 0.028256588 -0.027144674 -0.03442536 -0.05420482 -0.054541487 0.010234022
-0.005469163 0.020835001 -0.023828007 0.02006116 -0.044069882 -0.0015801291 0.021351848 0.013869017
0.0032927347 0.043056633 0.017003171 -0.033110373 0.009283516 -0.009018747 0.035154156 0.019033935
-0.0033292389 0.040508397 -0.028005578 -0.0065702912 0.008984369 0.021573648 -0.038661942 0.014907271
0.012393904 -0.0073325997 -0.053768404 -0.035064656 0.008912166 0.03542113 -0.038920734 -0.0019641237
-0.037435424 0.0025018337 -0.0065315044 -0.032185532 -0.039395183 -0.021684367 -0.036438152 -0.022847863
0.013362414 0.070920825 0.046174083 -0.014471515 0.0059273085 0.046753053 0.02183616 -0.008361003
0.025753105 0.0022979898 -0.041611984 -0.026074246 -0.0025004093 0.022608064 0.01803415 0.07107371
0.019784562 0.005576523 -0.041780815 -0.033082616 0.06875327 0.014700228 0.03238399 -0.009953555
-0.008823489 0.016541135 0.016394723 0.0075151706 -0.025240583 0.067558475 -0.027355181 0.023807792
-0.030803435 -0.045418575 0.009078528 0.0045408644 -0.046687443 -0.015087867 -0.009753538 -0.0061891642
0.03299505 -0.0122955 -0.027207272 -0.04264159 0.035357386 -0.0055116597 -0.030684013 -0.031188035
-0.014602861 0.016328985 -0.014649029 -0.014090198 0.028366363 -0.02723281 -0.026407592 0.04193875
0.033560585 0.020916266 -0.0046917326 -0.037442535 0.0061294655 0.026788294 0.0170911 0.019507935

fc2.weight f4 [128, 128]
00000000: c6a4 cc3c bc77 cc3c e915 38bd ea5c b13d
00000010: bb12 233c 1671 883d e73e e6bd 0321 6b3c
00000020: 49b9 1bbd cf07 7c3d 52f3 30bc 6455 963c
00000030: 27ec 4b3d ec67 b0bd 21e3 1d3d 9ec6 60bc
00000040: bbba f43c 2208 3fbd 4e8e 483c 4070 933d
00000050: f03c 89bd 49da aebd 8b00 873d a6d7 0a3a
00000060: 7a28 90bc 84e5 78bd 1085 80bd 3af3 b0bd
00000070: 5d48 833b de3c 9abd 5ab3 6fbc acf7 dfbd
00000080: 0bb5 dcbd 674d 66bd 07aa 9d3d 9c29 583c
00000090: fb0a 48bd 431f 1fbd 5b0a aabd 0c1c 7cbd
000000a0: e45b 973d ff4b 15bc 33f5 98bd a89d bbbd
000000b0: 4d52 c4bc 93e9 693c 30ed d3ba cddd 61bd
000000c0: 9ce7 853d c5c9 ecbc 3a43 3cbd 9a3e 7d3d
000000d0: 4627 eb3c 7e4e 83bc a8a7 2e3c 2e73 1a3d
000000e0: a8f6 55bc dfda e23c 406f d6bd 9a69 a93d
000000f0: 3242 133b 2a05 a03c 3ba5 44bd 68bf 94bc
00000100: a46b 35bd dc94 2dbd 86ef 0b3d 9d03 003d
00000110: e35e ce3d 9d3d 86bd 89f6 953d ae98 773d
00000120: 6852 c93c 24c2 2a3e ddee 713d f904 99bd
00000130: f75d 77bc 0bca b4bd 73a5 033b 813e 1dbe
00000140: 8bee 50bd b21f 47bd fa7e 90bd cbdf 27bd
00000150: b882 c33c a1ed efbc f8cd 7c3d f7db 90bd
00000160: e3e0 2d3d ef74 b23b ec1e ad3d 0e97 183d
00000170: 63a5 133e 0d44 05bd 2a1a 213c d46f 933d
00000180: 123d 36bc eb7f 1ebc 1e6a 4fbd 4720 4c3d
00000190: b61c 88bd f0b1 4b3d 6def 74bd 5c82 ed3c
000001a0: a443 883d f3d0 96bd a463 8e3c 22a7 733d
000001b0: 7bb8 9cbd 991b a6bd 08c6 4fbc 1a67 183c
000001c0: 235e 4e3d 011e 98bd c19e 4ebd 731f 5a3d
000001d0: 1b3e b0bd f458 65bd 6b3e 7abd 05ea a6bd
000001e0: 1612 5dbd fd08 6cbd 4aa2 293d f3f9 b4bc
000001f0: 2e8b 12bd 2898 7abd 7c08 693d bb06 b33d
00000200: 4c4c fe3c 1dbe 903d 5578 b63d 7d90 003b
00000210: 428f 11b9 881e 03bd 3a4f 80bb 2655 553d
00000220: 5025 6ebd f782 853d adf5 653d ce16 9d3c
00000230: f8d0 91bd 96b3 483d a575 0a3c 3ce0 4f3c
00000240: 199d ae3c d583 13bc 73d7 033d 6ec6 373d
00000250: 90e2 8abc 94e5 95bd 35f1 a63d 0faf 823d
00000260: 770b bfbc d6fa 5e3d 4933 103d 9f46 acbc
00000270: 6b18 e2bc af67 2a3d c169 c43b dd66 9f3d
00000280: 0f69 503d 1707 da3c 1ef9 86bd 1cc2 7ebd
00000290: d584 513d 54f5 d8bc 021a a3bc be7a 9b3d
000002a0: 4f32 7bbd 0bcc 76bd 6311 29bd 4a98 f0bb
000002b0: 5f8c 55bd f305 af3d 5db6 da3c f6ca 8bbc
000002c0: 9120 83bc 74e2 8abd db88 2d3d 15c0 8c3d
000002d0: 123e cebc 0f8d 943d 7779 e33d 3591 683d
000002e0: 51f3 9a3d 83ae 97bd 2bdf 9e3d 49a2 6ebc
000002f0: f3c4 58bc b9f7 c5bd 5999 84bd 72b4 5cbd
00000300: 75d9 12bd 0c77 87bc 4c26 5fbd 0420 fabc
00000310: adf2 8b3d e435 cb3c 2f0b 85bb 4450 91bd
00000320: e730 853d f26f 98bd 5352 a33d 2e1a ec3c
00000330: fa8b df3d 9f02 393d 8324 cebb 47f6 a4bc
00000340: 00f8 f9b4 e95a 883d 9a33 21bd 7364 7a3d
00000350: bd05 ebbc a78b 1d3d 3bbf 753d 8b32 343d
00000360: 2f96 653d ec0f a83d 1c5b 373d 691f 0b3d
00000370: 5aca 23bc 550f 343c 2241 65bc b8e8 8cbb
00000380: eb7b f13b 4413 303b 1b9c b6bd 7824 8fbb
00000390: 2e03 8c3d 3cc2 d33c 155f cabc b9ff 53bd
000003a0: 12fb 523d 747c 31bd 89ce f4bc dc3b 673d
000003b0: 10c4 99bd e541 273d d478 16bd 032a 94bc
000003c0: 82c3 00bd ee22 41bc 7019 513d b8c7 eb3d
000003d0: 6d04 913d d68b 5fbd 650f 21bd 5e53 8ebc
000003e0: 5a0e c2bd 850e 183d 1550 2a3d f8c6 113d
000003f0: 5f8a 313c 98f5 52bd cecc 05bd a221 0abc
0.024980914 0.024959438 -0.04494277 0.086603 0.009953196 0.066621944 -0.112424664 0.014351132
-0.0380185 0.061530884 -0.0108002 0.018351264 0.04978576 -0.086135715 0.038546685 -0.013719229
0.029874196 -0.046638615 0.012240959 0.07199144 -0.06701076 -0.08537728 0.065919004 0.00052964163
-0.017597426 -0.06076576 -0.0627538 -0.08640142 0.004006429 -0.07531141 -0.014630163 -0.109359115
-0.10776719 -0.05622616 0.07698446 0.013193514 -0.048838597 -0.038848173 -0.083027564 -0.061550185
0.073905736 -0.009112357 -0.07468643 -0.0916093 -0.023965025 0.01427688 -0.001616871 -0.055143166
0.065383166 -0.028904805 -0.04596255 0.06182728 0.02870525 -0.016028639 0.01066009 0.0377075
-0.013059296 0.027692256 -0.10470438 0.08272095 0.0022469875 0.019533712 -0.04800914 -0.018157676
-0.044292107 -0.04237829 0.034163974 0.031253446 0.10076692 -0.065547206 0.073224135 0.06044834
0.024575427 0.16675621 0.05906569 -0.074716516 -0.015098087 -0.08827599 0.002008763 -0.15355875
-0.051008742 -0.04861421 -0.07055469 -0.04098491 0.023866042 -0.029288115 0.061719865 -0.07073205
0.042450797 0.0054460685 0.084531635 0.037253432 0.14418559 -0.0325356 0.009832898 0.07199064
-0.011122959 -0.009674053 -0.05063831 0.04983547 -0.06646101 0.04973024 -0.059798647 0.028992824
0.066535264 -0.07364073 0.017381497 0.059485562 -0.07652374 -0.081107326 -0.012681492 0.009301925
0.050382745 -0.07427598 -0.05044437 0.05325265 -0.08605596 -0.055993035 -0.061094683 -0.081501044
-0.053972326 -0.05762576 0.041414537 -0.022091841 -0.035777263 -0.061180264 0.056892857 0.08741518
0.03104224 0.07067511 0.0890967 0.0019617372 -0.00013881645 -0.03201154 -0.0039156945 0.052083157
-0.058141053 0.0651912 0.056142498 0.019175913 -0.07119936 0.04899939 0.0084509 0.012687739
0.021315144 -0.009003599 0.03218789 0.04486697 -0.016953737 -0.07319179 0.08151475 0.06381046
-0.023320897 0.054438435 0.03520516 -0.021029769 -0.027599534 0.041602787 0.005994052 0.077832915
0.05088144 0.026614709 -0.06590484 -0.062196836 0.05115207 -0.026484169 -0.019909862 0.075917706
-0.061327275 -0.060253184 -0.041276347 -0.007342373 -0.05213582 0.085460566 0.026698286 -0.017064553
-0.01600674 -0.06781474 0.042366844 0.06872574 -0.025176082 0.07253467 0.11107152 0.056779105
0.0756594 -0.07406332 0.0775741 -0.014565059 -0.01323055 -0.0966639 -0.06474561 -0.053883024
-0.035851914 -0.016536258 -0.054479882 -0.030532844 0.06833396 0.02480597 -0.004060171 -0.070953876
0.06503468 -0.07443227 0.079746865 0.028821077 0.1091537 0.045168515 -0.0062909736 -0.020136965
-4.6560308e-07 0.06657965 -0.03935585 0.061130952 -0.02868926 0.03846326 0.059996825 0.043993514
0.05605143 0.08206162 0.044764623 0.033965502 -0.009996975 0.010989984 -0.01399258 -0.004300203
0.0073695085 0.0026866952 -0.089164935 -0.004368361 0.06836544 0.025849454 -0.024703542 -0.051757548
0.05150897 -0.04333158 -0.02988364 0.05645357 -0.07508099 0.040834326 -0.036736324 -0.018086439
-0.03143645 -0.011788113 0.05104965 0.11512703 0.07080922 -0.054576717 -0.039321322 -0.017373737
-0.094753936 0.037123222 0.04158028 0.035590142 0.010836213 -0.051503748 -0.03266602 -0.00843087

fc2.bias f4 [128]
00000000: a20d 5f3b ee4b a43c 804c a9bb cec9 363d
00000010: 7b8b 9fbd 4738 f2bb e50b 2dbd 0320 9ebd
00000020: 7861 b5bd 75ff 513d b2af 143d 6202 5ebd
00000030: d133 57bd 52d6 56bd 735e 72bd 9717 943d
00000040: 93a1 15bd 0417 fbbc 9142 acbb 9d9f 39bd
00000050: 6f72 37bc 1868 093d 60bb 86bd 5c79 7c3c
00000060: 05cf cfbd baf2 033d cc4e 40bc f7ef 93bd
00000070: 205f 9d3c 41f5 4f3d 3db6 9b3d 6580 313b
00000080: 8355 733d b7c0 943c 3017 7c3d 8914 853d
00000090: 82e2 ec3c 2a19 ac3c 8c0e 61bc e3ab 82bc
000000a0: 985c 253d 1b2b 81bc b7d7 7c3a 2fd0 9dbd
000000b0: 9ffd 0d3d 49ab 13bd 4096 1f3d e6d3 26bc
000000c0: c9fa 84bd 4b2b b9bd 78c1 39bd 3622 a93c
000000d0: 6589 033d f0ca 543d 5a4c 043c 1727 a1bd
000000e0: 0824 cebc 965a 7bbc 7ae4 cabd 9cd6 51bc
000000f0: c89d cfbd c9a6 b0bd 9fd7 a73d 17a8 1bbd
00000100: 23f3 0e3b 2648 a03d edd0 bcbd 5512 413d
00000110: 98a0 7d3c 0e43 b3bd 72c4 96bd 46ec 1abd
00000120: 373d 7e3c d622 adbd 3802 933d 3bf5 5abd
00000130: eabf e6bb f9bc 41bd a275 cebd 50d4 c23d
00000140: de2c 2cbb 8022 8fbd d0ca 193c 07ff 80bd
00000150: 8a5a 853c e1f2 3f3c 78f7 6e3d 1041 b43c
00000160: 96f4 7b3d 8f7a 193d 4dc0 363c 3a8a 853d
00000170: 9801 783d a1a9 62bd 2fe7 ac3d 22c3 bbbd
00000180: 8a8f 97bd 130a 57bd f070 40bd 509a 823d
00000190: 2d98 ab3d 1970 82bd 029d 0dbd 0ed0 a8bd
000001a0: 236c 083d 0d82 6abc 79da a93c 7cd8 4f3d
000001b0: e990 0b3d 5cd5 973c bff9 063e 8341 6b3d
000001c0: 7d9b 083a 9695 773c 5c0f 983d 56eb 4f3d
000001d0: fd90 81bd e7f6 b8bd b62a a1bc d6e2 3a3a
000001e0: bc90 30bc 1311 06bd a210 9abd bebc a3bd
000001f0: 46b4 ef3c 5890 8abd cd0b 003e 2842 a3bd
0.0034035225 0.020055737 -0.00516659 0.04462605 -0.07790276 -0.0073919627 -0.04224767 -0.077209495
-0.08856481 0.051269013 0.03630037 -0.05420149 -0.05253965 -0.052450486 -0.059172105 0.07231062
-0.036531042 -0.030650623 -0.005256959 -0.045318235 -0.011196717 0.033546537 -0.06578708 0.015409794
-0.10146908 0.032213904 -0.011737537 -0.07223504 0.019210398 0.050771 0.076031186 0.0027084586
0.059407722 0.0181583 0.06154555 0.064980574 0.028916601 0.021008093 -0.013736378 -0.015951103
0.040371507 -0.015767625 0.0009645181 -0.077057235 0.0346657 -0.036052022 0.03896165 -0.010182356
-0.06493146 -0.090414606 -0.04535052 0.020646196 0.03211345 0.05195135 0.008074844 -0.07868784
-0.025163665 -0.015341422 -0.0990686 -0.0128075145 -0.10137516 -0.08625562 0.08195423 -0.0380021
0.0021812401 0.07826261 -0.09219537 0.047136623 0.015480183 -0.08753024 -0.07361688 -0.037822984
0.015517524 -0.0845391 0.071781576 -0.053456526 -0.007041921 -0.04729936 -0.100810304 0.09513152
-0.002627186 -0.06989002 0.009386733 -0.062986426 0.016278524 0.011715622 0.058341473 0.02200368
0.061512552 0.037470397 0.0111542465 0.06520505 0.060548395 -0.055337552 0.08442532 -0.09168078
-0.07400425 -0.052499842 -0.046982706 0.06377089 0.083786346 -0.06369037 -0.034573562 -0.08242808
0.033306252 -0.014313233 0.020734059 0.050743565 0.034073744 0.018534355 0.13181208 0.057435524
0.0005211158 0.015111348 0.074248046 0.050761543 -0.063264824 -0.09031468 -0.019673686 0.0007129138
-0.010776695 -0.032731127 -0.07522704 -0.07994984 0.029260766 -0.06765813 0.12504502 -0.07971603

fc3.weight f4 [38, 128]
00000000: 81a0 623d 367c 88b8 8758 013d 649d 4a3c
00000010: 1956 89bd 7930 a23d 7226 72bd 922a 343d
00000020: 9c94 4b3d 113b da3c 4d6a c8bb e8b8 d9bc
00000030: 0515 2dbd f8e9 47bd 1f3d 56bd 8cec 40bd
00000040: 6858 12bd 0fbc 413c baf4 f03c 6533 783c
00000050: ed11 443d 6c6f 3cba 58ee e33c 5605 843d
00000060: 8184 9e3a aff9 78bc 4a8c 3f3d d810 45bc
00000070: 3108 82bd 1080 073d 8d72 543c f71d 32bc
00000080: b178 68bc d1b2 95bd 593f e1bc 7fef 8b3c
00000090: 1bdd 9dbc ae68 a3bd 8c28 20bd 7ae4 9bbd
000000a0: 657b df3c 79f4 b63c 8947 0e3d bc5b 1e3d
000000b0: 8209 ca3c 806f 88bd fd9e 4a3d 7df1 a43d
000000c0: 479b 9d3d 1135 27bc bd6f 2cbd f722 b4bc
000000d0: b473 2fbd 63ec e3bc 743d af3d 1dbb 9bbd
000000e0: ee38 823d 63bd 4cbd f636 8bbc 3b31 07bd
000000f0: eda8 40bd 121e 8d3d 6b0b 96bd 06c1 6ebd
00000100: ff7c c2bc dc9a 463d c499 7d3d 4183 893d
00000110: 990c 833d c306 a33d 8355 9bbd ba6b e53c
00000120: 1b80 54bd af48 9ebd e704 a83d c22e 11bd
00000130: 8cd7 b63d 164b 7bbd 190b cabc 709c 8a3d
00000140: 33c1 80bd e613 a23d 8b49 c5bb 09f1 98bd
00000150: 2b6c 143d 944b 17bd 7320 cb3c 5dec d13d
00000160: 1929 13bd 8e9d 873d 7f1d 963d 2af8 73bd
00000170: 2596 343d 93ec 49bc 3470 983c b5a1 6a3d
00000180: b800 46bd dea2 b73d 40a1 c53b fb23 143d
00000190: f5bb 413c 4b34 9e3c ae87 643d ba6b fcbc
000001a0: 26b3 b5bc 55d0 e7bb 2dd8 19bd cea7 1a3d
000001b0: b458 a7bd 5aab 2c3d 46c9 a63d f79c 44bc
000001c0: 0f57 263c 5f23 a03b 3d9a 74bd f9f0 a83d
000001d0: 2f44 9b3c e4fd 91bc 51b7 9dbc a447 febc
000001e0: 8a83 93bd cb17 7bbc 0950 733d 6878 bb3c
000001f0: 5c55 adbc 51d7 09bd 2048 91bc eb84 9a3b
00000200: f20d 4a3d f9e5 743d 9e17 5dbd bd48 e03c
00000210: b9d4 00bd f13d 033d 2f24 463d 8e32 463d
00000220: 8422 3dbc 2349 8e3d 666f ae3d 56c4 6ebc
00000230: 62d6 75bd 2851 843d 032a 3ebd 42f8 583d
00000240: 4798 ba3d fd27 f43c def6 2fbd a15e 5e3d
00000250: f2ff 2bbc a5c9 2dbd aa19 163d f218 783d
00000260: 19ca 65bd 1f30 12bd 8099 df3c c7d6 bd3c
00000270: bc35 fb3c de90 3dbc d0bc 983c 5b71 213c
00000280: 99dd b03d d228 bbbc 51da 803d 3727 2fbd
00000290: 8d86 acbd ad54 e4bb a47f 7abc 1939 5c3d
000002a0: 8c75 8d3d f22a 053d 99c3 ca3b be1c 3f3d
000002b0: 2353 ab3c e76f 823d 3c34 54bd cc8e 22bd
000002c0: 029f 33bd 6e94 143d 1536 313c ff86 62bd
000002d0: f5cd 84bd 4254 fe3c 8096 2c3d 6721 77bd
000002e0: 249f 1bbc e601 113d de58 32bd 1ccf 693d
000002f0: f79e 8d3d ad15 533c ef72 913c e7f1 923c
00000300: 38d7 bb3c e506 76bc c6d2 91bd 7d79 e83b
00000310: 2393 c7bc ddbf 7f3c 414f bf3c 2d33 91bc
00000320: da5d 223d eb8f 73bd a0c7 a13d 6e18 273d
00000330: 5f3d d13c 78fd 28bd 0e60 79bd 78bf 193d
00000340: d8e0 4d3d d48c 343d 54fe ce3d b56d 8c3d
00000350: 338e c93c a801 eb3b ed7b 7d3d 59da efba
00000360: e9d1 d83c 4ff9 123d 589f 34bc 4aa0 773d
00000370: 239b 7d3d 57ca cdbc bb8e 613d 7d4b bb3d
00000380: 79fa 013c 7fd4 46bc 23e2 d23b 5623 1d3d
00000390: 718d 913d 6a09 4f3b a2a7 0a3c 5110 25bd
000003a0: 9116 57bc 4364 96bd 3e23 a83c 710c 9038
000003b0: 27d6 e13c 19c0 c9bb a0a6 40bb 464c 6c3d
000003c0: 64d0 f5bc 31b6 b13d ff99 af3d 5c15 c73d
000003d0: 4569 85bd 5374 17bd 1c05 26bd d904 d4bc
000003e0: 5205 5d3c cd7c 8abb b4fa 503b e2a5 32bd
000003f0: 2cb2 b13d ca8b cabd 2ecb 673d b208 d93c
0.05532885 -6.5081214e-05 0.031578567 0.012366626 -0.06705875 0.07919402 -0.059118696 0.04398591
0.04970227 0.026639493 -0.0061161877 -0.026577428 -0.042256374 -0.048807114 -0.052304383 -0.04710059
-0.035728842 0.011824622 0.02941357 0.015148972 0.047868658 -0.0007188234 0.027823612 0.0644633
0.0012093933 -0.015196248 0.04676465 -0.012027942 -0.06349219 0.033081114 0.012966764 -0.010871402
-0.014188931 -0.07309497 -0.027496027 0.017081974 -0.01927047 -0.079789504 -0.03910117 -0.07611938
0.027280519 0.02233337 0.03473619 0.038661703 0.024662737 -0.06661892 0.04946803 0.08053873
0.076956324 -0.010205523 -0.04209875 -0.021989329 -0.042834952 -0.027822679 0.08556643 -0.076040484
0.06358515 -0.0499853 -0.01699398 -0.033005934 -0.0470361 0.06890501 -0.073263966 -0.05828955
-0.023741243 0.04848753 0.06191422 0.06714488 0.06398887 0.07960274 -0.075846694 0.02800547
-0.051879983 -0.07728707 0.0820406 -0.035444982 0.08927831 -0.061350904 -0.024663495 0.06768119
-0.0628685 0.079139516 -0.00602073 -0.07467849 0.03623597 -0.03693731 0.024795746 0.10250161
-0.035927866 0.06621848 0.07329845 -0.05956284 0.0440885 -0.01232447 0.01860819 0.057283122
-0.04834053 0.08966611 0.0060311854 0.036167126 0.011824598 0.019312045 0.055793457 -0.030813087
-0.022180151 -0.0070743957 -0.037559677 0.037757687 -0.08171216 0.0421556 0.081438586 -0.012000314
0.010152592 0.004887029 -0.059717406 0.08249087 0.01895341 -0.01782126 -0.019252451 -0.03104002
-0.072028235 -0.015325497 0.0594025 0.022884563 -0.021158867 -0.033652607 -0.017734587 0.004715552
0.049329706 0.05978963 -0.0539776 0.027378434 -0.031452868 0.032041494 0.04837435 0.048388056
-0.011543874 0.069475435 0.08517341 -0.014573177 -0.060018905 0.06460792 -0.046426784 0.052971132
0.09111076 0.029804224 -0.04296004 0.054289464 -0.010498034 -0.04242863 0.03664557 0.060570665
-0.05610094 -0.035690423 0.027294874 0.023173703 0.030665271 -0.011570184 0.01864472 0.009853686
0.086360164 -0.022846613 0.062916405 -0.042762008 -0.08424101 -0.006968102 -0.015289221 0.05376539
0.06907186 0.03251166 0.006187868 0.04665827 0.020913666 0.06369 -0.051807627 -0.039686963
-0.043852814 0.036274366 0.010816117 -0.055304524 -0.06484596 0.031046037 0.042135715 -0.06033459
-0.009498391 0.0354022 -0.04354178 0.05708228 0.06915086 0.012883586 0.017755 0.017937614
0.022929773 -0.015016292 -0.0712028 0.0070945607 -0.024362152 0.015609709 0.02335322 -0.017724598
0.039640285 -0.059463423 0.078994036 0.040794782 0.02554196 -0.04125735 -0.06088262 0.037536114
0.050263256 0.044079617 0.10107103 0.068568625 0.024603939 0.0071718283 0.061885763 -0.0018299326
0.02646728 0.03588229 -0.011024319 0.060455598 0.061915528 -0.025120897 0.05506776 0.091452576
0.0079332525 -0.012135624 0.006435649 0.038363777 0.07107056 0.0031591305 0.008462818 -0.040298764
-0.013127939 -0.07343342 0.020524617 6.8687725e-05 0.027567936 -0.006156933 -0.0029396191 0.057689928
-0.030006595 0.086773284 0.08574294 0.09720871 -0.06514219 -0.03697617 -0.040532216 -0.025881218
0.013490038 -0.004226303 0.0031887712 -0.04361523 0.08676562 -0.09889944 0.05659025 0.026493404

fc3.bias f4 [38]
00000000: 11de 743d e324 463c e5dd bdbc 6a50 8dbc
00000010: 63e8 023e 0e75 2d38 edb7 d93d 1493 8dbc
00000020: 143c f83d f353 0b3e 5d3d 8e3c b4f2 493d
00000030: bfe2 963c 919b 8a3d 7eb5 573d 94a6 c13d
00000040: 7682 943d ddae 793d c932 7b3d 0a90 f83d
00000050: 538b 633d b1ab a73d 8f0f 943d bf11 c1bc
00000060: 0784 13bc a005 963d 0138 703d 8fc3 7ebd
00000070: 1138 bb3d d65b df3b 1fed ba3d 0764 733d
00000080: 8ca0 8dbd be7c 0c3c c065 f63d f549 993d
00000090: 1667 32bd 9089 ac3d
0.05978209 0.012093755 -0.023177097 -0.017250258 0.12783961 4.135543e-05 0.10630784 -0.017282046
0.12120834 0.13606243 0.017363245 0.049303725 0.018418668 0.06767953 0.05266332 0.094556004
0.07251446 0.06095778 0.06132773 0.12136848 0.05555279 0.081870444 0.0722953 -0.023568032
-0.009003646 0.07325292 0.05864716 -0.062198218 0.09141553 0.0068163676 0.091272585 0.059421565
-0.069153875 0.008574663 0.12031126 0.07484809 -0.04355534 0.084246755
